clean_code/trained_models/actor_1161.pth (torch, 54884 bytes, 8 tensors)

fc1.weight f4 [128, 18]
000000 05 8f 21 3e 51 86 b6 3d c4 e4 1b be c0 84 45 3e
       0.15777214 0.089123376 -0.15223986 0.19288921
000010 73 36 ff 3d 61 d5 82 bd 19 aa 02 3d ce 07 d5 3c
       0.12461557 -0.06388355 0.0319005 0.026004698
000020 1f 80 c6 3d f6 37 88 bd 27 0d 14 be 16 5e b1 3b
       0.09692406 -0.06651299 -0.14458142 0.0054128272
000030 ad a8 5e 3e e2 46 a9 3d 3a 6e 17 3e 5a 8f 10 3d
       0.21744032 0.08265473 0.14788142 0.03529296
000040 5f 59 65 be e7 cf 82 3e 65 b2 10 3e 1e 84 2c 3e
       -0.22397374 0.25549242 0.14130552 0.16847274
000050 f7 b3 b4 3d f5 3b 9d bd df 7a 92 3d d9 0b 84 bc
       0.08823388 -0.076774515 0.07152342 -0.01611893
000060 9a f1 17 3e df 29 53 3e 85 fa ce 3d df 84 32 3d
       0.14838257 0.20621441 0.101063766 0.043583747
000070 8c 82 19 3e c2 fc 14 3e ba a7 2a be 24 32 0c be
       0.14991206 0.14549544 -0.16665545 -0.13691002
000080 1a 61 be bd 5a 5f 77 3d c5 2f 25 be 07 3c 28 3d
       -0.092958644 0.06039367 -0.16131504 0.04107287
000090 0c 19 1d 3e b9 6e b6 3d 74 80 14 be fe ab 81 3d
       0.15341586 0.089078374 -0.14502126 0.06331633
0000a0 1a 13 35 be f4 8f 0c 3d 6c 90 47 3e 32 43 1e 3e
       -0.17683068 0.034316972 0.19488686 0.1545532
0000b0 ac 57 76 bd e2 f5 31 be ff ad d3 bd bc 27 37 3e
       -0.060142204 -0.17378953 -0.103359215 0.17886251
0000c0 c4 e2 85 3e 82 69 c5 3d db be 81 3d 38 20 d5 bd
       0.2614957 0.09639265 0.06335231 -0.10406536
0000d0 d5 46 53 3e ef 8f 65 3d 25 ef 02 3e e7 94 20 bd
       0.20632489 0.05604547 0.12786539 -0.039204504
0000e0 a7 be 2b 3e 49 b4 d3 3c dc e2 3b be 18 5d 0a be
       0.16771947 0.025842803 -0.18348259 -0.13512075
0000f0 cd 27 45 be b8 f0 40 be e3 47 ff bd 33 0f 2a 3e
       -0.19253464 -0.18841827 -0.12464883 0.1660736
000100 6b 2e c7 3d 11 97 d5 bd 80 9e 55 3e 77 19 3e 3e
       0.097256504 -0.10429204 0.20861244 0.18564402
000110 b6 2b a3 bb d0 86 40 be f1 41 2a 3e 2f d7 82 bd
       -0.004979576 -0.18801427 0.16626717 -0.06388699
000120 2d cc 99 bd 90 39 70 3e af 0c 08 bd be f9 4e be
       -0.075096466 0.23459458 -0.03321522 -0.20212457
000130 c0 1e 5b 3e 07 a3 23 3e 7b 4c c3 bd 11 e2 85 3e
       0.21398449 0.15980159 -0.09536072 0.26149037
000140 40 83 db bc eb 9e 26 3d 36 57 88 3d 6f 9d cb 3d
       -0.026795983 0.0406789 0.06657259 0.099421374
000150 2d 41 cb 3c f4 29 06 be f4 9c 77 3e 91 18 2e 3e
       0.024811352 -0.13101941 0.24180967 0.17001559
000160 3f 89 0c be 05 75 59 3e c2 7f d2 3d a3 88 4d bd
       -0.1372423 0.21236046 0.10278274 -0.050179135
000170 23 87 34 3d 49 c8 43 3e 02 8d 76 3e 1d 47 cb bc
       0.04407419 0.19119371 0.24077228 -0.024814183
000180 ed 67 a5 bd 8c b0 c5 bb 92 78 ca 3d 38 aa 31 be
       -0.08076463 -0.006033009 0.09886278 -0.1735009
000190 22 84 95 bc 34 61 24 3e c2 28 36 be df ba 52 3e
       -0.018251482 0.16052705 -0.17788985 0.20579098
0001a0 a7 9e 26 be 4f 9b 50 3e 2a f4 83 3d 74 de 54 3e
       -0.16271459 0.20371746 0.06443055 0.20787984
0001b0 8e b2 0f 3e f8 c2 7e be 84 f7 13 3e c4 0a 0a be
       0.14032957 -0.24879062 0.14449888 -0.1348067
0001c0 0d ec bd 3d 71 da 2e 3e 8a 2a 33 3e 15 47 a1 3d
       0.09273539 0.17075516 0.17496696 0.07874886
0001d0 d9 b9 37 be 9b 42 76 bb 9d e8 69 be 20 aa d2 bc
       -0.17941989 -0.003757632 -0.22842641 -0.025715888
0001e0 08 4b 65 be 60 a7 1f bc 56 29 04 be 1d 90 52 3d
       -0.22391903 -0.009744495 -0.12906393 0.05140697
0001f0 d0 97 79 be 8b 08 10 bc 36 45 00 3d 65 b2 1f 3e
       -0.24374318 -0.008791099 0.031316005 0.15595396
000200 8b 36 51 be a6 4b 54 be f9 61 07 be 32 e3 b7 3d
       -0.20430963 -0.20731983 -0.13220967 0.08978881
000210 ef 13 56 3e 04 cf 00 be 69 9d 35 3e 2e 22 3d be
       0.20906042 -0.1257897 0.17735828 -0.1847007
000220 84 84 32 3e d6 c6 37 3e ac ab ae bc c8 f3 c9 3c
       0.17433363 0.17946944 -0.021322094 0.024652377
000230 67 21 13 3e 41 6f d5 3b 89 a5 4e 3d d7 f2 18 be
       0.1436821 0.0065135066 0.050450835 -0.14936386
000240 9c 04 37 bb 4e 12 b5 bd 81 e2 96 bd c1 25 2b 3e
       -0.0027926331 -0.08841382 -0.07367421 0.1671362
000250 20 d7 8b bd 8c 60 72 be 26 2c d8 bd 7c a1 42 be
       -0.06828141 -0.23669642 -0.10555296 -0.19006914
000260 2e 6f b5 3b 69 f0 60 be 69 65 d5 bd 40 ac 7e be
       0.0055369353 -0.21966709 -0.10419733 -0.24870396
000270 08 f2 22 3e 97 ab 57 be cb 36 d3 bd 6a 82 46 be
       0.1591264 -0.2106155 -0.10313185 -0.19385687
000280 f1 f7 13 3d a9 17 1f 3e ec d2 1d 3e 60 f6 66 3e
       0.036125127 0.1553637 0.15412492 0.22554922
000290 89 4f 6b 3e 22 97 8e bd 7b 2a fe 3d e4 29 5f be
       0.22979559 -0.0696242 0.12410446 -0.21793324
0002a0 e4 b6 68 3e b7 91 13 3e d1 61 7c bd 0d 69 54 3e
       0.22726017 0.14411055 -0.061616722 0.20743199
0002b0 5d 38 d2 3d 23 01 6e 3e d8 7d 29 3e 4f ba f4 bd
       0.10264657 0.23242621 0.16551912 -0.11949598
0002c0 75 e5 8d bd 26 15 5f 3e 38 0d 33 be 41 ab bf bd
       -0.06928531 0.21785411 -0.17485511 -0.09358836
0002d0 dc ef f7 bd 84 e0 48 be dd 68 20 be 1a 08 47 be
       -0.121062964 -0.19616896 -0.15665002 -0.19436684
0002e0 fa dc c1 3d 2b 6c c5 3d 69 b7 4e bc d7 c5 d9 3d
       0.09465976 0.09639772 -0.012616971 0.10633438
0002f0 cd 5e 35 3c 85 9f a7 3c a2 40 c2 bc c1 cc 8a 3d
       0.011069966 0.020461807 -0.02371246 0.06777335
000300 35 57 3a be f0 c4 6e bd c0 fd 61 be 2d 8c 36 be
       -0.1819733 -0.058293283 -0.22069454 -0.1782691
000310 58 e1 f7 3d 60 a4 06 3d 36 ed 4c bd 80 59 4b 3e
       0.12103528 0.032871604 -0.05003091 0.1985836
000320 cf ba c5 bc e0 f5 f5 bd b8 c3 ec bd 18 4f 50 3e
       -0.024136929 -0.120097876 -0.11560768 0.20342672
000330 59 c4 a1 3d 02 a6 43 3e 6e e6 34 3d 3b 93 93 bd
       0.078987785 0.19106296 0.044165067 -0.07205816
000340 a1 b9 ff 3d bd 12 e0 3d 7c 3e 3d ba 68 11 09 bd
       0.12486578 0.10941074 -0.0007219089 -0.033463866
000350 3a d3 ce bd f0 e7 01 3e d1 94 2d be ae 72 6c 3e
       -0.10098882 0.12686133 -0.169513 0.23090622
000360 99 e2 d5 bd f0 90 b0 bd 31 fe 0e 3e a6 01 e8 bd
       -0.10443611 -0.08621395 0.13964154 -0.113284394
000370 59 e4 57 be 6b 95 33 bd 55 b9 5b be c2 eb 8d 3c
       -0.21083201 -0.043843668 -0.21457417 0.017324332
000380 b0 82 42 be 76 db 31 be 4a d1 25 bd 1d 9e 3b 3e
       -0.18995166 -0.17368874 -0.040482797 0.18322034
000390 d6 29 12 be c0 57 4c bb 85 a0 9a 3d bd 73 e0 bd
       -0.14273772 -0.0031180233 0.07550148 -0.10959575
0003a0 50 f8 11 3e 0b fa 17 3e 68 94 89 3e 03 78 af bd
       0.1425488 0.14841478 0.26871037 -0.08567812
0003b0 ae d0 a1 3d 3a a3 53 bd f5 ce b9 3c 4e c1 7e 3d
       0.079011306 -0.051669337 0.022681693 0.06219607
0003c0 48 f5 5c 3e f4 66 61 3e 8e 81 34 3e 73 26 7d 3e
       0.21577942 0.2201193 0.17627546 0.24721698
0003d0 e8 ab ec bc 7a 92 7d 3d f3 16 38 be 6f ac fc bd
       -0.028890565 0.06190727 -0.17977504 -0.123375766
0003e0 62 9a 89 3c 85 03 24 3d 2f dc 4d bc 9b e1 a4 bd
       0.016797248 0.04004242 -0.012564703 -0.08050843
0003f0 52 0f 64 3e 74 36 5a bd 33 ae 01 3c 87 5f 07 3d
       0.22271469 -0.053274587 0.0079150675 0.033050086

fc1.bias f4 [128]
000000 e3 23 1c 3e c7 28 25 3e a2 d2 26 3e 04 44 3b 3e
       0.15248065 0.16128837 0.16291288 0.18287665
000010 58 58 c2 3c ad a2 ac 3d a3 b0 2b 3d b7 ed c3 bd
       0.023723766 0.084294654 0.0419165 -0.09566825
000020 85 19 d7 3d ad 8a 36 be 29 b3 5f be c6 43 75 3e
       0.10502914 -0.17826338 -0.21845688 0.23951635
000030 2a b0 20 3e 0e 02 6d bd a3 ab b6 3d 45 5c 6d 3e
       0.15692201 -0.057863288 0.08919456 0.2317973
000040 b3 32 59 3c ca 34 59 3e b1 a3 22 be 02 49 ca 3d
       0.013256717 0.21211544 -0.15882756 0.098772064
000050 8f 49 36 3e 82 b1 a8 3d cb 75 20 be 27 8d c1 3c
       0.17801498 0.08236982 -0.15669934 0.023626877
000060 02 f4 4e be 70 88 dc 3d d5 5a 9f 3c 75 0e 42 3e
       -0.20210269 0.10768211 0.019452492 0.18950827
000070 4e 8f b6 bd 35 f6 81 3d c8 41 a6 bb 6a 6b 49 be
       -0.08914052 0.063457884 -0.0050737597 -0.19669881
000080 05 dc 7a 3d 9e 05 80 3e 5b 4c bd 3d c3 fb b8 bd
       0.061244983 0.25004286 0.09243079 -0.09032395
000090 43 89 ef bd 01 95 20 3c ca 03 8c 3e 77 50 1d be
       -0.116961025 0.00980115 0.2734664 -0.15362726
0000a0 ab 67 af 3c 9c 54 3e 3e b9 40 33 be 26 f4 81 3e
       0.021411737 0.18586963 -0.17505158 0.25381583
0000b0 da 59 a7 bd 2d 8f 51 3e 24 7e 87 3e 46 7b 34 3e
       -0.08171435 0.20464773 0.26463425 0.1762515
0000c0 57 2a 84 3e 40 bd 13 be 6c bb e2 3d e7 06 4f bd
       0.25813553 -0.14427662 0.11070904 -0.050543692
0000d0 6e c6 18 be 19 a8 87 be 99 e6 48 bd 97 81 89 3e
       -0.14919445 -0.26495436 -0.04904804 0.26856682
0000e0 d6 c0 92 3c 18 44 7d 3e 04 3c 41 be 96 b8 1c bc
       0.017914217 0.24733007 -0.1887055 -0.009565493
0000f0 9f 2b 45 bd cd 2a 81 3e 12 e3 b9 3c 5c ad 1f be
       -0.048137303 0.25227967 0.022691283 -0.15593475
000100 0c 08 eb 3d 1b a4 62 be e4 85 bb 3c 90 e3 b6 3d
       0.11476144 -0.22132914 0.022890992 0.08930123
000110 ed 34 8c bd a5 2e 29 3e 42 a7 82 3e 38 d3 a5 3d
       -0.06846032 0.165217 0.25518233 0.080969274
000120 f5 ee 0e be 56 8a 5f 3d 2f b4 36 be dc ca 18 3e
       -0.13958342 0.054575287 -0.17842172 0.14921135
000130 53 2e 33 3e cb d5 5a bc 36 82 62 3e d3 55 14 3e
       0.1749814 -0.013356636 0.22119984 0.14485864
000140 33 4a 4e 3d 14 4c 28 be bd 93 78 be 86 fa 2a be
       0.05036373 -0.16435272 -0.24275108 -0.1669713
000150 8a 60 be 3d 55 3f 0a 3e 18 51 be bd e6 ba 89 bd
       0.09295757 0.13500722 -0.09292811 -0.06725101
000160 0e 0d db bd 91 83 e6 38 a3 80 0d 3e e1 d4 82 bc
       -0.10695849 0.00010991761 0.13818602 -0.01597065
000170 b9 6d b6 3c ba a1 69 3e 75 39 53 3e ac a6 89 be
       0.022269117 0.228156 0.20627387 -0.26884973
000180 bb ac e7 3d c7 2b 58 be 1a eb 51 be a7 95 39 3d
       0.113122426 -0.2111045 -0.2049984 0.045308735
000190 c0 b8 27 3e 53 6a 4d be e7 c1 24 3e b3 79 7b bd
       0.1637907 -0.2006009 0.16089593 -0.06139536
0001a0 99 ce 06 3e 3e 19 57 3e 30 4e 11 3d 81 1c 25 be
       0.13164748 0.21005723 0.035474956 -0.16124155
0001b0 45 97 25 3e 7a dc 0c 3e aa cb c2 bd 71 21 f9 bc
       0.16170986 0.1375598 -0.09511502 -0.030411454
0001c0 4f 6f 14 bc 19 6b 5e 3e fd 44 2a be e0 b5 82 3e
       -0.009059741 0.21720542 -0.1662788 0.25529385
0001d0 6e 45 13 be a6 4e 2e be f8 f4 26 be ab d9 5c 3e
       -0.14381954 -0.1702219 -0.16304386 0.21567409
0001e0 b2 ac 84 3d d7 82 ff 3c 7b 3d 32 3e 6c 34 80 3d
       0.064782515 0.031190319 0.17406265 0.06259999
0001f0 29 2e 72 be 01 14 3b 3e 49 6c be 3d af 3c 16 be
       -0.23650421 0.1826935 0.092979975 -0.14671586

fc2.weight f4 [64, 128]
000000 5b bc 92 3d 5c 2a f1 bc 7d 71 b9 3c 50 e4 ad bb
       0.07164832 -0.029439144 0.022637123 -0.005306758
000010 41 9d 65 3d 35 93 67 3d 07 5f 6b 3d e4 97 3d 3d
       0.056058172 0.056536872 0.057463672 0.046287432
000020 d1 cc b5 3b 84 9c d6 bc 5f 6d 47 3c c7 d5 99 3d
       0.0055480977 -0.02619768 0.012172072 0.07511478
000030 78 cc f8 bc 22 ee a3 3b de c4 19 3d 19 97 c0 3c
       -0.030370936 0.005002753 0.037541263 0.023509549
000040 8a a6 0a 3c 6d 02 11 3c f4 ef 31 bd 90 0f 0f 3d
       0.008462558 0.008850676 -0.043441728 0.03492695
000050 c0 6f 01 3d 13 92 bf bd 00 77 64 3d 42 6c 6e bd
       0.031600714 -0.09354033 0.05577755 -0.05820871
000060 31 7b a5 3d ed 74 d2 3c af ef 82 bb 6e 7b aa 3d
       0.080801375 0.02569052 -0.0039958577 0.083243236
000070 7c 3c f0 bd 20 02 83 bc f7 9f 45 3d ea 9a 3e 3d
       -0.117302865 -0.015992224 0.048248257 0.046534456
000080 ef 9f 1b bd 21 f2 2a 3d c4 29 9b bd 65 35 b4 3d
       -0.03799432 0.04173482 -0.075763255 0.08799247
000090 24 a8 83 bd 6f 98 3a bc ab 45 0e bc 0e 10 90 3d
       -0.06428555 -0.011388882 -0.008683602 0.07034312
0000a0 09 f2 cd 3d 04 fb 1f 3d 58 ce 57 bd 2d f9 88 3b
       0.1005593 0.039057747 -0.05268702 0.0041800947
0000b0 15 15 d2 bd 45 b0 d3 3d ec d9 ea 3c 16 0b 06 bc
       -0.10257927 0.10336355 0.028668366 -0.008181354
0000c0 12 95 60 3d 83 cb 8f 3d 86 e5 fe 3b 55 8c 89 bd
       0.054829665 0.07021239 0.007778826 -0.06716219
0000d0 25 8e f0 3c 5a 2d 69 bd b2 ca 72 3d 6b 27 eb bc
       0.029364655 -0.056928016 0.059275337 -0.02870532
0000e0 2c 1f a2 bc 25 94 a5 bc 68 eb 96 bd 76 5b b9 3c
       -0.019790255 -0.020212242 -0.07369119 0.02262662
0000f0 72 87 b4 3d cf 57 57 bd 95 f8 67 bd d7 b3 25 3d
       0.08814897 -0.052573975 -0.05663355 0.04045471
000100 b1 e8 0d 3d da 97 da 3c 4e ee 9e 3d f2 71 92 bd
       0.03464574 0.026683737 0.07760297 -0.071506396
000110 30 40 7d bd 10 64 76 bd 86 04 14 3b 44 b2 83 3d
       -0.061828792 -0.06015402 0.0022585704 0.06430486
000120 a3 58 4d bd 5b 35 99 bc ba 53 5d 3c ce 4f 65 3c
       -0.05013336 -0.0187022 0.0135087315 0.013996078
000130 fb 16 73 3d 7e e1 0c bd 4b 48 cd 3d 82 96 9e 3d
       0.059348088 -0.034394734 0.100235544 0.07743551
000140 c8 fc b3 bc e0 35 31 bd 93 35 bb bd af 52 80 bd
       -0.021971121 -0.04326427 -0.09141078 -0.06265771
000150 9b c7 b2 3b 8c 19 af bd 86 02 e3 bd d2 d5 46 3d
       0.0054559237 -0.085497946 -0.11084466 0.04854376
000160 40 52 9f bd 16 6a 31 3d be 54 3a 3d 2a 54 87 3d
       -0.0777936 0.043314062 0.045490973 0.0660785
000170 56 e9 83 3c 19 4b ca ba 37 9e 02 3e 3b 1a 6d bd
       0.016102474 -0.0015433758 0.12755667 -0.057886343
000180 19 80 bc bb ba 4e 80 ba 21 2b e7 bd 75 aa 32 3d
       -0.005752575 -0.0009789087 -0.11287523 0.04361959
000190 6c e4 a6 bc 3d 61 35 3c 91 3b e1 3c 02 f8 c0 bc
       -0.020372592 0.011070547 0.027494224 -0.02355576
0001a0 8e a3 03 3d ae e5 eb bc 76 ab 54 bc b8 ad ac bd
       0.0321384 -0.028796043 -0.012980333 -0.08431572
0001b0 e0 81 08 bd 54 c0 02 bd bc 91 dc bd eb 57 56 bd
       -0.033326983 -0.0319217 -0.10769984 -0.05232994
0001c0 c4 62 40 bd 1c c6 36 3d 51 86 61 bc e1 6a b0 3d
       -0.04696919 0.044622526 -0.013764934 0.086141355
0001d0 9b 89 be bd be 51 08 3d bb e8 ac bd 59 49 85 3d
       -0.0930359 0.03328108 -0.08442827 0.065081306
0001e0 28 5d 94 3d 1d 3e 22 3d 26 95 e2 3c 2b 2f 52 bd
       0.07244331 0.039610017 0.02765901 -0.051314514
0001f0 b9 e9 13 3d 44 50 cb 3d 64 da 7e bc 40 b3 a2 bc
       0.036111567 0.09927419 -0.015554998 -0.019860864
000200 88 67 d0 3d cd 7a cf 3d c1 a2 e1 3d 75 b4 91 bd
       0.10175997 0.10130844 0.11017371 -0.071144976
000210 50 04 9a 3d ac 1e 64 3c 05 a2 9b bd 69 db c1 3d
       0.07520354 0.013923328 -0.07599262 0.09465677
000220 57 32 72 bd 51 84 29 bc 52 0b b8 bd 8b 2b 94 3c
       -0.05913004 -0.010346488 -0.08986534 0.01808717
000230 4f a9 ff bc 47 b0 d5 3d 5d cc 56 3d 65 6e 91 3d
       -0.031208662 0.10434013 0.05244099 0.07101134
000240 a6 e6 62 3d 91 10 59 3d 9d a4 86 3d 16 08 22 3d
       0.055395745 0.052994315 0.06574366 0.039558493
000250 d5 d7 17 3d d1 5b 95 bd a6 13 f8 3c fa fb 7b bd
       0.037071068 -0.07292903 0.030282807 -0.0615196
000260 3d f4 8b bb 74 d3 6f bd c4 bb b9 3d ea fe cf 3c
       -0.004271059 -0.058551267 0.090690166 0.025390107
000270 ad be ea bd 36 89 cb bd eb 90 85 3d e3 0d 29 3d
       -0.1146215 -0.0993828 0.065217815 0.04127301
000280 81 c2 d1 3d 00 03 08 3d 2f d9 bf 3c 2d ed af 3c
       0.10242177 0.033205986 0.02341899 0.021475399
000290 18 6c e0 bd 5c 1a 57 3d 45 5a 0a bd 7c 6e a4 3c
       -0.10958117 0.052515373 -0.033777494 0.020072214
0002a0 7a 19 70 bd 64 a6 98 bb 34 27 a3 3c 0a d0 1b bd
       -0.058618046 -0.004658507 0.019916154 -0.0380402
0002b0 74 39 cd 3c f7 d8 8e 3d 35 cf f2 3c 08 20 22 3d
       0.02505181 0.069749765 0.02963982 0.03958133
0002c0 f0 75 8f 3d a5 e1 97 bd 10 c0 db 3d b8 d1 17 bd
       0.07004917 -0.07416085 0.107299924 -0.037065238
0002d0 a1 b2 5d 3d bc 64 a5 bd 1b 50 a0 bd 25 9e 88 3d
       0.054125432 -0.08075854 -0.07827779 0.06670789
0002e0 6f da 8d 3c 87 79 e0 3d 97 54 fe 3c e3 ac 61 bd
       0.017316071 0.109606795 0.031046195 -0.05509652
0002f0 b0 e0 71 3d cf 10 a3 3d a4 1c da 3c 50 6d ec bc
       0.05905217 0.0796219 0.026624985 -0.028860718
000300 4d ed 68 bb 4b 66 95 bd d0 10 9e 3d 7e eb 00 3d
       -0.0035541833 -0.072949015 0.077180505 0.031474583
000310 47 c4 9a bc e5 74 8b 3d eb 15 44 bd ad 2d 88 3d
       -0.01889242 0.06809405 -0.047872465 0.06649337
000320 8c ad bf bb 01 75 7c bd 48 ba bf bc 6d a4 81 3b
       -0.005849546 -0.06163502 -0.023404256 0.0039563687
000330 b3 2d 95 bd bb 41 08 bd be ff e5 3b 0f 9e 87 3d
       -0.07284107 -0.03326581 0.0070190122 0.06621944
000340 eb 28 b6 bd 98 44 09 bd 9a 07 4d 3d be 1f a2 bd
       -0.08894523 -0.03351268 0.050056078 -0.079162106
000350 6c 5d f3 3b d9 1b 0e 3d cc 52 ea 3c 95 62 3d bd
       0.0074269082 0.034694526 0.028603934 -0.046236593
000360 db 8c 42 3b 0f bb 18 bd b8 70 1c bc f8 47 42 3d
       0.0029686007 -0.037287768 -0.009548359 0.047431916
000370 d0 48 0f 3c 58 db b3 3d 50 bc ba 3d 03 1c 1a 3d
       0.008745387 0.08782071 0.09117949 0.03762437
000380 c1 6e 7d bd ff d6 04 bd 33 b8 4a bd 06 36 cd 3c
       -0.0618732 -0.0324316 -0.049492072 0.025050174
000390 41 c6 f6 3c 62 20 e9 bc 4a 12 88 3d 64 55 82 bd
       0.030123832 -0.028457824 0.06644113 -0.06363943
0003a0 e2 6b 7c bd d0 f1 18 bc 1c e6 c1 3b e9 1b 4b bd
       -0.061626323 -0.009334996 0.0059173238 -0.049587164
0003b0 1d 9e 75 3c 92 f2 37 3d 08 d5 a1 bd 81 4d c7 3d
       0.01499131 0.044909067 -0.079019606 0.097315796
0003c0 7d ff a5 3c e8 b3 1d bd d9 a8 9c 3d 1b 73 0f 3d
       0.020263428 -0.03850165 0.07649393 0.035021883
0003d0 b0 06 f7 bc 58 2c c9 3d 4d a5 d7 3c bd ba a0 3b
       -0.030154556 0.09822911 0.026323939 0.0049050734
0003e0 ab 37 63 3d 0e e0 00 3d 4c 79 bb bc cf a4 76 bc
       0.05547301 0.031463675 -0.022884987 -0.015053942
0003f0 6a 0d 04 bd 2c 89 28 bd a1 8e ea 3c ac 97 0c 3c
       -0.032239355 -0.041146442 0.028632464 0.008581083

fc2.bias f4 [64]
000000 60 ef 01 3d cd 5d 14 3c 77 b1 63 bd 90 f8 39 3d
       0.031722426 0.009055567 -0.055589166 0.045403063
000010 31 1b bb bd 23 a4 bf bc b1 5c 06 3d af 47 cb 3c
       -0.09136046 -0.023393696 0.03280324 0.024814455
000020 34 f9 d3 3d 9f b4 d5 bd 78 ac c3 3c 57 ab 53 bd
       0.10350266 -0.10434841 0.02388595 -0.051677074
000030 db 30 3f bd ca 07 84 bc d4 b6 e0 3c a6 d8 65 bd
       -0.04667745 -0.016116995 0.02743093 -0.056114815
000040 d2 fb dd 3d aa 1b 6b 3c 38 4e 87 b9 11 e6 23 3d
       0.108390465 0.014349857 -0.00025807484 0.04001433
000050 80 6c 82 3c 64 ad 8a bd 9d 51 8b 3c bf 43 63 bd
       0.015920877 -0.06771353 0.01700669 -0.05548453
000060 a4 a4 ae bd 02 7a 2d bd dc 28 cb bd ba 14 ab bd
       -0.085274965 -0.042352684 -0.09919903 -0.08353563
000070 b3 3a 97 ba b4 99 7f 3c 20 3e 3b 3b a0 65 5d bd
       -0.001153788 0.0156006105 0.0028570965 -0.054051995
000080 ea a3 b0 3d 7a f6 9b bd 5a 5a 95 bd 0d c3 92 bd
       0.08625014 -0.07615371 -0.07292624 -0.07166109
000090 a4 0d 54 bd 34 e9 b0 bd 95 42 c7 3c 4a f1 7b bd
       -0.05177082 -0.0863823 0.024323741 -0.061509408
0000a0 37 00 2a 3c 26 02 44 3d 51 b9 1d 3d e1 19 83 bd
       0.010376028 0.04785361 0.03850681 -0.064014204
0000b0 ae aa 9f bc 6f d7 e9 3c 5a 64 e1 3d f4 47 a5 3c
       -0.019490566 0.02854511 0.11005469 0.020175911
0000c0 f4 2b 41 3d 85 cc b8 bd dd 2f 83 bd d8 a3 2c ba
       0.047161058 -0.09023384 -0.064056136 -0.0006585694
0000d0 ac c5 90 3c b3 bc 9e 3c 34 60 6c bd 28 5c 05 3d
       0.017672382 0.019377088 -0.057708934 0.03255859
0000e0 c6 15 0c 3d 22 ef 1e 3c c7 8f cf bd fa 1e d2 3d
       0.034200452 0.009700568 -0.10134845 0.102598146
0000f0 33 55 8f bc 36 e7 cf 3d ad 3b 86 3b db 7b 2d bc
       -0.01749668 0.10151522 0.0040964694 -0.0105886115

fc3.weight f4 [32, 64]
000000 f7 8d 07 be d2 9d 1a bd 21 94 90 bd d6 48 10 3e
       -0.13237749 -0.037748165 -0.07059503 0.14090285
000010 39 f7 b5 bd ec 1b 03 be 80 d9 45 3d b7 94 05 be
       -0.088850446 -0.1280362 0.048303127 -0.13045011
000020 ef 68 4f 3d 8f 28 1b bc 9e 62 12 3e 81 df 18 bb
       0.05063718 -0.009470119 0.14295432 -0.0023326578
000030 e9 cd 4b bd 54 b0 98 bd 07 08 e7 bc d6 87 c9 bd
       -0.049756918 -0.07455507 -0.02820207 -0.09840362
000040 25 f5 39 bd 7e 79 a3 bd 10 e5 a3 bb 08 c7 00 3e
       -0.045399804 -0.07982157 -0.0050016716 0.12575924
000050 78 c3 10 bc df 79 8f 3d 60 dd 53 bd 91 66 80 3d
       -0.008835666 0.07005667 -0.05172479 0.06269563
000060 fa 29 a2 bd e1 a6 20 bd dd 09 aa 3d 29 df a4 3c
       -0.07918163 -0.039221648 0.083026625 0.020125942
000070 3a 50 7b 3d 23 1e c9 bd b4 55 08 be 0d 3e 06 3e
       0.061355807 -0.09820201 -0.13313943 0.13109608
000080 1f 79 48 bd dd 1a 93 bd 52 d9 b2 3d d3 37 ca 3d
       -0.048943635 -0.07182858 0.08732857 0.09873929
000090 c3 6f f8 3d a9 ab a8 3d c0 bb f1 3c 2b 12 e0 3d
       0.12130692 0.082358666 0.029508471 0.10940965
0000a0 39 1a de bd 8d fc df 3d d7 15 b1 3d 9e 45 62 3d
       -0.10844845 0.10936842 0.08646744 0.055242173
0000b0 60 58 d2 bd 42 8e d3 3d ca b9 13 be 56 86 00 3e
       -0.102707624 0.10329868 -0.14426342 0.12551245
0000c0 c0 b4 ef bd 12 26 a7 3d 3c d2 b0 bd b4 b4 15 be
       -0.11704397 0.08161558 -0.08633849 -0.14619714
0000d0 b3 f4 ca 3d 34 80 31 3c 76 88 15 bd 04 0c 72 3d
       0.09909954 0.010833789 -0.036507092 0.05909349
0000e0 cd 53 ab 3d 09 db 86 bd c4 96 81 3d 6e 2c 7b bb
       0.08365593 -0.065847464 0.063275844 -0.0038326043
0000f0 84 41 9e 3d 49 1d 9e bd a7 e3 81 bd 3e 85 8d bd
       0.0772734 -0.077204295 -0.06342249 -0.069101796
000100 37 0b 34 3d b0 9c 4d 3d b0 1d b8 bd 5c 6f 2e bd
       0.043956008 0.050198257 -0.089900374 -0.04258667
000110 59 c4 34 3c 57 db ca 3d 6b a0 29 3e f3 1a 1a 3e
       0.011033141 0.09905117 0.16565101 0.15049343
000120 bf ab 2c 3c 54 f9 f7 bd dd ce 21 3e fe 22 54 3d
       0.010538994 -0.121081024 0.15801568 0.051791184
000130 0d 5d 3b 3d fe da 67 3c ef 21 08 bc 40 14 0f 3d
       0.045743037 0.014151333 -0.008308872 0.03493142
000140 f5 51 95 3d d0 dc 79 3c e4 da 17 3e 54 2d 44 bd
       0.07291023 0.0152504 0.14829594 -0.04789479
000150 15 74 4d 3d c7 f6 d5 3c 6a fe b3 3d 51 3a a6 bc
       0.050159533 0.02611865 0.0878876 -0.02029148
000160 4c 5d 5c 3c cc f4 ff bd 66 ac 68 3d 87 17 ac bd
       0.013449978 -0.12497863 0.056805037 -0.08402925
000170 59 c4 f6 bb a9 f9 a0 bb b9 07 f3 bd 26 05 5b 3d
       -0.0075307307 -0.0049125743 -0.11866707 0.053471707
000180 c5 d1 24 3d 89 8e 20 3d 43 65 0a 3d c3 65 40 bd
       0.040239114 0.039198432 0.033787977 -0.046972048
000190 7f ea 95 bb 5f 2f 1d be 84 a1 23 3e ef 34 0d be
       -0.0045750733 -0.15350102 0.15979582 -0.13789724
0001a0 35 cf ab 3d a8 ba 3e bd b6 94 ad bd e8 f7 17 bd
       0.08389131 -0.046564728 -0.0847563 -0.037101656
0001b0 50 18 b3 3c 9e e8 d3 3d 92 6e 3e bc 04 40 12 be
       0.021862179 0.103471026 -0.011623042 -0.14282233
0001c0 06 61 2a 3e 3b 49 ea 3c 24 26 9c 3d 53 c5 08 3d
       0.16638574 0.028599372 0.07624462 0.033391308
0001d0 40 2a 23 be 2a 7a 72 3d c9 31 fd 3d 90 91 9b bd
       -0.15934086 0.059198536 0.123630114 -0.07596123
0001e0 83 bd e3 3c a5 c6 09 bd 0d 4e a8 ba ef 3a f9 3c
       0.027800327 -0.033636708 -0.0012840644 0.03042361
0001f0 17 d5 2b be eb d6 19 3e 70 39 5c 3d 94 72 52 bd
       -0.16780506 0.15023391 0.053765714 -0.0513788
000200 40 ec 05 be cd ad 67 bd 72 ec f5 3d 2a f0 0f 3d
       -0.13078403 -0.056562234 0.12007989 0.035141148
000210 ee 0a 43 bc 18 c6 db 3c b2 b2 14 be d4 d9 e5 bb
       -0.011904461 0.026827857 -0.14521292 -0.0070144925
000220 62 2c e1 bc 9c fa 94 3d 0a de 79 3d 5d cc 8d 3d
       -0.027486984 0.072743624 0.06100277 0.06923745
000230 92 26 68 bc a9 59 bd 3d 76 73 03 3e 96 5b 6c bb
       -0.014169352 0.09245617 0.12837014 -0.0036065332
000240 20 f6 10 bd e4 69 94 bd f2 9d 8c 3b 0b 48 9e 3c
       -0.035390973 -0.072467595 0.0042912895 0.019321462
000250 a5 2d 59 3c 1a d7 0a 3e 1c de 71 bd 96 8f a5 3c
       0.013255511 0.13558617 -0.05904971 0.020210069
000260 77 34 cf 3d dc e4 26 3d 3c c9 ac bd 6d 99 49 3c
       0.10117429 0.0407456 -0.0843682 0.012304646
000270 20 fc 13 3d b4 da 12 bd a7 a3 a4 3d 4a 92 e7 bd
       0.036129117 -0.035853103 0.08039027 -0.11307199
000280 90 1b 24 bd 66 32 dc 3c 01 5e d0 bd 87 4d 8b 3d
       -0.04006535 0.0268795 -0.1017418 0.068018965
000290 61 f5 c4 3d 8c 5f 0f 3e 00 6f 0a 3b 6c 50 00 3e
       0.09617115 0.14001292 0.002112329 0.12530679
0002a0 15 2e e4 bd 21 e3 19 bd de 2d 75 bd 87 5f 8e bd
       -0.11141602 -0.037570123 -0.059858195 -0.06951814
0002b0 90 a1 6c bb c2 0b bb bd 7f f2 11 be 5b e3 15 bb
       -0.003610704 -0.09133102 -0.14252661 -0.002287111
0002c0 a4 cc a2 bd 8f 83 21 bd 69 f6 ce bb 2a 93 ca bd
       -0.07949188 -0.039432105 -0.0063159955 -0.098913506
0002d0 10 46 1f bd 9e d7 bf bc be 29 09 be 05 e6 34 bd
       -0.038885176 -0.023418244 -0.1339483 -0.044164676
0002e0 02 da 12 be bc 94 eb bc dc 4b 5e 3d dc 40 0a be
       -0.14340976 -0.028757446 0.054271564 -0.13501304
0002f0 8c f7 14 3d 46 65 06 be 30 92 af bd d5 46 f3 bd
       0.03636889 -0.1312457 -0.08572805 -0.118787445
000300 da 45 ce 3c 43 91 0a 3e 6d 63 c0 bd df a0 2d 3d
       0.025179792 0.13531975 -0.09393964 0.042389747
000310 84 67 21 bd 63 9c 8b 3d fe c2 48 3c d4 72 9b 3d
       -0.03940536 0.06816938 0.012253521 0.07590261
000320 d2 ae 83 3d 80 c7 15 ba 79 16 59 3c d9 05 b9 bc
       0.06429829 -0.0005713627 0.013249987 -0.022585796
000330 16 94 fc 3c d0 89 79 3d 7e d4 66 3b c1 fe 91 bc
       0.030832332 0.060922444 0.003522187 -0.017821671
000340 d0 04 18 3e 03 50 0a 3e 77 78 57 bd 87 57 96 3c
       0.14845586 0.13507085 -0.05260512 0.018352283
000350 37 57 39 3d fd 24 1f be dc cb 1d 3e 9c d1 f3 bc
       0.04524919 -0.15541454 0.15409797 -0.029763035
000360 a7 50 e9 bd bf 0c 4e bd 41 0a c4 bd da 57 5e 3d
       -0.11392336 -0.050305124 -0.09572268 0.054283
000370 bb 05 77 bc 03 dd fe bd c3 81 53 3d 88 04 ea 3d
       -0.01507705 -0.124444984 0.051637422 0.114266455
000380 62 b2 8b bd c7 77 12 be 67 a4 5d bc 9c 95 15 be
       -0.06821133 -0.14303504 -0.013527966 -0.14607853
000390 64 8d a9 3c b9 b2 f9 bb 24 04 8f 3a 61 ba 9f 3d
       0.020697303 -0.0076201824 0.0010911268 0.07799221
0003a0 be 1f 56 bd 5f 84 2e bd e2 28 e1 3b 21 16 bc 3d
       -0.052276365 -0.042606708 0.0068713287 0.09183908
0003b0 09 ea cc bd ad 2f 14 3e f7 ee 57 3d 4d c6 27 bd
       -0.10005576 0.14471312 0.05271813 -0.0409606
0003c0 6b be 3b 3d df ec c5 3d 76 0d 5b 3d d9 a1 b9 bd
       0.045835894 0.0966432 0.053479634 -0.09064073
0003d0 8f 88 16 3d 10 3d 0e 3d b0 5a a1 3c 34 df 13 3e
       0.036751326 0.034726202 0.019696563 0.14440614
0003e0 82 86 93 3c 40 83 18 3c 7d 1f 1d be d7 89 f4 bc
       0.018008474 0.009308636 -0.15344043 -0.029850883
0003f0 99 f0 e6 bd 92 5a 5a 3d a4 91 ce bc 6d 01 1c 3e
       -0.11276359 0.05330903 -0.025215931 0.15234919

fc3.bias f4 [32]
000000 61 d9 5c 3d 41 51 b1 bb 36 cf 91 bd 02 1d 9e 3d
       0.053918246 -0.0054112975 -0.071196005 0.077203766
000010 88 8a ad 3d b4 dd 90 3d 03 46 dd bb 55 1d 12 bd
       0.08473688 0.070735365 -0.006752731 -0.035672504
000020 ec 73 22 bd 55 aa 8e bd c7 d0 c0 bd 64 f6 cd 3d
       -0.039661333 -0.06966082 -0.09414821 0.10056761
000030 43 a4 e9 bd b3 8d fb bb d4 c4 9f 3d e2 9d 04 3d
       -0.114082836 -0.007676804 0.07801214 0.03237713
000040 29 87 ef 3d 90 88 a4 bd e5 fe 12 3c a2 a0 09 3d
       0.11695702 -0.0803386 0.008971904 0.033600457
000050 04 76 33 3d a8 fb 87 bd 78 d8 dc bd 52 83 70 3d
       0.04381372 -0.066397965 -0.10783476 0.058718987
000060 55 75 57 3d 12 ec 06 3e 07 f8 56 bd ba 4a 09 bc
       0.05260213 0.13175991 -0.05248263 -0.008379633
000070 3d 24 f8 3d bd af c6 3d ff a8 f1 bc 1e 95 c5 bd
       0.12116287 0.09701488 -0.029499529 -0.096475825

fc4.weight f4 [5, 32]
000000 61 98 3f bd 62 b4 df bd e0 29 23 3e 4c 92 1b be
       -0.04677618 -0.10923077 0.15933943 -0.15192527
000010 de 1c f0 3c 80 fd 9e bd 2c db 4c be 53 ae 30 3d
       0.02931064 -0.07763195 -0.20005482 0.043135
000020 24 0f ee 3d ea 35 06 bd 23 09 b0 bd 11 5c c5 bc
       0.116239816 -0.03276626 -0.08595493 -0.024091752
000030 e7 50 32 3e 51 78 9e bd 87 ae ac 3d 74 85 1b be
       0.17413674 -0.07737792 0.08431726 -0.15187627
000040 84 53 04 be 2e c0 16 3e 5f ae a2 bd d5 90 4d 3e
       -0.12922484 0.14721748 -0.07943415 0.2007478
000050 54 a2 3b 3e 6b c7 49 be 29 a6 2b 3e 41 9f f5 3d
       0.18323642 -0.19704978 0.16762604 0.11993266
000060 4e 36 2d 3e e4 15 03 3e 94 56 16 3e 98 03 be bd
       0.16915247 0.1280132 0.14681464 -0.09278029
000070 a9 4d 19 be 79 48 3d be eb 7b 2d bb 63 76 50 bc
       -0.14971031 -0.18484677 -0.0026471566 -0.012723538
000080 f9 d4 8f bd db 25 18 3e b2 49 02 be e9 bc 84 bc
       -0.07023043 0.1485819 -0.12723425 -0.01620336
000090 db da 7c bd d1 60 56 3d 1a a7 4c bc d6 b3 9e bc
       -0.061732154 0.052338425 -0.012491012 -0.019372862
0000a0 08 f2 6a bd 4e 6f 1a 3e a5 e6 03 be 59 68 d3 3d
       -0.057359725 0.15081522 -0.12880953 0.10322637
0000b0 c9 15 14 3e 1a 3f 22 3e 4b cf 2a 3e 4c ad 46 be
       0.14461435 0.15844384 0.16680638 -0.19402045
0000c0 73 04 e6 3d d2 e4 06 3c 11 92 a2 3d ae a5 99 3d
       0.11231317 0.008233266 0.07938016 0.07502304
0000d0 8c 5c ac bc 02 3c 06 be 0c 2a 62 bc 1b 4b d1 3c
       -0.021040224 -0.13108829 -0.01380397 0.025548508
0000e0 39 d2 fe 3d c5 5b 1c bd 59 9a 39 3d 2c ff ea bd
       0.124424405 -0.038173456 0.045313213 -0.114744514
0000f0 0c 31 06 be de fb ef 3d e3 88 e6 bd 8d 6f ec 3d
       -0.13104647 0.11717962 -0.11256578 0.11544714
000100 39 a8 c1 3d 9b d6 94 bb da 73 98 3c db cb 25 3e
       0.09455914 -0.0045421845 0.01860993 0.16191046
000110 92 fd a5 bc 94 70 37 be c1 31 bb bd 0f 18 ed bc
       -0.020262513 -0.17914039 -0.09140349 -0.028942136
000120 94 74 6d 3b 27 d7 22 3c 65 18 6e 3d 23 2b c3 bd
       0.0036232816 0.009938992 0.058128733 -0.09529712
000130 7d ed df 3d 91 41 dc bd 4a c4 7b bd b8 86 d1 3d
       0.10933969 -0.10754693 -0.061466493 0.10230774
000140 a1 74 42 3e a1 8e e5 3d 1c 3d 31 3e bf 16 66 bd
       0.18989803 0.11208845 0.17308468 -0.056174036
000150 68 a6 44 bd c4 55 3e be ed f9 27 bc ba 7b b5 bc
       -0.04801026 -0.18587404 -0.010252458 -0.022153724
000160 b1 53 7b bd 0e 3c d9 3d 63 0a d7 bd 0f 77 0c 3c
       -0.06135911 0.10607158 -0.10500028 0.008573308
000170 6c c2 65 bc 26 e5 82 bd 6f 09 39 be 97 92 68 3d
       -0.014023405 -0.06391363 -0.18070005 0.056780424
000180 4a 5e 02 be 58 05 e5 3d b0 ca b3 3d a8 73 9d bc
       -0.12731281 0.1118266 0.08778894 -0.019220188
000190 8a cd 0d be 8c f8 09 bc d1 9a ae 39 f8 99 4e bb
       -0.13847938 -0.008421075 0.00033303213 -0.0031524878
0001a0 96 a5 fc bd 85 4c 57 be 3c eb 6a 3d b8 a9 33 3e
       -0.123362705 -0.21025284 0.057353243 0.17545211
0001b0 80 16 7e bd 73 bd ee 3d 3b bf 14 3e 5d d8 ff bd
       -0.062033176 0.11657228 0.14526074 -0.1249244
0001c0 2b cd 0b be 14 95 ef bd 1f d8 05 be 26 57 46 3e
       -0.13652484 -0.11698356 -0.13070725 0.19369182
0001d0 bd bf 38 3e 03 ed 34 be 84 b1 75 3d e0 57 4d bd
       0.18041892 -0.17668538 0.059983745 -0.050132632
0001e0 73 b9 c7 bd 0f e1 3e be 2f c7 41 bd b5 67 04 3e
       -0.097521685 -0.1864054 -0.047309097 0.12930186
0001f0 46 54 6b 3d 9f 38 39 3c d2 a0 8d bc 55 c1 11 3e
       0.057453416 0.011305003 -0.0172886 0.14233907
000200 08 29 cc bd d2 e5 27 3e fe 72 14 be 1e de 60 3e
       -0.099687636 0.16396263 -0.14496991 0.21959731
000210 f0 ad 23 be 0c 40 07 3e 74 01 2b 3d ba 40 03 be
       -0.1598432 0.13208026 0.041749433 -0.1281766
000220 ff 71 f7 bd 55 e6 1d 3e cb 10 64 3e eb 61 46 be
       -0.1208229 0.15419896 0.22272031 -0.1937329
000230 00 53 1a be 09 74 45 be 98 94 8d bd e4 87 49 3e
       -0.15070724 -0.19282545 -0.06913108 0.19680744
000240 39 5c 8d bd 9e c2 8f bd 9c b0 3c be c6 65 7e 3d
       -0.06902356 -0.07019542 -0.18426746 0.062108777
000250 d1 59 0e be b4 ae 18 3e a0 6a 05 be 27 68 13 be
       -0.1390145 0.14910394 -0.13028955 -0.143952
000260 da 1f 56 be 0b 35 43 3e 6d ed 90 bc 9c 43 46 be
       -0.20910588 0.19063203 -0.017691338 -0.19361728
000270 ad 11 71 3d e1 45 88 bd 67 f8 5a 3e 60 b7 44 be
       0.058854748 -0.06653953 0.2138382 -0.19210577

fc4.bias f4 [5]
000000 02 b3 0c 3e 5c e1 5c bd ce 30 91 bc 65 0f 40 3d
       0.13740161 -0.053925857 -0.017723467 0.04688968
000010 b3 b6 dc bd
       -0.107770346
