clean_code/trained_models/actor_1103.pth (torch, 54884 bytes, 8 tensors)

fc1.weight f4 [128, 18]
0	0x3e2220e1	0.15832855
1	0x3db611d7	0.088901214
2	0xbe1af605	-0.15132912
3	0x3e45833a	0.1928834
4	0x3dff34f8	0.12461275
5	0xbd82d885	-0.06388954
6	0x3d02a889	0.03189901
7	0x3cd98875	0.026554326
8	0x3dc621e7	0.09674435
9	0xbd878b0c	-0.06618318
10	0xbe140f3f	-0.14458941
11	0x3bba68be	0.005688756
12	0x3e5f052f	0.21779321
13	0x3da946e2	0.08265473
14	0x3e187b5f	0.14890812
15	0x3d0a7eac	0.03381221
16	0xbe664f9f	-0.2249131
17	0x3e82f43c	0.2557696
18	0x3e119ec4	0.1422072
19	0x3e2c38e5	0.16818579
20	0x3db7545c	0.08951637
21	0xbd9d278c	-0.076735586
22	0x3d9291ee	0.0715674
23	0xbc83ba13	-0.016079938
24	0x3e17fdb6	0.14842877
25	0x3e541148	0.20709717
26	0x3dce8664	0.10084227
27	0x3d346d21	0.044049386
28	0x3e198c07	0.14994822
29	0x3e157f9b	0.14599459
30	0xbe2a0ea0	-0.16607141
31	0xbe0c3224	-0.13691002
32	0xbdbc72d6	-0.09201591
33	0x3d72bade	0.05926024
34	0xbe25d20a	-0.16193405
35	0x3d2a693b	0.04160426
36	0x3e1d756c	0.15376824
37	0x3db612dc	0.08890316
38	0xbe13b781	-0.1442547
39	0x3d819acc	0.06328353
40	0xbe351b1f	-0.17686127
41	0x3d0c6d93	0.034284186
42	0x3e478895	0.19485696
43	0x3e1e9e67	0.15490113
44	0xbd76f1dd	-0.060289253
45	0xbe31b273	-0.17353229
46	0xbdd3bfd0	-0.1033932
47	0x3e37524b	0.17902486
48	0x3e85fc3e	0.26169008
49	0x3dc56982	0.09639265
50	0x3d830fbb	0.06399485
51	0xbdd7b464	-0.10532454
52	0x3e524a37	0.20536123
53	0x3d66b108	0.056321174
54	0x3e02a229	0.12757172
55	0xbd20fd3d	-0.039304007
56	0x3e2b3c31	0.1672218
57	0x3cd25622	0.025675837
58	0xbe3c0eee	-0.1836507
59	0xbe0a88b4	-0.1352871
60	0xbe455401	-0.19270326
61	0xbe413bf9	-0.18870534
62	0xbdff85cd	-0.12476692
63	0x3e29cf25	0.16582926
64	0x3dc6d728	0.097090065
65	0xbdd62a05	-0.10457233
66	0x3e556659	0.20839824
67	0x3e3e1977	0.18564402
68	0xbbae6c81	-0.0053229933
69	0xbe402b8e	-0.18766615
70	0x3e2a57fe	0.16635129
71	0xbd841880	-0.064499855
72	0xbd9938ff	-0.07481574
73	0x3e7014e5	0.2344547
74	0xbd057f26	-0.03259196
75	0xbe4efea2	-0.20214322
76	0x3e5b1a62	0.21396783
77	0x3e239e38	0.15978324
78	0xbdc354d3	-0.09537663
79	0x3e8606ad	0.26176968
80	0xbcdc78aa	-0.026913006
81	0x3d279817	0.04091653
82	0x3d884d04	0.066553146
83	0x3dcbe552	0.09955849
84	0x3ccc97e5	0.024974773
85	0xbe0629f4	-0.13101941
86	0x3e781b54	0.24229175
87	0x3e2d327c	0.1691379
88	0xbe0d1616	-0.13777956
89	0x3e599baf	0.21250795
90	0x3dd50a09	0.10402305
91	0xbd5098ef	-0.0509271
92	0x3d397add	0.045283187
93	0x3e438a73	0.19095783
94	0x3e765097	0.2405418
95	0xbccd38db	-0.025051525
96	0xbda5def7	-0.08099168
97	0xbb9dc586	-0.0048148064
98	0x3dc924c4	0.098214656
99	0xbe317c0d	-0.17332478
100	0xbc97800e	-0.018493678
101	0x3e24eb5c	0.16105407
102	0xbe3546ab	-0.17702739
103	0x3e52badf	0.20579098
104	0xbe2567e0	-0.16152906
105	0x3e4f3993	0.20236807
106	0x3d808938	0.062761724
107	0x3e55e4fe	0.20888135
108	0x3e0f8491	0.14015414
109	0xbe7e8297	-0.24854504
110	0x3e137289	0.1439916
111	0xbe09e5fd	-0.1346664
112	0x3dbe3524	0.092874795
113	0x3e2eff44	0.17089564
114	0x3e334ee6	0.17510566
115	0x3da0ec58	0.07857579
116	0xbe377db3	-0.17919044
117	0xbb79f445	-0.003813998
118	0xbe69c386	-0.22828493
119	0xbcd27ff4	-0.025695778
120	0xbe6554f4	-0.22395688
121	0xbc1fa760	-0.009744495
122	0xbe0485ad	-0.12941618
123	0x3d560026	0.052246235
124	0xbe78f75b	-0.24313109
125	0xbc1103d5	-0.008851011
126	0x3d01c4cf	0.031681832
127	0x3e1f5bad	0.15562315
128	0xbe509d9f	-0.20372628
129	0xbe54713b	-0.20746319
130	0xbe0786ca	-0.13235012
131	0x3db7980f	0.0896455
132	0x3e55ef82	0.20892146
133	0xbe006cf6	-0.12541565
134	0x3e354f89	0.17706122
135	0xbe3d0391	-0.18458392
136	0x3e325e6b	0.1741883
137	0x3e37e19e	0.1795716
138	0xbcad11a4	-0.021126576
139	0x3cc9f3c8	0.024652377
140	0x3e13f09a	0.14447251
141	0x3baafd7b	0.0052182055
142	0x3d4bac02	0.049724586
143	0xbe18e124	-0.14929634
144	0xbb5f00a9	-0.0034027493
145	0xbdb46122	-0.08807589
146	0xbd98977c	-0.07450768
147	0x3e2b36c4	0.1672011
148	0xbd8bb6e5	-0.06821994
149	0xbe724f7d	-0.23663135
150	0xbdd80c9b	-0.10549279
151	0xbe434037	-0.19067465
152	0x3bbec401	0.0058217053
153	0xbe6104eb	-0.21974532
154	0xbdd541d7	-0.104129486
155	0xbe7eeda6	-0.24895343
156	0x3e2282f6	0.1587027
157	0xbe57ab97	-0.2106155
158	0xbdd5e4a4	-0.10444
159	0xbe444114	-0.1916545
160	0x3d18d7af	0.037315067
161	0x3e1ea01b	0.15490763
162	0x3e1ec05f	0.15503071
163	0x3e66c589	0.22536291
164	0x3e6c8b8a	0.23100105
165	0xbd8e5714	-0.069502026
166	0x3dfe6ca7	0.124230675
167	0xbe5f0a23	-0.2178121
168	0x3e68d894	0.22738868
169	0x3e147b3e	0.14500138
170	0xbd7cde12	-0.06173522
171	0x3e54cf3a	0.20782176
172	0x3dd276b0	0.10276544
173	0x3e6ea3c3	0.23304658
174	0x3e2a0b09	0.16605772
175	0xbdf4ba4f	-0.11949598
176	0xbd8b29c6	-0.06795077
177	0x3e5d6085	0.2161885
178	0xbe340cf7	-0.1758307
179	0xbdbd527b	-0.092442475
180	0xbdf8c0fd	-0.121461846
181	0xbe484ceb	-0.19560592
182	0xbe2114ee	-0.1573064
183	0xbe46b938	-0.19406593
184	0x3dc279a0	0.094958544
185	0x3dc60a44	0.09669927
186	0xbc49da5e	-0.012320129
187	0x3dd8fbba	0.10594888
188	0x3c3dc78b	0.011583219
189	0x3ca7a9e1	0.020466747
190	0xbcbfc421	-0.023408951
191	0x3d8aa66e	0.06770025
192	0xbe3a85a8	-0.18215048
193	0xbd6ec4f0	-0.058293283
194	0xbe632b83	-0.22184567
195	0xbe34e794	-0.17666465
196	0x3dfa63c5	0.12226061
197	0x3d0623b1	0.03274888
198	0xbd4b1659	-0.04958186
199	0x3e4b0e4f	0.19829677
200	0xbcbedf8b	-0.023299953
201	0xbdf62291	-0.12018312
202	0xbdeceeed	-0.11569009
203	0x3e5038c3	0.20334153
204	0x3da199c7	0.07890659
205	0x3e4419e9	0.19150509
206	0x3d33e267	0.043917086
207	0xbd932402	-0.07184602
208	0x3dff8bfb	0.12477871
209	0x3de0738f	0.10959541
210	0xb9f74bc5	-0.00047167964
211	0xbd091168	-0.033463866
212	0xbdcd3238	-0.10019344
213	0x3e007fdc	0.12548774
214	0xbe2ed6c6	-0.17074117
215	0x3e6cc3ac	0.23121518
216	0xbdd60d04	-0.10451701
217	0xbdb07d3c	-0.086176366
218	0x3e0ec622	0.13942769
219	0xbde80017	-0.11328142
220	0xbe57e3b1	-0.21082951
221	0xbd33925b	-0.043840747
222	0xbe5bb8b7	-0.21457182
223	0x3c8d4672	0.017245505
224	0xbe427a7b	-0.18992035
225	0xbe31ed6d	-0.17375727
226	0xbd25cdd9	-0.040479515
227	0x3e3b934c	0.18317908
228	0xbe1236ad	-0.1427867
229	0xbb4c57c0	-0.0031180233
230	0x3d9a67a4	0.07539299
231	0xbde00051	-0.1093756
232	0x3e1237f2	0.14279154
233	0x3e17eb89	0.14835943
234	0x3e89ee49	0.2693961
235	0xbdb047aa	-0.08607419
236	0x3da43253	0.08017411
237	0xbd541321	-0.051776055
238	0x3cb8f785	0.022578964
239	0x3d7e517c	0.06208943
240	0x3e5cdad6	0.21567854
241	0x3e6216ee	0.2207906
242	0x3e34281f	0.1759343
243	0x3e7d80ad	0.24756117
244	0xbced914a	-0.028999943
245	0x3d7eb887	0.062187698
246	0xbe37b196	-0.17938837
247	0xbdfcac6f	-0.123375766
248	0x3c945b97	0.01811008
249	0x3d1b5259	0.03792033
250	0xbc6817d9	-0.014165842
251	0xbda3b0ab	-0.07992681
252	0x3e647890	0.22311616
253	0xbd5c2620	-0.053747296
254	0x3c0dc3b1	0.0086526135
255	0x3d066059	0.032806728

fc1.bias f4 [128]
0	0x3e1c2292	0.15247563
1	0x3e25335d	0.16132875
2	0x3e26ca3c	0.16288084
3	0x3e3b1848	0.18270981
4	0x3cc232d7	0.023705883
5	0x3dac2755	0.084059395
6	0x3d2c4390	0.04205662
7	0xbdc43870	-0.09581077
8	0x3dd73b1d	0.10509322
9	0xbe366a8b	-0.1781408
10	0xbe5f6462	-0.21815637
11	0x3e752da5	0.23943193
12	0x3e20b0e6	0.15692481
13	0xbd6d70a0	-0.057968736
14	0x3db62c4d	0.088951685
15	0x3e6d3ea7	0.23168431
16	0x3c56a368	0.0131004825
17	0x3e592f65	0.21209486
18	0xbe22ac04	-0.15885931
19	0x3dca0735	0.09864656
20	0x3e36774d	0.17818947
21	0x3da8856e	0.08228575
22	0xbe2094cc	-0.15681762
23	0x3cc44d55	0.023962656
24	0xbe4f9167	-0.2027031
25	0x3ddc2037	0.10748332
26	0x3c9ec1c8	0.019379511
27	0x3e41e8d9	0.1893648
28	0xbdb71e0d	-0.089412786
29	0x3d8216ae	0.06351982
30	0xbba68bfb	-0.005082605
31	0xbe493663	-0.19649653
32	0x3d7a0256	0.061037384
33	0x3e7fd1d7	0.24982391
34	0x3dbd5a7f	0.092457764
35	0xbdb91455	-0.09037081
36	0xbdef8608	-0.11695486
37	0x3c2297ca	0.009923885
38	0x3e8bf278	0.27333426
39	0xbe1d26b3	-0.15346794
40	0x3cafd213	0.021462476
41	0x3e3e67fb	0.18594353
42	0xbe334293	-0.17505865
43	0x3e81feaa	0.25389606
44	0xbda70e67	-0.08157044
45	0x3e51736e	0.20454189
46	0x3e87610d	0.2644123
47	0x3e340bd9	0.17582645
48	0x3e841b69	0.25802162
49	0xbe13ca71	-0.14432694
50	0x3de20e18	0.110378444
51	0xbd4fa9c1	-0.050699
52	0xbe1939bf	-0.14963435
53	0xbe87b237	-0.26503155
54	0xbd478399	-0.048709486
55	0x3e897bc3	0.26852235
56	0x3c91e7f9	0.017810808
57	0x3e7d1290	0.24714112
58	0xbe41def1	-0.18932702
59	0xbc16b244	-0.009197775
60	0xbd454e8e	-0.04817062
61	0x3e8115f4	0.2521206
62	0x3cb9af1c	0.022666506
63	0xbe1fbd1f	-0.15599488
64	0x3deb2ff8	0.11483759
65	0xbe626e01	-0.22112276
66	0x3cbb559a	0.022867966
67	0x3db7685b	0.08955451
68	0xbd8ce965	-0.06880454
69	0x3e2943d9	0.16529788
70	0x3e82d0f4	0.25550044
71	0x3da5d5f8	0.08097452
72	0xbe0ef450	-0.13960385
73	0x3d5efd83	0.054440986
74	0xbe364aa3	-0.17801909
75	0x3e187fb4	0.14892465
76	0x3e3357b1	0.1751392
77	0xbc621089	-0.013797888
78	0x3e6265e8	0.22109187
79	0x3e1462ba	0.14490786
80	0x3d4e0b7f	0.050303932
81	0xbe286167	-0.16443406
82	0xbe787bd8	-0.24265993
83	0xbe2ab4db	-0.16670553
84	0x3dbecc86	0.093163535
85	0x3e09f75b	0.13473265
86	0xbdbe197a	-0.09282203
87	0xbd8a0dc6	-0.06740908
88	0xbddb856f	-0.1071881
89	0x38b325a5	8.542397e-05
90	0x3e0d3450	0.13789487
91	0xbc8293a3	-0.01593954
92	0x3cb70f6d	0.022346223
93	0x3e697eef	0.22802328
94	0x3e531883	0.20614819
95	0xbe89a758	-0.26885486
96	0x3de719f6	0.112842485
97	0xbe57fafb	-0.21091835
98	0xbe51e910	-0.20499063
99	0x3d3ac6fa	0.045599915
100	0x3e27cab8	0.16385925
101	0xbe4d48b0	-0.2004726
102	0x3e24b720	0.16085482
103	0xbd7b017c	-0.061280712
104	0x3e074134	0.13208467
105	0x3e56ba49	0.209695
106	0x3d114f62	0.035476096
107	0xbe25957d	-0.16170307
108	0x3e25c7e2	0.1618953
109	0x3e0c9d23	0.13731818
110	0xbdc2f873	-0.09520044
111	0xbcf9a321	-0.030473294
112	0xbc15f70f	-0.009153142
113	0x3e5e5f2c	0.21715993
114	0xbe2a4752	-0.16628769
115	0x3e82a550	0.25516748
116	0xbe1340b8	-0.14380157
117	0xbe2e69cd	-0.17032547
118	0xbe2712a2	-0.16315702
119	0x3e5cb86a	0.21554723
120	0x3d84a27c	0.06476304
121	0x3cfe48de	0.031040605
122	0x3e328ec3	0.17437272
123	0x3d7e77c8	0.06212595
124	0xbe721ccb	-0.23643796
125	0x3e3af06b	0.18255775
126	0x3dbe5747	0.092939906
127	0xbe162fd4	-0.14666682

fc2.weight f4 [64, 128]
0	0x3d932c70	0.0718621
1	0xbcefe3c3	-0.02928341
2	0x3cbbbdd0	0.022917658
3	0xbba23121	-0.0049497043
4	0x3d668279	0.056276772
5	0x3d65ff70	0.056151807
6	0x3d6b25d9	0.05740914
7	0x3d3e2d43	0.046429884
8	0x3baafe8f	0.005218334
9	0xbcd58609	-0.02606489
10	0x3c44734f	0.011990382
11	0x3d99edf3	0.07516088
12	0xbcf8eb49	-0.03038563
13	0x3bbf6086	0.005840364
14	0x3d1a86e5	0.0377263
15	0x3cc29184	0.023751028
16	0x3c0c6689	0.008569368
17	0x3c133d9a	0.008986855
18	0xbd30821a	-0.043092825
19	0x3d1037ca	0.035209455
20	0x3d030495	0.03198679
21	0xbdbfae84	-0.09359458
22	0x3d66cb39	0.056346152
23	0xbd6ffc77	-0.05859038
24	0x3da50a1b	0.08058568
25	0x3cd5bf54	0.026092209
26	0xbb720482	-0.0036928956
27	0x3daad2e8	0.083410084
28	0xbdf06e8d	-0.11739836
29	0xbc83b7b4	-0.016078807
30	0x3d4723ce	0.04861813
31	0x3d3e2ab5	0.046427447
32	0xbd1ad985	-0.0378051
33	0x3d2ba71f	0.041907426
34	0xbd9b91c1	-0.0759616
35	0x3db5213e	0.08844231
36	0xbd83f22e	-0.064426765
37	0xbc3ced88	-0.011531241
38	0xbc020555	-0.007935842
39	0x3d902aa8	0.07039386
40	0x3dce8735	0.100843824
41	0x3d1df627	0.038564827
42	0xbd58a6bf	-0.052893396
43	0x3b9b6ef8	0.004743453
44	0xbdd28a74	-0.10280314
45	0x3dd3a274	0.1033372
46	0x3ceb9175	0.028755883
47	0xbbfe3819	-0.007758152
48	0x3d60eb5e	0.054911964
49	0x3d8fe8c3	0.07026818
50	0x3c0103a2	0.007874401
51	0xbd88b140	-0.06674433
52	0x3cf00a86	0.029301893
53	0xbd69748b	-0.05699591
54	0x3d738303	0.059451114
55	0xbce9b28a	-0.028527517
56	0xbca0845e	-0.019594368
57	0xbca399d9	-0.019970821
58	0xbd96ab7f	-0.07356929
59	0x3cb6cc54	0.022314228
60	0x3db53034	0.08847085
61	0xbd56f9b5	-0.052484233
62	0xbd66d5e3	-0.056356322
63	0x3d25ea24	0.040506497
64	0x3d0f49c2	0.03498245
65	0x3cd89b4e	0.026441243
66	0x3d9f5d4a	0.07781465
67	0xbd936a4c	-0.07198009
68	0xbd7a7993	-0.0611511
69	0xbd7614fa	-0.0600786
70	0x3aec3b33	0.0018023014
71	0x3d8446fc	0.06458852
72	0xbd4d8567	-0.05017605
73	0xbc9425c4	-0.018084414
74	0x3c5b9c05	0.013403897
75	0x3c591b90	0.0132512
76	0x3d72f78b	0.059318107
77	0xbd0ce596	-0.034398638
78	0x3dcd6bd5	0.10030333
79	0x3d9f517c	0.07779214
80	0xbcb46840	-0.022022367
81	0xbd31149a	-0.043232538
82	0xbdbb721d	-0.09152625
83	0xbd80e06c	-0.06292805
84	0x3ba923ee	0.005161754
85	0xbdafca0a	-0.08583458
86	0xbde33d3c	-0.11095664
87	0x3d47177d	0.048606385
88	0xbd9f3acb	-0.07774886
89	0x3d317ac1	0.043329958
90	0x3d3a3bfd	0.045467366
91	0x3d87f816	0.066391155
92	0x3c82f078	0.015983805
93	0xbaa03d7d	-0.0012225356
94	0x3e02e206	0.12781534
95	0xbd6d809d	-0.057983983
96	0xbbaf9623	-0.005358474
97	0xba97407a	-0.0011539601
98	0xbde76927	-0.11299353
99	0x3d30fd6f	0.043210443
100	0xbca34a90	-0.019933015
101	0x3c33af70	0.0109671205
102	0x3ce1d0fe	0.027565476
103	0xbcc1c64b	-0.023654124
104	0x3d02bbc7	0.03191736
105	0xbceb5e74	-0.028731562
106	0xbc5d5c3c	-0.01351076
107	0xbdacda67	-0.084400944
108	0xbd09e01f	-0.033661004
109	0xbd012b09	-0.031535182
110	0xbddd5f26	-0.10809164
111	0xbd576993	-0.052590918
112	0xbd3ee7c3	-0.046607744
113	0x3d385574	0.04500337
114	0xbc67746f	-0.014126881
115	0x3db01cac	0.08599219
116	0xbdbeaa1c	-0.093097895
117	0x3d0a403b	0.03375266
118	0xbdacf24e	-0.084446535
119	0x3d857fb5	0.06518499
120	0x3d95315d	0.07284806
121	0x3d23ebc8	0.04001978
122	0x3ce5c0f5	0.02804611
123	0xbd521014	-0.051284865
124	0x3d131bbc	0.03591512
125	0x3dcce059	0.100037284
126	0xbc7b7c30	-0.015349433
127	0xbca5b04b	-0.020225665
128	0x3dd0b560	0.101908445
129	0x3dcf6b67	0.10127907
130	0x3de1c15f	0.11023211
131	0xbd8fd093	-0.07022204
132	0x3d9a3446	0.075295016
133	0x3c5acca1	0.013354451
134	0xbd9b6160	-0.07586932
135	0x3dc1c6b1	0.094617255
136	0xbd719480	-0.05897951
137	0xbc29b15c	-0.010357227
138	0xbdb81cae	-0.08989845
139	0x3c933236	0.017968278
140	0xbcfee8ea	-0.031116921
141	0x3dd65249	0.104649134
142	0x3d56846a	0.052372374
143	0x3d91760f	0.07102596
144	0x3d62a5a6	0.055333756
145	0x3d58bc7f	0.05291414
146	0x3d87a46d	0.066231586
147	0x3d22ae56	0.03971704
148	0x3d1a2744	0.037635103
149	0xbd95074d	-0.07276783
150	0x3cf97851	0.03045288
151	0xbd7cb81b	-0.061699014
152	0xbb9be0cf	-0.004757024
153	0xbd6e51fd	-0.05818366
154	0x3dba42f1	0.09094799
155	0x3ccfb5d7	0.025355263
156	0xbdea8259	-0.11450643
157	0xbdcb4b25	-0.09926442
158	0x3d87182b	0.065964065
159	0x3d295403	0.041339885
160	0x3dd18900	0.10231209
161	0x3d07f019	0.03318796
162	0x3cc0f87a	0.023555983
163	0x3cb16e81	0.021659138
164	0xbde03570	-0.109476924
165	0x3d576686	0.05258801
166	0xbd09f31a	-0.033679105
167	0x3ca3cdc1	0.019995572
168	0xbd6f68b7	-0.058449473
169	0xbb9d91bd	-0.004808633
170	0x3ca498be	0.020092364
171	0xbd1bf491	-0.038075034
172	0x3ccd225b	0.025040796
173	0x3d8e79fb	0.0695686
174	0x3cf1bf3f	0.029510139
175	0x3d207714	0.03917606
176	0x3d8f3c7e	0.0699396
177	0xbd973ba4	-0.073844224
178	0x3ddb766f	0.10715949
179	0xbd172102	-0.036896713
180	0x3d5c66ee	0.0538091
181	0xbda52867	-0.08064347
182	0xbd9f8e1e	-0.077907786
183	0x3d88827e	0.066655144
184	0x3c915e72	0.01774523
185	0x3de08d98	0.10964507
186	0x3d00aa0b	0.031412166
187	0xbd625265	-0.05525436
188	0x3d72b4bd	0.059254397
189	0x3da2dffc	0.07952878
190	0x3cdb7472	0.026788924
191	0xbceaf4f4	-0.028681256
192	0xbb48e71f	-0.0030655337
193	0xbd94e5ac	-0.07270369
194	0x3d9e2506	0.077219054
195	0x3d001583	0.031270515
196	0xbc96cdc4	-0.018408664
197	0x3d8b9231	0.06814993
198	0xbd455ca9	-0.04818407
199	0x3d88934c	0.0666872
200	0xbbb729da	-0.005589706
201	0xbd7b8f33	-0.061415862
202	0xbcbe7c19	-0.023252534
203	0x3b2099fb	0.0024505842
204	0xbd94affc	-0.07260129
205	0xbd07cfdc	-0.033157215
206	0x3be200b0	0.0068970546
207	0x3d88f3d5	0.06687132
208	0xbdb58c8b	-0.08864697
209	0xbd07dd9f	-0.03317034
210	0x3d4d3951	0.05010349
211	0xbda25a47	-0.07927375
212	0x3beb42cc	0.0071795937
213	0x3d0c17a0	0.034202218
214	0x3cea7f80	0.02862525
215	0xbd3c0f35	-0.04591294
216	0x3b23ab7c	0.0024974039
217	0xbd180a22	-0.03711904
218	0xbc22638e	-0.009911431
219	0x3d428f9c	0.047500238
220	0x3c0e0248	0.008667536
221	0x3db407a1	0.087905176
222	0x3db9fd97	0.090815715
223	0x3d1a8caa	0.037731804
224	0xbd7b1534	-0.061299518
225	0xbd04d19c	-0.03242646
226	0xbd4a1be7	-0.049343016
227	0x3ccb72b4	0.024834968
228	0x3cfbda74	0.030743815
229	0xbce84e7a	-0.028357733
230	0x3d87c8cd	0.066300966
231	0xbd82289e	-0.06355403
232	0xbd7cb04d	-0.06169157
233	0xbc1c33b2	-0.0095338095
234	0x3bb06ebb	0.005384294
235	0xbd4ba001	-0.04971314
236	0x3c7530a7	0.014965213
237	0x3d38a932	0.045083232
238	0xbda32bed	-0.079673626
239	0x3dc6606c	0.0968636
240	0x3ca82576	0.020525675
241	0xbd1c1a57	-0.038111057
242	0x3d9be406	0.076118514
243	0x3d0c4cdc	0.034252986
244	0xbcf5e2fa	-0.030015457
245	0x3dc9bf55	0.09850947
246	0x3cd8d0cb	0.026466748
247	0x3b9e2789	0.0048264903
248	0x3d63bece	0.055601887
249	0x3d015283	0.03157283
250	0xbcb799c1	-0.022412183
251	0xbc7b6f2e	-0.0153463315
252	0xbd03ecfe	-0.032208435
253	0xbd27e776	-0.040992223
254	0x3ceb701d	0.028739983
255	0x3c05bde7	0.008162952

fc2.bias f4 [64]
0	0x3d0267d2	0.031837292
1	0x3c13d6c3	0.009023371
2	0xbd637f6a	-0.055541433
3	0x3d392f95	0.045211393
4	0xbdbb0c07	-0.091331534
5	0xbcbeeb36	-0.023305517
6	0x3d065015	0.032791216
7	0x3cccc004	0.024993904
8	0x3dd36620	0.10322213
9	0xbdd5ae96	-0.1043369
10	0x3cc3c184	0.023895986
11	0xbd532b97	-0.051555242
12	0xbd3ede38	-0.046598643
13	0xbc83bfd6	-0.016082685
14	0x3ce13f02	0.027495865
15	0xbd6549f0	-0.055978715
16	0x3ddeab05	0.10872463
17	0x3c67d043	0.014148775
18	0xb9901b74	-0.00027486274
19	0x3d23dc3e	0.04000496
20	0x3c8170a9	0.01580079
21	0xbd8a6464	-0.06757429
22	0x3c8a5555	0.016886393
23	0xbd630d5d	-0.055432666
24	0xbdae42e2	-0.08508851
25	0xbd2d2509	-0.042271648
26	0xbdcb1420	-0.09915948
27	0xbdab6506	-0.08368878
28	0xba961a4d	-0.001145193
29	0x3c7fb84d	0.015607906
30	0x3b3e7e6c	0.0029067053
31	0xbd5dd9df	-0.054162856
32	0x3db0ace0	0.08626723
33	0xbd9b84f9	-0.07593722
34	0xbd9530d3	-0.07284703
35	0xbd92ef0f	-0.07174503
36	0xbd53fbe3	-0.05175389
37	0xbdb0bc4b	-0.08629664
38	0x3cc734eb	0.024317225
39	0xbd7e7d4f	-0.062131222
40	0x3c361914	0.0111143775
41	0x3d438c01	0.04774094
42	0x3d1dbed1	0.038512055
43	0xbd830e95	-0.06399266
44	0xbc9e6a6b	-0.019337853
45	0x3ce4b73e	0.027919408
46	0x3de15ffa	0.11004634
47	0x3ca5cdc8	0.020239726
48	0x3d415024	0.04719557
49	0xbdb8bca7	-0.090203576
50	0xbd83689c	-0.06416437
51	0xb9e2a458	-0.00043228525
52	0x3c90cf11	0.017676862
53	0x3c9e60b0	0.019333214
54	0xbd6cabb4	-0.057780936
55	0x3d04df31	0.032439414
56	0x3d0ba9b0	0.034097373
57	0x3c20f5a9	0.009824195
58	0xbdcf66fc	-0.101270646
59	0x3dd21ded	0.10259614
60	0xbc8d7afc	-0.017270558
61	0x3dcfd432	0.10147895
62	0x3b892e7f	0.004186451
63	0xbc2f8561	-0.010712952

fc3.weight f4 [32, 64]
0	0xbe0859d7	-0.13315521
1	0xbd1dcbcd	-0.038524438
2	0xbd8f7eab	-0.07006582
3	0x3e1092a0	0.14118433
4	0xbdb4e384	-0.08832458
5	0xbe04a690	-0.12954164
6	0x3d4160d3	0.04721148
7	0xbe0644dd	-0.13112207
8	0x3d4c102e	0.049820118
9	0xbc12d596	-0.008962056
10	0x3e1186e5	0.14211614
11	0xbadddcf2	-0.0016926809
12	0xbd50b55a	-0.0509542
13	0xbd9a7a48	-0.075428545
14	0xbce29156	-0.027657192
15	0xbdc8330a	-0.0977536
16	0xbd3d25c4	-0.046178594
17	0xbda619ee	-0.081104144
18	0xbbc1f104	-0.005918624
19	0x3e016734	0.12637025
20	0xbc062b0d	-0.008188975
21	0x3d90d281	0.070714004
22	0xbd586b34	-0.052836612
23	0x3d818616	0.06324403
24	0xbda0ecfd	-0.07857702
25	0xbd1d7140	-0.03843808
26	0x3daba2d0	0.083806634
27	0x3ca9bd9d	0.020720297
28	0x3d76cb55	0.060252506
29	0xbdc7bcad	-0.09752784
30	0xbe07f6ab	-0.1327769
31	0x3e053d8c	0.1301176
32	0xbd4b4597	-0.049626913
33	0xbd920a88	-0.07130915
34	0x3db383f7	0.08765405
35	0x3dcb533c	0.09927985
36	0x3df97750	0.1218096
37	0x3da9dd55	0.08294169
38	0x3ce9a5bd	0.028521413
39	0x3de0382f	0.10948216
40	0xbddeb021	-0.10873438
41	0x3ddeaa0e	0.10872279
42	0x3db2186d	0.08696065
43	0x3d647088	0.05577138
44	0xbdd13634	-0.102154166
45	0x3dd25eb5	0.1027197
46	0xbe14af2d	-0.1451995
47	0x3e016a1b	0.12638132
48	0xbdf1edf5	-0.11812965
49	0x3da88035	0.082275786
50	0xbdb26101	-0.08709908
51	0xbe152edd	-0.14568658
52	0x3dcd0a2c	0.10011706
53	0x3c1f1f4a	0.00971205
54	0xbd19fd33	-0.037594985
55	0x3d6f704b	0.0584567
56	0x3da92d8d	0.08260641
57	0xbd8589a2	-0.06520392
58	0x3d836b67	0.0641697
59	0xbba43733	-0.005011463
60	0x3d9f7edc	0.077878684
61	0xbda0fe13	-0.07860961
62	0xbd8089fb	-0.06276318
63	0xbd8eff7f	-0.06982326
64	0x3d36aa7d	0.044596184
65	0x3d500641	0.050787214
66	0xbdb8ec13	-0.090294026
67	0xbd306cc2	-0.04307247
68	0x3c2ed481	0.010670782
69	0x3dcd46ba	0.10023256
70	0x3e2a75fb	0.16646568
71	0x3e1add9d	0.15123601
72	0x3c3a69e6	0.011377787
73	0xbdf8d12a	-0.1214927
74	0x3e22d2d6	0.1590074
75	0x3d517ca4	0.051144257
76	0x3d401f1e	0.046904676
77	0x3c738161	0.014862389
78	0xbc11ad53	-0.008891421
79	0x3d0c0cca	0.034191884
80	0x3d96d4bd	0.07364795
81	0x3c862341	0.016374232
82	0x3e1895cc	0.14900893
83	0xbd461e84	-0.048368946
84	0x3d4b7b9b	0.049678426
85	0x3ccfd63d	0.025370711
86	0x3db5c9dc	0.08876392
87	0xbcaafc3c	-0.020872228
88	0x3c4e747a	0.012601012
89	0xbe00c368	-0.12574542
90	0x3d65e33d	0.056124914
91	0xbdad0e6a	-0.08450015
92	0xbbdb6345	-0.0066951835
93	0xbbb2cf44	-0.005456837
94	0xbdf43685	-0.11924461
95	0x3d5e6178	0.054292172
96	0x3d270013	0.040771555
97	0x3d1ea6ae	0.038733177
98	0x3d08a4f4	0.033360437
99	0xbd428dcc	-0.04749851
100	0xbba1c4ff	-0.004936814
101	0xbe1da73e	-0.15395829
102	0x3e24913f	0.16071032
103	0xbe0da902	-0.13834003
104	0x3dac6279	0.0841722
105	0xbd3bca78	-0.045847386
106	0xbdae7836	-0.08519022
107	0xbd19cc03	-0.037548076
108	0x3cad3cd5	0.021147171
109	0x3dd58874	0.10426417
110	0xbc323613	-0.01087715
111	0xbe12fd9c	-0.14354557
112	0x3e2b40d3	0.16723947
113	0x3ce646dc	0.02810996
114	0x3d9d887a	0.076920465
115	0x3d04357b	0.032277565
116	0xbe23dfec	-0.16003388
117	0x3d765dfd	0.060148228
118	0x3dff05d0	0.124522805
119	0xbd9a4327	-0.075323395
120	0x3cea8a29	0.028630333
121	0xbd0cc3f0	-0.034366548
122	0xbb11c2e0	-0.0022241399
123	0x3d002d44	0.03129317
124	0xbe2c8f9b	-0.16851656
125	0x3e1ae250	0.15125394
126	0x3d599eaa	0.05312983
127	0xbd505e92	-0.05087144
128	0xbe05e6ef	-0.13076375
129	0xbd6793b5	-0.05653735
130	0x3df5e5cd	0.12006722
131	0x3d0fe523	0.03513063
132	0xbc436b39	-0.011927419
133	0x3cdc6368	0.02690287
134	0xbe14abe0	-0.1451869
135	0xbbe3b22b	-0.0069487295
136	0xbce0f1e8	-0.0274591
137	0x3d94f090	0.07272446
138	0x3d7a1654	0.06105645
139	0x3d8dbef7	0.06921189
140	0xbc667b79	-0.014067524
141	0x3dbd67bb	0.09248301
142	0x3e0370e2	0.1283603
143	0xbb6fa96f	-0.0036569496
144	0xbd10df1b	-0.03536902
145	0xbd943bb7	-0.07237952
146	0x3b8f0252	0.0043642903
147	0x3c9e1362	0.019296352
148	0x3c58b061	0.013225646
149	0x3e0ac97f	0.13553427
150	0xbd71a809	-0.05899814
151	0x3ca556b0	0.020182937
152	0x3dcf2c21	0.10115839
153	0x3d26a2b7	0.04068252
154	0xbdaccbc5	-0.084373035
155	0x3c49620e	0.012291444
156	0x3d145c2b	0.03622071
157	0xbd12f387	-0.035876777
158	0x3da49651	0.08036483
159	0xbde77df4	-0.113033205
160	0xbd240ba8	-0.04005018
161	0x3cdc1612	0.026865993
162	0xbdd0631c	-0.101751536
163	0x3d8b3587	0.06797319
164	0x3dc4ef15	0.09615914
165	0x3e0f5bc4	0.1399985
166	0x3b0d78e1	0.0021586942
167	0x3e005da2	0.12535718
168	0xbde4278e	-0.11140357
169	0xbd19a2af	-0.037508663
170	0xbd754bce	-0.059886746
171	0xbd8e6a90	-0.06953919
172	0xbb720646	-0.0036930009
173	0xbdbaca33	-0.09120598
174	0xbe11e821	-0.14248706
175	0xbb17e785	-0.0023178768
176	0xbda2b0f8	-0.0794391
177	0xbd219344	-0.039447084
178	0xbbce1cb0	-0.006290041
179	0xbdcaa446	-0.09894614
180	0xbd1f7b32	-0.038935848
181	0xbcbf3985	-0.023342857
182	0xbe092350	-0.13392377
183	0xbd34c318	-0.04413137
184	0xbe12ced9	-0.14336719
185	0xbcec6057	-0.028854532
186	0x3d5e2f10	0.0542441
187	0xbe0a2f8f	-0.13494705
188	0x3d14d9cb	0.036340516
189	0xbe064965	-0.13113935
190	0xbdafad7d	-0.08578012
191	0xbdf32674	-0.11872569
192	0x3ccadbbd	0.024762983
193	0x3e0a2f1a	0.1349453
194	0xbdbfee22	-0.09371592
195	0x3d300094	0.0429693
196	0xbd203718	-0.03911504
197	0x3d899a8a	0.06718929
198	0x3c416d12	0.01180579
199	0x3d98f79e	0.07469104
200	0x3d82c7cb	0.06385764
201	0xb9aaab50	-0.00032552565
202	0x3c4f8cea	0.012667874
203	0xbcb68c54	-0.02228371
204	0x3cef9e16	0.029250186
205	0x3d773c75	0.06036039
206	0x3b7af99f	0.0038295758
207	0xbc8e171c	-0.017345004
208	0x3e17778b	0.14791696
209	0x3e092825	0.1339422
210	0xbd5aa27c	-0.053377613
211	0x3c98eb9d	0.018667037
212	0x3d3af19c	0.045640573
213	0xbe1ea1ca	-0.15491405
214	0x3e1d24dc	0.15346092
215	0xbcf1574c	-0.029460572
216	0xbde87e8e	-0.113522634
217	0xbd4b6bd5	-0.049663384
218	0xbdc39b57	-0.09551113
219	0x3d5f9982	0.054589756
220	0xbc826cfe	-0.015921112
221	0xbdfe1dff	-0.12408065
222	0x3d54940e	0.05189901
223	0x3de908a8	0.11378604
224	0xbd8c4d00	-0.06850624
225	0xbe123176	-0.1427668
226	0xbc5b63b0	-0.013390467
227	0xbe14ff28	-0.1455046
228	0x3cab3088	0.020897165
229	0xbbf0d2dc	-0.007349355
230	0x39acca5e	0.00032957172
231	0x3d9e0684	0.077160865
232	0xbd5700b4	-0.052490905
233	0xbd30eb5d	-0.04319321
234	0x3bf1917c	0.0073720794
235	0x3dbcb34e	0.09213887
236	0xbdcb210b	-0.09918412
237	0x3e12f42b	0.14350955
238	0x3d5580eb	0.0521249
239	0xbd25dab1	-0.040491764
240	0x3d3913fd	0.045185078
241	0x3dc670e2	0.096894994
242	0x3d59a1cd	0.05313282
243	0xbdb8da17	-0.09025972
244	0x3d1901dc	0.03735529
245	0x3d0ad1c9	0.033891473
246	0x3c9d996b	0.019238194
247	0x3e137b76	0.14402565
248	0x3c8f5ad6	0.017499369
249	0x3c26206e	0.010139568
250	0xbe1c8d1e	-0.15288207
251	0xbcfaed88	-0.030630842
252	0xbde64b13	-0.11244788
253	0x3d54d6c9	0.051962648
254	0xbcc95710	-0.024577647
255	0x3e1b5e43	0.15172677

fc3.bias f4 [32]
0	0x3d5b869c	0.05359517
1	0xbba9d617	-0.005182992
2	0xbd91c9cf	-0.0711857
3	0x3d9dcf88	0.07705599
4	0x3dad7e01	0.08471299
5	0x3d914b93	0.07094493
6	0xbbd894c7	-0.0066095325
7	0xbd11ffa9	-0.035644207
8	0xbd22a279	-0.039705727
9	0xbd8f3391	-0.069922574
10	0xbdc0e15a	-0.094179824
11	0x3dce1268	0.100621045
12	0xbde9ab94	-0.11409679
13	0xbbf93ed3	-0.007606366
14	0x3da007f0	0.07814014
15	0x3d0405d9	0.03223214
16	0x3dee7fcb	0.11645468
17	0xbda4bff5	-0.080444254
18	0x3c11b6ec	0.00889371
19	0x3d0a13fd	0.03371047
20	0x3d339748	0.043845445
21	0xbd8800ea	-0.06640799
22	0xbddcd10e	-0.107820615
23	0x3d707fb4	0.058715537
24	0x3d577918	0.05260572
25	0x3e069506	0.13142785
26	0xbd56905d	-0.05238377
27	0xbc087930	-0.008329675
28	0x3df84ef6	0.121244356
29	0x3dc7146e	0.097206935
30	0xbcf0d5a4	-0.029398747
31	0xbdc58a39	-0.096455045

fc4.weight f4 [5, 32]
0	0xbd3ff19c	-0.046861276
1	0xbddf1455	-0.1089255
2	0x3e231c6d	0.15928812
3	0xbe1b6192	-0.15173939
4	0x3cef8e53	0.02924267
5	0xbd9e8c1a	-0.07741566
6	0xbe4cb175	-0.1998957
7	0x3d30607a	0.043060757
8	0x3dedf0c3	0.11618187
9	0xbd051fe9	-0.032501135
10	0xbdaf8b4e	-0.08571492
11	0xbcc60803	-0.024173742
12	0x3e324188	0.1740781
13	0xbd9ea1fe	-0.07745741
14	0x3dac6b9e	0.08418964
15	0xbe1b65c7	-0.15175544
16	0xbe045c75	-0.12925895
17	0x3e169fed	0.14709444
18	0xbda2d196	-0.079501316
19	0x3e4d7fc1	0.20068265
20	0x3e3b9389	0.18317999
21	0xbe498ea6	-0.19683322
22	0x3e2b95e9	0.16756405
23	0x3df54f19	0.11977977
24	0x3e2d15ee	0.16902897
25	0x3e034e70	0.1282289
26	0x3e162a26	0.14664516
27	0xbdbe3bd5	-0.09288756
28	0xbe1925fe	-0.14955899
29	0xbe3d3e61	-0.18480827
30	0xbb2169f9	-0.0024629815
31	0xbc5148cf	-0.012773707
32	0xbd9022ad	-0.07037864
33	0x3e185aa9	0.14878334
34	0xbe026b2f	-0.127362
35	0xbc82ea0f	-0.015980748
36	0xbd7d821d	-0.061891664
37	0x3d5756ae	0.0525729
38	0xbc495257	-0.012287698
39	0xbca055ec	-0.01957222
40	0xbd6b9122	-0.057511456
41	0x3e1aaf58	0.15105951
42	0xbe03b2bc	-0.1286115
43	0x3dd30d6e	0.10305296
44	0x3e13eed8	0.1444658
45	0x3e2218c8	0.15829766
46	0x3e2a9e7a	0.16662017
47	0xbe467d15	-0.19383653
48	0x3de5f1e2	0.11227776
49	0x3c037e35	0.008025696
50	0x3da22764	0.079176694
51	0x3d99564c	0.07487163
52	0xbcad7dbc	-0.021178119
53	0xbe05fc20	-0.1308446
54	0xbc644154	-0.013931591
55	0x3ccf91c7	0.025338067
56	0x3dfe6588	0.12421709
57	0xbd1b29bf	-0.03788161
58	0x3d38bce7	0.045102026
59	0xbdeb7313	-0.11496558
60	0xbe06057e	-0.13088033
61	0x3df03aeb	0.11729988
62	0xbde60f59	-0.11233396
63	0x3dec3159	0.1153285
64	0x3dc35693	0.09537997
65	0xbbe81b9c	-0.0070833694
66	0x3ca308f5	0.019901732
67	0x3e23b3b1	0.15986516
68	0xbc99e5de	-0.018786367
69	0xbe3a0672	-0.18166521
70	0xbdbfabb2	-0.0935892
71	0xbce03292	-0.027367864
72	0x3ba21019	0.0049457666
73	0x3bf8995a	0.0075866403
74	0x3d64f1c2	0.05589462
75	0xbdc0206a	-0.093811825
76	0x3de2c20a	0.11072166
77	0xbdd9be6d	-0.10632024
78	0xbd75fea2	-0.06005729
79	0x3dcd981b	0.100387774
80	0x3e4308a7	0.1904627
81	0x3de902ff	0.113775246
82	0x3e329e09	0.17443098
83	0xbd60add2	-0.054853268
84	0xbd3f4068	-0.046692282
85	0xbe40d63f	-0.18831728
86	0xbc131ef3	-0.008979547
87	0xbca65101	-0.020302298
88	0xbd750ab5	-0.059824664
89	0x3dd43e92	0.10363497
90	0xbdd47125	-0.10373143
91	0x3c2f18a3	0.010687026
92	0xbc831ac4	-0.016003974
93	0xbd854796	-0.065077946
94	0xbe3b853f	-0.18312548
95	0x3d6dec57	0.05808672
96	0xbe04210f	-0.12903236
97	0x3dea2da1	0.11434484
98	0x3db1c12e	0.08679424
99	0xbc8c7624	-0.017146178
100	0xbe0f2058	-0.13977182
101	0xbbc39d03	-0.005969645
102	0x3b18bd7a	0.0023306296
103	0xbb9be743	-0.004757793
104	0xbdff5e8c	-0.12469205
105	0xbe54ca76	-0.20780358
106	0x3d7456ba	0.05965302
107	0x3e32410c	0.17407626
108	0xbd8174e3	-0.063211225
109	0x3dec5d9f	0.11541294
110	0x3e12a60f	0.14321159
111	0xbdfc6866	-0.123246
112	0xbe0c998b	-0.13730447
113	0xbdf3ffb0	-0.11914003
114	0xbe07574c	-0.13216895
115	0x3e451803	0.19247441
116	0x3e379bf2	0.17930582
117	0xbe3272cf	-0.17426609
118	0x3d714b9d	0.05891
119	0xbd565736	-0.052329265
120	0xbdcbbede	-0.099485144
121	0xbe3c7988	-0.18405735
122	0xbd4ac83e	-0.049507372
123	0x3e029508	0.12752163
124	0x3d72fbdf	0.059322234
125	0x3c515a2d	0.012777847
126	0xbc7644b1	-0.015031026
127	0x3e10c955	0.14139302
128	0xbdcc50f7	-0.0997638
129	0x3e27fbfb	0.16404717
130	0xbe146ae2	-0.14493898
131	0x3e60d349	0.21955599
132	0xbe23a59a	-0.1598114
133	0x3e0744f8	0.13209903
134	0x3d2b30d5	0.041794617
135	0xbe033e0b	-0.12816636
136	0xbdf77355	-0.12082545
137	0x3e1ddcb8	0.15416229
138	0x3e640ca1	0.22270443
139	0xbe465643	-0.19368844
140	0xbe1a4ae0	-0.15067625
141	0xbe455eac	-0.19274396
142	0xbd8d722c	-0.06906542
143	0x3e498559	0.19679774
144	0xbd8d8982	-0.06910993
145	0xbd8fafbc	-0.070159405
146	0xbe3caff6	-0.18426499
147	0x3d7e8f0c	0.06214814
148	0xbe0e519d	-0.1389832
149	0x3e18ab3e	0.14909074
150	0xbe0560ad	-0.1302516
151	0xbe134fac	-0.14385861
152	0xbe561285	-0.20905502
153	0x3e431296	0.19050059
154	0xbc8fb8cd	-0.017544175
155	0xbe46371e	-0.19356963
156	0x3d713721	0.058890466
157	0xbd880dde	-0.0664327
158	0x3e5af0d0	0.21380925
159	0xbe44b0f7	-0.19208132

fc4.bias f4 [5]
0	0x3e0cb8e1	0.137424
1	0xbd5ca939	-0.05387232
2	0xbc96ed56	-0.018423717
3	0x3d421072	0.047378965
4	0xbddcbecf	-0.10778581
