clean_code/trained_models/actor_1387.pth (torch, 54884 bytes, 8 tensors)

fc1.weight f4 [128, 18]
0	0x3e203246	0.15644178
1	0x3db442fa	0.08801837
2	0xbe1b2237	-0.1514977
3	0x3e44313e	0.1915941
4	0x3dfc87fc	0.123306245
5	0xbd858872	-0.065201655
6	0x3cfa716b	0.03057166
7	0x3cc98f30	0.02460441
8	0x3dc44b06	0.09584622
9	0xbd85c57f	-0.0653181
10	0xbe15673e	-0.14590165
11	0x3b469592	0.0030301553
12	0x3e5b10a1	0.21393062
13	0x3da946e2	0.08265473
14	0x3e189c45	0.14903362
15	0x3d0022b0	0.03128308
16	0xbe64e0dc	-0.22351402
17	0x3e81f9d0	0.25385904
18	0x3e0e61fb	0.13904564
19	0x3e2a9dbf	0.16661738
20	0x3db688e4	0.089128286
21	0xbda19131	-0.07889021
22	0x3d8e19b8	0.06938499
23	0xbc95a104	-0.018265255
24	0x3e15b86e	0.14621136
25	0x3e50c076	0.20385918
26	0x3dcb3fec	0.099243015
27	0x3d384e7d	0.044996727
28	0x3e174e93	0.14776067
29	0x3e114246	0.14185438
30	0xbe302fb3	-0.17205696
31	0xbe0c3224	-0.13691002
32	0xbdbc4e3d	-0.0919461
33	0x3d6977ee	0.05699914
34	0xbe24efb1	-0.1610706
35	0x3d1c733c	0.038195834
36	0x3e1c3bc3	0.15257172
37	0x3db509db	0.088397704
38	0xbe13eea9	-0.1444651
39	0x3d80090c	0.062517256
40	0xbe35e723	-0.17763953
41	0x3d093977	0.03350207
42	0x3e46b8ba	0.19406405
43	0x3e1d5add	0.15366693
44	0xbd7906de	-0.060797565
45	0xbe311103	-0.17291646
46	0xbdd5599d	-0.10417483
47	0x3e358b3a	0.17728892
48	0x3e84c9ba	0.25935155
49	0x3dc56982	0.09639265
50	0x3d832544	0.06403592
51	0xbddb731b	-0.10715314
52	0x3e53e44f	0.20692562
53	0x3d5eba84	0.054377094
54	0x3e047bec	0.12937897
55	0xbd1c2147	-0.038117673
56	0x3e2a8730	0.16653132
57	0x3cde1d04	0.027113445
58	0xbe3a94d5	-0.18220837
59	0xbe090dc3	-0.13384156
60	0xbe43d6a1	-0.19124843
61	0xbe3f5daa	-0.18688074
62	0xbdfd1a05	-0.123584785
63	0x3e282903	0.16421895
64	0x3dc9cce1	0.09853531
65	0xbdd3137c	-0.10306451
66	0x3e578bf1	0.21049477
67	0x3e3e1977	0.18564402
68	0xbbab9e9e	-0.0052374145
69	0xbe3cc407	-0.18434153
70	0x3e2b14e6	0.16707191
71	0xbd79742c	-0.060901806
72	0xbd9b24d7	-0.07575386
73	0x3e6fb249	0.23407854
74	0xbd04de56	-0.0324386
75	0xbe4fa33e	-0.20277116
76	0x3e5a734b	0.21333043
77	0x3e22f605	0.15914162
78	0xbdc4a9a9	-0.096026726
79	0x3e858656	0.26079053
80	0xbcdf8e14	-0.027289428
81	0x3d2ae72b	0.041724365
82	0x3d86fccb	0.06591185
83	0x3dc8ea70	0.098103404
84	0x3cbccce1	0.023046913
85	0xbe0629f4	-0.13101941
86	0x3e782b62	0.24235299
87	0x3e2bd3a5	0.16779955
88	0xbe0c11c4	-0.13678652
89	0x3e58848f	0.21144317
90	0x3dce83c6	0.100837275
91	0xbd54bedc	-0.05193983
92	0x3d387cf8	0.045041054
93	0x3e41a0ce	0.18908998
94	0x3e745e20	0.23864031
95	0xbcdccfae	-0.026954498
96	0xbda9d827	-0.08293181
97	0xbc0541d6	-0.008133372
98	0x3dc6f1bc	0.09714076
99	0xbe302c76	-0.1720446
100	0xbca71fa0	-0.020400822
101	0x3e1fba2f	0.15598367
102	0xbe3d9816	-0.18515047
103	0x3e52badf	0.20579098
104	0xbe252235	-0.1612633
105	0x3e4d9083	0.20074658
106	0x3d85cdb8	0.06533378
107	0x3e508723	0.2036405
108	0x3e0f9f56	0.14025626
109	0xbe7ecc8d	-0.24882717
110	0x3e1404f8	0.1445502
111	0xbe0a0bd4	-0.13481075
112	0x3dbdedf6	0.09273903
113	0x3e2edc1c	0.17076153
114	0x3e332dd4	0.17497951
115	0x3da1302b	0.078705154
116	0xbe37c969	-0.17947926
117	0xbb75d9f8	-0.0037513953
118	0xbe69e6d9	-0.22841968
119	0xbccd3996	-0.025051873
120	0xbe64638d	-0.223036
121	0xbc1fa760	-0.009744495
122	0xbe04b1a0	-0.12958384
123	0x3d560595	0.052251417
124	0xbe7ac31c	-0.24488491
125	0xbc048bc3	-0.008089962
126	0x3cfd3766	0.030910205
127	0x3e1f5123	0.15558295
128	0xbe508593	-0.20363455
129	0xbe54d4ed	-0.2078435
130	0xbe07ee51	-0.13274504
131	0x3db6c5ff	0.089244835
132	0x3e558335	0.20850833
133	0xbe014b87	-0.12626468
134	0x3e354410	0.17701745
135	0xbe3c2961	-0.1837516
136	0x3e31f5aa	0.1737887
137	0x3e35e7c3	0.17764191
138	0xbcc1d5fd	-0.023661608
139	0x3cc9f3c8	0.024652377
140	0x3e142998	0.14468992
141	0x3b8c281d	0.004277243
142	0x3d52e44d	0.051487256
143	0xbe197500	-0.14986038
144	0xbabe06a7	-0.0014497832
145	0xbdb2e772	-0.08735551
146	0xbd9a3460	-0.07529521
147	0x3e2c9c96	0.16856608
148	0xbd88e094	-0.0668346
149	0xbe70e288	-0.23523915
150	0xbdd529bc	-0.10408351
151	0xbe412c9e	-0.18864676
152	0x3bd720f0	0.0065652058
153	0xbe630033	-0.22168045
154	0xbdd269e0	-0.102741
155	0xbe7bc8d3	-0.24588327
156	0x3e272032	0.16320875
157	0xbe57ab97	-0.2106155
158	0xbdd52a62	-0.104084745
159	0xbe4214dd	-0.18953271
160	0x3d10016a	0.0351576
161	0x3e21fdea	0.15819517
162	0x3e1ac902	0.15115741
163	0x3e6471cf	0.2230904
164	0x3e6c7185	0.2309018
165	0xbd946921	-0.07246614
166	0x3df84ec6	0.121244
167	0xbe621a56	-0.22080359
168	0x3e65bfb0	0.22436404
169	0x3e106e06	0.1410447
170	0xbd832da5	-0.064051904
171	0x3e5647c1	0.2092581
172	0x3dcc5530	0.09977186
173	0x3e69e66a	0.22841802
174	0x3e2446f0	0.16042686
175	0xbdf4ba4f	-0.11949598
176	0xbd8b5c7d	-0.0680475
177	0x3e59023f	0.21192263
178	0xbe33c299	-0.17554702
179	0xbdca0e34	-0.0986599
180	0xbdf6fcd4	-0.12059942
181	0xbe486e2b	-0.19573276
182	0xbe219bc2	-0.15782073
183	0xbe465501	-0.19368364
184	0x3dc34ae4	0.09535769
185	0x3dc6de55	0.09710375
186	0xbc42f2d6	-0.011898717
187	0x3ddad26c	0.10684666
188	0x3c3bc084	0.0114594735
189	0x3c9e2d83	0.019308811
190	0xbcbc6b98	-0.023000523
191	0x3d8fd3dd	0.070228316
192	0xbe373562	-0.17891458
193	0xbd6ec4f0	-0.058293283
194	0xbe63d848	-0.22250473
195	0xbe33a052	-0.17541626
196	0x3df593f6	0.11991112
197	0x3d0bc6b1	0.034125034
198	0xbd50ad4c	-0.05094652
199	0x3e4a94f9	0.19783391
200	0xbcbef7d9	-0.023311542
201	0xbdf7dd2f	-0.12102734
202	0xbdeeb208	-0.116550505
203	0x3e4f55ed	0.20247622
204	0x3d9fcc6c	0.07802662
205	0x3e42a66e	0.190088
206	0x3d31f74b	0.043448728
207	0xbd9139fd	-0.070911385
208	0x3dfdc6a8	0.12391406
209	0x3ddbd222	0.10733439
210	0xbb66b22f	-0.003520142
211	0xbd091168	-0.033463866
212	0xbdccdb0a	-0.10002716
213	0x3dfd7788	0.123763144
214	0xbe2cb80b	-0.16867082
215	0x3e6a77c8	0.22897255
216	0xbdd5a7bb	-0.10432383
217	0xbdb05f50	-0.086119294
218	0x3e0e9431	0.13923718
219	0xbde7ba81	-0.1131487
220	0xbe57c03f	-0.2106943
221	0xbd330407	-0.043705013
222	0xbe5b9485	-0.21443374
223	0x3c8eec4b	0.017446658
224	0xbe426b58	-0.18986261
225	0xbe32495d	-0.17410798
226	0xbd253ef2	-0.040343232
227	0x3e3becd3	0.1835206
228	0xbe11be0a	-0.1423265
229	0xbb4c57c0	-0.0031180233
230	0x3d9a5797	0.07536238
231	0xbddf67e6	-0.10908489
232	0x3e11c9a0	0.1423707
233	0x3e183e94	0.14867622
234	0x3e88e56a	0.2673753
235	0xbdb1c45d	-0.086800314
236	0x3da38fcd	0.07986412
237	0xbd591776	-0.05300089
238	0x3caebf16	0.021331351
239	0x3d792faf	0.06083649
240	0x3e5b8c66	0.21440277
241	0x3e5ff4ce	0.2187073
242	0x3e3364c8	0.17518914
243	0x3e7e5cc2	0.24840072
244	0xbcf7d5ba	-0.03025328
245	0x3d71c649	0.05902699
246	0xbe3c424f	-0.1838467
247	0xbdfcac6f	-0.123375766
248	0x3c95a0e8	0.018265203
249	0x3d118466	0.035526656
250	0xbc3e7e09	-0.011626729
251	0xbdab4fc4	-0.083648235
252	0x3e63c680	0.2224369
253	0xbd5b6c2f	-0.05356997
254	0x3c0f278a	0.008737454
255	0x3d056a34	0.032571986

fc1.bias f4 [128]
0	0x3e1acc63	0.1511703
1	0x3e22f8bc	0.15915197
2	0x3e25fe71	0.16210343
3	0x3e3c920f	0.18415092
4	0x3cbcfa09	0.023068445
5	0x3da84626	0.08216505
6	0x3d2bb4f1	0.041920606
7	0xbdc507b1	-0.09620608
8	0x3dda1086	0.10647683
9	0xbe397839	-0.18112268
10	0xbe5efbdf	-0.21775769
11	0x3e744c7f	0.23857306
12	0x3e20d458	0.15706003
13	0xbd728a5e	-0.05921399
14	0x3db5a906	0.08870129
15	0x3e6d0060	0.23144674
16	0x3c501274	0.012699712
17	0x3e57aafb	0.21061318
18	0xbe229be6	-0.15879783
19	0x3dc9ebb0	0.09859407
20	0x3e358f3e	0.17730424
21	0x3da9a54e	0.082834825
22	0xbe206c4d	-0.15666313
23	0x3ccaa000	0.024734497
24	0xbe4f9403	-0.20271306
25	0x3ddd1db7	0.10796683
26	0x3c9afa3e	0.018918153
27	0x3e41925e	0.18903491
28	0xbdb189fb	-0.08668896
29	0x3d8248be	0.06361531
30	0xbba623dc	-0.0050701927
31	0xbe494660	-0.19655752
32	0x3d776fbb	0.06040929
33	0x3e7f5ecf	0.2493851
34	0x3dbfa206	0.093570754
35	0xbdba1896	-0.09086721
36	0xbded306c	-0.11581501
37	0x3c33881f	0.010957747
38	0x3e8aef6e	0.27135795
39	0xbe1efe7e	-0.15526769
40	0x3c9dbd1e	0.019255217
41	0x3e3fe288	0.18738759
42	0xbe31c3ac	-0.17359799
43	0x3e806272	0.25075108
44	0xbda61c86	-0.08110909
45	0x3e512d0b	0.20427339
46	0x3e87119f	0.2638063
47	0x3e32d467	0.17463838
48	0x3e83fe76	0.25780076
49	0xbe1328ca	-0.14371029
50	0x3de20888	0.110367835
51	0xbd4fc0b3	-0.05072088
52	0xbe17c8d3	-0.14822702
53	0xbe875a5c	-0.26436126
54	0xbd4beefe	-0.049788468
55	0x3e88bc7a	0.26706296
56	0x3c9918d9	0.018688606
57	0x3e7cf7ae	0.24703857
58	0xbe40707a	-0.18792906
59	0xbc32dec2	-0.010917367
60	0xbd479c1d	-0.048732866
61	0x3e80ccb6	0.25156182
62	0x3cacbb11	0.021085294
63	0xbe1fc2a0	-0.15601587
64	0x3dea1157	0.114290886
65	0xbe619ede	-0.2203326
66	0x3cb46a04	0.022023208
67	0x3db72bc3	0.08943894
68	0xbd8ac7cd	-0.0677639
69	0x3e28b479	0.16475095
70	0x3e8100e1	0.25195983
71	0x3da24f34	0.07925263
72	0xbe0ddbaf	-0.13853334
73	0x3d5f2ab0	0.05448407
74	0xbe363c8a	-0.17796531
75	0x3e19895b	0.14993803
76	0x3e34212b	0.17590778
77	0xbc2aea81	-0.010431887
78	0x3e61f3c8	0.22065651
79	0x3e1410dd	0.14459558
80	0x3d531bba	0.051540114
81	0xbe276adf	-0.16349362
82	0xbe784d0c	-0.24248141
83	0xbe29f9ed	-0.16599245
84	0x3dbf76c9	0.09348828
85	0x3e0b4391	0.13599993
86	0xbdbd98f7	-0.09257691
87	0xbd8802ed	-0.06641183
88	0xbddb04d0	-0.10694277
89	0x3a3d4b39	0.0007220987
90	0x3e0cccc7	0.13749991
91	0xbc8e9741	-0.017406108
92	0x3cb720dc	0.022354536
93	0x3e6986e3	0.22805361
94	0x3e50b6a6	0.20382175
95	0xbe895080	-0.2681923
96	0x3de99003	0.11404421
97	0xbe57971d	-0.21053739
98	0xbe50d9fc	-0.20395654
99	0x3d3e274b	0.04642419
100	0x3e276469	0.16346897
101	0xbe4d05fa	-0.20021811
102	0x3e23249d	0.15931936
103	0xbd79cd23	-0.06098665
104	0x3e075b69	0.13218464
105	0x3e5742ee	0.21021625
106	0x3d116c67	0.03550377
107	0xbe22505b	-0.15850966
108	0x3e2672c1	0.16254713
109	0x3e0c68c4	0.1371184
110	0xbdbef6f2	-0.09324445
111	0xbcffd887	-0.031231178
112	0xbc0a6d05	-0.008448844
113	0x3e5dfdf0	0.216789
114	0xbe2a5984	-0.1663571
115	0x3e81fc68	0.25387883
116	0xbe12de51	-0.1434262
117	0xbe2ebf4d	-0.17065163
118	0xbe260606	-0.16213235
119	0x3e5c794f	0.2153065
120	0x3d8282b6	0.063725874
121	0x3cfe771e	0.031062659
122	0x3e2f54b3	0.17122154
123	0x3d803c42	0.06261493
124	0xbe71c94f	-0.2361195
125	0x3e3a1bb9	0.18174638
126	0x3dbbfa63	0.09178617
127	0xbe15a000	-0.14611816

fc2.weight f4 [64, 128]
0	0x3d90759e	0.07053684
1	0xbcfbfb2b	-0.030759415
2	0x3cab998a	0.020947237
3	0xbb96e8bf	-0.004605382
4	0x3d61783b	0.0550463
5	0x3d604bb1	0.054759685
6	0x3d705489	0.05867437
7	0x3d3967d1	0.045265023
8	0x3bf8283f	0.007573157
9	0xbce8b37c	-0.028405897
10	0x3c5a9933	0.01334219
11	0x3d9669e8	0.07344419
12	0xbcedd091	-0.029030116
13	0x3b5baee2	0.0033520986
14	0x3d10b018	0.035324186
15	0x3cb9548d	0.022623325
16	0x3bde09dd	0.006776078
17	0x3bd0959b	0.0063654906
18	0xbd29c7c4	-0.041450277
19	0x3d0b94c5	0.034077425
20	0x3d0518c5	0.032494325
21	0xbdbb9695	-0.091595806
22	0x3d69eb9c	0.05710946
23	0xbd6b1db1	-0.057401363
24	0x3da36128	0.079775155
25	0x3ccdabb8	0.025106296
26	0xbb75b3f2	-0.003749129
27	0x3da77a2a	0.08177598
28	0xbdedb3fd	-0.11606596
29	0xbc6dd491	-0.014516012
30	0x3d4448ae	0.047920875
31	0x3d43d45a	0.047809936
32	0xbd20d55b	-0.03926597
33	0x3d25605c	0.0403751
34	0xbd98d3b4	-0.07462254
35	0x3db3e7a4	0.08784416
36	0xbd7f27b6	-0.06229373
37	0xbc2604ea	-0.010133008
38	0xbc3e9aca	-0.011633584
39	0x3d901072	0.07034387
40	0x3dcac627	0.09901076
41	0x3d2d0525	0.042241234
42	0xbd49a77e	-0.049232
43	0x3b60f69e	0.0034326683
44	0xbdd02df4	-0.10165015
45	0x3dcff521	0.101541765
46	0x3cda36d6	0.026637476
47	0xbc4e1853	-0.0125790415
48	0x3d5a92d2	0.053362675
49	0x3d922294	0.071355015
50	0x3bbe39aa	0.005805214
51	0xbd8bf9b9	-0.0683474
52	0x3ce472a5	0.027886698
53	0xbd63bdc6	-0.055600904
54	0x3d75d016	0.0600129
55	0xbcf92240	-0.03041184
56	0xbc93a016	-0.01802067
57	0xbcad0fe5	-0.021125743
58	0xbd91fe16	-0.07128541
59	0x3cbebeaf	0.023284284
60	0x3db1897e	0.08668803
61	0xbd5dfd1e	-0.05419647
62	0xbd6cb67a	-0.05779121
63	0x3d2ceb44	0.042216554
64	0x3d11c28b	0.03558592
65	0x3cf2b801	0.029628756
66	0x3d9d4645	0.076794185
67	0xbd8ed809	-0.06974799
68	0xbd7d2fac	-0.06181304
69	0xbd7aeb1a	-0.061259367
70	0x3a644657	0.0008707991
71	0x3d8055b9	0.0626635
72	0xbd459f1e	-0.04824745
73	0xbca22cc5	-0.019796738
74	0x3c7a1b30	0.015265271
75	0x3c6977ad	0.014249724
76	0x3d742674	0.059606984
77	0xbd09f3ca	-0.03367976
78	0x3dc9dd0d	0.09856615
79	0x3d9f9f10	0.07794011
80	0xbc9f31d7	-0.019432945
81	0xbd27655c	-0.04086815
82	0xbdb756e0	-0.08952117
83	0xbd7c8b7e	-0.061656468
84	0x3bcb7816	0.0062093837
85	0xbdaf4158	-0.08557385
86	0xbde0b161	-0.10971332
87	0x3d4eff36	0.050536357
88	0xbd9df191	-0.07712091
89	0x3d390317	0.045168962
90	0x3d335bec	0.043788835
91	0x3d8482fa	0.06470294
92	0x3c6a19b2	0.014288353
93	0xbb1c0f92	-0.0023812992
94	0x3dfbce29	0.12295181
95	0xbd66514f	-0.056229886
96	0xbb47b313	-0.0030471727
97	0x3a2b1954	0.00065269065
98	0xbde38307	-0.11108976
99	0x3d3707c2	0.044685133
100	0xbc9fb58e	-0.019495752
101	0x3c4d5196	0.012531659
102	0x3cceaf63	0.025230115
103	0xbcb34994	-0.02188567
104	0x3d08a361	0.033358935
105	0xbcf530a8	-0.029930428
106	0xbc5c32ac	-0.0134398155
107	0xbdac1735	-0.08402864
108	0xbd02b5f6	-0.031911813
109	0xbd0747fd	-0.033027638
110	0xbddb7121	-0.10714937
111	0xbd5bb8dd	-0.053643096
112	0xbd3fd8e7	-0.046837714
113	0x3d324f95	0.043532927
114	0xbc748652	-0.014924603
115	0x3dafd1c0	0.085849285
116	0xbdbb8434	-0.09156075
117	0x3d064d1b	0.032788377
118	0xbda9644e	-0.08271085
119	0x3d828488	0.063729346
120	0x3d918e32	0.071072
121	0x3d20b645	0.039236326
122	0x3cdf5fc5	0.027267346
123	0xbd5680ac	-0.052368805
124	0x3d1a6ad1	0.037699524
125	0x3dc8ae10	0.09798825
126	0xbc885d7a	-0.016646136
127	0xbca1c925	-0.019749233
128	0x3dcf3a7c	0.10118577
129	0x3dce6db4	0.10079518
130	0x3de0ef85	0.10983185
131	0xbd8e909c	-0.06961176
132	0x3d9940a3	0.074830316
133	0x3c59866b	0.013276677
134	0xbd9b6a02	-0.07588579
135	0x3dc1d123	0.09463718
136	0xbd6fecaf	-0.05857533
137	0xbc43fd97	-0.011962316
138	0xbdb72b5d	-0.08943818
139	0x3c8c70e3	0.017143672
140	0xbcfa9b45	-0.030591616
141	0x3dd65665	0.10465697
142	0x3d53a92e	0.051675014
143	0x3d915208	0.07095724
144	0x3d5f7812	0.054557867
145	0x3d556d68	0.05210629
146	0x3d892e8a	0.0669833
147	0x3d211aff	0.039332386
148	0x3d1a3a9a	0.037653543
149	0xbd9403c1	-0.072272785
150	0x3cfd43ad	0.03091606
151	0xbd7c1c2c	-0.061550304
152	0xbb96791e	-0.004592075
153	0xbd70d1fa	-0.058794
154	0x3dba61da	0.09100695
155	0x3ccd5548	0.02506508
156	0xbde988b0	-0.11403024
157	0xbdcae856	-0.09907596
158	0x3d84c8f8	0.06483644
159	0x3d2a42cb	0.041567605
160	0x3dd17c0c	0.10228738
161	0x3d06c1b9	0.032899592
162	0x3cc07fb6	0.023498397
163	0x3cb139f8	0.021634087
164	0xbdde8fe8	-0.10867292
165	0x3d5987c1	0.05310798
166	0xbd0e4fc7	-0.03474405
167	0x3ca34d1f	0.019934235
168	0xbd736260	-0.05941999
169	0xbb543f0a	-0.0032386207
170	0x3cb0fa28	0.021603659
171	0xbd1afd45	-0.037839193
172	0x3ccdcd5a	0.025122333
173	0x3d8dcdff	0.06924056
174	0x3cf022af	0.029313413
175	0x3d1a1820	0.037620664
176	0x3d8e9068	0.06961137
177	0xbd979687	-0.07401758
178	0x3ddab586	0.10679154
179	0xbd18ae5a	-0.03727565
180	0x3d5a32a1	0.05327094
181	0xbda4c718	-0.080457866
182	0xbd9f5cee	-0.07781397
183	0x3d87abbb	0.06624552
184	0x3c9202f8	0.017823681
185	0x3de02b3e	0.10945748
186	0x3d03f40f	0.032215174
187	0xbd6177ba	-0.05504582
188	0x3d6f5dd9	0.05843911
189	0x3da2060a	0.07911308
190	0x3cd6272c	0.026141725
191	0xbce79af3	-0.028272128
192	0xbb50a3fe	-0.0031836028
193	0xbd92f2f8	-0.07175249
194	0x3d9dcfef	0.07705676
195	0x3d03262a	0.032018818
196	0xbc96c7f1	-0.018405886
197	0x3d89f7d4	0.067367226
198	0xbd4798a6	-0.04872956
199	0x3d862b8e	0.06551276
200	0xbbb3a31f	-0.005482092
201	0xbd7c9d7c	-0.061673626
202	0xbcb77891	-0.022396358
203	0x3b91b786	0.0044469265
204	0xbd961f6f	-0.07330214
205	0xbd06612c	-0.032807514
206	0x3bd62ab0	0.0065358505
207	0x3d878999	0.066180415
208	0xbdb3592e	-0.08757244
209	0xbd0553a8	-0.032550484
210	0x3d4f7bde	0.05065524
211	0xbda18961	-0.07887531
212	0x3c018cfd	0.007907149
213	0x3d0e0394	0.03467138
214	0x3cee0afc	0.029057972
215	0xbd3a9891	-0.045555655
216	0x3b91799e	0.0044395467
217	0xbd1495cd	-0.036275674
218	0xbc20ad58	-0.009806953
219	0x3d41c06a	0.04730264
220	0x3bfc892b	0.0077067814
221	0x3db3ba14	0.08775726
222	0x3db5c8fe	0.08876227
223	0x3d1bf102	0.03807164
224	0xbd7584a0	-0.059940934
225	0xbd02cb5f	-0.03193223
226	0xbd46c762	-0.04852999
227	0x3ccf4eaa	0.025306065
228	0x3cf98d6b	0.030462941
229	0xbce6ef9b	-0.028190425
230	0x3d8658c4	0.065598994
231	0xbd8120fd	-0.0630512
232	0xbd7ad338	-0.06123659
233	0xbc1c6a7e	-0.009546874
234	0x3bb29d0f	0.0054508517
235	0xbd49e4c2	-0.049290426
236	0x3c77a19c	0.015114214
237	0x3d368b76	0.044566594
238	0xbda17b6e	-0.078848705
239	0x3dc62572	0.09675111
240	0x3ca71483	0.020395523
241	0xbd20323b	-0.039110404
242	0x3d9b61c3	0.07587006
243	0x3d123d2d	0.035702873
244	0xbcf41bcb	-0.029798409
245	0x3dc93b5e	0.098257765
246	0x3cdd923f	0.027047275
247	0x3b980ecb	0.0046404353
248	0x3d622e92	0.055220194
249	0x3d025a7b	0.03182457
250	0xbcbe0001	-0.023193361
251	0xbc721dfb	-0.014777656
252	0xbd02691d	-0.031838525
253	0xbd28200e	-0.041046195
254	0x3ce6ac5f	0.028158365
255	0x3c0cdf1e	0.008598117

fc2.bias f4 [64]
0	0x3cfc1b9e	0.030774888
1	0x3c10d628	0.008840121
2	0xbd631071	-0.0554356
3	0x3d3f4e87	0.04670575
4	0xbdbb418d	-0.09143362
5	0xbcc94402	-0.024568561
6	0x3d036c5b	0.032085758
7	0x3cbc1ee6	0.022963952
8	0x3dd65c2b	0.104667984
9	0xbdd57c9b	-0.10424157
10	0x3cc0adb6	0.023520332
11	0xbd545605	-0.051839847
12	0xbd4db18d	-0.050218154
13	0xbc8e3c7c	-0.017362826
14	0x3ce21ed8	0.027602598
15	0xbd672cc3	-0.056439172
16	0x3dd86dea	0.105678394
17	0x3c6740d3	0.014114576
18	0xba3c07a3	-0.0007172769
19	0x3d24ebfb	0.04026411
20	0x3c8890fa	0.016670693
21	0xbd8b6d49	-0.06807954
22	0x3c89a30f	0.016801385
23	0xbd632e8e	-0.05546432
24	0xbdafecfb	-0.08590122
25	0xbd2da3ee	-0.042392664
26	0xbdcac75b	-0.09901305
27	0xbda6be29	-0.08141739
28	0xbaecf7d9	-0.0018079235
29	0x3c805fd9	0.015670704
30	0x3b392325	0.0028249708
31	0xbd5dad85	-0.05412056
32	0x3daf73b4	0.085669905
33	0xbd9cbf66	-0.07653694
34	0xbd969957	-0.07353466
35	0xbd914242	-0.07092716
36	0xbd5379e6	-0.051629923
37	0xbdb0db4f	-0.0863558
38	0x3cc33e01	0.023833277
39	0xbd74bfa0	-0.05975306
40	0x3be0c661	0.006859586
41	0x3d45fb30	0.048335254
42	0x3d1f42f6	0.03888222
43	0xbd83d7f7	-0.064376764
44	0xbca223af	-0.019792406
45	0x3cf1c961	0.02951497
46	0x3de00200	0.109378815
47	0x3ca77a04	0.020443924
48	0x3d3d6883	0.04624225
49	0xbdb86129	-0.09002907
50	0xbd82dab1	-0.06389368
51	0xba776cb2	-0.0009438499
52	0x3c93e0b3	0.01805148
53	0x3c9b1cde	0.018934663
54	0xbd6d873c	-0.057990298
55	0x3d07f7e6	0.0331954
56	0x3d0b7cff	0.034054752
57	0x3c1b1871	0.0094662765
58	0xbdcf68c9	-0.10127408
59	0x3dcfe583	0.10151198
60	0xbc90c4a9	-0.0176719
61	0x3dcb246b	0.099190556
62	0x3b8433ea	0.004034509
63	0xbc2ded2f	-0.010615631

fc3.weight f4 [32, 64]
0	0xbe029307	-0.12751399
1	0xbd0578f9	-0.03258607
2	0xbd97ff1e	-0.074217066
3	0x3e0e4a3b	0.13895504
4	0xbdbe2073	-0.09283533
5	0xbdf5b6cd	-0.11997757
6	0x3d5f7c37	0.05456182
7	0xbe009895	-0.12558205
8	0x3d64b43f	0.05583596
9	0xbc556bc0	-0.013026178
10	0x3e180674	0.14846212
11	0xbbd72a60	-0.006566331
12	0xbd2edd2e	-0.042691402
13	0xbd8d3997	-0.0689575
14	0xbd01024a	-0.031496324
15	0xbdd2b307	-0.10288053
16	0xbd2651f8	-0.040605515
17	0xbd94172d	-0.07230983
18	0x3a8c0f4c	0.0010685711
19	0x3df8e58b	0.12153157
20	0xbc5c73b6	-0.013455322
21	0x3d86075d	0.06544373
22	0xbd376216	-0.044771276
23	0x3d7109e9	0.05884734
24	0xbda9fcc7	-0.083001666
25	0xbd34b15d	-0.04411446
26	0x3da0eeb1	0.07858027
27	0x3c845be7	0.016157104
28	0x3d8c4457	0.06848972
29	0xbdd26f01	-0.102750786
30	0xbe0b0d35	-0.13579257
31	0x3e0c62fd	0.13709636
32	0xbd372d5e	-0.044721
33	0xbd9a8a98	-0.07545966
34	0x3daddb39	0.08489079
35	0x3dc1d08b	0.094636045
36	0x3df15cae	0.11785255
37	0x3da0e7d1	0.078567155
38	0x3d11162b	0.03542153
39	0x3de0f600	0.10984421
40	0xbddcb30c	-0.10776338
41	0x3de99c54	0.1140677
42	0x3da9b402	0.08286287
43	0x3d51d4ec	0.05122845
44	0xbdda7185	-0.106661834
45	0x3ddd07e6	0.10792522
46	0xbe0d9435	-0.13826068
47	0x3df5ef64	0.12008551
48	0xbde21fb5	-0.11041204
49	0x3d9ef9ab	0.07762464
50	0xbda62f27	-0.08114462
51	0xbe191324	-0.14948708
52	0x3dbd9bc6	0.09258227
53	0x3c921bd9	0.017835544
54	0xbcfb0110	-0.030640155
55	0x3d8242d1	0.063604005
56	0x3db7c85a	0.08973761
57	0xbd906d04	-0.07052043
58	0x3d6e4772	0.058173604
59	0x3b6ce5a2	0.0036147614
60	0x3d9626b5	0.073316015
61	0xbd8ccc4c	-0.06874904
62	0xbd8bef2e	-0.06832729
63	0xbd81bdf0	-0.06335056
64	0x3d2429fa	0.040079094
65	0x3d3d55e2	0.046224482
66	0xbdb2b31d	-0.087255694
67	0xbd2234bd	-0.039601076
68	0x3c6774fe	0.014127014
69	0x3dbe416b	0.09289821
70	0x3e24f812	0.16110256
71	0x3e14a034	0.14514238
72	0x3bbd03ff	0.0057682986
73	0xbdf1c2aa	-0.11804707
74	0x3e1bd0d9	0.15216388
75	0x3d655320	0.055987477
76	0x3d20f063	0.03929175
77	0x3c1f45e0	0.009721249
78	0xbbab240b	-0.0052228025
79	0x3d238f2e	0.03993147
80	0x3d8cc47c	0.06873414
81	0x3c12710e	0.008938087
82	0x3e127b67	0.14304887
83	0xbd35c087	-0.04437306
84	0x3d5cb6a2	0.05388511
85	0x3cffb4b5	0.031214098
86	0x3da88fa6	0.08230524
87	0xbc84e5f3	-0.01622293
88	0x3c9279db	0.01788037
89	0xbdf64007	-0.12023931
90	0x3d767138	0.060166568
91	0xbda5f963	-0.08104207
92	0xbc5f8e20	-0.013644725
93	0xbaa6a045	-0.0012712559
94	0xbdeae498	-0.11469382
95	0x3d466cb3	0.048443507
96	0x3d17d962	0.037072547
97	0x3d2d128f	0.042254027
98	0x3d167395	0.03673132
99	0xbd2e3410	-0.04253012
100	0xbb098fb4	-0.0020990195
101	0xbe1a3aed	-0.15061541
102	0x3e1e5a32	0.15464094
103	0xbe0df1b9	-0.13861741
104	0x3daa0454	0.08301607
105	0xbd54ed4e	-0.051984124
106	0xbda6d7a8	-0.08146602
107	0xbd09a65b	-0.033605915
108	0x3cdb7c94	0.026792802
109	0x3dc67b30	0.09691465
110	0xbc864c7f	-0.016393898
111	0xbe0dc4c5	-0.13844593
112	0x3e24e50b	0.16102998
113	0x3d011897	0.03151759
114	0x3d92e88b	0.0717326
115	0x3d1f6e80	0.03892374
116	0xbe1e35e6	-0.15450248
117	0x3d5a36af	0.053274807
118	0x3df3e216	0.11908357
119	0xbda4dccc	-0.08049926
120	0x3cbb6397	0.022874637
121	0xbce80b2e	-0.028325643
122	0x3b604243	0.0034219183
123	0x3cc90284	0.024537332
124	0xbe274a88	-0.16337025
125	0x3e12f603	0.14351659
126	0x3d6fe78a	0.058570422
127	0xbd681627	-0.05666175
128	0xbe05d452	-0.13069275
129	0xbd676450	-0.05649215
130	0x3df5d6fd	0.120038964
131	0x3d0f3442	0.034961946
132	0xbc440556	-0.011964163
133	0x3cdd892f	0.027042953
134	0xbe149afa	-0.14512244
135	0xbbdd4b12	-0.006753334
136	0xbce08e63	-0.027411645
137	0x3d94e5e8	0.07270414
138	0x3d7a60aa	0.061127342
139	0x3d8db1cb	0.06918677
140	0xbc628ebf	-0.013827979
141	0x3dbd97e7	0.09257489
142	0x3e0366f1	0.12832238
143	0xbb7251e1	-0.0036975073
144	0xbd1079f5	-0.035272557
145	0xbd93e3ad	-0.0722116
146	0x3b91ad20	0.004445687
147	0x3c9dcd64	0.019262977
148	0x3c57fb6a	0.0131825
149	0x3e0abf81	0.13549615
150	0xbd713554	-0.05888875
151	0x3ca51ba4	0.020154782
152	0x3dcf19d5	0.10112349
153	0x3d267e71	0.040647928
154	0xbdace226	-0.08441572
155	0x3c488db7	0.012240819
156	0x3d14da06	0.036340736
157	0xbd131f7e	-0.035918705
158	0x3da48f86	0.080351874
159	0xbde76044	-0.11297658
160	0xbd23e47e	-0.04001283
161	0x3cdbc5fc	0.026827805
162	0xbdd062a1	-0.10175062
163	0x3d8b223c	0.06793639
164	0x3dc4e168	0.09613305
165	0x3e0f5444	0.13996989
166	0x3b15e550	0.0022872277
167	0x3e00536c	0.12531823
168	0xbde41c33	-0.11138191
169	0xbd197940	-0.03746915
170	0xbd758b16	-0.059947096
171	0xbd8e7b00	-0.06957054
172	0xbb770b50	-0.0037695952
173	0xbdbab282	-0.09116079
174	0xbe11d53f	-0.14241503
175	0xbb1be3a3	-0.0023786805
176	0xbda284b5	-0.07935468
177	0xbd21a406	-0.039463066
178	0xbbcc897e	-0.0062419763
179	0xbdcab6f9	-0.098981805
180	0xbd1fd634	-0.03902264
181	0xbcbe4d4a	-0.023230214
182	0xbe091552	-0.1338704
183	0xbd34a5b5	-0.044103343
184	0xbe12c283	-0.14332013
185	0xbced5a8c	-0.02897384
186	0x3d5df8c0	0.054192305
187	0xbe0a1194	-0.13483268
188	0x3d14c06f	0.03631633
189	0xbe06146b	-0.13093726
190	0xbdafe3a8	-0.08588344
191	0xbdf30f5b	-0.11868163
192	0x3cd854dd	0.026407653
193	0x3e0bc9ef	0.1365125
194	0xbdc1feb2	-0.094724074
195	0x3d2a125b	0.04152141
196	0xbd24c328	-0.040225178
197	0x3d911312	0.070837155
198	0x3c60aa9f	0.013712554
199	0x3da00642	0.078136936
200	0x3d873e72	0.066037074
201	0xbab2b543	-0.0013634342
202	0x3c77b5c2	0.015119018
203	0xbcc139d9	-0.023587154
204	0x3d0a4451	0.033756558
205	0x3d80253c	0.06257102
206	0x3b1bd72f	0.0023779382
207	0xbc9e30a6	-0.019310307
208	0x3e199e97	0.15001903
209	0x3e0d5144	0.13800532
210	0xbd500204	-0.050783172
211	0x3c8ecd7d	0.017431969
212	0x3d349b08	0.04409316
213	0xbe20d25d	-0.15705247
214	0x3e1fb0e3	0.1559482
215	0xbcfbf131	-0.030754657
216	0xbdeca193	-0.11554255
217	0xbd563091	-0.05229241
218	0xbdc5dbb0	-0.09661043
219	0x3d5a224c	0.053255364
220	0xbc580545	-0.01318485
221	0xbe00b69b	-0.12569658
222	0x3d4f77d4	0.050651386
223	0x3decf78c	0.11570653
224	0xbd89a728	-0.06721336
225	0xbe1387d3	-0.14407282
226	0xbc6919a0	-0.014227301
227	0xbe17325f	-0.14765309
228	0x3ca4053c	0.020022027
229	0xbc0c6a9f	-0.008570342
230	0x3b5650e2	0.0032702019
231	0x3da1c850	0.07899535
232	0xbd56c1cf	-0.052430924
233	0xbd2798bb	-0.04091714
234	0x3bb38dce	0.005479551
235	0x3db9f87a	0.09080596
236	0xbdd214a7	-0.10257845
237	0x3e174230	0.14771342
238	0x3d5f5c80	0.054531574
239	0xbd2e38d3	-0.04253466
240	0x3d434984	0.04767753
241	0x3dc41125	0.095735826
242	0x3d5fc02f	0.05462664
243	0xbdbc51b8	-0.09195274
244	0x3d0f8330	0.03503722
245	0x3d17d874	0.03707166
246	0x3cadd0cd	0.021217728
247	0x3e152c95	0.14567788
248	0x3c9fc338	0.019502267
249	0x3be8c939	0.0071040657
250	0xbe1f2852	-0.15542725
251	0xbce39a8d	-0.027783656
252	0xbde91014	-0.1138002
253	0x3d6583ba	0.056033827
254	0xbcdd9f7c	-0.027053587
255	0x3e1d9313	0.15388136

fc3.bias f4 [32]
0	0x3d665927	0.056237366
1	0xbbea734b	-0.0071548573
2	0xbd91c2e8	-0.071172535
3	0x3d9f13aa	0.077674225
4	0x3dadde32	0.08489646
5	0x3d8d1f9e	0.06890796
6	0xbc0041cf	-0.00782819
7	0xbd120a16	-0.03565415
8	0xbd2127f4	-0.039344743
9	0xbd8e5b1f	-0.06950974
10	0xbdc0f9bd	-0.09422634
11	0x3dcdaf9a	0.10043259
12	0xbde970c0	-0.113984585
13	0xbc01570a	-0.007894287
14	0x3d9ed96b	0.07756313
15	0x3d0674a2	0.032826073
16	0x3df60df9	0.12014384
17	0xbda34e8d	-0.07973967
18	0x3c1cb37f	0.00956428
19	0x3d07c8ac	0.03315036
20	0x3d3337da	0.043754436
21	0xbd88fb36	-0.0668854
22	0xbddcd897	-0.10783499
23	0x3d70b4b0	0.058766067
24	0x3d577428	0.05260101
25	0x3e07cbb5	0.13261302
26	0xbd5a00eb	-0.05322353
27	0xbc080fcb	-0.008304547
28	0x3df78fb3	0.12087955
29	0x3dc5070e	0.09620486
30	0xbcfa4f32	-0.030555341
31	0xbdc59029	-0.09646637

fc4.weight f4 [5, 32]
0	0xbd3dfb14	-0.046382025
1	0xbde2193f	-0.110399716
2	0x3e23641c	0.15956157
3	0xbe1c3f26	-0.15258464
4	0x3cf27afa	0.029599655
5	0xbda0a794	-0.07844463
6	0xbe4d78ae	-0.20065567
7	0x3d31f72a	0.043448605
8	0x3dee9135	0.1164879
9	0xbd0a113a	-0.033707835
10	0xbdb1d000	-0.08682251
11	0xbcc297ed	-0.023754084
12	0x3e3292c2	0.17438796
13	0xbd9dd6ff	-0.07707023
14	0x3dad9c43	0.0847707
15	0xbe1bfaa7	-0.15232335
16	0xbe0421e1	-0.12903549
17	0x3e174bcb	0.14775006
18	0xbda21c2f	-0.07915532
19	0x3e4dd8f2	0.2010229
20	0x3e3be0fb	0.18347542
21	0xbe4a995f	-0.19785069
22	0x3e2beb0b	0.1678888
23	0x3df6e439	0.12055249
24	0x3e2dba87	0.16965686
25	0x3e025574	0.1272791
26	0x3e17041e	0.14747664
27	0xbdbd1e26	-0.09234266
28	0xbe19deef	-0.15026449
29	0xbe3da40a	-0.18519607
30	0xbb5a6be1	-0.003332846
31	0xbc4cf0a8	-0.012508549
32	0xbd8db48b	-0.069192015
33	0x3e15bd10	0.14622903
34	0xbe00a19f	-0.12561654
35	0xbc988e3c	-0.01862251
36	0xbd74b809	-0.059745822
37	0x3d4c9ec0	0.049956083
38	0xbc72a1b2	-0.014809059
39	0xbc8b56cf	-0.017009167
40	0xbd62c84f	-0.05536681
41	0x3e17b396	0.148146
42	0xbe066ef2	-0.1312826
43	0x3dd7b3d2	0.10532345
44	0x3e15fb3c	0.1464662
45	0x3e241699	0.16024245
46	0x3e2d2dad	0.16911955
47	0xbe48efbd	-0.19622703
48	0x3de325f7	0.110912256
49	0x3c3044e5	0.010758613
50	0x3da7220d	0.081607915
51	0x3d9d90e2	0.0769365
52	0xbc9e28ef	-0.019306628
53	0xbe08cda8	-0.13359702
54	0xbc472a8d	-0.012156141
55	0x3ce4dcb8	0.027937278
56	0x3e01fba6	0.12693653
57	0xbd27602c	-0.0408632
58	0x3d4460e0	0.04794395
59	0xbde5de1f	-0.11224007
60	0xbe08711f	-0.13324402
61	0x3deca182	0.11554243
62	0xbdeb5d75	-0.11492435
63	0x3def91d3	0.11697736
64	0x3db92a42	0.09041263
65	0x3bb27720	0.0054463297
66	0x3c411d38	0.011786751
67	0x3e2f9a10	0.17148614
68	0xbce30e57	-0.027716799
69	0xbe2d20a9	-0.1690699
70	0xbda89533	-0.082315825
71	0xbd15c6da	-0.036566593
72	0xbb4a3067	-0.0030851604
73	0x3ca33835	0.019924263
74	0x3d8b0f3b	0.06790014
75	0xbdd2b21f	-0.1028788
76	0x3dd14072	0.1021737
77	0xbdea9b8b	-0.11455449
78	0xbd8dc749	-0.06922776
79	0x3de40a84	0.11134818
80	0x3e41e862	0.18936303
81	0x3dd5181d	0.1040499
82	0x3e2a488b	0.16629235
83	0xbd815caa	-0.063165024
84	0xbd6128df	-0.05497062
85	0xbe340633	-0.1758049
86	0xbc8baed9	-0.017051147
87	0xbcfdb9e5	-0.03097243
88	0xbd8d6c67	-0.06905442
89	0x3deef08e	0.11666976
90	0xbde5d064	-0.11221388
91	0xba3440b9	-0.00068760995
92	0xbba931e9	-0.0051634205
93	0xbd708445	-0.058719892
94	0xbe2eb9d9	-0.17063083
95	0x3d4c7a98	0.049921602
96	0xbdfec359	-0.12439603
97	0x3ddb07fa	0.10694881
98	0x3db91e64	0.09039
99	0xbcc52b1b	-0.024068406
100	0xbe0a7259	-0.13520183
101	0xbc573487	-0.013135082
102	0xbb879f0c	-0.004138833
103	0x3a394838	0.00070679514
104	0xbdf5b354	-0.11997095
105	0xbe5c94f1	-0.21541192
106	0x3d56a168	0.052400023
107	0x3e3736f3	0.17892055
108	0xbd71cb09	-0.05903152
109	0x3df4ee13	0.119594716
110	0x3e19c35f	0.15015934
111	0xbe0447ad	-0.12917967
112	0xbe0e2621	-0.13881733
113	0xbde64b38	-0.112448156
114	0xbe024607	-0.12722026
115	0x3e498e0e	0.19683096
116	0x3e3bb9f2	0.18332651
117	0xbe39e09f	-0.18152092
118	0x3d809a2b	0.06279405
119	0xbd3a3e7f	-0.045469757
120	0xbdbe9efe	-0.09307669
121	0xbe43f2b7	-0.19135557
122	0xbd2dce4e	-0.042433076
123	0x3e089283	0.1333714
124	0x3d59064a	0.052984513
125	0x3c05c2c7	0.008164114
126	0xbcb2b4a0	-0.021814644
127	0x3e1453da	0.14485112
128	0xbdc82967	-0.09773522
129	0x3e247e48	0.16063797
130	0xbe1395b7	-0.1441258
131	0x3e5e4543	0.21706109
132	0xbe227cd6	-0.15867934
133	0x3e043d4c	0.12914008
134	0x3d2192e0	0.03944671
135	0xbe01e6c2	-0.12685683
136	0xbdf555d5	-0.11979262
137	0x3e1ac153	0.1511281
138	0x3e611fdd	0.21984811
139	0xbe44e43f	-0.19227694
140	0xbe194e74	-0.14971334
141	0xbe44444d	-0.1916668
142	0xbd89bc3a	-0.067253545
143	0x3e47a50e	0.19496557
144	0xbd8a2e64	-0.067471296
145	0xbd8b862c	-0.06812701
146	0xbe3b7355	-0.18305714
147	0x3d8182df	0.0632379
148	0xbe0d604d	-0.13806267
149	0x3e15b093	0.14618139
150	0xbe046103	-0.12927632
151	0xbe111ea2	-0.14171842
152	0xbe53d4f6	-0.20686707
153	0x3e405817	0.18783604
154	0xbc7d9645	-0.015477722
155	0xbe447891	-0.19186617
156	0x3d68585e	0.0567249
157	0xbd8ab774	-0.06773272
158	0x3e58363f	0.21114443
159	0xbe43df35	-0.19128115

fc4.bias f4 [5]
0	0x3e0c98a3	0.13730101
1	0xbd5fd39f	-0.054645177
2	0xbc5dcaad	-0.013537091
3	0x3d3a94c5	0.045552034
4	0xbddd7119	-0.10812587
