clean_code/trained_models/actor_1368.pth (torch, 54884 bytes, 8 tensors)

fc1.weight f4 [128, 18]
0.1572357 0.08863297 -0.15018214 0.19238415 0.12409421 -0.06440882 0.03136255 0.025366804
0.0964239 -0.06425751 -0.14511417 0.0043752403 0.21505697 0.08265473 0.14915976 0.0323877
-0.22305506 0.2546611 0.14017192 0.16745578 0.09064241 -0.07780529 0.07046798 -0.017176853
0.14730032 0.20494285 0.10003187 0.046183538 0.14884177 0.14375056 -0.17046827 -0.13691002
-0.09180844 0.05799101 -0.16069469 0.039535183 0.15313114 0.08882649 -0.14326207 0.063062735
-0.1770953 0.034049597 0.19461077 0.15419981 -0.060394872 -0.17195286 -0.10363115 0.17820169
0.26007974 0.09639265 0.06412442 -0.10620751 0.20734401 0.055210445 0.12887046 -0.0385701
0.16547811 0.026606698 -0.18271393 -0.13434921 -0.19175647 -0.18737587 -0.124027155 0.16334744
0.09802947 -0.10361753 0.20994714 0.18564402 -0.00538437 -0.18519694 0.16673492 -0.06207813
-0.07527557 0.23446111 -0.031374115 -0.20228639 0.21381374 0.15962808 -0.09554148 0.26124966
-0.026928604 0.042609513 0.06639513 0.0988883 0.023668297 -0.13101941 0.24242032 0.16856529
-0.13649154 0.21191713 0.10195394 -0.051206823 0.046459474 0.19016095 0.23970819 -0.02587987
-0.081858136 -0.007063121 0.09781196 -0.17098092 -0.019335313 0.15821096 -0.18332563 0.20579098
-0.16115315 0.201594 0.06574297 0.20548886 0.13999647 -0.24900514 0.14355741 -0.1350744
0.09247561 0.17049652 0.17471439 0.078467 -0.17963757 -0.004539845 -0.22868213 -0.025626732
-0.22341828 -0.009744495 -0.12958425 0.051752895 -0.2450052 -0.00865748 0.03144466 0.15597141
-0.20261411 -0.20728925 -0.13219342 0.08980154 0.20906228 -0.12574655 0.17737225 -0.18290058
0.1743407 0.17878954 -0.02284216 0.024652377 0.14473143 0.0050651263 0.05169054 -0.14958617
-0.0022741894 -0.0879326 -0.07646919 0.16777587 -0.067622334 -0.23603244 -0.104875274 -0.18943861
0.006028406 -0.22254948 -0.10352791 -0.2473665 0.16200547 -0.2106155 -0.10435843 -0.19048008
0.034875806 0.1570191 0.15233603 0.22399676 0.23241475 -0.07131779 0.1223894 -0.21965194
0.2255162 0.14218886 -0.06318941 0.21047057 0.10091617 0.23025654 0.16187136 -0.11949598
-0.067791045 0.21319437 -0.17492433 -0.096705966 -0.12120609 -0.19617946 -0.15907697 -0.19433437
0.09470849 0.096450105 -0.012551326 0.10628155 0.011051341 0.018264608 -0.02364889 0.06883256
-0.1799496 -0.058293283 -0.22255155 -0.17627273 0.11961271 0.033405717 -0.050270095 0.19833726
-0.022040196 -0.120357655 -0.11588251 0.20314838 0.078697726 0.19073139 0.04391715 -0.06990537
0.12458128 0.10853568 -0.0025821887 -0.033463866 -0.09994353 0.12469918 -0.16824698 0.2299529
-0.1044395 -0.0862107 0.13888182 -0.11326861 -0.21081395 -0.04382528 -0.21455394 0.017337663
-0.18994874 -0.17440477 -0.04046289 0.1833304 -0.14247438 -0.0031180233 0.07535254 -0.10926981
0.14224382 0.14853038 0.2683047 -0.086131 0.08130107 -0.052103683 0.022226399 0.061736923
0.2153026 0.21959195 0.17581293 0.24951799 -0.029359559 0.06066453 -0.18253046 -0.123375766
0.018406158 0.0367204 -0.011135056 -0.08212406 0.22300379 -0.053199936 0.009924458 0.033138108
00000000: 6502 213e 3485 b53d 59c9 19be 5a00 453e
00000010: 1b25 fe3d c5e8 83bd 0476 003d 0bce cf3c
00000020: e579 c53d 7199 83bd cf98 14be 2d5e 8f3b
00000030: e537 5c3e e246 a93d 56bd 183e f7a8 043d
00000040: 8c68 64be f162 823e 3a89 0f3e 8779 2b3e
00000050: baa2 b93d 6158 9fbd 8451 903d 79b6 8cbc
00000060: e5d5 163e 8adc 513e 82dd cc3d f32a 3d3d
00000070: fa69 183e 5933 133e 3c8f 2ebe 2432 0cbe
00000080: 1006 bcbd fb87 6d3d 268d 24be a5ef 213d
00000090: 69ce 1c3e aaea b53d 4bb3 12be 0927 813d
000000a0: 7858 35be 9777 0b3d 0c48 473e 8ee6 1d3e
000000b0: 9d60 77bd 6914 30be 923c d4bd 817a 363e
000000c0: 2c29 853e 8269 c53d aa53 833d 5383 d9bd
000000d0: fd51 543e 5924 623d 9ef6 033e aefb 1dbd
000000e0: 1873 293e 4af6 d93c 5c19 3bbe d792 09be
000000f0: cf5b 44be 76df 3fbe f301 febd 8d44 273e
00000100: adc3 c83d 6d35 d4bd 62fc 563e 7719 3e3e
00000110: 5f6f b0bb 44a4 3dbe 8fbc 2a3e a345 7ebd
00000120: 142a 9abd 9316 703e 2582 00bd 2a24 4fbe
00000130: fdf1 5a3e 8b75 233e 40ab c3bd 84c2 853e
00000140: 6099 dcbc 5087 2e3d 2bfa 873d f385 ca3d
00000150: 04e4 c13c f429 06be 083d 783e 619c 2c3e
00000160: 70c4 0bbe ce00 593e 3acd d03d 3fbe 51bd
00000170: 4a4c 3e3d 8db9 423e 1076 753e 0502 d4bc
00000180: 3da5 a7bd c171 e7bb a351 c83d 9f15 2fbe
00000190: 1765 9ebc 0e02 223e b7b9 3bbe dfba 523e
000001a0: 5505 25be a86e 4e3e 40a4 863d ac6b 523e
000001b0: 3c5b 0f3e 34fb 7ebe b700 133e f250 0abe
000001c0: da63 bd3d a496 2e3e 54e8 323e 4eb3 a03d
000001d0: e9f2 37be fbc2 94bb a62b 6abe 27ef d1bc
000001e0: c3c7 64be 60a7 1fbc bcb1 04be d8fa 533d
000001f0: a5e2 7abe 1ad8 0dbc 1ecc 003d f8b6 1f3e
00000200: 137a 4fbe a243 54be b65d 07be dfe9 b73d
00000210: 6c14 563e b4c3 00be 12a1 353e 4a4a 3bbe
00000220: 5e86 323e 9b14 373e 7b1f bbbc c8f3 c93c
00000230: 7a34 143e 5cf9 a53b 76b9 533d 1e2d 19be
00000240: 910a 15bb 0216 b4bd e19b 9cbd 70cd 2b3e
00000250: 947d 8abd 7db2 71be d9c8 d6bd 32fc 41be
00000260: ef89 c53b 03e4 63be 7106 d4bd a54d 7dbe
00000270: c3e4 253e 97ab 57be dfb9 d5bd 360d 43be
00000280: efd9 0e3d 9dc9 203e fafd 1b3e 685f 653e
00000290: 22fe 6d3e 100f 92bd 4ba7 fa3d 70ec 60be
000002a0: b8ed 663e f599 113e 7369 81bd 9985 573e
000002b0: 23ad ce3d 5fc8 6b3e 9bc1 253e 4fba f4bd
000002c0: 08d6 8abd a04f 5a3e 5d1f 33be c70d c6bd
000002d0: e63a f8bd 45e3 48be 13e5 22be 97ff 46be
000002e0: 86f6 c13d a287 c53d 14a4 4dbc 24aa d93d
000002f0: af10 353c a99f 953c 51bb c1bc 16f8 8c3d
00000300: b544 38be f0c4 6ebd 8ee4 63be d780 34be
00000310: 82f7 f43d 6fd4 083d 04e8 4dbd ec18 4b3e
00000320: a48d b4bc 137e f6bd cf53 edbd 2106 503e
00000330: 462c a13d 174f 433e 78e2 333d 8c2a 8fbd
00000340: 7824 ff3d f447 de3d f039 29bb 6811 09bd
00000350: 32af ccbd 4962 ff3d f048 2cbe c678 6b3e
00000360: 60e4 d5bd 3c8f b0bd 0937 0e3e 5ff9 e7bd
00000370: 9ddf 57be 2382 33bd 07b4 5bbe b707 8e3c
00000380: ec81 42be 2a97 32be 6abc 25bd f7ba 3b3e
00000390: cee4 11be c057 4cbb 6f52 9a3d dac8 dfbd
000003a0: 5da8 113e 5918 183e 3c5f 893e 7365 b0bd
000003b0: 2d81 a63d ac6a 55bd 2314 b63c dbdf 7c3d
000003c0: 4978 5c3e b6dc 603e 4e08 343e a581 7f3e
000003d0: 7583 f0bc 5f7b 783d 44e9 3abe 6fac fcbd
000003e0: 83c8 963c 2168 163d cf6f 36bc a930 a8bd
000003f0: 1b5b 643e 2de8 59bd 329a 223c d3bb 073d

fc1.bias f4 [128]
0.15196113 0.16023777 0.16264965 0.18364409 0.02355376 0.08323681 0.04165625 -0.095650956
0.10568571 -0.17997389 -0.2184096 0.23924339 0.15693992 -0.058315795 0.08926815 0.23181935
0.013236585 0.21146531 -0.15908572 0.09889749 0.17756432 0.08223746 -0.15649033 0.023978565
-0.20193921 0.10821022 0.01935632 0.18955392 -0.08794926 0.06330244 -0.0050025107 -0.19695154
0.061073963 0.25004816 0.092889875 -0.09044059 -0.11658996 0.010205038 0.2724648 -0.15445125
0.020297678 0.18644068 -0.17460717 0.25204244 -0.08156416 0.20466015 0.2644874 0.17566918
0.25818503 -0.14419226 0.11101896 -0.050396543 -0.14805533 -0.26492465 -0.050011758 0.26798815
0.018140566 0.24749333 -0.18889141 -0.0107200835 -0.048276737 0.2521784 0.022080999 -0.15638056
0.11454914 -0.22114398 0.02258919 0.08911005 -0.06771699 0.16489859 0.25316036 0.08011347
-0.13925093 0.054821037 -0.17874454 0.15001468 0.17528729 -0.011672058 0.22119252 0.14459993
0.050822753 -0.16429731 -0.24290028 -0.16663396 0.093088225 0.13571754 -0.09304907 -0.06717999
-0.10656078 -3.872915e-05 0.13823423 -0.016594533 0.022195218 0.22833847 0.20499453 -0.26886111
0.11329301 -0.21115021 -0.20478365 0.045715656 0.1636845 -0.20071074 0.16027607 -0.06161068
0.13158952 0.21049014 0.035478666 -0.15936182 0.16200073 0.13760413 -0.09415462 -0.0306997
-0.008768618 0.2172288 -0.16631421 0.25492585 -0.14377014 -0.17026606 -0.16282532 0.21575207
0.06441376 0.031341754 0.17241594 0.063099295 -0.23653509 0.18262817 0.092533275 -0.14652632
00000000: b39b 1b3e 5f15 243e a18d 263e 320d 3c3e
00000010: d1f3 c03c 1078 aa3d be9f 2a3d a6e4 c3bd
00000020: c071 d83d 134b 38be c4a6 5fbe 38fc 743e
00000030: dcb4 203e 8bdc 6ebd 38d2 b63d 0d62 6d3e
00000040: 43de 583c 5d8a 583e 5ee7 22be c48a ca3d
00000050: 6cd3 353e 1d6c a83d 003f 20be b26e c43c
00000060: 27c9 4ebe 529d dd3d 2591 9e3c 6c1a 423e
00000070: be1e b4bd b6a4 813d 1aec a3bb aaad 49be
00000080: b128 7a3d 5006 803e 0c3d be3d eb38 b9bd
00000090: b8c6 eebd 0833 273c 8280 8b3e 7828 1ebe
000000a0: 5147 a63c 4eea 3e3e 39cc 32be b50b 813e
000000b0: 1c0b a7bd 6e92 513e e46a 873e 9fe2 333e
000000c0: d430 843e 23a7 13be e95d e33d 9b6c 4ebd
000000d0: d19b 17be 34a4 87be 21d9 4cbd be35 893e
000000e0: 869b 943c e46e 7d3e c06c 41be 4aa3 2fbc
000000f0: d4bd 45bd 871d 813e 36e3 b43c 3a22 20be
00000100: bd98 ea3d 9173 62be f70c b93c 547f b63d
00000110: 35af 8abd 2ddb 283e 3c9e 813e 8812 a43d
00000120: cc97 0ebe 068c 603d cf08 37be 739d 193e
00000130: 837e 333e 293c 3fbc 4b80 623e 0112 143e
00000140: 852b 503d 8e3d 28be daba 78be 18a2 2abe
00000150: 0aa5 be3d 8af9 0a3e 8390 bebd aa95 89bd
00000160: 8a3c dabd 1c71 22b8 468d 0d3e 42f1 87bc
00000170: bfd2 b53c 8fd1 693e 16ea 513e 2aa8 89be
00000180: 2a06 e83d c337 58be ceb2 51be 5740 3b3d
00000190: e99c 273e 1e87 4dbe 691f 243e 7b5b 7cbd
000001a0: 67bf 063e ba8a 573e 1452 113d bf2f 23be
000001b0: 85e3 253e 19e8 0c3e 23d4 c0bd f07d fbbc
000001c0: 40aa 0fbc 3a71 5e3e 464e 2abe a485 823e
000001d0: 7b38 13be 3a5a 2ebe aebb 26be 1cee 5c3e
000001e0: 5deb 833d 3660 003d ce8d 303e 343a 813d
000001f0: 4136 72be e102 3b3e 1682 bd3d ff0a 16be

fc2.weight f4 [64, 128]
0.07098802 -0.02997034 0.021773608 -0.0046891356 0.0556022 0.055741914 0.0579008 0.045953453
0.0060832123 -0.02742716 0.012693516 0.074227884 -0.029579233 0.0047394303 0.03641266 0.023378188
0.0076583764 0.0074505648 -0.042083595 0.03447764 0.032138817 -0.09263662 0.05741285 -0.057931382
0.080431096 0.025444074 -0.0036709344 0.08259577 -0.11679323 -0.015450572 0.0479463 0.04703308
-0.038224827 0.041169234 -0.07574084 0.088338174 -0.063301414 -0.010988877 -0.009861356 0.070753254
0.09972854 0.04109689 -0.0506417 0.004661486 -0.10234351 0.10251784 0.027573755 -0.01090813
0.054319154 0.07059081 0.0068714637 -0.06766514 0.02853677 -0.05642365 0.05966578 -0.02950619
-0.018781083 -0.020436443 -0.07239359 0.022852028 0.08729914 -0.05332223 -0.057223473 0.041390415
0.03522299 0.028083693 0.0773459 -0.070686996 -0.06170718 -0.060955234 0.0012348216 0.06334266
-0.04935027 -0.019078808 0.014500623 0.014423278 0.058878966 -0.03395842 0.09953725 0.07751192
-0.020838484 -0.04196466 -0.090413 -0.06222477 0.0057643317 -0.0853394 -0.11031236 0.049414314
-0.07635854 0.04447055 0.044824373 0.06547381 0.014803752 -0.0016780123 0.12472321 -0.057164967
-0.0039581093 -0.0001927653 -0.112181775 0.044036802 -0.019814905 0.011684185 0.026331337 -0.022729483
0.03270406 -0.028949847 -0.013124383 -0.08398161 -0.03287063 -0.032256052 -0.10739818 -0.05293493
-0.04685278 0.043942694 -0.01435333 0.08645408 -0.092531905 0.03318432 -0.083614625 0.06452884
0.071912274 0.039725807 0.027625147 -0.051529586 0.036806382 0.09918297 -0.016154967 -0.01975159
0.10146955 0.10123607 0.11014074 -0.06958855 0.075122885 0.013751357 -0.076156914 0.0948243
-0.059419982 -0.011239927 -0.08977337 0.01764189 -0.030867198 0.105450675 0.05221867 0.07124317
0.05506536 0.05263407 0.066623546 0.039525684 0.037455104 -0.07276787 0.0310146 -0.061761796
-0.004216089 -0.05853668 0.09103928 0.025391301 -0.11451665 -0.09946531 0.06491782 0.041256126
0.10276016 0.03322565 0.023031106 0.021804795 -0.109259665 0.052527804 -0.033623002 0.020231687
-0.058962718 -0.0039649084 0.020664264 -0.037363388 0.02487365 0.06964165 0.029648481 0.038750358
0.07002065 -0.07442835 0.10726784 -0.037002183 0.053847045 -0.080798775 -0.078108415 0.066659965
0.017478557 0.10979023 0.031605788 -0.055237837 0.058770165 0.079514705 0.026466044 -0.028636292
-0.0033510125 -0.07275003 0.07729363 0.031590514 -0.018392237 0.06757901 -0.04858402 0.0659759
-0.005954608 -0.06142621 -0.023074826 0.00446377 -0.07363069 -0.032977622 0.0069574798 0.065989405
-0.08844883 -0.033219486 0.050261978 -0.07914735 0.0075904746 0.03481378 0.02874604 -0.046132978
0.004779756 -0.036689226 -0.009278952 0.04757276 0.007985058 0.088034354 0.08999101 0.037662536
-0.060471475 -0.03230414 -0.04923676 0.024991317 0.030350812 -0.028535714 0.06613881 -0.06347341
-0.06156055 -0.009016725 0.005621113 -0.049257576 0.014752317 0.04494455 -0.07908163 0.09714167
0.020410467 -0.038800433 0.0761411 0.036112737 -0.030221147 0.09843073 0.026600007 0.0049443743
0.055575438 0.031941324 -0.022808712 -0.014437508 -0.032213476 -0.040509794 0.028434295 0.008562083
00000000: 2b62 913d 5c84 f5bc 915e b23c 52a7 99bb
00000010: 22bf 633d a251 643d 6429 6d3d b039 3c3d
00000020: af55 c73b ecae e0bc 77f8 4f3c ca04 983d
00000030: 2650 f2bc 394d 9b3b 7125 153d 9d83 bf3c
00000040: 1ef3 fa3b de23 f43b d95f 2cbd 6d38 0d3d
00000050: fea3 033d 45b8 bdbd bd29 6b3d 7549 6dbd
00000060: 0fb9 a43d 1770 d03c 0f94 70bb f927 a93d
00000070: 4a31 efbd 6524 7dbc 5763 443d c2a5 403d
00000080: a391 1cbd 12a1 283d 031e 9bbd a5ea b43d
00000090: 2ca4 81bd b10a 34bc 8691 21bc 15e7 903d
000000a0: 7a3e cc3d 3655 283d ac6d 4fbd 61bf 983b
000000b0: 7999 d1bd e0f4 d13d 5be2 e13c 03b8 32bc
000000c0: c37d 5e3d ea91 903d 042a e13b 0594 8abd
000000d0: f2c5 e93c 7c1c 67bd 1b64 743d f7b6 f1bc
000000e0: c9da 99bc 546a a7bc 1743 94bd 2d34 bb3c
000000f0: e4c9 b23d 6968 5abd 2963 6abd ff88 293d
00000100: fb45 103d c60f e63c 8767 9e3d 58c4 90bd
00000110: abc0 7cbd 32ac 79bd bdd9 a13a ccb9 813d
00000120: 8223 4abd 294b 9cbc 0594 6d3c 9d4f 6c3c
00000130: 122b 713d fc17 0bbd 30da cb3d 92be 9e3d
00000140: 78b5 aabc 23e3 2bbd 732a b9bd 67df 7ebd
00000150: b8e2 bc3b 6cc6 aebd 72eb e1bd aa66 4a3d
00000160: de61 9cbd c026 363d c399 373d 2217 863d
00000170: 708b 723c c0f0 dbba e26e ff3d d025 6abd
00000180: 07b3 81bb 0b21 4ab9 8fbf e5bd ef5f 343d
00000190: de52 a2bc 066f 3f3c d1b4 d73c 2e33 babc
000001a0: b1f4 053d 3b28 edbc a707 57bc 8dfe abbd
000001b0: 5ba3 06bd ec1e 04bd 94f3 dbbd 4cd2 58bd
000001c0: b3e8 3fbd 41fd 333d 3b2a 6bbc d60e b13d
000001d0: 5e81 bdbd 48ec 073d 253e abbd b227 843d
000001e0: be46 933d 87b7 223d 224e e23c b010 53bd
000001f0: 4ac2 163d 7120 cb3d 6c57 84bc 16ce a1bc
00000200: 44cf cf3d db54 cf3d 7891 e13d 7184 8ebd
00000210: 07da 993d 5f4d 613c 28f8 9bbd 3e33 c23d
00000220: 5e62 73bd ac27 38bc 1adb b7bd ba85 903c
00000230: 35dd fcbc 86f6 d73d 3ee3 553d f0e7 913d
00000240: 378c 613d d396 573d ed71 883d afe5 213d
00000250: 866a 193d 5207 95bd 5512 fe3c f0f9 7cbd
00000260: 1e27 8abb 28c4 6fbd cd72 ba3d 6b01 d03c
00000270: b587 eabd 78b4 cbbd a2f3 843d 2ffc 283d
00000280: eb73 d23d 9f17 083d bbab bc3c f89f b23c
00000290: 88c3 dfbd 6527 573d 46b8 09bd ecbc a53c
000002a0: e482 71bd 10ec 81bb 1a48 a93c 5a0a 19bd
000002b0: d3c3 cb3c 48a0 8e3d 5fe1 f23c b2b8 1e3d
000002c0: fd66 8f3d e46d 98bd 3eaf db3d 9a8f 17bd
000002d0: b88e 5c3d d479 a5bd 4ef7 9fbd 0585 883d
000002e0: 312f 8f3c b3d9 e03d 1275 013d 1241 62bd
000002f0: fcb8 703d 9bd8 a23d 51cf d83c a896 eabc
00000300: a99c 5bbb f8fd 94bd 1f4c 9e3d 0e65 013d
00000310: 51ab 96bc dd66 8a3d 0a00 47bd 5f1e 873d
00000320: df1e c3bb 0d9a 7bbd 6b07 bdbc d144 923b
00000330: b0cb 96bd 8b13 07bd 92fb e33b 7425 873d
00000340: a924 b5bd 2811 08bd 81df 4d3d 0118 a2bd
00000350: 84b9 f83b e598 0e3d d17c eb3c eff5 3cbd
00000360: 809f 9c3b 7147 16bd bf06 18bc a8db 423d
00000370: c3d3 023c 5b4b b43d 354d b83d 0844 1a3d
00000380: f0b0 77bd 5951 04bd 7cac 49bd 97ba cc3c
00000390: 44a2 f83c bbc3 e9bc c973 873d 59fe 81bd
000003a0: ea26 7cbd e3ba 13bc 5031 b83b 50c2 49bd
000003b0: b4b3 713c c717 383d 8df5 a1bd 36f2 c63d
000003c0: da33 a73c 34ed 1ebd ddef 9b3d f3ea 133d
000003d0: 5792 f7bc 0d96 c93d 42e8 d93c 6b04 a23b
000003e0: 12a3 633d e8d4 023d 56d9 babc 4c8b 6cbc
000003f0: 47f2 03bd 99ed 25bd 0aef e83c fb47 0c3c

fc2.bias f4 [64]
0.03138753 0.009096176 -0.055543568 0.04614952 -0.091497995 -0.023915106 0.03242938 0.023861729
0.104515895 -0.10432016 0.023916237 -0.051931627 -0.049001712 -0.016672455 0.027465628 -0.056478377
0.10678222 0.014648774 -0.00036902365 0.040084496 0.016116317 -0.068097025 0.017075311 -0.05557302
-0.08586163 -0.042478163 -0.09917318 -0.08231924 -0.001419396 0.015548627 0.0027504817 -0.053901102
0.086028874 -0.07651082 -0.0734866 -0.07135872 -0.05174773 -0.08646386 0.024198048 -0.060300034
0.008033338 0.0483208 0.038546477 -0.06442823 -0.019870047 0.029624155 0.10977427 0.020238481
0.04679199 -0.09017281 -0.06383795 -0.0010036617 0.017772526 0.019299489 -0.057794485 0.03322874
0.03428879 0.009360464 -0.10140742 0.10210936 -0.017756032 0.10023858 0.0039003915 -0.010372196
00000000: 3690 003d 2108 153c a781 63bd 4707 3d3d
00000010: 4d63 bbbd 9de9 c3bc abd4 043d ac79 c33c
00000020: 6e0c d63d cfa5 d5bd fceb c33c 42b6 54bd
00000030: 05b6 48bd ac94 88bc 99ff e03c df55 67bd
00000040: a3b0 da3d 6901 703c 8479 c1b9 a42f 243d
00000050: 5e06 843c 7476 8bbd 86e1 8b3c 89a0 63bd
00000060: 39d8 afbd 95fd 2dbd 4f1b cbbd fd96 a8bd
00000070: 070b baba abbf 7e3c 6d41 343b 67c7 5cbd
00000080: e82f b03d b4b1 9cbd 2480 96bd 8524 92bd
00000090: 6df5 53bd f713 b1bd fc3a c63c 2bfd 76bd
000000a0: 439e 033c 08ec 453d e9e2 1d3d f3f2 83bd
000000b0: 82c6 a2bc 5bae f23c 55d1 e03d 2ccb a53c
000000c0: f5a8 3f3d 86ac b8bd 79bd 82bd 4c8d 83ba
000000d0: b097 913c f619 9e3c e9b9 6cbd dc1a 083d
000000e0: 6772 0c3d a25c 193c b2ae cfbd b61e d13d
000000f0: 1975 91bc e249 cd3d b69d 7f3b 25f0 29bc

fc3.weight f4 [32, 64]
-0.12918693 -0.034313455 -0.07288441 0.13968119 -0.09140914 -0.12215022 0.052600257 -0.12714775
0.054037664 -0.011695229 0.14667538 -0.0050407574 -0.044727672 -0.07075149 -0.030215701 -0.1012853
-0.042244595 -0.07442623 -0.0008775945 0.12304856 -0.011872833 0.067045525 -0.04682134 0.060260847
-0.0815417 -0.04240503 0.0801854 0.0175531 0.0664756 -0.10116865 -0.13477124 0.13517179
-0.046257038 -0.07409701 0.08589181 0.09609407 0.119149834 0.07998971 0.03350902 0.109584644
-0.107738726 0.11241918 0.08418385 0.052643523 -0.10521687 0.10631801 -0.14011808 0.12186436
-0.11242875 0.07910704 -0.08290345 -0.14820008 0.0945129 0.01579593 -0.032542896 0.0619902
0.087817825 -0.06890976 0.059921633 0.001550662 0.07481475 -0.07092399 -0.06668477 -0.06516019
0.041485608 0.047661044 -0.08828876 -0.040628694 0.012971998 0.094801575 0.16271572 0.14676268
0.007501359 -0.11922634 0.15403353 0.054453786 0.041190024 0.011246215 -0.0064630173 0.038210098
0.07020787 0.0108933905 0.14478624 -0.045689892 0.05253542 0.029487072 0.08413074 -0.017708993
0.016217118 -0.12193275 0.05883186 -0.08215072 -0.011799345 -0.0026270202 -0.11615574 0.050181307
0.038304906 0.0410528 0.03548292 -0.044051804 -0.0030832388 -0.15176412 0.15641208 -0.13827422
0.08296742 -0.050187744 -0.08268001 -0.0348861 0.025099823 0.09885422 -0.014785531 -0.14001462
0.1628106 0.03032911 0.07333492 0.03704845 -0.15613377 0.055139475 0.1207348 -0.0788696
0.024589745 -0.030064085 0.0017225246 0.026361367 -0.16500452 0.14545639 0.05694958 -0.054979734
-0.13075712 -0.05655089 0.12007442 0.03504052 -0.011921474 0.026866514 -0.14520217 -0.006880385
-0.02750136 0.072741315 0.061011735 0.069239534 -0.014035563 0.092494175 0.12836817 -0.0036064493
-0.035353754 -0.07241659 0.004330034 0.01931135 0.01323856 0.13558993 -0.05901282 0.020208409
0.10118719 0.04076228 -0.084369875 0.012286048 0.036199912 -0.03585972 0.080401815 -0.11306311
-0.040059894 0.026875103 -0.10172204 0.068002455 0.09616579 0.14001209 0.002150443 0.12531008
-0.11137393 -0.037566386 -0.059886027 -0.06952552 -0.003618189 -0.09131916 -0.14250323 -0.0022965563
-0.079465784 -0.039425936 -0.0063076233 -0.09889932 -0.038920846 -0.023382504 -0.13394964 -0.04416891
-0.14340706 -0.02880718 0.054280568 -0.1349591 0.036375616 -0.13112374 -0.08577338 -0.1187571
0.026442822 0.13652615 -0.094731584 0.041310947 -0.040244427 0.07087465 0.01373906 0.07822698
0.06603986 -0.0013658808 0.015134999 -0.02358217 0.033855535 0.0626166 0.0023579604 -0.019319348
0.15008657 0.13805823 -0.050711293 0.017418189 0.044075336 -0.15704294 0.15598615 -0.030757334
-0.11552802 -0.05229617 -0.096624985 0.053237006 -0.013130329 -0.1257076 0.050669845 0.11573082
-0.067204446 -0.14408845 -0.014204461 -0.14767724 0.02001357 -0.00856832 0.0033425323 0.07906279
-0.05240858 -0.040897705 0.0054497654 0.09080608 -0.10258237 0.14772382 0.054542292 -0.042552967
0.047731567 0.095742874 0.054649416 -0.091949165 0.03500749 0.037109558 0.021222327 0.1456786
0.019510472 0.007075644 -0.155424 -0.027740521 -0.11380869 0.056129735 -0.02709204 0.1539046
00000000: 9449 04be 448c 0cbd 6c44 95bd 9608 0f3e
00000010: b734 bbbd e529 fabd 5e73 573d 0533 02be
00000020: 9956 5d3d 599d 3fbc 1232 163e f02c a5bb
00000030: 5d34 37bd 28e6 90bd eb86 f7bc ab6e cfbd
00000040: ab08 2dbd c76c 98bd 5f0e 66ba e200 fc3d
00000050: 4586 42bc 2a4f 893d bcc7 3fbd 14d4 763d
00000060: 56ff a6bd e6b0 2dbd 3e38 a43d 85cb 8f3c
00000070: 5c24 883d 8231 cfbd 7901 0abe 796a 0a3e
00000080: 0578 3dbd 2cc0 97bd 0ce8 af3d f8cc c43d
00000090: d404 f43d a5d1 a33d c140 093d ea6d e03d
000000a0: 1fa6 dcbd 073c e63d 9568 ac3d bca0 573d
000000b0: f17b d7bd 42bd d93d 1d7b 0fbe 0694 f93d
000000c0: 0b41 e6bd df02 a23d 49c9 a9bd c3c1 17be
000000d0: fb8f c13d 7766 813c b34b 05bd 70e9 7d3d
000000e0: d5d9 b33d 8f20 8dbd 6370 753d 953f cb3a
000000f0: 7a38 993d 9940 91bd 0692 88bd b572 85bd
00000100: d0ec 293d 3a38 433d bdd0 b4bd 466a 26bd
00000110: 8188 543c 5427 c23d f39e 263e f548 163e
00000120: f6cd f53b f02c f4bd f7ba 1d3e ef0a 5f3d
00000130: dfb6 283d 0b42 383c b8c7 d3bb 3182 1c3d
00000140: 25c9 8f3d 317a 323c d842 143e 5325 3bbd
00000150: 612f 573d df8e f13c bd4c ac3d 7312 91bc
00000160: c3d9 843c e1b7 f9bd adf9 703d a33e a8bd
00000170: 0a52 41bc 162a 2cbb 10e3 edbd ea8a 4d3d
00000180: 9be5 1c3d fb26 283d 8a56 113d aa6f 34bd
00000190: 2a10 4abb 0e68 1bbe 7d2a 203e c297 0dbe
000001a0: d3ea a93d aa91 4dbd 2354 a9bd bae4 0ebd
000001b0: 259e cd3c 1574 ca3d 033f 72bc fe5f 0fbe
000001c0: d2b7 263e c174 f83c 9e30 963d 1ec0 173d
000001d0: 88e1 1fbe eed9 613d cf43 f73d 6386 a1bd
000001e0: 6f70 c93c f548 f6bc 56c6 e13a cbf3 d73c
000001f0: f2f6 28be 85f2 143e f643 693d 6e32 61bd
00000200: 32e5 05be e8a1 67bd 94e9 f53d a686 0f3d
00000210: 4952 43bc 2a17 dc3c e1af 14be da74 e1bb
00000220: 884a e1bc 66f9 943d 71e7 793d 75cd 8d3d
00000230: 6bf5 65bc 966d bd3d f272 033e 2e5a 6cbb
00000240: 19cf 10bd 264f 94bd f5e2 8d3b d632 9e3c
00000250: 8ce6 583c 16d8 0a3e 6db7 71bd 1b8c a53c
00000260: 3b3b cf3d 59f6 263d 1dca acbd 6c4b 493c
00000270: 5c46 143d a4e1 12bd b5a9 a43d a28d e7bd
00000280: d815 24bd 2d29 dc3c a553 d0bd df44 8b3d
00000290: 92f2 c43d 545f 0f3e 72ee 0c3b 4951 003e
000002a0: 0418 e4bd 36df 19bd 0d4b 75bd 6563 8ebd
000002b0: 231f 6dbb 8a05 bbbd 5eec 11be d281 16bb
000002c0: f5be a2bd 177d 21bd 2eb0 cebb ba8b cabd
000002d0: 776b 1fbd aa8c bfbc 182a 09be 75ea 34bd
000002e0: 4dd9 12be 09fd ebbc 4d55 5e3d b832 0abe
000002f0: 99fe 143d 4d45 06be f4a9 afbd ec36 f3bd
00000300: 9e9e d83c 83cd 0b3e a202 c2bd ab35 293d
00000310: 57d7 24bd ba26 913d cb19 613c 7835 a03d
00000320: e83f 873d 5b07 b3ba c9f8 773c 652f c1bc
00000330: 1aac 0a3d 223d 803d 0388 1a3b 9c43 9ebc
00000340: 4bb0 193e 235f 0d3e a5b6 4fbd 97b0 8e3c
00000350: 5788 343d ddcf 20be d5ba 1f3e cef6 fbbc
00000360: f499 ecbd 8234 56bd 52e3 c5bd 0c0f 5a3d
00000370: 9720 57bc 7eb9 00be 2f8b 4f3d 4804 ed3d
00000380: 7ca2 89bd ec8b 13be d4b9 68bc b438 17be
00000390: 80f3 a33c 2462 0cbc 630e 5b3b aceb a13d
000003a0: 61aa 56bd 5a84 27bd f293 b23b 8af8 b93d
000003b0: b516 d2bd ea44 173e bd67 5f3d 054c 2ebd
000003c0: 2d82 433d d714 c43d 11d8 5f3d d84f bcbd
000003d0: 0464 0f3d 3100 183d 72da ad3c c52c 153e
000003e0: 6dd4 9f3c ceda e73b 7827 1fbe 1740 e3bc
000003f0: 8814 e9bd 4be8 653d 20f0 ddbc 2b99 1d3e

fc3.bias f4 [32]
0.05530851 -0.0064357077 -0.07119317 0.0776773 0.084813446 0.06960393 -0.0073213927 -0.035707135
-0.039503507 -0.06945896 -0.0940014 0.100440584 -0.11405247 -0.007883237 0.07762224 0.032840595
0.1189932 -0.080005944 0.0092841685 0.03327309 0.04375337 -0.066586025 -0.10785681 0.058702447
0.052560467 0.13249733 -0.05306767 -0.008366949 0.12120826 0.09632707 -0.03006296 -0.096497215
00000000: 2d8b 623d a1e2 d2bb bacd 91bd 4715 9f3d
00000010: acb2 ad3d 818c 8e3d 4be8 efbb a541 12bd
00000020: 6ece 21bd 8040 8ebd ce83 c0bd cbb3 cd3d
00000030: 5794 e9bd b128 01bc 69f8 9e3d dc83 063d
00000040: b5b2 f33d 28da a3bd a01c 183c 5d49 083d
00000050: bc36 333d 415e 88bd 08e4 dcbd fa71 703d
00000060: a549 573d 61ad 073e 7c5d 59bd 8715 09bc
00000070: 093c f83d 2047 c53d 9946 f6bc 55a0 c5bd

fc4.weight f4 [5, 32]
-0.046203364 -0.11100932 0.15970214 -0.15300025 0.02978621 -0.07888515 -0.20104055 0.043662593
0.11665467 -0.034276154 -0.087311156 -0.023534717 0.17454521 -0.076879434 0.08513695 -0.15261482
-0.12913479 0.14807196 -0.07897752 0.20119892 0.1836274 -0.19831203 0.16805476 0.12092528
0.16997522 0.12681252 0.14789043 -0.092074126 -0.15062207 -0.1853421 -0.0037125803 -0.012371967
-0.06900694 0.14597882 -0.12551835 -0.01886616 -0.059627306 0.04970473 -0.014978381 -0.016869351
-0.055253103 0.147893 -0.13153931 0.10545949 0.14659151 0.1603728 0.16929261 -0.19643144
0.11103099 0.01093143 0.08177452 0.07705472 -0.019198453 -0.13385414 -0.012053517 0.02811662
0.12710729 -0.04113598 0.04812382 -0.11203945 -0.13343063 0.1155311 -0.11518463 0.117076024
0.09143035 0.003374264 0.013515109 0.16937524 -0.025897264 -0.17114483 -0.08430606 -0.034715075
-0.0013675018 0.017776921 0.06579484 -0.10103094 0.10395261 -0.11277416 -0.06724668 0.109286904
0.18872398 0.10592604 0.16800551 -0.06140381 -0.053220104 -0.17791344 -0.015320624 -0.02899884
-0.067195706 0.11445268 -0.110400066 0.0013427254 -0.0071775066 -0.0597495 -0.17273231 0.05166181
-0.12525646 0.10820331 0.08966809 -0.022803988 -0.13609043 -0.011902563 -0.0029964854 -0.0003250948
-0.12088188 -0.21408138 0.053689327 0.17797944 -0.05985828 0.11876226 0.14885493 -0.12804568
-0.1382425 -0.11363661 -0.12818216 0.19597423 0.18252856 -0.180247 0.062021717 -0.046693478
-0.094236925 -0.19001691 -0.043690454 0.13227397 0.054146633 0.008746471 -0.020613305 0.14415346
-0.09841304 0.1619246 -0.14466456 0.21827096 -0.15938763 0.13033405 0.040530458 -0.1276297
-0.120416716 0.15246317 0.22110674 -0.19312435 -0.1503242 -0.19239481 -0.06834986 0.1959656
-0.06721609 -0.06916479 -0.18372448 0.06253945 -0.1386602 0.14741819 -0.129914 -0.14282462
-0.20798644 0.18912035 -0.016624128 -0.19281796 0.057794113 -0.06727101 0.21231018 -0.191807
00000000: bd3f 3dbd db58 e3bd f588 233e 19ac 1cbe
00000010: 3602 f43c 8a8e a1bd 93dd 4dbe 8cd7 323d
00000020: a5e8 ee3d 2765 0cbd 31d0 b2bd e1cb c0bc
00000030: fbbb 323e f772 9dbd 485c ae3d 0f47 1cbe
00000040: e93b 04be 2da0 173e f7be a1bd 1707 4e3e
00000050: d208 3c3e 4f12 4bbe 8c16 2c3e aca7 f73d
00000060: fc0d 2e3e 24db 013e 9770 173e 5c91 bcbd
00000070: ac3c 1abe 52ca 3dbe c34e 73bb cab3 4abc
00000080: 8353 8dbd 797b 153e e287 00be 358d 9abc
00000090: c33b 74bd 3097 4b3d e267 75bc 9831 8abc
000000a0: 1451 62bd 4371 173e 3eb2 06be 25fb d73d
000000b0: 161c 163e c438 243e 0b5b 2d3e 5325 49be
000000c0: 3764 e33d be19 333c 6679 a73d ddce 9d3d
000000d0: 1346 9dbc 0f11 09be 1d7c 45bc d354 e63c
000000e0: 6a28 023e 347e 28bd 7c1d 453d f074 e5bd
000000f0: 0aa2 08be 929b ec3d ebe5 ebbd 8ec5 ef3d
00000100: d63f bb3d c222 5d3b 7a6e 5d3c b470 2d3e
00000110: 8026 d4bc 9740 2fbe a8a8 acbd 6531 0ebd
00000120: bf3d b3ba e8a0 913c 72bf 863d 4fe9 cebd
00000130: 1be5 d43d 24f6 e6bd a1b8 89bd d0d1 df3d
00000140: dc40 413e c0ef d83d a309 2c3e 9082 7bbd
00000150: 53fd 59bd f12e 36be 5b03 7bbc fa8e edbc
00000160: e79d 89bd 2b66 ea3d 6e19 e2bd 63fe af3a
00000170: 4a31 ebbb e4bb 74bd bde0 30be 569b 533d
00000180: 3b43 00be b299 dd3d e7a3 b73d 6ecf babc
00000190: 4a5b 0bbe f802 43bc af60 44bb 7c71 aab9
000001a0: eb90 f7bd 2638 5bbe 57e9 5b3d 3e40 363e
000001b0: f52d 75bd a139 f33d 6d6d 183e 681e 03be
000001c0: 718f 0dbe 50ba e8bd 2f42 03be 78ad 483e
000001d0: c4e8 3a3e ab92 38be 7c0a 7e3d a941 3fbd
000001e0: 4aff c0bd cb93 42be c3f4 32bd d472 073e
000001f0: dcc8 5d3d 5c4d 0f3c 3cdd a8bc f79c 133e
00000200: c78c c9bd 90cf 253e f222 14be 6c82 5f3e
00000210: 8336 23be 4a76 053e 4403 263d 5cb1 02be
00000220: 0a9d f6bd 4e1f 1c3e ce69 623e 64c2 45be
00000230: 96ee 19be 2503 45be 03fb 8bbd 35ab 483e
00000240: 97a8 89bd 45a6 8dbd 4522 3cbe af14 803d
00000250: f1fc 0dbe cbf4 163e 2d08 05be 9e40 12be
00000260: 66fa 54be c4a8 413e 532f 88bc 1272 45be
00000270: 85b9 6c3d 62c5 89bd d767 593e 0e69 44be

fc4.bias f4 [5]
0.13723658 -0.054682508 -0.0147687225 0.045930706 -0.10788417
00000000: bf87 0c3e c4fa 5fbd 83f8 71bc d621 3c3d
00000010: 60f2 dcbd
