clean_code/trained_models/actor_15.pth (torch, 54860 bytes, 8 tensors)

fc1.weight f4 [128, 18]
0.124070905 0.057003107 -0.17604668 0.15877865 0.090618916 -0.09796058 -0.0021637923 -0.0077514895
0.064442515 -0.08476981 -0.17862652 -0.023636896 0.1891887 0.08265473 0.14030069 -0.032186937
-0.23332533 0.2374807 0.11632566 0.14741108 0.0704063 -0.099094816 0.049216017 -0.03839474
0.12593926 0.18230596 0.07970529 0.037880085 0.12768283 0.12833035 -0.18324488 -0.13691002
-0.0891773 0.034690447 -0.16219087 0.02155797 0.12669976 0.06278159 -0.16975808 0.036196426
-0.20389612 0.007217279 0.16778222 0.12783644 -0.08657456 -0.1952343 -0.13044228 0.15391207
0.23808 0.09639265 0.05165771 -0.14509723 0.17437705 0.034544557 0.12330962 -0.047394495
0.15790953 0.018147523 -0.19118464 -0.14282191 -0.20020846 -0.1935831 -0.13254793 0.15194362
0.08953666 -0.11382105 0.20032494 0.18564402 -0.019148128 -0.17171404 0.15320748 -0.060423873
-0.100317106 0.21045248 -0.053129986 -0.227625 0.18856299 0.13432142 -0.12083273 0.23620445
-0.05119013 0.024333093 0.041111544 0.076006554 0.003009777 -0.13101941 0.23437355 0.1350828
-0.14303811 0.19758995 0.059401214 -0.08897778 0.012981417 0.15402128 0.20351163 -0.061935343
-0.11787841 -0.04783214 0.060010843 -0.19674669 -0.055294402 0.13733217 -0.20270725 0.20579098
-0.16352023 0.18848684 0.021162102 0.18894903 0.1623631 -0.22671 0.16466805 -0.11194454
0.11556155 0.19360471 0.19782725 0.10090686 -0.15731907 0.014720163 -0.20558746 -0.0041496223
-0.20414223 -0.009744495 -0.11823597 0.07572123 -0.21697868 0.0064865127 0.0082846675 0.1323495
-0.21967395 -0.23340172 -0.1581012 0.06373737 0.18303818 -0.14981613 0.15321451 -0.19689368
0.14829212 0.15874158 -0.041951336 0.024652377 0.14024879 -0.03277947 0.04884943 -0.15723538
0.035151627 -0.05154297 -0.041133817 0.20494844 -0.030556813 -0.19891798 -0.06776563 -0.15260075
0.042762488 -0.19312741 -0.0664455 -0.21531247 0.19073117 -0.2106155 -0.09046391 -0.12113786
0.05444055 0.18114108 0.13770165 0.21232411 0.21799849 -0.084750004 0.10905207 -0.23302345
0.21202572 0.12825744 -0.07549777 0.20908171 0.08761368 0.22542474 0.16033576 -0.11949598
-0.05899262 0.17027907 -0.17752568 -0.1287064 -0.08416262 -0.162153 -0.13336593 -0.15774554
0.13116041 0.13298202 0.02402498 0.14261454 0.04546985 0.035931073 0.012834747 0.099214405
-0.15295123 -0.058293283 -0.21444897 -0.1191094 0.14521097 0.04974048 -0.08168316 0.16883743
-0.04918218 -0.15124653 -0.14668867 0.17230536 0.047857966 0.15955311 0.014139296 -0.09179546
0.093773164 0.08184273 -0.026277486 -0.033463866 -0.10770013 0.082121775 -0.2015379 0.2083044
-0.11214341 -0.09426431 0.13305153 -0.121796235 -0.21933176 -0.05235478 -0.22308798 0.009443017
-0.198018 -0.18056607 -0.04899819 0.17424186 -0.15124176 -0.0031180233 0.07014251 -0.11153652
0.14358202 0.14127566 0.23251526 -0.12065458 0.0437898 -0.08716092 -0.012767378 0.026739603
0.18027383 0.18458448 0.14110662 0.21884601 -0.06431449 0.030877415 -0.2087115 -0.123375766
0.00547687 -0.018175296 -0.061745822 -0.10674014 0.18944867 -0.085362636 -0.019270213 -0.00026158677
00000000: e318 fe3d 177c 693d 9545 34be df96 223e
00000010: 6996 b93d 8e9f c8bd 69ce 0dbb 3500 febb
00000020: 70fa 833d cb9b adbd dfe9 36be 2aa2 c1bc
00000030: afba 413e e246 a93d fcaa 0f3e 73d6 03bd
00000040: d6ec 6ebe 242e 733e 263c ee3d eef2 163e
00000050: 2e31 903d 39f2 cabd bc96 493d ce43 1dbd
00000060: 39f6 003e 6aae 3a3e 873c a33d 2628 1b3d
00000070: 4abf 023e 0869 033e 8ca4 3bbe 2432 0cbe
00000080: 97a2 b6bd 9217 0e3d 5d15 26be 579a b03c
00000090: 95bd 013e a293 803d 10d5 2dbe b442 143d
000000a0: 25ca 50be ed7e ec3b 1acf 2b3e 8ee7 023e
000000b0: 014e b1bd 80eb 47be a992 05be 209b 1d3e
000000c0: 3ecb 733e 8269 c53d 0997 533d 5e94 14be
000000d0: e68f 323e 987e 0d3d c189 fc3d bb20 42bd
000000e0: 09b3 213e 1daa 943c e8c5 43be e83f 12be
000000f0: 7203 4dbe a63a 46be a5ba 07be 1c97 1b3e
00000100: ff5e b73d 031b e9bd fb21 4d3e 7719 3e3e
00000110: 89dc 9cbc ced5 2fbe 6ce2 1c3e 067f 77bd
00000120: 0e73 cdbd db80 573e d49e 59bd 8716 69be
00000130: a816 413e 8e8b 093e 2677 f7bd 94df 713e
00000140: beac 51bd 3256 c73c 9464 283d 53a9 9b3d
00000150: ae3f 453b f429 06be 9fff 6f3e 2553 0a3e
00000160: 9578 12be 0555 4a3e b04e 733d fb39 b6bd
00000170: 02b0 543c c1b7 1d3e 5a65 503e eaaf 7dbd
00000180: 3c6a f1bd a2eb 43bd eecd 753d f777 49be
00000190: 627c 62bd cea0 0c3e 7d92 4fbe dfba 523e
000001a0: d971 27be b202 413e 255c ad3c db7b 413e
000001b0: 8342 263e ab26 68be be9e 283e 2e43 e5bd
000001c0: 89ab ec3d 5040 463e 3a93 4a3e 41a8 ce3d
000001d0: 4018 21be d72c 713c 8585 52be 8ef9 87bb
000001e0: a90a 51be 60a7 1fbc b325 f2bd bb13 9b3d
000001f0: a92f 5ebe d08c d43b 6abc 073c a186 073e
00000200: 35f2 60be dc00 6fbe 48e5 21be bd88 823d
00000210: 5c6e 3b3e 6669 19be 44e4 1c3e 7f9e 49be
00000220: e4d9 173e 278d 223e 2ad5 2bbd c8f3 c93c
00000230: 619d 0f3e c443 06bd 5716 483d 5002 21be
00000240: 27fb 0f3d b91e 53bd ef7b 28bd 01de 513e
00000250: 4852 fabc 28b1 4bbe b5c8 8abd 5f43 1cbe
00000260: b827 2f3d 31c3 45be 9414 88bd df7a 5cbe
00000270: 084f 433e 97ab 57be 2445 b9bd 2017 f8bd
00000280: 0efd 5e3d 0c7d 393e a901 0d3e 7e6b 593e
00000290: ff3a 5f3e 6991 adbd b156 df3d b39d 6ebe
000002a0: 451d 593e eb55 033e 939e 9abd 8419 563e
000002b0: cd6e b33d bed5 663e 0f2f 243e 4fba f4bd
000002c0: 3fa2 71bd a35d 2e3e 4bc9 35be 9ccb 03be
000002d0: 745d acbd 700b 26be 1491 08be 0c88 21be
000002e0: ea4e 063e 702c 083e 09d0 c43c 8c09 123e
000002f0: 983e 3a3d 762c 133d d548 523c ec30 cb3d
00000300: 3f9f 1cbe f0c4 6ebd 8398 5bbe a1ef f3bd
00000310: 2fb2 143e acbc 4b3d 8049 a7bd b8e3 2c3e
00000320: 4173 49bd 5fe0 1abe 8e35 16be d170 303e
00000330: b706 443d e461 233e 81a8 673c 42ff bbbd
00000340: 250c c03d 299d a73d e243 d7bc 6811 09bd
00000350: e391 dcbd 762f a83d f45f 4ebe c04d 553e
00000360: 72ab e5bd a60d c1bd a93e 083e 4e70 f9bd
00000370: 8198 60be f771 56bd 2d71 64be e2b6 1a3c
00000380: 3bc5 4abe 50e6 38be 53b2 48bd 756c 323e
00000390: 1fdf 1abe c057 4cbb e0a6 8f3d 426d e4bd
000003a0: 2a07 133e 91aa 103e 7b18 6e3e c019 f7bd
000003b0: ef5c 333d 6d81 b2bd 442e 51bc 030d db3c
000003c0: b499 383e b703 3d3e 417e 103e 2b19 603e
000003d0: 51b7 83bd a2f2 fc3c 78b8 55be 6fac fcbd
000003e0: 5177 b33b 5ce4 94bc 30e9 7cbd 939a dabd
000003f0: d5fe 413e 9bd2 aebd 91dc 9dbc 9525 89b9

fc1.bias f4 [128]
0.11838979 0.13899767 0.13580564 0.17518085 -0.0017657388 0.047155775 0.06477057 -0.12173857
0.1428229 -0.19336396 -0.18185185 0.20838334 0.14840858 -0.093330644 0.05589773 0.207323
-0.019349845 0.17671305 -0.16115768 0.075382285 0.16402873 0.1149629 -0.1773441 0.059146263
-0.23035619 0.08210257 -0.0075861113 0.15947358 -0.04832349 0.08897889 -0.023916323 -0.16610637
0.030639093 0.21463859 0.12242683 -0.115417436 -0.08397663 0.04287734 0.21913823 -0.1520936
-0.024093658 0.22176296 -0.12017372 0.20726909 -0.054502938 0.18059824 0.2300628 0.08158849
0.23276317 -0.12051621 0.070835575 -0.077789456 -0.15408571 -0.23547235 -0.036163438 0.22487172
0.013745807 0.21578623 -0.14973605 -0.012690293 -0.0741909 0.22001311 -0.021522133 -0.1508899
0.09716937 -0.18011631 -0.0032153807 0.11509936 -0.096814506 0.17261378 0.23290205 0.04992796
-0.10830695 0.027851129 -0.14898473 0.15794167 0.20238496 -0.010367993 0.19313686 0.13200535
0.07809145 -0.13014951 -0.21718107 -0.13353586 0.12259252 0.14969027 -0.06513723 -0.03154586
-0.1286228 0.03535282 0.099020526 -0.04536521 0.04105661 0.20448557 0.13484684 -0.23421292
0.13698576 -0.17454754 -0.16005085 0.08203901 0.14857095 -0.17156766 0.11836018 -0.025374843
0.15454642 0.20683827 0.05195407 -0.1503586 0.1886406 0.105190024 -0.06887675 -0.030495765
-0.0011907833 0.1889232 -0.14881532 0.23566654 -0.12179614 -0.19488397 -0.15574084 0.18919542
0.035688978 0.008874923 0.13333602 0.036590897 -0.21155597 0.14241508 0.05666327 -0.120105036
00000000: 5976 f23d 6855 0e3e a210 0b3e 9c62 333e
00000010: 5d70 e7ba 6a26 413d 6fa6 843d 1252 f9bd
00000020: 2b40 123e 3401 46be 5f37 3abe 7162 553e
00000030: 6bf8 173e 2324 bfbd 05f5 643d 7b4c 543e
00000040: 9183 9ebc 44f4 343e 8506 25be 0762 9a3d
00000050: 26f7 273e ab71 eb3d b199 35be 5a43 723d
00000060: 7ee2 6bbe 6425 a83d ea94 f8bb 0b4d 233e
00000070: daee 45bd 903a b63d 2aec c3bc ca17 2abe
00000080: d6fe fa3c 38ca 5b3e ebba fa3d fa5f ecbd
00000090: f0fb abbd 26a0 2f3d c665 603e 6dbe 1bbe
000000a0: 1060 c5bc d415 633e a41d f6bd 593e 543e
000000b0: 793e 5fbd bfee 383e 9595 6b3e de17 a73d
000000c0: 7859 6e3e 34d1 f6bd 3e12 913d 1450 9fbd
000000d0: a5c8 1dbe aa1f 71be 1d20 14bd c644 663e
000000e0: 1836 613c 11f7 5c3e 6854 19be f2ea 4fbc
000000f0: 66f1 97bd 1e4b 613e 2f4f b0bc e282 1abe
00000100: bc00 c73d 6970 38be 23b9 52bb 37b9 eb3d
00000110: af46 c6bd abc1 303e e07d 6e3e 4381 4c3d
00000120: 09d0 ddbd 0d28 e43c 748f 18be 76bb 213e
00000130: 013e 4f3e 84de 29bc abc5 453e 692c 073e
00000140: 69ee 9f3d ea45 05be b764 5ebe a0bd 08be
00000150: ca11 fb3d 6848 193e ab66 85bd 3b36 01bd
00000160: b2b5 03be 1ece 103d 46cb ca3d dfd0 39bd
00000170: fa2a 283d aa64 513e 4a15 0a3e 83d5 6fbe
00000180: ff45 0c3e 97bc 32be 5fe4 23be 1204 a83d
00000190: fc22 183e 6faf 2fbe d266 f23d e7de cfbc
000001a0: 6b41 1e3e 69cd 533e cacd 543d 9bf7 19be
000001b0: 002b 413e de6d d73d 410f 8dbd 41d2 f9bc
000001c0: 0f14 9cba 1575 413e 0b63 18be 9252 713e
000001d0: 4170 f9bd aa8f 47be 877a 1fbe 72bc 413e
000001e0: 9b2e 123d 2068 113c 3d89 083e 56e0 153d
000001f0: 21a2 58be 42d5 113e bf17 683d a1f9 f5bd

fc2.weight f4 [64, 128]
0.057069585 -0.054573614 0.006109484 0.022528306 0.038943145 0.03487702 0.051394936 0.055945616
0.050007105 -0.052750755 0.030700989 0.047970936 -0.0072166524 -0.028564407 0.0073113386 0.0048729433
-0.012880967 -0.022009214 -0.01500754 0.022698281 0.038569484 -0.0637405 0.08340597 -0.045045298
0.073860444 0.018488629 -0.008207809 0.066135354 -0.09050028 0.005115759 0.04550855 0.06764998
-0.04176737 0.019162688 -0.045498777 0.08715039 -0.03734347 0.012989295 -0.04600159 0.05588612
0.081864394 0.050906383 -0.008331503 0.0016903488 -0.0854722 0.08412412 0.011885701 -0.060805485
0.03436088 0.08431056 -0.015290917 -0.07808141 0.024394426 -0.032837488 0.058366235 -0.054884978
0.012098122 -0.038615562 -0.037899006 0.035466295 0.077788174 -0.079131044 -0.072653204 0.06689892
0.044217236 0.061505485 0.0616013 -0.058279157 -0.055616543 -0.07522719 -0.030772056 0.052703843
-0.018301979 -0.023604488 0.01318093 0.01320354 0.0597407 -0.014616448 0.0764418 0.0864191
0.0170453 -0.021255592 -0.065544285 -0.04814573 0.013442712 -0.0882547 -0.09092624 0.084830776
-0.07344836 0.066163376 0.025129575 0.046422973 -0.016233394 -0.018698089 0.072070844 -0.032434657
0.031101583 0.021788199 -0.07930723 0.054638367 -0.009976391 0.037895497 -0.0025520623 0.002687902
0.052189033 -0.040681284 -0.021417482 -0.07704382 -0.021395696 -0.04542368 -0.092434034 -0.062330414
-0.045693282 0.032971848 -0.032964114 0.0820042 -0.078713566 0.02548149 -0.05920734 0.044673353
0.053209826 0.029827787 0.018696558 -0.0541812 0.058347978 0.07990505 -0.03135175 -0.019339297
0.08475593 0.07595329 0.0903529 -0.04475338 0.05586862 0.001571575 -0.058600735 0.08211881
-0.018028276 -0.03566994 -0.06987886 -0.010607168 -0.009171306 0.06191163 0.024020981 0.0503903
0.031444166 0.025152214 0.09108019 0.024322145 0.043055616 -0.045123097 0.02489448 -0.045957237
-0.013613067 -0.068591066 0.08292376 0.005229669 -0.08464598 -0.07474234 0.06612734 0.06321261
0.07922768 0.01070239 0.051328164 0.0103089055 -0.080356844 0.0826687 -0.073079355 0.0042726616
-0.079616636 0.009518657 0.057572138 -0.055157542 0.044325594 0.046268035 0.006760885 -0.04400664
0.04755772 -0.0481421 0.08066896 -0.053084176 0.035947856 -0.05661492 -0.07588384 0.041323118
0.04272301 0.088674955 0.05888582 -0.0392874 0.044176806 0.054443423 0.008646927 -0.0041861297
0.005152367 -0.03301217 0.058712754 0.049177945 -0.023600357 0.0524069 -0.045887053 0.051826973
0.024967603 -0.07533768 -0.011882119 -0.011706085 -0.048112705 -0.011260577 -0.01744247 0.08181083
-0.05595434 -0.007948036 0.07468327 -0.062358387 0.018441595 0.03145947 0.049973033 -0.017267529
-0.02622252 -0.012214576 -0.04106243 0.026360715 0.0047186143 0.06845862 0.040586673 0.06296432
-0.048748817 -0.009813379 -0.01674005 0.040140465 0.03956574 -0.002683547 0.03862686 -0.037004974
-0.040859155 -0.033600267 0.0033067109 -0.042929437 0.036458988 0.027667774 -0.063315995 0.07472257
0.013471688 -0.052442934 0.069613434 0.006143318 -0.0060332697 0.08572938 0.049918413 -0.01706952
0.035149846 0.014911295 -0.033081964 -0.03912141 -0.00971645 -0.0644336 0.010767523 0.011269412
00000000: ccc1 693d 9588 5fbd 1132 c83b 488d b83c
00000010: d982 1f3d 35db 0e3d 7f83 523d 3b27 653d
00000020: 40d4 4c3d 2d11 58bd a480 fb3c 2c7d 443d
00000030: ab79 ecbb e7ff e9bc f493 ef3b 36ad 9f3b
00000040: b10a 53bc ab4c b4bc 2fe2 75bc bff1 b93c
00000050: 09fb 1d3d 618a 82bd c0d0 aa3d 6b81 38bd
00000060: 2544 973d 7775 973c 0c7a 06bc f971 873d
00000070: 3658 b9bd 19a2 a73b 2c67 3a3d 138c 8a3d
00000080: 4314 2bbd 12fb 9c3c ed5c 3abd e77b b23d
00000090: 77f5 18bd 0dd1 543c 2a6c 3cbd d8e8 643d
000000a0: 85a8 a73d 3683 503d db80 08bc b28e dd3a
000000b0: 0c0c afbd 4449 ac3d 3ebc 423c 2c0f 79bd
000000c0: febd 0c3d 04ab ac3d c186 7abc 25e9 9fbd
000000d0: d2d6 c73c 9a80 06bd 6f11 6f3d 12cf 60bd
000000e0: 3437 463c 5a2b 1ebd fd3b 1bbd 1b45 113d
000000f0: 684f 9f3d 750f a2bd 34cb 94bd 4d02 893d
00000100: 221d 353d 2ded 7b3d a551 7c3d 20b6 6ebd
00000110: 2cce 63bd b710 9abd ae15 fcbc fcdf 573d
00000120: 08ee 95bc 335e c1bc d4f4 573c a953 583c
00000130: aab2 743d d479 6fbc 858d 9c3d 7ffc b03d
00000140: 96a2 8b3c 3520 aebc 153c 86bd 7534 45bd
00000150: d23e 5c3c e1be b4bd 8937 babd c2bb ad3d
00000160: 186c 96bd aa80 873d 8adc cd3c 0426 3e3d
00000170: e5fb 84bc bc2c 99bc e199 933d 34da 04bd
00000180: bfc8 fe3c 2a7d b23c d46b a2bd 7bcc 5f3d
00000190: 0474 23bc 4f38 1b3d 8040 27bb 8327 303b
000001a0: 2bc4 553d 6ba1 26bd b773 afbc 26c9 9dbd
000001b0: 0746 afbc 2e0e 3abd 0e4e bdbd 2d4e 7fbd
000001c0: e128 3bbd 7d0d 073d 6105 07bd d1f1 a73d
000001d0: 9434 a1bd 8fbe d03c 6583 72bd 68fb 363d
000001e0: 8cf2 593d 6759 f43c 8629 993c 1bed 5dbd
000001f0: 4afe 6e3d 42a5 a33d b16a 00bd 726d 9ebc
00000200: 8494 ad3d 668d 9b3d f10a b93d 524f 37bd
00000210: 7ed6 643d 4efd cd3a 5307 70bd e82d a83d
00000220: 09b0 93bc a51a 12bd a61c 8fbd b0c9 2dbc
00000230: 3f43 16bc 0d97 7d3d a6c7 c43c 0f66 4e3d
00000240: 99cb 003d 040c ce3c 4088 ba3d 3c3f c73c
00000250: 165b 303d ffd2 38bd 82ef cb3c a83d 3cbd
00000260: 5709 5fbc 7979 8cbd efd3 a93d a55d ab3b
00000270: df5a adbd 8312 99bd c56d 873d 9d75 813d
00000280: 1f42 a23d 1459 2f3c 7b3d 523d afe6 283c
00000290: 2192 a4bd 354e a93d a1aa 95bd af01 8c3b
000002a0: 0c0e a3bd 24f4 1b3c c3d0 6b3d e0ec 61bd
000002b0: c18e 353d 8d83 3d3d 6a8a dd3b 4e40 34bd
000002c0: e2cb 423d a730 45bd c535 a53d cb6e 59bd
000002d0: 0f3e 133d 0ce5 67bd fd68 9bbd 6e42 293d
000002e0: 53fe 2e3d 379b b53d 4232 713d d3eb 20bd
000002f0: bdf2 343d 1100 5f3d d7ab 0d3c cd2b 89bb
00000300: 30d5 a83b c537 07bd c97c 703d d06e 493d
00000310: 8955 c1bc 9ea8 563d 10f4 3bbd 8548 543d
00000320: dc88 cc3c a44a 9abd 38ad 42bc e1ca 3fbc
00000330: d411 45bd 487e 38bc 83e3 8ebc 708c a73d
00000340: 6130 65bd 7b38 02bc 8bf3 983d 826b 7fbd
00000350: d412 973c a5db 003d 86b0 4c3d a274 8dbc
00000360: 9cd0 d6bc a51f 48bc 1431 28bd 6df2 d73c
00000370: 9b9e 9a3b 0834 8c3d 363e 263d 70f3 803d
00000380: d7ac 47bd 4bc8 20bc 6e22 89bc 546a 243d
00000390: af0f 223d 73de 2fbb 3337 1e3d 8792 17bd
000003a0: ee5b 27bd 6fa0 09bd 67b5 583b c7d6 2fbd
000003b0: 0556 153d 87a7 e23c d1ab 81bd 2608 993d
000003c0: 5bb8 5c3c 67ce 56bd 7d91 8e3d e34d c93b
000003d0: bcb2 c5bb e392 af3d 4077 4c3d 61d5 8bbc
000003e0: 49f9 0f3d 814e 743c f480 07bd c63d 20bd
000003f0: bf31 1fbc c3f5 83bd 446a 303c 57a3 383c

fc2.bias f4 [64]
0.01125017 -0.0117738135 -0.040335935 0.05893509 -0.075532936 -0.043965776 0.014498157 0.0030105335
0.07951512 -0.08927083 0.0010151179 -0.03004337 -0.08128741 -0.041906986 0.044073712 -0.03544559
0.07485847 -0.022149878 -0.01891969 0.057175916 0.03929418 -0.050637335 -0.0071471334 -0.036137227
-0.06738528 -0.026268372 -0.08253114 -0.06481646 -0.020615771 0.032521855 0.016688656 -0.07352425
0.068663076 -0.05710453 -0.07343687 -0.05582736 -0.03611042 -0.069504276 0.004203659 -0.056806818
0.0029388054 0.029215373 0.056801684 -0.0586857 8.766292e-06 -0.005253216 0.08711587 0.04134009
0.024827423 -0.075782016 -0.081061244 0.012047802 0.03906121 -0.003808612 -0.07601368 0.012903403
0.01327491 0.031467795 -0.08205647 0.074152336 0.001722779 0.06547865 0.02207985 -0.030449893
00000000: a252 383c f4e6 40bc 4b37 25bd ec65 713d
00000010: 03b1 9abd 7515 34bd ae89 6d3c 5f4c 453b
00000020: d3d8 a23d a0d3 b6bd b40d 853a 831d f6bc
00000030: 037a a6bd a9a6 2bbd a386 343d 652f 11bd
00000040: 664f 993d a973 b5bc 77fd 9abc 4b31 6a3d
00000050: eff2 203d 1869 4fbd 8032 eabb a104 14bd
00000060: 4b01 8abd c530 d7bc 1606 a9bd 7ebe 84bd
00000070: 68e2 a8bc a335 053d a6b6 883c e293 96bd
00000080: 3a9f 8c3d 71e6 69bd 1266 96bd 3bab 64bd
00000090: 85e8 13bd 4258 8ebd d9be 893b 44ae 68bd
000000a0: f998 403b 1455 ef3c e2a8 683d 6b60 70bd
000000b0: f012 1337 2b23 acbb ce69 b23d 3a54 293d
000000c0: e162 cb3c 9a33 9bbd 7003 a6bd 2564 453c
000000d0: a6fe 1f3d e899 79bb 0fad 9bbd cb68 533c
000000e0: 027f 593c 60e4 003d 390d a8bd 2edd 973d
000000f0: dfce e13a ac19 863d cde0 b43c 0e72 f9bc

fc3.weight f4 [32, 64]
-0.114710644 -0.024100853 -0.082180984 0.121714465 -0.10290632 -0.107137896 0.057846405 -0.10762144
0.05333661 -0.013939554 0.1265478 0.016499516 -0.015658854 -0.055096198 -0.034762062 -0.0842299
-0.025647243 -0.056024674 0.028486721 0.11876947 -0.028111564 0.08087929 -0.042506747 0.06939235
-0.070754044 -0.029981857 0.08516855 -0.0029363367 0.063817896 -0.11360122 -0.12180901 0.12247631
-0.038047098 -0.079850495 0.10617167 0.0939923 0.11108236 0.07461461 0.049422033 0.09572283
-0.09773616 0.10125863 0.06530812 0.046900917 -0.090574265 0.09711784 -0.12086889 0.11299741
-0.097734384 0.07807897 -0.08736872 -0.11826948 0.077211924 0.029929454 -0.038241647 0.054068033
0.0801309 -0.084215894 0.06331357 0.019855652 0.09559147 -0.038989488 -0.07962214 -0.05527535
0.012308066 0.014336366 -0.061584987 -0.01757911 0.04377556 0.048848998 0.12768258 0.11717238
-0.03412041 -0.08670539 0.099003166 0.09457349 0.0047194706 -0.017771086 0.021788578 0.0823411
0.039664127 -0.03950315 0.09995501 -0.010632662 0.08712829 0.068807945 0.040580153 0.021186488
0.049745455 -0.08718598 0.08827323 -0.058074858 -0.058737047 0.033357862 -0.08729172 0.008961033
0.010963063 0.06772662 0.057012722 -0.01972883 0.023267955 -0.12556538 0.1163934 -0.12586418
0.088991694 -0.09678716 -0.054629747 -0.005954535 0.04848273 0.066872105 -0.054293558 -0.09742856
0.11812054 0.058768753 0.034912236 0.08551727 -0.11321906 0.002823493 0.08571247 -0.120836176
-0.016962543 0.013416383 0.04344778 -0.018367797 -0.12791179 0.10671778 0.09539886 -0.097418025
-0.11622239 -0.039420515 0.10572152 0.022206916 -0.028848007 0.04719005 -0.127936 0.008926255
-0.007915301 0.056596503 0.08440158 0.054106828 0.0039041634 0.107396595 0.116703026 -0.027465297
-0.019190716 -0.047232404 0.024104426 0.0019821639 -0.0044776136 0.113762446 -0.03674987 0.0018050587
0.09073398 0.022946067 -0.09507978 -0.00026044535 0.059609044 -0.054516412 0.06274425 -0.09347387
-0.025806366 0.012851912 -0.11243033 0.056939945 0.08204284 0.1269624 0.023143705 0.12296687
-0.11934592 -0.01650224 -0.07600765 -0.08382252 -0.01770999 -0.076204084 -0.121121295 -0.022071887
-0.056883752 -0.052284457 0.011932608 -0.1125806 -0.06161705 0.0037274556 -0.11942251 -0.025444984
-0.12491217 -0.05724539 0.040390182 -0.112098545 0.021116463 -0.112451375 -0.107372895 -0.10082456
0.000638888 0.10884192 -0.07208661 0.05269328 -0.014015004 0.03173343 -0.015637692 0.04869816
0.031486325 0.023071695 -0.022056866 0.0007385763 -0.00779504 0.03365893 0.027068485 0.016203836
0.118656784 0.08607088 -0.081226915 0.04427326 0.0721349 -0.12273151 0.11905255 -0.003976785
-0.08610746 -0.017167734 -0.07636465 0.07231288 -0.053523928 -0.09470603 0.07569024 0.08511334
-0.09127969 -0.11827039 0.003754632 -0.11840547 0.041615583 0.014421217 -0.036314722 0.0604099
-0.037445154 -0.07854977 0.034943007 0.11540692 -0.054555316 0.09558209 0.018265802 -0.00914864
0.010383411 0.1177713 0.026638746 -0.065093316 0.07054912 -0.0058471803 -0.0065439185 0.115956314
-0.009238565 0.040619828 -0.121646866 -0.06595372 -0.08918716 0.016819814 0.0064302166 0.12165313
00000000: 6aed eabd 276f c5bc 814e a8bd 6f45 f93d
00000010: 8cc0 d2bd 1d6b dbbd 5af0 6c3d a168 dcbd
00000020: 7d77 5a3d ba62 64bc bf95 013e fe29 873c
00000030: ff46 80bc 8dac 61bd aa62 0ebd ba80 acbd
00000040: 2b1a d2bc 217a 65bd fc5c e93c 683d f33d
00000050: 394a e6bc 0ba4 a53d 8e1b 2ebd 941d 8e3d
00000060: 7fe7 90bd 839c f5bc d96c ae3d 8e6f 40bb
00000070: f5b2 823d c2a7 e8bd 0177 f9bd dcd4 fa3d
00000080: 46d7 1bbd a888 a3bd 8870 d93d 097f c03d
00000090: 267f e33d 8bcf 983d c26e 4a3d 550a c43d
000000a0: e529 c8bd af60 cf3d 43c0 853d 2d1b 403d
000000b0: 007f b9bd b8e5 c63d 1c8a f7bd 306b e73d
000000c0: f728 c8bd dee7 9f3d 5fee b2bd 4537 f2bd
000000d0: 4921 9e3d 9d2e f53c 46a3 1cbd 7176 5d3d
000000e0: ab1b a43d 6279 acbd 8caa 813d 52a8 a23c
000000f0: 76c5 c33d 71b3 1fbd ef10 a3bd 6868 62bd
00000100: c5a7 493c 14e3 6a3c 8a40 7cbd 1102 90bc
00000110: 004e 333d e315 483d 39bf 023e 13f8 ef3d
00000120: d8c1 0bbd 9892 b1bd 2cc2 ca3d bfaf c13d
00000130: caa5 9a3b ab94 91bc f67d b23c 73a2 a83d
00000140: da76 223d 0ece 21bd 36b5 cc3d 9e34 2ebc
00000150: 5170 b23d 2eeb 8c3d 6037 263d 498f ad3c
00000160: e4c1 4b3d 908e b2bd 98c8 b43d e7df 6dbd
00000170: 4296 70bd 41a2 083d 00c6 b2bd 4cd1 123c
00000180: 6b9e 333c 41b4 8a3d 2c86 693d 5b9e a1bc
00000190: 709c be3c 3694 00be aa5f ee3d 8ae2 00be
000001a0: 4741 b63d 5938 c6bd 71c3 5fbd 431e c3bb
000001b0: d495 463d 3ef4 883d ec62 5ebd a088 c7bd
000001c0: 2fe9 f13d 81b7 703d 2200 0f3d ae23 af3d
000001d0: 65df e7bd 5a0a 393b 058a af3d f578 f7bd
000001e0: 08f5 8abc 64d0 5b3c 4df6 313d 1078 96bc
000001f0: 4ffb 02be da8e da3d 7a60 c33d 1a83 c7bd
00000200: 0106 eebd 6877 21bd 8684 d83d 47eb b53c
00000210: a852 ecbc 5b4a 413d a801 03be 6d3f 123c
00000220: 2eaf 01bc bcd1 673d bcda ac3d 1f9f 5d3d
00000230: fedc 7f3b bff2 db3d ff01 ef3d e7fe e0bc
00000240: d935 9dbc c476 41bd a576 c53c 31e7 013b
00000250: f2b8 92bb 49fc e83d 0887 16bd b897 ec3a
00000260: bdd2 b93d 64f9 bb3c 30b9 c2bd 628c 88b9
00000270: 9d28 743d 9a4c 5fbd 0f80 803d 3a6f bfbd
00000280: df67 d3bc d390 523c df41 e6bd dc39 693d
00000290: 1406 a83d 6e02 023e de97 bd3c 0ed6 fb3d
000002a0: a26b f4bd b52f 87bc e6a9 9bbd 24ab abbd
000002b0: 8a14 91bc e310 9cbd 710e f8bd 1ad0 b4bc
000002c0: f0fe 68bd 3a28 56bd fc80 433c a890 e6bd
000002d0: 2962 7cbd 5448 743b ca93 f4bd 0072 d0bc
000002e0: f4d1 ffbd 247a 6abd 2d70 253d ec93 e5bd
000002f0: 6ffc ac3c e84c e6bd 52e6 dbbd 1b7d cebd
00000300: 0c7b 273a 83e8 de3d 25a2 93bd e9d4 573d
00000310: 309f 65bc eafa 013d 9e1a 80bc b977 473d
00000320: cef7 003d da00 bd3c 9ab0 b4bc 049d 413a
00000330: 896d ffbb f2dd 093d babe dd3c e8bd 843c
00000340: 5402 f33d ee45 b03d 4c5a a6bd e157 353d
00000350: 76bb 933d a85a fbbd d3d1 f33d b14f 82bb
00000360: 1c59 b0bd 59a3 8cbc 1265 9cbd c618 943d
00000370: e83b 5bbd 3cf5 c1bd 7c03 9b3d e74f ae3d
00000380: d9f0 babd bf37 f2bd 4610 763b 917e f2bd
00000390: 1a75 2a3d f846 6c3c bfbe 14bd 5f70 773d
000003a0: 1760 19bd b4de a0bd 6620 0f3d 775a ec3d
000003b0: 6575 5fbd 8bc0 c33d 2aa2 953c 2de4 15bc
000003c0: 2f1f 2a3c 1432 f13d 8039 da3c a54f 85bd
000003d0: 0f7c 903d b499 bfbb 5e6e d6bb 817a ed3d
000003e0: 5a5d 17bc fa60 263d fe21 f9bd be12 87bd
000003f0: c2a7 b6bd b5c9 893c 91b4 d23b 4725 f93d

fc3.bias f4 [32]
0.062570855 -0.029144268 -0.058176856 0.058597445 0.09799961 0.0518784 -0.02818987 -0.020221958
-0.024241108 -0.09001847 -0.11191 0.11342321 -0.10204353 0.0045598666 0.092405 0.015118194
0.11917961 -0.06694749 0.019093174 0.046368245 0.05734534 -0.08398197 -0.09479882 0.0730976
0.06586298 0.11530727 -0.045945153 0.0059070806 0.10273033 0.102974325 -0.045715522 -0.084720775
00000000: 2625 803d f6bf eebc db4a 6ebd e003 703d
00000010: 05b4 c83d 727e 543d 71ee e6bc 85a8 a5bc
00000020: 4a95 c6bc 9b5b b8bd 1231 e5bd 6e4a e83d
00000030: 33fc d0bd ef6a 953b d53e bd3d 4db2 773c
00000040: 7014 f43d c41b 89bd 4a69 9c3c a1ec 3d3d
00000050: f2e2 6a3d bdfe abbd e225 c2bd 32b4 953d
00000060: 2ce3 863d 3826 ec3d fc30 3cbd 2f90 c13b
00000070: 4764 d23d 34e4 d23d 3340 3bbd 1682 adbd

fc4.weight f4 [5, 32]
-0.051976234 -0.063485704 0.13135614 -0.11114801 -0.0020036334 -0.04480338 -0.16094097 0.01567702
0.08980111 0.004420488 -0.04411905 -0.059340976 0.14470495 -0.107406124 0.06970863 -0.117700286
-0.11597401 0.10831111 -0.100340866 0.16721368 0.15499629 -0.15861714 0.13565843 0.08726419
0.13329294 0.16149628 0.112606704 -0.12378452 -0.11317659 -0.15488653 0.032745674 -0.040640626
-0.04065365 0.13888477 -0.13786194 -0.0003126955 -0.07148527 0.0578106 -0.00053436944 -0.021947894
-0.06463674 0.16803315 -0.11438682 0.08963606 0.13168746 0.14159556 0.16119328 -0.18075934
0.12828524 0.014671213 0.08681243 0.06112789 -0.0334517 -0.12634103 -0.027198289 0.020615926
0.10983204 -0.02053401 0.023197878 -0.124156505 -0.117795445 0.12158816 -0.099945486 0.10357883
0.07032904 0.033392295 0.011495379 0.15436895 -0.025054753 -0.14402418 -0.09050371 -0.044724125
-0.009738617 0.0010310066 0.061310776 -0.08237589 0.09661584 -0.09750912 -0.054747615 0.107114375
0.17079309 0.080870025 0.15415846 -0.053417742 -0.052553553 -0.15851593 -0.004285215 -0.027985383
-0.053398695 0.103041336 -0.09531307 -0.012757668 -0.014804202 -0.042707365 -0.15519656 0.051997278
-0.11614158 0.14253946 0.0667372 0.0153941875 -0.16168998 0.025369186 0.033269502 -0.026920697
-0.14670156 -0.1724297 0.09632068 0.14974569 -0.08563405 0.09187362 0.12430153 -0.096072786
-0.12519959 -0.140835 -0.14767517 0.16823898 0.15717836 -0.14266643 0.03659338 -0.077362254
-0.12994607 -0.1519601 -0.0927018 0.10152662 0.09017783 0.03614153 0.014734422 0.12094707
-0.08673088 0.10277518 -0.12094653 0.17692135 -0.1327309 0.09117691 0.0022641215 -0.10342785
-0.09741428 0.10551351 0.17022724 -0.1630689 -0.124210246 -0.16626287 -0.0563844 0.16427116
-0.078045376 -0.024293385 -0.1645822 0.091619946 -0.11349877 0.103782564 -0.10261452 -0.10604909
-0.16543745 0.15337034 0.021231152 -0.16177109 0.021765625 -0.09644793 0.17359489 -0.1684397
00000000: 08e5 54bd cb04 82bd 3982 063e 91a1 e3bd
00000010: 644f 03bb c083 37bd b6cd 24be 186d 803c
00000020: a5e9 b73d bed9 903b 2db6 34bd 860f 73bd
00000030: 892d 143e bef7 dbbd 66c3 8e3d d90c f1bd
00000040: c883 edbd 37d2 dd3d 837f cdbd 103a 2b3e
00000050: 59b7 1e3e 886c 22be 0bea 0a3e 91b7 b23d
00000060: f27d 083e 485f 253e 589e e63d bd82 fdbd
00000070: 21c9 e7bd 939a 1ebe 5420 063d c976 26bd
00000080: 7184 26bd cf37 0e3e ae2b 0dbe 48f1 a3b9
00000090: df66 92bd cfca 6c3d ed14 0cba 12cc b3bc
000000a0: 4460 84bd e210 2c3e a343 eabd 1c93 b73d
000000b0: 14d9 063e 6dfe 103e da0f 253e fa18 39be
000000c0: 355d 033e 875f 703c b7ca b13d 3d61 7a3d
000000d0: a604 09bd 8b5f 01be f2ce debc bbe2 a83c
000000e0: 9fef e03d f136 a8bc 7a09 be3c c445 febd
000000f0: bd3e f1bd 3703 f93d 38b0 ccbd 2321 d43d
00000100: ac08 903d 5cc6 083d 1d57 3c3c e512 1e3e
00000110: a03f cdbc 137b 13be 025a b9bd a530 37bd
00000120: b88e 1fbc d722 873a 0221 7b3d b1b4 a8bd
00000130: 87de c53d ddb2 c7bd 093f 60bd c85e db3d
00000140: 62e4 2e3e 2f9f a53d b7db 1d3e 90cc 5abd
00000150: 6542 57bd 0052 22be fd6a 8cbb 9a41 e5bc
00000160: 97b8 5abd 5607 d33d 8033 c3bd 8a05 51bc
00000170: 538d 72bc ebed 2ebd d9eb 1ebe 19fb 543d
00000180: a3db edbd ddf5 113e 83ad 883d e737 7c3c
00000190: 0f92 25be 0ad3 cf3c 9a45 083d cb88 dcbc
000001a0: ef38 16be 6991 30be c743 c53d ef56 193e
000001b0: e860 afbd 3d28 bc3d cd91 fe3d cfc1 c4bd
000001c0: 5234 00be 0d37 10be 2938 17be d746 2c3e
000001d0: 5df3 203e 2617 12be f1e2 153d 1a70 9ebd
000001e0: 9510 05be 6e9b 1bbe 71da bdbd 30ed cf3d
000001f0: 27af b83d 2409 143d a568 713c 19b3 f73d
00000200: f69f b1bd cb7b d23d d0b2 f7bd df2a 353e
00000210: 9cea 07be f6ba ba3d a861 143b fbd1 d3bd
00000220: 2381 c7bd 7817 d83d 0d50 2e3e 89fb 26be
00000230: f161 febd d040 2abe 54f3 66bd b336 283e
00000240: 41d6 9fbd ec02 c7bc 3c88 28be 3da3 bb3d
00000250: 0b72 e8bd f48b d43d 9027 d2bd 4430 d9bd
00000260: 6f68 29be 1d0d 1d3e f4ec ad3c 52a7 25be
00000270: d34d b23c 7e86 c5bd dcc2 313e 757b 2cbe

fc4.bias f4 [5]
0.15614456 -0.044347353 -0.013292232 0.06259203 -0.124142535
00000000: 5ce4 1f3e 92a5 35bd a9c7 59bc 4030 803d
00000010: 713e febd
