clean_code/trained_models/actor_184.pth (torch, 54872 bytes, 8 tensors)

fc1.weight f4 [128, 18]
000000 d7 29 0c 3e 91 32 93 3d 8f 8b 29 be 33 13 34 3e
       0.13687836 0.07187379 -0.16557144 0.17585449
000010 e2 65 dc 3d b9 ae a5 bd 58 78 74 3c d5 8f b3 3b
       0.1076162 -0.08089966 0.01492127 0.0054797926
000020 03 d1 a2 3d 9a 43 9b bd cf 6f 25 be fb 26 da bb
       0.07950022 -0.07581253 -0.16155933 -0.006657479
000030 6e 15 52 3e e2 46 a9 3d 6d 3b 19 3e 20 30 a5 bb
       0.20515987 0.08265473 0.14964075 -0.0050411373
000040 46 8e 81 be d3 14 7f 3e f9 19 e8 3d cb a3 14 3e
       -0.2530386 0.24910288 0.11333079 0.14515607
000050 99 4c 88 3d 60 64 cc bd cb 9c 46 3d 27 30 20 bd
       0.06655235 -0.099800825 0.048489373 -0.03910842
000060 0c 4d 00 3e 5a 76 37 3e 01 f1 9e 3d 66 da fb 3c
       0.12529391 0.17916241 0.077608116 0.030743789
000070 65 04 02 3e 02 87 04 3e 34 24 3b be 24 32 0c be
       0.12696989 0.12942126 -0.18275529 -0.13691002
000080 d4 7d bb bd 8d db 1b 3d 41 15 34 be e5 94 00 3d
       -0.09154859 0.038051177 -0.17586233 0.031391997
000090 82 77 11 3e c4 c8 a2 3d ea ba 1e be 45 ba 5c 3d
       0.14205745 0.07948449 -0.1550099 0.053888578
0000a0 bc b5 3e be 6e fe cb 3c c8 ec 3d 3e 90 db 12 3e
       -0.18624014 0.024901595 0.18547356 0.14341569
0000b0 7a 06 8f bd 24 27 39 be c3 ea e6 bd ad ad 30 3e
       -0.06983657 -0.18081337 -0.11275246 0.17253752
0000c0 31 9e 82 3e 82 69 c5 3d 07 6b 82 3d 3a cd 03 be
       0.25511315 0.09639265 0.0636807 -0.12871256
0000d0 12 96 3a 3e 4b 4e 4b 3d c8 e7 0b 3e 4a 6c 07 bd
       0.1822131 0.049635213 0.13662636 -0.033062257
0000e0 52 e5 30 3e 27 c6 03 3d 42 6b 35 be 21 e4 03 be
       0.17274979 0.032171395 -0.17716697 -0.12879993
0000f0 a9 aa 3e be 53 3d 38 be 77 41 f2 bd bb ec 2b 3e
       -0.18619789 -0.17992143 -0.11828893 0.16789524
000100 5a 19 d4 3d 58 f6 cb bd 43 a9 5a 3e 77 19 3e 3e
       0.10356398 -0.09959096 0.2135363 0.18564402
000110 5b 51 d5 bb 65 e5 2b be 99 c0 31 3e 5c bb 66 bd
       -0.0065099425 -0.16786726 0.17358626 -0.056331024
000120 0f 84 b3 bd 50 dc 65 3e 3a 06 2b bd be 4b 59 be
       -0.087654226 0.22447324 -0.041753985 -0.212203
000130 b4 d3 50 3e f3 53 19 3e eb e1 d7 bd b1 0c 7f 3e
       0.20393258 0.1497343 -0.10541137 0.24907185
000140 d8 be 17 bd d9 65 0e 3d 43 8a 67 3d a5 07 bd 3d
       -0.037047237 0.0347651 0.05652834 0.09229974
000150 64 2e 92 3c f4 29 06 be 45 60 78 3e 35 a7 17 3e
       0.017844386 -0.13101941 0.24255474 0.14809878
000160 78 06 1d be b3 37 55 3e 8c ad 88 3d 8a b7 a9 bd
       -0.15334499 0.20822029 0.066737264 -0.082869604
000170 2e 04 95 3c 41 fb 22 3e aa b2 55 3e a4 92 68 bd
       0.01819047 0.15916158 0.20868936 -0.056780472
000180 6f ee e6 bd d2 ed 26 bd d0 1b 87 3d 20 ae 42 be
       -0.11275946 -0.040754147 0.06597102 -0.19011736
000190 55 68 4d bd 9e 35 10 3e 8b 43 4e be df ba 52 3e
       -0.050148327 0.14082953 -0.20142953 0.20579098
0001a0 85 43 25 be 42 64 40 3e 84 a9 0b 3d 79 be 3e 3e
       -0.16139038 0.18788245 0.03409721 0.18627347
0001b0 1e 84 17 3e 00 30 78 be b6 c7 1a 3e 92 98 03 be
       0.14796492 -0.2423706 0.15115246 -0.1285117
0001c0 f2 ce ca 3d 6a 4b 35 3e 72 9c 39 3e 99 8a b0 3d
       0.09902753 0.1770455 0.18126085 0.086201854
0001d0 94 22 31 be 22 3a 5d 3a 17 7c 63 be 10 fe ae bc
       -0.17298347 0.00084391434 -0.22215305 -0.02136138
0001e0 87 08 61 be 60 a7 1f bc 7a 04 04 be 98 38 83 3d
       -0.21975909 -0.009744495 -0.12892333 0.06407279
0001f0 50 a4 6d be e4 3c 33 bb de 80 81 3c f7 00 12 3e
       -0.23207211 -0.0027349526 0.015808519 0.1425818
000200 94 38 5a be 30 e0 61 be 0b e7 14 be 68 bf 9c 3d
       -0.21310645 -0.22058177 -0.14541261 0.07653695
000210 d6 94 48 3e 10 09 11 be d8 bf 27 3e 61 b2 44 be
       0.19588026 -0.14163613 0.16381776 -0.19208671
000220 76 fa 24 3e 5f 2d 2e 3e 88 a1 f7 bc c8 f3 c9 3c
       0.16111168 0.17009495 -0.030228391 0.024652377
000230 fa 52 14 3e 23 5c 94 bc 92 f4 0b 3d 51 33 1b be
       0.14484778 -0.01811034 0.034168787 -0.15156294
000240 e6 7a 97 3c e9 2e 8f bd b5 f5 63 bd 14 71 3d 3e
       0.01849122 -0.06991369 -0.055654246 0.18500167
000250 07 a9 4e bd 91 1b 60 be 67 a7 b3 bd 78 3e 2d be
       -0.050454166 -0.21885516 -0.08772164 -0.16918361
000260 d7 ab c6 3c bf b5 53 be cf ee b0 bd b7 02 73 be
       0.024251861 -0.206748 -0.08639299 -0.23731504
000270 82 85 2f 3e 97 ab 57 be 34 f7 d5 bd d4 db 14 be
       0.17140773 -0.2106155 -0.10447541 -0.14536983
000280 50 c5 84 3d b0 c6 28 3e 48 40 04 3e 9e 2f 51 3e
       0.06482947 0.16482043 0.12915146 0.20428321
000290 a8 dc 55 3e 23 90 ba bd 67 3e d2 3d 29 1f 75 be
       0.20884955 -0.09109523 0.102658086 -0.23937668
0002a0 b2 a8 52 3e b4 27 f5 3d 01 bf aa bd b8 ca 48 3e
       0.20572165 0.119704634 -0.08337212 0.19608581
0002b0 5e 6c a6 3d d9 61 5e 3e cb c3 1c 3e 4f ba f4 bd
       0.08126138 0.21717013 0.15309064 -0.11949598
0002c0 af c6 88 bd 11 d9 33 3e 68 7a 4d be 6f 1f ea bd
       -0.06678521 0.17563273 -0.20066226 -0.11431777
0002d0 ac ec c1 bd b9 bc 32 be 02 e8 11 be 51 22 31 be
       -0.0946897 -0.17454804 -0.1424866 -0.17298247
0002e0 5c 9f ed 3d 36 31 f1 3d 5d f2 0e 3c 51 17 07 3e
       0.11602661 0.11776964 0.008724776 0.13192488
0002f0 6f 55 06 3d 64 3f eb 3c bb ef 1c bb 95 bc ab 3d
       0.03279632 0.02871675 -0.0023946601 0.083855785
000300 93 ca 29 be f0 c4 6e bd 72 a1 63 be b7 a9 0f be
       -0.16581182 -0.058293283 -0.22229555 -0.14029585
000310 9c 75 1d 3e b1 d9 28 3d 99 b5 8b bd 59 13 3c 3e
       0.15376896 0.04122323 -0.068217464 0.18366756
000320 cc 1d 19 bd a1 0c 0a be d3 6d 05 be 8d 41 41 3e
       -0.037381932 -0.1348138 -0.13030176 0.18872662
000330 b1 ae 83 3d f8 69 31 3e 8c 56 ee 3c 73 cb a5 bd
       0.06429804 0.1732558 0.029094003 -0.080954455
000340 b0 b0 e1 3d e5 1d cb 3d 71 9f 31 bc 68 11 09 bd
       0.110200286 0.09917811 -0.010841236 -0.033463866
000350 65 e5 cc bd 4b 3c c7 3d 94 a7 51 be 13 78 63 3e
       -0.10004691 0.09728297 -0.20474082 0.22213773
000360 7c c8 d4 bd 4d 12 af bd 70 cd 10 3e 26 b2 e6 bd
       -0.10389802 -0.085484125 0.14140868 -0.11264448
000370 33 3d 57 be 0f f9 30 bd 10 12 5b be 0d 29 92 3c
       -0.2101944 -0.04320627 -0.21393609 0.01784184
000380 7c c0 41 be 90 92 30 be ac 37 23 bd 73 e3 3b 3e
       -0.18921083 -0.17243409 -0.039848015 0.18348484
000390 f0 e4 11 be c0 57 4c bb 80 97 9a 3d c0 26 de bd
       -0.14247489 -0.0031180233 0.075484276 -0.10847235
0003a0 bd fc 13 3e 74 54 18 3e e8 2e 7f 3e 52 89 d2 bd
       0.14451881 0.14875966 0.24920237 -0.10280098
0003b0 7a be 75 3d 64 df 8b bd e5 36 c7 3b 7b c1 3a 3d
       0.059996106 -0.06829718 0.006079542 0.045594674
0003c0 fd f0 4b 3e 78 0a 4e 3e 4c ce 22 3e d0 ee 6f 3e
       0.19916148 0.20121181 0.15899009 0.23430943
0003d0 2e 2c 3a bd 09 19 52 3d 61 1c 43 be 6f ac fc bd
       -0.04545229 0.051293407 -0.19053794 -0.123375766
0003e0 7c 7d 90 3c 0b 04 0b ba f1 86 56 bd 00 6f be bd
       0.01763796 -0.00053030316 -0.052374784 -0.09298515
0003f0 a7 8b 51 3e ad 0a 8c bd 86 4b d9 bb 0e 76 95 3c
       0.2046343 -0.06837974 -0.0066313175 0.01824477

fc1.bias f4 [128]
000000 2a b6 0a 3e 84 9b 0d 3e a1 2d 1d 3e 28 be 41 3e
       0.13546053 0.13828856 0.15349437 0.18920195
000010 1d b3 5f 3c 45 3a 56 3d 4e 75 45 3d 5d 12 df bd
       0.013653544 0.052301664 0.048207574 -0.108921744
000020 8c a7 fb 3d 4e 81 4c be 04 d1 49 be 2c 35 66 3e
       0.122878164 -0.19971201 -0.1970864 0.22481221
000030 5f 57 21 3e 02 84 98 bd 8d 5f 98 3d 69 95 64 3e
       0.15755986 -0.074470535 0.074401 0.2232262
000040 70 22 f8 39 62 09 48 3e 49 0c 1e be 1e 41 b9 3d
       0.00047327904 0.1953483 -0.15434374 0.09045623
000050 99 b4 32 3e cd 17 c2 3d 55 80 25 be b5 63 20 3d
       0.17451705 0.09477196 -0.16162236 0.039157588
000060 57 db 65 be 9b 90 c7 3d 5f 97 21 3c e5 ef 36 3e
       -0.22446953 0.09744378 0.00986275 0.1786495
000070 b1 fa 5c bd 36 d8 90 3d be ec 1e bc d0 64 3c be
       -0.053950015 0.07072489 -0.009699998 -0.18397832
000080 0f a4 46 3d ae 84 6f 3e ff cb d6 3d f4 b8 c9 bd
       0.048496302 0.23390457 0.10488128 -0.0984973
000090 38 38 cc bd e6 33 f2 3c df b5 75 3e 55 d1 26 be
       -0.099716604 0.029565763 0.2399516 -0.16290791
0000a0 44 b8 4a bb 31 6e 51 3e dd 45 0a be 91 60 62 3e
       -0.0030932585 0.20452191 -0.13503213 0.2210715
0000b0 9a 2b 95 bd 52 a8 48 3e 70 e0 7c 3e 78 35 e7 3d
       -0.07283707 0.19595459 0.24694991 0.11289495
0000c0 cf ff 7e 3e 5d 13 0d be 45 4b bf 3d 57 02 70 bd
       0.2490227 -0.13776918 0.093405284 -0.05859598
0000d0 b3 56 1a be d1 69 82 be 1f 75 33 bd de a3 7e 3e
       -0.15072136 -0.25471357 -0.043812867 0.24867198
0000e0 30 6b ba 3c 90 98 71 3e 85 ab 26 be 9e 99 2c bc
       0.02275619 0.23593354 -0.16276367 -0.010534672
0000f0 60 d6 6b bd d5 7e 74 3e 30 f3 e6 37 20 be 19 be
       -0.05757749 0.23876508 2.753138e-05 -0.15013933
000100 42 e5 e2 3d df 91 47 be 33 f3 47 3c 65 01 cb 3d
       0.11078884 -0.19489239 0.012203979 0.09912375
000110 c2 3e 98 bd 5a 38 28 3e 89 a2 70 3e f7 6b 75 3d
       -0.07433845 0.16427746 0.23499502 0.059917416
000120 95 98 02 be 17 8b 3e 3d aa 6e 26 be c1 3f 1a 3e
       -0.12753518 0.046519365 -0.16253152 0.15063383
000130 5b 9a 3e 3e 1b 61 0f 3b 24 0d 57 3e 7a c9 12 3e
       0.1861357 0.0021877948 0.21001107 0.1433467
000140 d5 4e 82 3d 6f d6 16 be 98 42 6e be b6 36 1b be
       0.06362692 -0.14730237 -0.23267591 -0.1515759
000150 e3 d1 d8 3d 0a 05 0f 3e 13 5e a4 bd 1b 42 3d bd
       0.10586908 0.13966766 -0.08025756 -0.04620562
000160 fb dd e6 bd 4c df 93 3c 35 04 f5 3d e3 f0 ef bc
       -0.11272808 0.018050812 0.11963693 -0.029289668
000170 21 f9 d4 3c 6b 1a 62 3e 6c 1c 19 3e 97 ea 82 be
       0.0259977 0.2208039 0.14952248 -0.25569603
000180 a5 d1 04 3e 1e 2b 48 be 82 ff 30 be 1a 21 7e 3d
       0.12970598 -0.19547698 -0.17284968 0.062043287
000190 eb c6 23 3e c4 28 43 be ce ca 10 3e 8a 2a 3e bd
       0.1599385 -0.1905852 0.14139864 -0.046427287
0001a0 ea 1c 14 3e 06 4e 51 3e 74 a8 1f 3d c9 00 16 be
       0.14464155 0.2043992 0.03897901 -0.14648737
0001b0 18 3d 30 3e 4d 76 ff 3d 6a 63 a5 bd 67 56 11 bd
       0.17210805 0.12473736 -0.08075602 -0.03548279
0001c0 8c da c9 bb a5 ef 53 3e 27 8f 27 be 00 08 79 3e
       -0.006160086 0.20696886 -0.16363202 0.24319458
0001d0 e6 df 0b be 3f cb 37 be f0 f7 18 be d3 6e 52 3e
       -0.13659629 -0.17948626 -0.1493833 0.20550089
0001e0 1d da 55 3d ef 02 ce 3c 39 23 1b 3e b1 36 47 3d
       0.052209962 0.025147883 0.15150155 0.048636142
0001f0 c3 bd 69 be dc d8 2a 3e 96 9f 9d 3d 5f d6 0c be
       -0.22826295 0.16684288 0.07696454 -0.13753651

fc2.weight f4 [64, 128]
000000 cd 5a 8b 3d 88 9f 24 bd ec d8 20 3c c0 ea 3e ba
       0.06804428 -0.040191203 0.009817343 -0.0007282905
000010 55 93 4c 3d 98 d6 1e 3d 30 e1 8b 3d 07 3e 2a 3d
       0.049945194 0.03877887 0.068300605 0.04156306
000020 9a 4f 00 3d fd 99 10 bd 69 ef 9a 3c ee 8e 84 3d
       0.031325914 -0.035303105 0.018912988 0.06472574
000030 7d 7b b3 bc e7 d8 c1 bc 68 ed a6 3c 6a 38 43 3c
       -0.02190947 -0.023662997 0.020376876 0.011915306
000040 40 a0 9b 39 19 e5 1a bc f0 7d 0d bd 76 e9 fd 3c
       0.000296833 -0.009454035 -0.03454393 0.030995112
000050 4f ab 25 3d d0 77 9c bd 30 8c 80 3d 6f dd 51 bd
       0.040446576 -0.0764004 0.06276739 -0.051236566
000060 38 54 8c 3d 1e fe d8 3c 4d db c2 ba bc a4 94 3d
       0.06852001 0.02648836 -0.0014866382 0.07257983
000070 93 d0 db bd 57 4a 27 3a 47 8e 55 3d b3 81 6f 3d
       -0.10733142 0.0006381622 0.05213764 0.0584733
000080 66 d1 5b bd 4b 21 ee 3c 9d 88 6b bd a0 27 b1 3d
       -0.053666495 0.02906861 -0.05750333 0.08650136
000090 da 3d 57 bd 41 39 a5 ba 9f 85 20 bd c8 c1 8f 3d
       -0.05254922 -0.0012605564 -0.03918993 0.07019383
0000a0 b1 fa bf 3d ac c5 43 3d d1 fa ec bc 68 c3 24 bc
       0.093739875 0.047795936 -0.028928192 -0.010056354
0000b0 da 5a bc bd 80 ed b5 3d 02 1f 34 3c 6d 04 7e bd
       -0.09197016 0.0888319 0.010993721 -0.06201594
0000c0 ad 7b 32 3d d1 b7 b2 3d f7 d0 3a bc 91 bc 98 bd
       0.043574978 0.087264664 -0.01140236 -0.07457841
0000d0 27 ea 84 3c 4f 76 2f bd 2a 0c 86 3d af 69 2f bd
       0.016224934 -0.042837437 0.06545289 -0.042825397
0000e0 31 45 6e b8 ff ba e9 bc 90 5d 64 bd de 4e eb 3c
       -5.680806e-05 -0.02853155 -0.05575329 0.02872413
0000f0 ce d6 ad 3d 4a ff 88 bd ff 1e 7d bd e4 49 63 3d
       0.08488236 -0.066893175 -0.06179714 0.05549039
000100 d1 12 40 3d 99 85 67 3d 4e f5 90 3d e7 53 81 bd
       0.046892945 0.056523893 0.07078038 -0.06314831
000110 0f d1 7b bd 46 ae 7f bd db 54 a3 ba 70 1e 7f 3d
       -0.06147867 -0.06242206 -0.0012461202 0.062284887
000120 c0 37 f1 bc 0a cd d1 bc a2 d5 c5 3c ea 8a d6 3b
       -0.029445529 -0.025610466 0.02414972 0.0065473216
000130 6f f2 95 3d d9 23 f1 bc c7 59 ae 3d 43 0b b9 3d
       0.07321631 -0.029436039 0.085132174 0.09035351
000140 a6 e4 2d bb bf e9 b2 bc 92 05 9e bd 21 f7 6a bd
       -0.002653399 -0.021839974 -0.07715906 -0.057364587
000150 b2 89 96 3b 94 c5 bd bd 47 25 d4 bd e4 a0 8f 3d
       0.0045940513 -0.09266201 -0.103586726 0.07013109
000160 f2 39 bd bd ad 08 4f 3d 18 43 b7 3c 2a bd 55 3d
       -0.09239568 0.050545383 0.02237086 0.052182354
000170 06 22 b1 3b 89 d2 3a bc 9f ac bd 3d 9a 3d 2e bd
       0.0054056672 -0.011402735 0.092614405 -0.042539217
000180 b4 bd 42 3b 10 4f 32 3c b9 c3 cd bd 8e 05 4a 3d
       0.0029715123 0.010883108 -0.10047097 0.049321704
000190 f6 c3 07 bc e4 46 e2 3c 46 8b 2a 3c b7 1e 2c bc
       -0.008286467 0.027621694 0.010409182 -0.01050537
0001a0 49 72 27 3d 29 f6 34 bd 91 ee a1 bc b1 08 b5 bd
       0.040880475 -0.04418007 -0.019767078 -0.088395484
0001b0 2b 19 8a bc 4f a6 19 bd 92 86 d6 bd b0 02 86 bd
       -0.016857704 -0.03751212 -0.10474886 -0.06543481
0001c0 2b 02 34 bd 12 b8 2d 3d 0f 5e d9 bc 56 2d 94 3d
       -0.04394738 0.04241187 -0.026534108 0.0723521
0001d0 39 52 9f bd 61 0c f9 3c 05 06 95 bd e1 8a 54 3d
       -0.077793546 0.03040141 -0.07276539 0.051890258
0001e0 c2 97 7a 3d 29 ea e2 3c ef 40 e7 3c ac 71 8c bd
       0.061179884 0.027699547 0.028229205 -0.06857619
0001f0 9e 80 44 3d 0b 07 a3 3d 77 1d a5 bc 73 eb c5 bc
       0.04797422 0.07960328 -0.020155651 -0.024160122
000200 c8 6f c9 3d ee dc bc 3d 43 1a d4 3d 55 41 82 bd
       0.09835774 0.092218265 0.103565715 -0.06360117
000210 d0 ff 8f 3d 82 dd fc 3a f7 5c 8e bd 35 2c bb 3d
       0.07031214 0.0019292089 -0.069513254 0.09139291
000220 66 90 25 bd b9 3f 9b bc 88 23 ad bd 56 93 0c 3c
       -0.040420912 -0.018951284 -0.08454043 0.0085800495
000230 45 a1 cb bc 92 b6 9e 3d 75 77 26 3d b6 b8 83 3d
       -0.024857173 0.07749666 0.040641267 0.06431715
000240 53 89 47 3d 0a 25 29 3d 45 25 96 3d 1a 9e 15 3d
       0.048714947 0.04129509 0.07331327 0.03652773
000250 a9 c9 37 3d f1 75 7e bd 40 c5 fd 3c 90 04 66 bd
       0.044870052 -0.062124196 0.030977845 -0.056156695
000260 80 8e 83 bc 41 c7 70 bd b1 bc bb 3d dc 3c 9c 3c
       -0.01605916 -0.058783773 0.091668494 0.019071989
000270 64 4f d4 bd 94 1a b8 bd e7 e1 90 3d a6 98 45 3d
       -0.10366705 -0.089894444 0.070743375 0.04824128
000280 48 e2 bd 3d 6e 07 d3 3c a0 ac 09 3d 01 b5 a0 3c
       0.09271675 0.025760379 0.033611894 0.01961756
000290 c5 86 cb bd ee 65 81 3d fe 17 62 bd 98 69 9b 3c
       -0.099378146 0.0631827 -0.055198662 0.01897125
0002a0 62 97 84 bd 29 cd cf 3b cf 83 27 3d 73 10 39 bd
       -0.064741865 0.0063415957 0.040897187 -0.045181703
0002b0 bf 5f fe 3c f8 fa 7c 3d 75 4f a7 3c c9 bf d3 bc
       0.031051515 0.06176278 0.02042363 -0.025848286
0002c0 87 95 81 3d af 08 72 bd a4 91 c4 3d 32 dd 29 bd
       0.06327348 -0.059090313 0.09598091 -0.041470714
0002d0 c9 a2 19 3d 3a 1b 94 bd 20 d1 91 bd 07 ca 6b 3d
       0.03750876 -0.072317556 -0.071199656 0.057565715
0002e0 9e aa 03 3d 46 4a d3 3d 59 62 35 3d 4b 9b 50 bd
       0.032145135 0.10316901 0.044283245 -0.05092935
0002f0 09 06 66 3d 3f 6a 90 3d de 22 b6 3c 51 6c a1 bc
       0.0561581 0.07051515 0.022233423 -0.01970497
000300 2f 58 dc 3b 07 c4 45 bd 9d e9 93 3d c7 34 16 3d
       0.0067243795 -0.04828265 0.072222926 0.036671426
000310 72 48 a0 bc 16 4c 87 3d 26 6c 48 bd a4 b0 82 3d
       -0.019565795 0.06606309 -0.048931263 0.06381348
000320 94 f9 e2 3b bd 0f 86 bd e9 24 f5 bb d8 bf 04 bc
       0.0069267247 -0.065459706 -0.0074812067 -0.00810238
000330 11 ae 7b bd 17 25 d8 bc 36 fe 01 bb a8 b1 a2 3d
       -0.0614453 -0.026384873 -0.001983536 0.079440415
000340 4a bd 91 bd 17 04 77 bc 4e d0 6e 3d b5 b8 99 bd
       -0.07116182 -0.015076659 0.058304124 -0.07505933
000350 f1 58 f6 3b f7 af e6 3c db 73 0c 3d a7 17 fe bc
       0.007517927 0.028160078 0.034290176 -0.031017138
000360 2e df 60 bc b2 f5 f8 bc 47 63 e0 bc d2 51 21 3d
       -0.013725085 -0.030390594 -0.02739109 0.03938467
000370 39 6f a0 3b b8 14 a8 3d b9 98 7e 3d 74 88 40 3d
       0.0048960713 0.08207077 0.062157366 0.04700513
000380 5c 59 60 bd d1 56 ce bc 6b 41 1c bd cc 52 f1 3c
       -0.05477272 -0.025187882 -0.038148325 0.029458426
000390 10 d2 25 3d c7 cb 98 bc 80 2d 63 3d d9 8d 5d bd
       0.040483534 -0.018651856 0.055463314 -0.054090355
0003a0 27 9f 62 bd 33 3e a7 bc 7a 67 d0 3a 45 6c 58 bd
       -0.05532756 -0.020415401 0.0015899979 -0.05283763
0003b0 ae ff c0 3c 47 89 26 3d 2b fb 98 bd 43 09 b0 3d
       0.023559418 0.04065826 -0.074697815 0.085955165
0003c0 e4 2b af 3c 7e 13 27 bd c2 65 8e 3d d9 ad 4f 3c
       0.021383233 -0.040790074 0.069530025 0.012675726
0003d0 dd cc ae bc 79 61 c4 3d 14 c5 0b 3d c5 80 25 bb
       -0.02133792 0.09588904 0.034123495 -0.0025253755
0003e0 fd fc 47 3d 09 bb d0 3c cf 16 bd bc 49 79 db bc
       0.048825253 0.02547981 -0.023082165 -0.026791232
0003f0 2f 52 cd bc 7d 24 54 bd fc 88 ca 3c 02 2a b4 3b
       -0.025063602 -0.05179261 0.024723522 0.005498172

fc2.bias f4 [64]
000000 9c 43 b4 3c 46 df 48 3b 9f f9 54 bd cd 98 56 3d
       0.022004895 0.003065066 -0.05199587 0.052391816
000010 0f d4 b4 bd 19 0a 05 bd e1 28 d3 3c ef 52 36 3c
       -0.088295095 -0.032480333 0.025776329 0.011128171
000020 df f4 cd 3d fe a0 d1 bd 08 f6 9c 3c ad 10 46 bd
       0.10056471 -0.10235785 0.019160286 -0.048355747
000030 53 27 9a bd db c8 e6 bc 04 7e 03 3d 47 0a 54 bd
       -0.07527032 -0.028171947 0.0321026 -0.051767614
000040 e8 72 bf 3d 07 10 5a 3a 48 5e dc bb be db 34 3d
       0.093480885 0.00083184283 -0.0067251064 0.044154875
000050 39 d6 e4 3c c5 5f 83 bd 2f 87 1d 3c aa cd 54 bd
       0.02793418 -0.06414751 0.00961475 -0.05195395
000060 0f 16 aa bd 61 bc 20 bd cc c7 c1 bd 1f bc 82 bd
       -0.083049886 -0.039242152 -0.09461936 -0.063835375
000070 f6 cb f7 bb 34 07 97 3c 59 90 b4 3b 3c fd 78 bd
       -0.007562156 0.018436052 0.0055103716 -0.060788378
000080 3e 02 a3 3d da f4 93 bd 9b e2 95 bd 52 58 80 bd
       0.07959412 -0.07224436 -0.07318612 -0.06266846
000090 a1 50 44 bd bc 96 a7 bd f9 3f 8f 3c 3c df 7d bd
       -0.047928456 -0.08183047 0.01748656 -0.06198047
0000a0 d5 43 83 3b 7f 8a 3c 3d 94 7d 48 3d 1f db 84 bd
       0.004005889 0.046030518 0.048947886 -0.064871065
0000b0 4d ee 81 bc d1 45 84 3c 92 57 d2 3d d8 60 d3 3c
       -0.015860701 0.016146572 0.10270609 0.025803015
0000c0 30 d7 1e 3d 61 77 b0 bd 2c f1 8a bd 4b 13 fe b9
       0.038779438 -0.0861652 -0.06784281 -0.0004846103
0000d0 b0 42 cb 3c 9a 51 4e 3c c3 86 81 bd 57 d5 f9 3c
       0.024812073 0.0125926975 -0.06324532 0.030497236
0000e0 ed f6 db 3c e9 3a 86 3c 4a 27 c7 bd c3 0d bc 3d
       0.026851142 0.016385512 -0.09724291 0.09182312
0000f0 a8 a2 43 bc 7b e8 94 3d 39 66 19 3c b7 33 8f bc
       -0.011940636 0.07270905 0.009362751 -0.017480714

fc3.weight f4 [32, 64]
000000 78 f4 f4 bd 34 01 94 bc 41 b9 ae bd 4f 5a 0e 3e
       -0.11960691 -0.01806698 -0.08531428 0.13901637
000010 4b 87 d9 bd bd b7 c8 bd 99 35 8b 3d 38 33 fc bd
       -0.10621508 -0.0980067 0.06797332 -0.12314457
000020 2e c6 93 3d ec 7d d4 bc c7 de 28 3e 31 8b a0 bc
       0.07215534 -0.02593895 0.16491233 -0.019597622
000030 fa da 14 bd 1f f8 78 bd c8 04 1a bd 0b 59 f1 bd
       -0.036341645 -0.0607835 -0.037602216 -0.11784562
000040 84 24 04 bd 8f 9a 5a bd 33 f9 9d 3c e7 91 dc 3d
       -0.032261387 -0.053370055 0.019283867 0.10770016
000050 06 21 eb bc b9 27 54 3d b8 f0 e4 bc 68 ae 3c 3d
       -0.02870227 0.051795695 -0.027946815 0.046064764
000060 15 df ba bd 0f be 74 bd b0 32 91 3d 5a bb 2b 3c
       -0.09124581 -0.059751566 0.07089746 0.01048168
000070 0d 95 b4 3d 1a f2 f2 bd 60 25 13 be 1a 58 1b 3e
       0.08817492 -0.118625835 -0.14369726 0.15170327
000080 45 84 13 bd 3d c5 ad bd 20 8b a0 3d e6 ad ab 3d
       -0.036014814 -0.08484886 0.07839036 0.08382778
000090 1c a7 db 3d 86 2a 91 3d 75 e9 3d 3d 33 9b e2 3d
       0.10725233 0.07088189 0.04636522 0.11064758
0000a0 c9 65 db bd a4 99 04 3e 79 01 9d 3d 07 ae 15 3d
       -0.10712773 0.12949234 0.076662965 0.03654292
0000b0 6f 6a ef bd cb f6 f2 3d 0d 12 f8 bd 87 d5 cf 3d
       -0.116902225 0.11863478 -0.12112818 0.10148149
0000c0 09 6b ba bd 21 62 88 3d da cd 87 bd 15 eb 20 be
       -0.091024466 0.066593416 -0.0663106 -0.15714677
0000d0 f7 5a 92 3d 68 36 25 3d e6 7c ae bc e0 eb a1 3d
       0.071462564 0.04033509 -0.02129979 0.07906318
0000e0 b5 8b d5 3d 4a 18 aa bd 1f 7c 3a 3d e1 fc c4 3c
       0.104270376 -0.08305414 0.045528527 0.024046363
0000f0 e2 eb 7f 3d 8e 8e 5c bd 87 32 a4 bd 61 97 37 bd
       0.062480815 -0.05384689 -0.0801745 -0.0448221
000100 62 3e 07 3d 26 ec 14 3d 6f 87 a4 bd 6e 91 1a bd
       0.033018477 0.03635802 -0.080336444 -0.03773635
000110 43 29 b9 3c 56 07 9a 3d a0 2d 1b 3e 5d 34 0e 3e
       0.022602683 0.075209305 0.15154123 0.13887163
000120 3e 74 19 bc 20 ec dd bd b2 c7 04 3e fe 40 8f 3d
       -0.009366093 -0.10836053 0.12966803 0.06994818
000130 4d 0e e4 3c aa a3 25 3b d0 b2 d4 3a d6 45 72 3d
       0.02783885 0.0025274553 0.0016227607 0.059148632
000140 16 1c 79 3d e2 eb 26 bc 03 91 03 3e 9b 75 0b bd
       0.0608178 -0.010188075 0.12848286 -0.034047704
000150 34 c0 83 3d d1 d5 4a 3d 14 54 8c 3d c4 01 28 bb
       0.06433144 0.049520317 0.06851974 -0.0025635818
000160 0a b5 f9 3c 5f 6c d2 bd 1a 7e 89 3d ad 09 9c bd
       0.030481834 -0.102745764 0.06713505 -0.07619033
000170 24 a9 04 bd a1 3c 1d 3c 01 fe ce bd a6 02 11 3d
       -0.032387868 0.009596975 -0.10107041 0.035402916
000180 8c c2 f8 3c 5d 85 4a 3d e5 25 38 3d c1 a4 f9 bc
       0.030366205 0.04944359 0.044958014 -0.030474069
000190 8f 1b 94 3b 47 c7 13 be 10 45 12 3e f5 40 0e be
       0.004519887 -0.14431487 0.14284158 -0.13891967
0001a0 8f e2 a6 3d ce c3 95 bd a4 ee 99 bd a1 00 bc bc
       0.08148681 -0.073127374 -0.0751622 -0.022949519
0001b0 b6 e7 2f 3d c2 b6 91 3d 95 60 eb bc 98 f0 ff bd
       0.042945586 0.071149364 -0.028732577 -0.124970615
0001c0 bc 98 15 3e 1b 76 22 3d b0 89 74 3d 23 54 82 3d
       0.14609045 0.039663415 0.05970162 0.06363704
0001d0 b0 59 10 be 8e 8f 0c 3d c5 f3 df 3d 7c c4 c4 bd
       -0.14096713 0.034316592 0.10935167 -0.09607789
0001e0 8b cd 18 3c 7f 58 3a bc 77 5d 95 3c 80 92 12 3c
       0.009326349 -0.011373638 0.018233044 0.008946061
0001f0 80 8c 18 be d8 ad 03 3e e0 5c 90 3d d7 8b 94 bd
       -0.14897346 0.12859285 0.070489645 -0.07253235
000200 fe 67 03 be 7b 31 5b bd b0 9f f1 3d 8f ee 09 3d
       -0.12832639 -0.053513985 0.11798036 0.033674773
000210 45 ee 6c bc 10 f6 0a 3d 49 64 11 be 44 68 6c bb
       -0.014461105 0.03392607 -0.14198412 -0.003607289
000220 60 ba ba bc 7e fb 8f 3d 7b a8 89 3d 0e 91 87 3d
       -0.022793949 0.0703039 0.06721588 0.06619464
000230 e3 93 0e bc fa 4d c3 3d 2a 60 01 3e 0d 80 11 bc
       -0.008702251 0.09536357 0.1263434 -0.008880627
000240 5b c9 03 bd 3b b0 83 bd a4 99 20 3c a5 5d 87 3c
       -0.03217445 -0.06430098 0.009802256 0.016524145
000250 98 3e 24 3c cd 78 05 3e ae 5c 5d bd 11 8d 8a 3c
       0.010024689 0.13034363 -0.054043464 0.016912969
000260 b9 f3 c8 3d c1 a0 0d 3d e3 97 b0 bd 21 af 2c 3c
       0.098121114 0.034577135 -0.0862272 0.010539801
000270 b6 e5 2c 3d fe 67 21 bd 2c d8 9d 3d 86 d7 df bd
       0.042211257 -0.039405815 0.07707247 -0.1092978
000280 98 69 1b bd 74 41 c8 3c 2c e9 d3 bd 51 27 84 3d
       -0.0379425 0.024445273 -0.103472084 0.064528115
000290 01 0c c1 3d 9b 5c 0d 3e 30 15 e9 3b 5b 8e 00 3e
       0.09426118 0.13804857 0.0071131214 0.12554304
0002a0 c4 d9 e3 bd 0d 0b 03 bd 47 bb 7f bd 9e 99 94 bd
       -0.1112552 -0.03199296 -0.06243446 -0.07255863
0002b0 33 34 41 bc f0 8e aa bd bc 55 0d be 0e ab de bb
       -0.01179223 -0.083280444 -0.13802236 -0.0067952937
0002c0 f7 99 98 bd 3b be 29 bd bc 8b 42 bb 06 5e d3 bd
       -0.074512415 -0.041441184 -0.002968534 -0.10320668
0002d0 ae 9d 33 bd ab a3 83 bc 57 35 06 be c8 cf 24 bd
       -0.043851547 -0.016069254 -0.13106285 -0.04023722
0002e0 d5 19 0f be 3d 34 19 bd da 2d 4d 3d fd bc 04 be
       -0.13974698 -0.037403334 0.050092556 -0.12962718
0002f0 fb 55 08 3d c1 93 00 be 0a 65 ba bd f6 9b ea bd
       0.033285122 -0.12556364 -0.09101303 -0.114555284
000300 21 07 90 3c ce fc 02 3e a8 ef b5 bd 8d c2 50 3d
       0.017581524 0.1279175 -0.088836014 0.050966788
000310 ff 91 09 bd 83 a7 4c 3d 6b 53 82 3b dd 69 75 3d
       -0.0335865 0.04996444 0.0039772294 0.059915412
000320 ba b1 5c 3d cb 8c 9c 3b a8 ae c0 3a be 00 86 bc
       0.05388043 0.004777526 0.0014700489 -0.016357776
000330 f9 c0 85 3b 7a b0 52 3d 0f 5f 27 3c 13 92 06 bc
       0.004081842 0.051437832 0.010215535 -0.008213538
000340 28 57 0d 3e 79 e6 e7 3d 91 84 86 bd bb c5 c9 3c
       0.13802779 0.11323256 -0.06568254 0.024630418
000350 81 ac 58 3d e0 2a 15 be f7 27 12 3e 89 1d bf bc
       0.052898888 -0.14567137 0.14273058 -0.023329513
000360 5a 9e d6 bd 07 58 1a bd cb 77 b9 bd d0 74 75 3d
       -0.10479422 -0.037681606 -0.09056052 0.059925854
000370 96 f6 e5 bc a1 d9 ed bd 7c 6c 6b 3d 91 e2 d8 3d
       -0.028071683 -0.11613775 0.057476506 0.10590089
000380 98 b6 97 bd 4e 09 0c be f5 ac 23 bc 8a a4 0b be
       -0.07407874 -0.13675424 -0.009989967 -0.13636985
000390 3b db ce 3c 27 49 0b bb 26 9c 57 bc 6a 35 9a 3d
       0.025251022 -0.002125332 -0.013159787 0.07529719
0003a0 89 fe 5c bd 03 7d 5b bd d5 6c 7b 3c 5b 5d ca 3d
       -0.05395368 -0.053586017 0.015345772 0.098810874
0003b0 8c 8b a8 bd df 6a ff 3d ec c4 29 3d 02 0f fb bc
       -0.082297415 0.12471556 0.041447565 -0.030646805
0003c0 a2 f6 0a 3d 9e c2 d0 3d 0c b1 3d 3d c9 b9 a9 bd
       0.033926614 0.1019337 0.046311423 -0.08287389
0003d0 90 f6 43 3d 4f ea 99 3c bd d4 3d 3c 45 99 0b 3e
       0.047842562 0.018788485 0.011586365 0.13632686
0003e0 85 bb 1c 3c 6a 66 c9 3c f8 9b 10 be c4 8b 2f bd
       0.0095661925 0.024584968 -0.14121997 -0.0428579
0003f0 3a 23 da bd 76 ec 09 3d 22 f6 58 bc 5f d7 11 3e
       -0.1065125 0.033672772 -0.013242276 0.14242314

fc3.bias f4 [32]
000000 ec 20 85 3d 58 f9 50 bc 48 d9 8e bd 41 31 97 3d
       0.0650042 -0.012754761 -0.06975037 0.07382441
000010 16 40 b2 3d d9 37 7d 3d 48 da 4f bc b7 fc 06 bd
       0.0870363 0.06182084 -0.01268632 -0.03295585
000020 17 1e 17 bd 9c 6e 9c bd e4 66 ca bd 77 ba d1 3d
       -0.03689393 -0.076382846 -0.09882906 0.102406435
000030 ea 5f e5 bd 15 98 af bb 4c fd a3 3d ec 20 eb 3c
       -0.11199935 -0.0053587058 0.08007297 0.028702222
000040 cd 83 01 3e 37 81 9b bd 46 6d 81 3c 9a d8 05 3d
       0.12647934 -0.07593005 0.015799176 0.03267727
000050 21 7e 38 3d 49 15 94 bd 60 20 da bd 06 d8 78 3d
       0.04504216 -0.07230622 -0.10650706 0.06075289
000060 65 ef 5d 3d 3c 63 01 3e 54 0e 62 bd 4e c0 82 bb
       0.054183383 0.12635511 -0.055189446 -0.0039902097
000070 91 45 f0 3d d3 d5 cc 3d e5 a4 16 bd ae 67 c1 bd
       0.11732019 0.10001721 -0.03677835 -0.094436035

fc4.weight f4 [5, 32]
000000 94 c4 3c bd 23 ef c8 bd 48 88 1f 3e ba 07 14 be
       -0.04608591 -0.09811237 0.15579331 -0.14456072
000010 db 68 cb 3c b5 c7 91 bd 00 5e 45 be 03 a6 1e 3d
       0.024830272 -0.07118169 -0.1927414 0.03873254
000020 dc ea e5 3d 98 3e c8 bc 7c 90 9d bd f4 d1 ec bc
       0.112264365 -0.02444391 -0.07693574 -0.028908707
000030 3e 6e 2e 3e 0d e8 a6 bd 91 55 a1 3d fc fa 15 be
       0.17034242 -0.08149729 0.078776486 -0.14646524
000040 7c 44 fc bd c9 81 0f 3e e7 96 a7 bd 25 ed 48 3e
       -0.1231775 0.14014353 -0.08183079 0.19621713
000050 d2 bb 37 3e 79 67 42 be d4 4b 27 3e f4 c6 e4 3d
       0.17942742 -0.18984784 0.1633752 0.1117076
000060 cb a3 25 3e 8e 9f 08 3e 0b f2 0a 3e a5 c0 c6 bd
       0.16175763 0.13342115 0.13568895 -0.09704713
000070 7c fc 11 be d1 14 35 be 81 70 4c 3b 81 df 83 bc
       -0.14256471 -0.17683722 0.0031194987 -0.016097786
000080 8b 03 89 bd c6 5b 25 3e 6b c4 06 be a5 ee f4 bb
       -0.06690129 0.1614829 -0.13160865 -0.0074747377
000090 25 2d 8a bd d8 20 81 3d 4c 5e 8c bb ca e4 d5 bc
       -0.06746892 0.063050926 -0.004283702 -0.026110072
0000a0 3f a0 81 bd 85 f5 24 3e 6b 52 ed bd 5b 3a c7 3d
       -0.06329393 0.16109283 -0.115879856 0.09727927
0000b0 fa 9a 0e 3e 7e 50 1d 3e b2 aa 25 3e 35 be 3f be
       0.13926306 0.15362737 0.16178396 -0.18724902
0000c0 d4 ed f3 3d d0 ff 0a bb 0e 42 9c 3d 0e 69 8d 3d
       0.119105965 -0.0021209605 0.076297864 0.06904803
0000d0 24 12 d5 bc e5 0c f4 bd c8 c3 97 bc 5e e3 8d 3c
       -0.026009627 -0.11916522 -0.018525973 0.017320331
0000e0 78 c9 e8 3d 51 8f ff bc 5f 22 04 3d 08 15 f9 bd
       0.11366552 -0.031196268 0.03225934 -0.121622145
0000f0 5c a0 fc bd 59 19 01 3e 02 85 d4 bd a6 14 e4 3d
       -0.123352736 0.12607326 -0.10376932 0.11136751
000100 0a 60 c1 3d 4f 40 16 3d 6d 06 71 bb a7 9a 44 3e
       0.09442146 0.036682423 -0.0036777512 0.1919962
000110 26 90 39 bd 83 74 13 be 32 04 74 bd e5 24 4f bd
       -0.045303486 -0.14399914 -0.059574313 -0.050572295
000120 1f 85 85 bc 31 aa 1c 3d f9 54 c2 3d 55 e7 f1 bd
       -0.016298829 0.038248245 0.094888635 -0.11811701
000130 f9 0d b0 3d 18 32 02 be 89 47 9d bd 0c 00 06 3e
       0.08596415 -0.12714422 -0.0767966 0.13085955
000140 8c 68 4e 3e c8 49 ae 3d 40 c5 25 3e 27 32 a3 bd
       0.20157069 0.085101664 0.16188526 -0.0796855
000150 aa 1c 91 bd 5e 7b 18 be 4f f2 04 bd fe 2e 6a bd
       -0.07085545 -0.14890811 -0.032457646 -0.05717372
000160 eb 44 b0 bd 01 b1 0a 3e c1 21 04 be 7b 12 ba bc
       -0.08606895 0.13544084 -0.12903501 -0.02271389
000170 14 b1 83 3c 53 38 23 bd a2 f0 12 be 83 b6 0e 3d
       0.016075648 -0.039848637 -0.14349607 0.034842025
000180 59 58 0e be b0 24 16 3e 9d c0 a1 3d af c8 8e 3a
       -0.1390089 0.14662433 0.07898066 0.0010893549
000190 77 f2 19 be 12 81 96 3c 82 c0 aa 3c 12 bb 93 bc
       -0.15033899 0.018372092 0.020843748 -0.018033538
0001a0 8d 47 0b be 3a b6 3e be 4b c2 aa 3d f4 2c 27 3e
       -0.13601513 -0.18624201 0.0833784 0.16325742
0001b0 73 9d 94 bd f1 b5 da 3d 8a d8 01 3e 4a 4e e0 bd
       -0.072565936 0.10679234 0.1268026 -0.109524325
0001c0 8e ce 0a be 12 55 11 be b5 59 12 be 98 df 3a 3e
       -0.13555357 -0.14192608 -0.14292033 0.18249357
0001d0 9b 78 2e 3e 72 2f 1a be 0b 1e 4e 3d 3b d2 98 bd
       0.17038195 -0.15057161 0.05032162 -0.07461973
0001e0 70 a5 f2 bd ec 8d 2b be e0 36 98 bd 64 3f e9 3d
       -0.11847961 -0.16753358 -0.074323416 0.11389044
0001f0 72 9b 9d 3d 2a 4c 02 3d a1 8e 93 3b 6a 3c 09 3e
       0.076956645 0.031810917 0.0045030867 0.13401952
000200 23 0f c8 bd e9 31 f1 3d 57 4d 09 be 45 34 44 3e
       -0.09768512 0.11777098 -0.13408409 0.19160564
000210 bc 9d 14 be 63 57 d9 3d 89 3d 7e 3c d3 94 e9 bd
       -0.14513296 0.10612371 0.015517601 -0.11405339
000220 9a 4b de bd c2 41 ee 3d 31 9e 3d 3e 54 7d 34 be
       -0.108542636 0.11633636 0.18517376 -0.17625934
000230 ad dc 0d be 17 16 37 be d4 4e 52 bd a6 5d 36 3e
       -0.13853712 -0.1787952 -0.051344708 0.17809162
000240 55 5f aa bd 09 0e 30 bd 3c e3 33 be c1 7c 9e 3d
       -0.083189644 -0.042982135 -0.17567152 0.07738639
000250 7a c4 01 be 2f cb f4 3d 8e 15 ef bd 3a 1b e6 bd
       -0.12672606 0.11952817 -0.11674033 -0.11235662
000260 fd 5e 32 be fa 80 2c 3e bd 87 c7 3c 89 60 35 be
       -0.17419048 0.16846076 0.024356717 -0.17712606
000270 00 2f 0c 3d 20 63 b3 bd a9 d9 42 3e ab 26 3a be
       0.03422451 -0.08759141 0.19028343 -0.18178813

fc4.bias f4 [5]
000000 e4 9d 0e 3e 13 cf 54 bd 28 75 ab bb 3a d5 51 3d
       0.13927418 -0.051955294 -0.005232472 0.05122874
000010 64 52 e7 bd
       -0.11295012
