clean_code/trained_models/actor_803.pth (torch, 54872 bytes, 8 tensors)

fc1.weight f4 [128, 18]
0	0x3e219326	0.15778789
1	0x3db3868a	0.08765896
2	0xbe1f9ed3	-0.1558793
3	0x3e44a384	0.19203001
4	0x3dfd7a6e	0.12376867
5	0xbd8492c4	-0.06473306
6	0x3cfe5da1	0.031050505
7	0x3cd5038a	0.026002664
8	0x3dc38705	0.09547237
9	0xbd8e877c	-0.06959435
10	0xbe14ea72	-0.14542559
11	0x3bae7897	0.005324434
12	0x3e5fae14	0.2184375
13	0x3da946e2	0.08265473
14	0x3e198c2d	0.14994879
15	0x3cfa57b5	0.0305594
16	0xbe6966fe	-0.22793195
17	0x3e82f8d1	0.25580457
18	0x3e10ceb5	0.14141352
19	0x3e2a5474	0.16633779
20	0x3da9fda4	0.08300331
21	0xbd9fc276	-0.07800762
22	0x3d8ffd35	0.07030717
23	0xbc8e04c4	-0.017336257
24	0x3e16b072	0.14715746
25	0x3e533e6d	0.20629282
26	0x3dcaa46d	0.09894643
27	0x3d224c20	0.03962338
28	0x3e184579	0.14870252
29	0x3e14f085	0.14544876
30	0xbe290676	-0.16506371
31	0xbe0c3224	-0.13691002
32	0xbdbaa037	-0.0911259
33	0x3d69493c	0.056954607
34	0xbe27c198	-0.16382444
35	0x3d2ad16d	0.04170363
36	0x3e1d1afc	0.15342325
37	0x3db46c6c	0.08809742
38	0xbe176b81	-0.14787103
39	0x3d807831	0.06272925
40	0xbe35aaf3	-0.17740993
41	0x3d0a2efe	0.03373622
42	0x3e46f7d3	0.19430475
43	0x3e1e42a7	0.15455113
44	0xbd7a55cf	-0.06111699
45	0xbe344fd4	-0.17608577
46	0xbdd4dca9	-0.1039365
47	0x3e371450	0.17878842
48	0x3e862e7c	0.2620734
49	0x3dc56982	0.09639265
50	0x3d845970	0.06462371
51	0xbddceb8f	-0.10787117
52	0x3e4f4fd7	0.202453
53	0x3d66c703	0.056342136
54	0x3e02b61a	0.12764779
55	0xbd1ff08a	-0.039047755
56	0x3e2ce121	0.16882755
57	0x3cd3b45b	0.025842836
58	0xbe3be427	-0.18348752
59	0xbe0a5dfc	-0.13512415
60	0xbe452879	-0.1925372
61	0xbe4125e2	-0.18862107
62	0xbdfee746	-0.12446456
63	0x3e2afef1	0.16698815
64	0x3dc72c4b	0.09725245
65	0xbdd6087e	-0.104508385
66	0x3e553b5f	0.2082343
67	0x3e3e1977	0.18564402
68	0xbbb46650	-0.0055053607
69	0xbe3f53bf	-0.1868429
70	0x3e2ade0b	0.16686265
71	0xbd84c129	-0.06482155
72	0xbd99c929	-0.075090714
73	0x3e6f6516	0.23378405
74	0xbd116b53	-0.035502743
75	0xbe4f7673	-0.20260029
76	0x3e5aa3fc	0.21351618
77	0x3e2327c7	0.15933143
78	0xbdc44310	-0.09583104
79	0x3e85e1ce	0.26148838
80	0xbce21e6b	-0.027602395
81	0x3d1ea573	0.038732003
82	0x3d876243	0.06610539
83	0x3dcb8520	0.09937501
84	0x3ccf356f	0.025294034
85	0xbe0629f4	-0.13101941
86	0x3e78991e	0.2427716
87	0x3e2b672e	0.16738579
88	0xbe0eb583	-0.13936429
89	0x3e59a05a	0.21252576
90	0x3dd1842c	0.10230288
91	0xbd5e6c24	-0.05430235
92	0x3d15d8cb	0.036583703
93	0x3e411451	0.18855406
94	0x3e73de96	0.23815379
95	0xbce0b896	-0.027431767
96	0xbdaac7ad	-0.083388664
97	0xbbd6941a	-0.006548417
98	0x3dc22508	0.094797194
99	0xbe37cec2	-0.17949966
100	0xbcaad2d4	-0.020852484
101	0x3e23dade	0.1600146
102	0xbe33a757	-0.17544304
103	0x3e52badf	0.20579098
104	0xbe243363	-0.16035227
105	0x3e4ca598	0.19985044
106	0x3d6ca15e	0.05777108
107	0x3e55d2e3	0.20881228
108	0x3e0fe156	0.14050803
109	0xbe7dd087	-0.24786578
110	0x3e167fb5	0.14697154
111	0xbe0960da	-0.13415852
112	0x3dbf3dfd	0.09337995
113	0x3e2f8381	0.17140009
114	0x3e33d3e6	0.17561302
115	0x3da1a2b4	0.07892361
116	0xbe36cd62	-0.17851785
117	0xbafa24de	-0.0019084474
118	0xbe69406d	-0.22778483
119	0xbcd01de5	-0.02540488
120	0xbe657a15	-0.22409852
121	0xbc1fa760	-0.009744495
122	0xbe04ec5e	-0.12980792
123	0x3d5cc7a5	0.053901333
124	0xbe7741d0	-0.24146199
125	0xbc0cee02	-0.008601667
126	0x3cff1eac	0.031142555
127	0x3e1e2b08	0.15446103
128	0xbe542909	-0.20718779
129	0xbe5548ca	-0.20828548
130	0xbe085beb	-0.13316314
131	0x3db5ecc8	0.08883053
132	0x3e5519aa	0.20810571
133	0xbe01002b	-0.1259772
134	0x3e341ae2	0.1758838
135	0xbe3ff836	-0.18747029
136	0x3e318aa7	0.17338048
137	0x3e37821f	0.17920731
138	0xbca952a5	-0.02066929
139	0x3cc9f3c8	0.024652377
140	0x3e14d108	0.14532864
141	0x3b2e60d4	0.0026608007
142	0x3d437688	0.047720462
143	0xbe18e674	-0.14931661
144	0xbb3cc0ac	-0.0028801365
145	0xbdb1854c	-0.086680025
146	0xbd8c91f9	-0.068637796
147	0x3e2c0cf4	0.16801816
148	0xbd8a0fab	-0.0674127
149	0xbe717c10	-0.23582482
150	0xbdd661ef	-0.10467898
151	0xbe42b3c1	-0.19013883
152	0x3bed6c42	0.0072455714
153	0xbe5c9546	-0.21541318
154	0xbdd39fc2	-0.10333206
155	0xbe7eb87d	-0.24875064
156	0x3e218cd9	0.15776385
157	0xbe57ab97	-0.2106155
158	0xbdd8fdeb	-0.10595306
159	0xbe3fb753	-0.18722276
160	0x3d266855	0.040626843
161	0x3e1e514b	0.15460698
162	0x3e1de67a	0.15419951
163	0x3e64e6d9	0.22353686
164	0x3e659982	0.2242184
165	0xbd9103f3	-0.070808314
166	0x3dfbc6a0	0.12293744
167	0xbe605c82	-0.21910289
168	0x3e67821d	0.22608228
169	0x3e139aa5	0.14414461
170	0xbd825c72	-0.06365289
171	0x3e4ffdc4	0.20311648
172	0x3dcfd75b	0.10148498
173	0x3e6e0f0d	0.23247929
174	0x3e2abb7d	0.16673084
175	0xbdf4ba4f	-0.11949598
176	0xbd88bb72	-0.06676377
177	0x3e5965e8	0.2123028
178	0xbe3786a4	-0.17922455
179	0xbdbcd829	-0.09220917
180	0xbdf69b3d	-0.12041328
181	0xbe465992	-0.19370106
182	0xbe1b8ab7	-0.15189634
183	0xbe4545d4	-0.19264919
184	0x3dc55b8a	0.096366
185	0x3dc8eb9a	0.098105624
186	0xbc32bb82	-0.010908963
187	0x3ddb216c	0.10699734
188	0x3c5d3179	0.013500565
189	0x3cc5fd69	0.024168687
190	0xbcb455e6	-0.022013616
191	0x3d8c1774	0.06840411
192	0xbe3ad0b6	-0.1824368
193	0xbd6ec4f0	-0.058293283
194	0xbe647b4c	-0.22312659
195	0xbe31441b	-0.17311136
196	0x3e00e728	0.12588179
197	0x3d0725fa	0.0329952
198	0xbd4d60df	-0.05014121
199	0x3e49d6b7	0.19710813
200	0xbce561be	-0.028000709
201	0xbdf7d661	-0.121014364
202	0xbdee9ebe	-0.116513714
203	0x3e4f610b	0.20251863
204	0x3d9fe7a8	0.07807857
205	0x3e4385e6	0.19094047
206	0x3d2eebd1	0.04270536
207	0xbd9a0d19	-0.075220294
208	0x3dfde041	0.12396289
209	0x3ddfb97c	0.1092405
210	0x370c074c	8.346349e-06
211	0xbd091168	-0.033463866
212	0xbdcb8a92	-0.099385396
213	0x3dfb470f	0.12269413
214	0xbe32aaa5	-0.17447908
215	0x3e6cbceb	0.23118941
216	0xbdd5d48a	-0.10440929
217	0xbdb010de	-0.08596967
218	0x3e0fe0fe	0.14050671
219	0xbde7b3ea	-0.11313613
220	0xbe57bde9	-0.21068539
221	0xbd32fb78	-0.04369685
222	0xbe5b92bd	-0.21442695
223	0x3c8e2a37	0.017354114
224	0xbe424322	-0.18970922
225	0xbe31243b	-0.17298977
226	0xbd25387f	-0.040337082
227	0x3e3ba54e	0.18324777
228	0xbe1247c5	-0.1428519
229	0xbb4c57c0	-0.0031180233
230	0x3d9a3088	0.07528788
231	0xbddf1191	-0.108920224
232	0x3e12f784	0.14352232
233	0x3e17ecf2	0.14836481
234	0x3e8989d0	0.26862955
235	0xbdb3bfdc	-0.08776829
236	0x3d96e9e8	0.07368833
237	0xbd58daf9	-0.052943204
238	0x3caf7ed0	0.021422774
239	0x3d7996d3	0.060934853
240	0x3e5ba9c8	0.21451485
241	0x3e614d39	0.22002114
242	0x3e326346	0.17420682
243	0x3e78e567	0.2430626
244	0xbcf6f132	-0.030144308
245	0x3d7cbddb	0.061704498
246	0xbe36e485	-0.17860611
247	0xbdfcac6f	-0.123375766
248	0x3c9f5c28	0.019453123
249	0x3d0864a4	0.033299103
250	0xbc9d9800	-0.019237518
251	0xbda3aa30	-0.07991445
252	0x3e63a280	0.22229958
253	0xbd62478e	-0.05524402
254	0x3b458847	0.0030141042
255	0x3d01f26c	0.031725332

fc1.bias f4 [128]
0	0x3e1b44ad	0.15162916
1	0x3e23e8c1	0.16006757
2	0x3e263a0b	0.16233079
3	0x3e3b434f	0.18287395
4	0x3cbe7c51	0.023252638
5	0x3da74337	0.08167117
6	0x3d2e55a0	0.042562127
7	0xbdc5e4de	-0.096627936
8	0x3dd8e3ce	0.10590325
9	0xbe37be3b	-0.17943661
10	0xbe5df30d	-0.21674748
11	0x3e745538	0.23860633
12	0x3e20d6bc	0.15706915
13	0xbd722f96	-0.059127413
14	0x3db3f867	0.08787613
15	0x3e6caeab	0.23113506
16	0x3c48797a	0.0122359935
17	0x3e582c1f	0.21110581
18	0xbe223f7d	-0.15844531
19	0x3dc9037e	0.09815119
20	0x3e369c4d	0.17833062
21	0x3da9901f	0.08279442
22	0xbe20f136	-0.15717015
23	0x3ccdbf7b	0.025115719
24	0xbe51fbf7	-0.20506273
25	0x3ddb2bc8	0.1070171
26	0x3c9a0ec4	0.018805869
27	0x3e412de7	0.18865167
28	0xbdb58a88	-0.08864313
29	0x3d82d33d	0.06387947
30	0xbbab43e2	-0.005226598
31	0xbe483a72	-0.19553545
32	0x3d751d21	0.059842233
33	0x3e7eb770	0.24874663
34	0x3dbe84bb	0.0930266
35	0xbdb9ffe0	-0.090820074
36	0xbdedaf49	-0.116056986
37	0x3c3216a6	0.010869658
38	0x3e8ae0cf	0.2712464
39	0xbe1d6054	-0.15368778
40	0x3ca4db81	0.020124199
41	0x3e3fe390	0.18739152
42	0xbe3106d6	-0.17287764
43	0x3e810883	0.25201806
44	0xbda5de4a	-0.08099039
45	0x3e50e20b	0.20398729
46	0x3e86bab5	0.2631432
47	0x3e30c5d1	0.17262961
48	0x3e83d29b	0.25746617
49	0xbe139d4b	-0.14415471
50	0x3ddf1432	0.10892524
51	0xbd522181	-0.051301483
52	0xbe1a09de	-0.15042827
53	0xbe878102	-0.26465613
54	0xbd443368	-0.047900587
55	0x3e88e14f	0.26734397
56	0x3c949218	0.01813607
57	0x3e7c3c8b	0.2463247
58	0xbe413a38	-0.18869865
59	0xbc1119a1	-0.008856208
60	0xbd47346d	-0.04863398
61	0x3e809e3d	0.25120726
62	0x3cafbf62	0.021453563
63	0xbe1f3dd7	-0.15550934
64	0x3deb0991	0.11476434
65	0xbe60d101	-0.21954729
66	0x3cb6e9fd	0.022328371
67	0x3db8f3ea	0.09030898
68	0xbd8edcac	-0.069756836
69	0x3e294489	0.1653005
70	0x3e828896	0.25494832
71	0x3da38ed6	0.07986228
72	0xbe0e511b	-0.13898127
73	0x3d5ca204	0.053865448
74	0xbe348e54	-0.17632419
75	0x3e1821ae	0.14856598
76	0x3e340e41	0.17583562
77	0xbc5d1ef0	-0.013496146
78	0x3e61b572	0.22041872
79	0x3e1470a7	0.14496098
80	0x3d5024a4	0.050816193
81	0xbe278c48	-0.16362107
82	0xbe77be8c	-0.24193782
83	0xbe29963c	-0.16561216
84	0x3dc07960	0.093981504
85	0x3e09ac93	0.13444738
86	0xbdbc767b	-0.09202286
87	0xbd889662	-0.06669308
88	0xbddcca84	-0.10780814
89	0x3aa2fc8f	0.0012434887
90	0x3e0bc43f	0.1364908
91	0xbc87fbd0	-0.016599566
92	0x3cb8d328	0.022561625
93	0x3e6902c7	0.22754966
94	0x3e5057d1	0.20346
95	0xbe89563a	-0.26823598
96	0x3de8a6c2	0.113599315
97	0xbe56d2f2	-0.20978907
98	0xbe50ca0e	-0.20389578
99	0x3d3f21fe	0.046663277
100	0x3e27bac1	0.16379835
101	0xbe4ca54b	-0.1998493
102	0x3e238bf8	0.15971363
103	0xbd76e954	-0.060281113
104	0x3e08b85f	0.13351582
105	0x3e5588ba	0.20852938
106	0x3d1185e3	0.035528075
107	0xbe25b487	-0.16182147
108	0x3e26710a	0.16254058
109	0x3e0b95a1	0.13631298
110	0xbdc2069e	-0.094739184
111	0xbcfeb5ca	-0.031092543
112	0xbc17a0ce	-0.009254647
113	0x3e5ddf31	0.21667172
114	0xbe2a472e	-0.16628715
115	0x3e8203ad	0.2539343
116	0xbe12e315	-0.14344437
117	0xbe2efd7f	-0.17088889
118	0xbe2648a2	-0.16238645
119	0x3e5c1023	0.2149053
120	0x3d835266	0.06412201
121	0x3cfa1015	0.030525247
122	0x3e31dddf	0.17369793
123	0x3d7828d4	0.06058581
124	0xbe71a0de	-0.23596522
125	0x3e39b886	0.18136796
126	0x3dbc9888	0.092087805
127	0xbe15dac3	-0.14634232

fc2.weight f4 [64, 128]
0	0x3d93cb1c	0.072164744
1	0xbcf1e8d2	-0.029529963
2	0x3cbe57bd	0.023235196
3	0xbb914b6b	-0.0044340394
4	0x3d66f495	0.056385595
5	0x3d621c80	0.05520296
6	0x3d6aed4f	0.05735522
7	0x3d3eda43	0.04659487
8	0x3bc9cf83	0.0061587705
9	0xbcd573c0	-0.02605617
10	0x3c431e2c	0.011909049
11	0x3d99c0a3	0.07507446
12	0xbcf8fd1a	-0.030394126
13	0x3ba2d4ae	0.004969201
14	0x3d1a3c99	0.037655447
15	0x3cc121ee	0.02357575
16	0x3c0d4871	0.008623228
17	0x3c13c652	0.009019451
18	0xbd308cf2	-0.043103166
19	0x3d11ae43	0.03556658
20	0x3d04c746	0.032416604
21	0xbdbf3abe	-0.09337376
22	0x3d66d7c2	0.056358106
23	0xbd708c36	-0.058727466
24	0x3da3cce5	0.07998065
25	0x3cd97efa	0.026549805
26	0xbb6a7f05	-0.0035781276
27	0x3dab0cca	0.08352049
28	0xbdefd929	-0.11711342
29	0xbc81d4f1	-0.015848609
30	0x3d49128c	0.049089953
31	0x3d3e9a0f	0.04653364
32	0xbd1bcb63	-0.03803576
33	0x3d2b78b7	0.04186317
34	0xbd9a2098	-0.07525748
35	0x3db54c6f	0.08852469
36	0xbd83dd5b	-0.064387046
37	0xbc37af04	-0.011211161
38	0xbc0a1555	-0.0084279375
39	0x3d8f2b3c	0.06990668
40	0x3dcf099d	0.101092555
41	0x3d1abdcb	0.037778657
42	0xbd591a55	-0.053003628
43	0x3b78404c	0.003788012
44	0xbdd26f7b	-0.102751695
45	0x3dd374b1	0.103249915
46	0x3cec559d	0.028849417
47	0xbc0462c7	-0.008080191
48	0x3d604066	0.054748915
49	0x3d90d76d	0.07072339
50	0x3bfcfec3	0.0077207997
51	0xbd87de0c	-0.06634149
52	0x3cf05460	0.029337108
53	0xbd688a28	-0.05677238
54	0x3d73f514	0.059559897
55	0xbce9abf4	-0.028524376
56	0xbc9cd35a	-0.019143749
57	0xbca409fe	-0.020024296
58	0xbd95dd79	-0.07317633
59	0x3cb4ea38	0.02208434
60	0x3db6489f	0.0890057
61	0xbd57828e	-0.05261474
62	0xbd65c820	-0.056099057
63	0x3d266d68	0.04063168
64	0x3d112310	0.03543383
65	0x3cdc5b68	0.026899055
66	0x3d9f6c4b	0.07784327
67	0xbd9462f6	-0.07245438
68	0xbd77bf52	-0.06048519
69	0xbd749219	-0.059709642
70	0x3a9752ee	0.0011545101
71	0x3d85265a	0.065014556
72	0xbd4b3cbd	-0.04961847
73	0xbc8efae6	-0.017453622
74	0x3c58c041	0.013229431
75	0x3c48e0db	0.012260641
76	0x3d75bf6f	0.05999702
77	0xbd0c0735	-0.03418656
78	0x3dccf868	0.10008317
79	0x3da0e05a	0.07855292
80	0xbcae0444	-0.021242268
81	0xbd302132	-0.043000408
82	0xbdbba16b	-0.091616474
83	0xbd815118	-0.063142955
84	0x3b9f7cd6	0.0048671765
85	0xbdb11c91	-0.08648027
86	0xbde34cea	-0.110986546
87	0x3d49857e	0.049199574
88	0xbda256a2	-0.0792668
89	0x3d30ba43	0.043146383
90	0x3d37c150	0.04486209
91	0x3d87f18b	0.066378675
92	0x3c8255ee	0.015910115
93	0xba9f899e	-0.001217175
94	0x3e02e4fc	0.12782663
95	0xbd6cca67	-0.057810213
96	0xbba37b19	-0.0049890396
97	0xba9ef1a1	-0.0012126454
98	0xbde6adb2	-0.112635985
99	0x3d2fe5e2	0.042943843
100	0xbc9effc0	-0.01940906
101	0x3c3711ff	0.011173724
102	0x3ce0c487	0.027437462
103	0xbcc12b63	-0.023580259
104	0x3d0241ba	0.031800963
105	0xbceeb913	-0.029140985
106	0xbc6a3391	-0.014294521
107	0xbdad7b41	-0.084707744
108	0xbd09f3db	-0.033679824
109	0xbd007b10	-0.03136736
110	0xbdddc92a	-0.108293846
111	0xbd591896	-0.053001963
112	0xbd3cef55	-0.046126682
113	0x3d3a61de	0.04550349
114	0xbc720a48	-0.014772959
115	0x3dae9364	0.08524206
116	0xbdbe4016	-0.09289567
117	0x3d0b8e4c	0.03407125
118	0xbdaca0a1	-0.08429075
119	0x3d854da1	0.06508947
120	0x3d9594b6	0.07303755
121	0x3d2415a1	0.04005969
122	0x3ce73e2f	0.028227894
123	0xbd539836	-0.05165883
124	0x3d12fb33	0.035884093
125	0x3dccd9e2	0.10002495
126	0xbc77584c	-0.015096735
127	0xbca9f2d8	-0.02074568
128	0x3dd118e8	0.102098286
129	0x3dce4493	0.10071673
130	0x3de19ed8	0.11016625
131	0xbd8d925f	-0.06912684
132	0x3d9a146c	0.075234264
133	0x3c451631	0.012029217
134	0xbd9ad392	-0.07559885
135	0x3dc1c958	0.094622314
136	0xbd6b60c9	-0.05746535
137	0xbc30cb04	-0.01079059
138	0xbdb7d138	-0.08975452
139	0x3c8fbfcf	0.017547516
140	0xbcfd2c62	-0.030904952
141	0x3dd22ad6	0.102620766
142	0x3d544755	0.05182584
143	0x3d90bcf8	0.07067293
144	0x3d61b51f	0.05510437
145	0x3d56dc76	0.05245634
146	0x3d884920	0.066545725
147	0x3d236b51	0.039897267
148	0x3d1e0522	0.038579114
149	0xbd93dca9	-0.07219822
150	0x3cf91350	0.030404717
151	0xbd7c5d1c	-0.061612234
152	0xbbc5201c	-0.0060157906
153	0xbd6c77b1	-0.057731334
154	0x3dbaa159	0.09112806
155	0x3cce146b	0.02515622
156	0xbde8f698	-0.11375159
157	0xbdca4137	-0.0987572
158	0x3d8939fe	0.06700514
159	0x3d2aa54a	0.04166154
160	0x3dd054b1	0.101724036
161	0x3d06ca5b	0.032907825
162	0x3cc73687	0.024317993
163	0x3cb127ed	0.021625483
164	0xbddf44f8	-0.109018266
165	0x3d5a7b44	0.05334021
166	0xbd0fd6d6	-0.035116993
167	0x3c9ef0f3	0.019402003
168	0xbd6f69b8	-0.05845043
169	0xbba0d840	-0.0049085915
170	0x3cab1784	0.020885237
171	0xbd1f091a	-0.03882704
172	0x3ccf01d5	0.025269428
173	0x3d8da7e3	0.069167875
174	0x3ceeee46	0.029166352
175	0x3d16360e	0.036672644
176	0x3d8e700e	0.069549665
177	0xbd95151d	-0.07279418
178	0x3dda5435	0.106605925
179	0xbd16ddae	-0.036832504
180	0x3d596a04	0.05307962
181	0xbda43a87	-0.08018976
182	0xbd9e5dfa	-0.07732768
183	0x3d87d55b	0.06632491
184	0x3c99611d	0.018723065
185	0x3de004a8	0.10938388
186	0x3d045929	0.032311592
187	0xbd628ae4	-0.055308238
188	0x3d73f92d	0.059563804
189	0x3da1fef0	0.079099536
190	0x3cdc23e2	0.026872579
191	0xbce7a03e	-0.028274652
192	0xbb09f513	-0.0021050617
193	0xbd91cd0a	-0.07119186
194	0x3d9dd180	0.077059746
195	0x3cff73f5	0.031183222
196	0xbc927c21	-0.017881455
197	0x3d8c2c3d	0.06844375
198	0xbd470743	-0.04859091
199	0x3d8903c8	0.06690174
200	0xbb9a112c	-0.004701754
201	0xbd7af9d5	-0.061273415
202	0xbcb8b505	-0.022547254
203	0x39c596de	0.00037687173
204	0xbd92a67f	-0.07160663
205	0xbd059bdf	-0.032619353
206	0x3bd148a6	0.006386834
207	0x3d8beea0	0.068326235
208	0xbdb2411d	-0.087038256
209	0xbd03905f	-0.032120105
210	0x3d4e189a	0.05031643
211	0xbda25b71	-0.07927597
212	0x3be3714a	0.0069409953
213	0x3d07e3e4	0.033176318
214	0x3cebe902	0.02879763
215	0xbd37c66e	-0.04486697
216	0x3889a5a8	6.563525e-05
217	0xbd179a35	-0.037012298
218	0xbc378d24	-0.011203084
219	0x3d414b1c	0.04719077
220	0x3c0a494f	0.00844033
221	0x3db3adb8	0.087733686
222	0x3db73001	0.08944703
223	0x3d1c867a	0.038214184
224	0xbd77a539	-0.060460303
225	0xbd03e02c	-0.03219621
226	0xbd46cacf	-0.048533257
227	0x3ccb4bd2	0.024816427
228	0x3d01ff98	0.031737894
229	0xbce45bdb	-0.027875831
230	0x3d86a8e0	0.06575179
231	0xbd8158a9	-0.06315739
232	0xbd7c18ab	-0.061546963
233	0xbc2a4a0b	-0.01039363
234	0x3b9392fb	0.0045036054
235	0xbd4da4f2	-0.050206132
236	0x3c7aefbc	0.015315946
237	0x3d387c4c	0.045040414
238	0xbda3d1c0	-0.07998991
239	0x3dc48d39	0.095972486
240	0x3cab630a	0.020921249
241	0xbd1a3f41	-0.03765798
242	0x3d9a4876	0.07533352
243	0x3d033b74	0.03203912
244	0xbcf1d6ab	-0.029521307
245	0x3dca0fd5	0.09866301
246	0x3cdc6aea	0.02690645
247	0x3b92eaee	0.004483572
248	0x3d631db2	0.05544824
249	0x3d009ca3	0.03139938
250	0xbcb51a2e	-0.02210721
251	0xbc8451c2	-0.016152266
252	0xbd02bc88	-0.03191808
253	0xbd29dfaa	-0.04147307
254	0x3cec3cc4	0.028837569
255	0x3bf60e38	0.007509019

fc2.bias f4 [64]
0	0x3d0218d9	0.031761978
1	0x3c0fdf35	0.008781244
2	0xbd62c14a	-0.055360116
3	0x3d395962	0.045251258
4	0xbdbac0ad	-0.09118781
5	0xbcc17ebe	-0.023620006
6	0x3d048f1f	0.032363053
7	0x3cc99cd0	0.024610907
8	0x3dd2a42b	0.10285219
9	0xbdd57b7d	-0.10423944
10	0x3cc25c66	0.0237257
11	0xbd520d95	-0.051282484
12	0xbd474240	-0.048647165
13	0xbc887241	-0.016656043
14	0x3ce31cfa	0.027723778
15	0xbd64456d	-0.055730272
16	0x3ddda68e	0.108227834
17	0x3c58e418	0.013237976
18	0xba137dfb	-0.00056263775
19	0x3d2467c7	0.040138032
20	0x3c84047b	0.016115418
21	0xbd89ec2e	-0.06734501
22	0x3c85b2b8	0.016320571
23	0xbd625166	-0.05525341
24	0xbdada43f	-0.08478593
25	0xbd2c5e87	-0.042082336
26	0xbdcab6cc	-0.09898147
27	0xbdaa1c89	-0.08306224
28	0xbabedc60	-0.0014561526
29	0x3c806b4e	0.015676167
30	0x3b456e46	0.0030125543
31	0xbd5f9032	-0.054580875
32	0x3db03439	0.08603711
33	0xbd9aadc4	-0.075526744
34	0xbd94de92	-0.072690144
35	0xbd92a20b	-0.071598135
36	0xbd537cb6	-0.051632605
37	0xbdb035c0	-0.08604002
38	0x3cc4ba1c	0.024014525
39	0xbd818897	-0.063248806
40	0x3c3cceff	0.011523961
41	0x3d42df88	0.047576457
42	0x3d1f1dc1	0.038846735
43	0xbd830401	-0.06397248
44	0xbc9b8d0d	-0.018988157
45	0x3cd69b35	0.026197055
46	0x3de083e6	0.10962658
47	0x3ca8357d	0.020533318
48	0x3d3fe02a	0.04684464
49	0xbdb88999	-0.0901062
50	0xbd83eeb2	-0.06442012
51	0x391c0d7d	0.00014882344
52	0x3c935202	0.01798344
53	0x3c9b1a50	0.018933445
54	0xbd6e578f	-0.05818897
55	0x3d04c196	0.03241118
56	0x3d09e579	0.033666108
57	0x3c27a969	0.010233262
58	0xbdcee89d	-0.10102961
59	0x3dd0add8	0.10189408
60	0xbc896498	-0.0167716
61	0x3dcc4d23	0.0997565
62	0x3b9362d1	0.004497864
63	0xbc360508	-0.011109598

fc3.weight f4 [32, 64]
0	0xbe087ac9	-0.13328089
1	0xbd1e1e23	-0.03860296
2	0xbd8f5b09	-0.069997855
3	0x3e10a6fa	0.14126197
4	0xbdb4cb49	-0.08827836
5	0xbe04d1ac	-0.12970608
6	0x3d40d586	0.04707863
7	0xbe06640d	-0.13124104
8	0x3d4baf02	0.049727447
9	0xbc1261fd	-0.008934495
10	0x3e11719f	0.142035
11	0xbad83fc3	-0.0016498495
12	0xbd513c3e	-0.051082842
13	0xbd9ac92c	-0.07557902
14	0xbce20894	-0.027591981
15	0xbdc829d5	-0.09773604
16	0xbd3daf13	-0.046309542
17	0xbda663e4	-0.081245214
18	0xbbc21002	-0.0059223184
19	0x3e016f76	0.12640175
20	0xbc0560cd	-0.008140755
21	0x3d90e453	0.070747994
22	0xbd5927a2	-0.053016312
23	0x3d819914	0.063280255
24	0xbda0c081	-0.07849217
25	0xbd1d72fe	-0.038439743
26	0x3dabf87e	0.083970055
27	0x3caa8c39	0.020818816
28	0x3d768565	0.06018581
29	0xbdc798ca	-0.09745939
30	0xbe07edee	-0.13274357
31	0x3e0529d4	0.13004237
32	0xbd4b9dec	-0.049711153
33	0xbd91dbda	-0.071220115
34	0x3db3a0a4	0.08770874
35	0x3dcb5394	0.09928051
36	0x3df996b5	0.12186948
37	0x3daa0357	0.08301418
38	0x3ce882a4	0.028382607
39	0x3de066fc	0.10957143
40	0xbdde87e0	-0.1086576
41	0x3ddea6e5	0.10871676
42	0x3db2330b	0.08701142
43	0x3d64bb0a	0.055842437
44	0xbdd122ba	-0.10211702
45	0x3dd266b6	0.10273497
46	0xbe14c87a	-0.145296
47	0x3e0182a7	0.12647496
48	0xbdf21c80	-0.11821842
49	0x3da89222	0.082309976
50	0xbdb2910c	-0.08719072
51	0xbe15221c	-0.14563793
52	0x3dcd3aef	0.10021006
53	0x3c1d8e62	0.009616466
54	0xbd1a843e	-0.037723772
55	0x3d6f3ece	0.058409505
56	0x3da914b9	0.08255906
57	0xbd857919	-0.06517238
58	0x3d83a006	0.064270064
59	0xbba89a6b	-0.005145361
60	0x3d9f8dc3	0.07790711
61	0xbda14bd2	-0.0787579
62	0xbd805660	-0.06266475
63	0xbd8effde	-0.069823965
64	0x3d351b65	0.04421558
65	0x3d4dda23	0.05025686
66	0xbdb8544d	-0.09000454
67	0xbd3021f6	-0.043001138
68	0x3c35840d	0.011078847
69	0x3dcb0546	0.09913115
70	0x3e29d9a9	0.16586937
71	0x3e1a47d7	0.15066467
72	0x3c2fc3d2	0.01072784
73	0xbdf7e05d	-0.12103341
74	0x3e21b85f	0.15792988
75	0x3d543d38	0.051816195
76	0x3d3bc709	0.04584411
77	0x3c6c8510	0.014436021
78	0xbc0c793f	-0.008573829
79	0x3d10241b	0.035190683
80	0x3d960561	0.07325245
81	0x3c7b1160	0.015323967
82	0x3e1776d1	0.14791419
83	0xbd43ea1e	-0.047830693
84	0x3d4db0bf	0.050217386
85	0x3cd794ec	0.026316129
86	0x3db44f02	0.08804132
87	0xbca59e07	-0.020216955
88	0x3c5681cb	0.0130924685
89	0xbdff6f9c	-0.1247246
90	0x3d66ad96	0.05631789
91	0xbdac8b31	-0.08424986
92	0xbc0161bc	-0.007896837
93	0xbba336c5	-0.0049808943
94	0xbdf2dde4	-0.118587285
95	0x3d5af771	0.053458635
96	0x3d258c34	0.04041691
97	0x3d1fd00c	0.03901677
98	0x3d0a3887	0.033745315
99	0xbd3eeefe	-0.04661464
100	0xbb98f157	-0.004667442
101	0xbe1d5751	-0.1536534
102	0x3e23e8ed	0.16006823
103	0xbe0e5b8d	-0.13902111
104	0x3dab5867	0.08366471
105	0xbd40b201	-0.047044758
106	0xbdadb090	-0.08480942
107	0xbd18041d	-0.037113298
108	0x3cb442e3	0.02200455
109	0x3dd1e165	0.10248069
110	0xbc3d026d	-0.011536223
111	0xbe126359	-0.1429571
112	0x3e2a467f	0.16628455
113	0x3ce9cf70	0.028541297
114	0x3d9c4550	0.07630408
115	0x3d0871e9	0.03331176
116	0xbe2326cf	-0.15932773
117	0x3d71f822	0.05907453
118	0x3dfdd674	0.12394419
119	0xbd9bd27e	-0.076085076
120	0x3ce36749	0.027759211
121	0xbd08f646	-0.03343799
122	0xbacef2dc	-0.001578893
123	0x3cf8985c	0.030346088
124	0xbe2bbad9	-0.16770495
125	0x3e19ac6b	0.15007178
126	0x3d5c0b7b	0.053721886
127	0xbd54e109	-0.051972423
128	0xbe05cb51	-0.1306584
129	0xbd671d5c	-0.056424484
130	0x3df5c597	0.12000578
131	0x3d0f8827	0.035041954
132	0xbc44c221	-0.012009175
133	0x3cdf822a	0.027283747
134	0xbe14859a	-0.1450409
135	0xbbdbaf32	-0.0067042345
136	0xbcdfb3b1	-0.027307363
137	0x3d94c977	0.07264989
138	0x3d7b0e3a	0.061292864
139	0x3d8d89e8	0.06911069
140	0xbc5f3b11	-0.013624922
141	0x3dbdacd8	0.09261483
142	0x3e035f7c	0.12829393
143	0xbb7c6c30	-0.0038516633
144	0xbd10564a	-0.03523854
145	0xbd9372fa	-0.071996644
146	0x3b9886fe	0.004654764
147	0x3c9d490a	0.019199867
148	0x3c56d579	0.013112419
149	0x3e0a9695	0.13534005
150	0xbd70c6ec	-0.058783457
151	0x3ca47542	0.020075444
152	0x3dcefd07	0.10106855
153	0x3d259de5	0.040433783
154	0xbdace6cd	-0.08442459
155	0x3c48358d	0.012219799
156	0x3d159d24	0.036526814
157	0xbd1366a8	-0.035986573
158	0x3da45f02	0.08025934
159	0xbde72686	-0.11286645
160	0xbd23b7e5	-0.039970297
161	0x3cdb7ef2	0.02679393
162	0xbdd07d19	-0.101801105
163	0x3d8add47	0.067804866
164	0x3dc4d28f	0.09610473
165	0x3e0f49bc	0.13992971
166	0x3b1c1687	0.0023817138
167	0x3e0071b2	0.12543371
168	0xbde3f62c	-0.11130938
169	0xbd18bd13	-0.03728969
170	0xbd75bde1	-0.059995536
171	0xbd8e9819	-0.06962604
172	0xbb82e704	-0.0039948244
173	0xbdb9f540	-0.09079981
174	0xbe11ba52	-0.14231232
175	0xbb21715d	-0.002463422
176	0xbda2342c	-0.07920107
177	0xbd21dbc0	-0.03951621
178	0xbbca1c91	-0.006167956
179	0xbdcaed2c	-0.09908518
180	0xbd204355	-0.039126713
181	0xbcbc8d21	-0.023016514
182	0xbe0901ab	-0.13379543
183	0xbd343804	-0.043998733
184	0xbe12a2fc	-0.14319986
185	0xbcef3319	-0.02919917
186	0x3d5d97a7	0.054099705
187	0xbe09ec61	-0.13469078
188	0x3d145e86	0.036222957
189	0xbe05e466	-0.13075408
190	0xbdb014cd	-0.085977174
191	0xbdf2bff3	-0.11853018
192	0x3cc53d71	0.02407715
193	0x3e0987ca	0.13430706
194	0xbdbf2a36	-0.09334223
195	0x3d338941	0.043832067
196	0xbd1e4926	-0.03864398
197	0x3d85be8c	0.065304846
198	0x3c346e5e	0.011012642
199	0x3d94e78b	0.07270726
200	0x3d813158	0.0630824
201	0x38c0d517	9.1949645e-05
202	0x3c3ece66	0.011645889
203	0xbcb277d4	-0.021785654
204	0x3cd4f407	0.025995268
205	0x3d738ded	0.059461523
206	0x3b8e51a2	0.0043432275
207	0xbc872191	-0.016495498
208	0x3e16883b	0.14700405
209	0x3e071802	0.13192752
210	0xbd60ed30	-0.0549137
211	0x3c9d44d2	0.019197855
212	0x3d3da97a	0.046304204
213	0xbe1dc35a	-0.15406552
214	0x3e1c1707	0.15243159
215	0xbced1d33	-0.028944587
216	0xbde73f8c	-0.112914175
217	0xbd469ea0	-0.04849112
218	0xbdc2fbc7	-0.09520679
219	0x3d61a266	0.055086516
220	0xbc8db409	-0.017297762
221	0xbdfcd287	-0.123448424
222	0x3d5669a0	0.052346826
223	0x3de760f1	0.11297787
224	0xbd8d518c	-0.069003195
225	0xbe11bce9	-0.1423222
226	0xbc57bd4e	-0.013167692
227	0xbe13e779	-0.14443769
228	0x3cadd40b	0.021219274
229	0xbbe2d112	-0.006921896
230	0xba801b4d	-0.0009773761
231	0x3d9b7694	0.07590976
232	0xbd59c7e0	-0.05316913
233	0xbd351bee	-0.04421609
234	0x3c05f810	0.0081768185
235	0x3dbdb8b0	0.09263742
236	0xbdc81b8c	-0.09770879
237	0x3e10b805	0.14132698
238	0x3d515a7e	0.05111169
239	0xbd228fe0	-0.03968799
240	0x3d33fa53	0.0439399
241	0x3dc7548f	0.09732925
242	0x3d572fef	0.052535947
243	0xbdb7a394	-0.08966747
244	0x3d1d0cfe	0.03834247
245	0x3d047ef2	0.032347627
246	0x3c979b03	0.018506533
247	0x3e12d110	0.14337564
248	0x3c88912e	0.01667079
249	0x3c3d525c	0.011555281
250	0xbe1b969e	-0.15194175
251	0xbd02e8a5	-0.03196015
252	0xbde52914	-0.11189476
253	0x3d4b0948	0.0495694
254	0xbcc0e20d	-0.02354529
255	0x3e1a432e	0.1506469

fc3.bias f4 [32]
0	0x3d5b7753	0.053580593
1	0xbbb1a67d	-0.0054214583
2	0xbd91b590	-0.071147084
3	0x3d9d504a	0.076813295
4	0x3dad8752	0.08473076
5	0x3d90a4d0	0.070626855
6	0xbbdceff1	-0.0067424704
7	0xbd119707	-0.03554442
8	0xbd22913c	-0.039689288
9	0xbd90dfcb	-0.07073935
10	0xbdc128e0	-0.094316244
11	0x3dce44c4	0.1007171
12	0xbde9a2bb	-0.114079915
13	0xbbf58f32	-0.007493877
14	0x3da0607c	0.07830903
15	0x3d030f4e	0.031997018
16	0x3dedf9fa	0.11619945
17	0xbda4cf9e	-0.08047412
18	0x3c1251bf	0.008930623
19	0x3d0a6c8c	0.033794925
20	0x3d33d7f3	0.043907117
21	0xbd889a5c	-0.06670067
22	0xbddcba87	-0.10777765
23	0x3d70a3a3	0.058749806
24	0x3d578f01	0.052626614
25	0x3e05ecea	0.13078657
26	0xbd56eaa3	-0.05246986
27	0xbc05600a	-0.008140573
28	0x3df88d1a	0.12136288
29	0x3dc75877	0.0973367
30	0xbcf2af17	-0.029624505
31	0xbdc56b4d	-0.096396066

fc4.weight f4 [5, 32]
0	0xbd405bce	-0.04696255
1	0xbdde5da9	-0.10857708
2	0x3e230a62	0.1592193
3	0xbe1b2cd0	-0.15153813
4	0x3ceed3fa	0.029153813
5	0xbd9e0cd2	-0.07717289
6	0xbe4c805f	-0.19970845
7	0x3d2ffb70	0.0429644
8	0x3dedca14	0.11610809
9	0xbd03eff3	-0.032211255
10	0xbdaf008e	-0.08545028
11	0xbcc6e253	-0.024277842
12	0x3e322d72	0.17400149
13	0xbd9ed650	-0.077557206
14	0x3dac1b49	0.08403642
15	0xbe1b42ef	-0.15162252
16	0xbe046ba5	-0.12931688
17	0x3e1675c2	0.14693359
18	0xbda2fe39	-0.079586454
19	0x3e4d6999	0.20059814
20	0x3e3b8050	0.18310666
21	0xbe494d65	-0.1965843
22	0x3e2b80a2	0.16748288
23	0x3df4e83d	0.119583584
24	0x3e2ced17	0.16887318
25	0x3e038d84	0.12846953
26	0x3e15f1a2	0.14642957
27	0xbdbe82a4	-0.093022615
28	0xbe18f950	-0.14938855
29	0xbe3d2f9a	-0.1847519
30	0xbb139e92	-0.0022524935
31	0xbc525bda	-0.012839282
32	0xbd8d9a56	-0.06914203
33	0x3e151972	0.14560488
34	0xbe01a6df	-0.12661313
35	0xbc946894	-0.018116273
36	0xbd793731	-0.06084365
37	0x3d4a25c3	0.04935242
38	0xbc6d176a	-0.014470914
39	0xbc93c11a	-0.018036414
40	0xbd66b658	-0.05632624
41	0x3e17e560	0.14833593
42	0xbe067dd6	-0.1313394
43	0x3dd5725a	0.104222015
44	0x3e14ed69	0.1454369
45	0x3e22fc5a	0.15916577
46	0x3e2c0215	0.16797669
47	0xbe483853	-0.19552736
48	0x3de72f38	0.11288303
49	0x3c22b4f0	0.009930834
50	0x3da58f70	0.08083999
51	0x3d9b5277	0.07584088
52	0xbca6913e	-0.020332929
53	0xbe090b97	-0.13383327
54	0xbc575b90	-0.013144389
55	0x3cdc1046	0.026863229
56	0x3e01081c	0.1260075
57	0xbd24e4a1	-0.0402571
58	0x3d3fab77	0.04679438
59	0xbde7a358	-0.11310452
60	0xbe07feb1	-0.13280751
61	0x3dedc665	0.116101064
62	0xbdeba7ea	-0.115066364
63	0x3dedb0b4	0.11605969
64	0x3dc36895	0.09541432
65	0xbbe3e467	-0.006954718
66	0x3ca215bf	0.01978576
67	0x3e23dd46	0.16002378
68	0xbc9ad5f1	-0.018900843
69	0xbe39eb36	-0.18156132
70	0xbdbf7b82	-0.09349729
71	0xbce0d270	-0.027444094
72	0x3ba02331	0.0048870076
73	0x3bffcc97	0.0078063714
74	0x3d65d9ba	0.056115843
75	0xbdc05ca5	-0.093926705
76	0x3de283a3	0.11060264
77	0xbdda15b5	-0.106486715
78	0xbd767246	-0.060167573
79	0x3dcddc90	0.100518346
80	0x3e431569	0.19051136
81	0x3de8be50	0.11364424
82	0x3e32907e	0.17437932
83	0xbd612542	-0.054967172
84	0xbd3fb18f	-0.046800192
85	0xbe40aba2	-0.18815473
86	0xbc15124f	-0.009098603
87	0xbca7f547	-0.0205027
88	0xbd758f7b	-0.059951287
89	0x3dd4c15e	0.10388444
90	0xbdd4d3d4	-0.103919655
91	0x3c2b8da4	0.0104707815
92	0xbc822f32	-0.015891645
93	0xbd85710d	-0.06515703
94	0xbe3b589c	-0.1829552
95	0x3d6d7877	0.057976212
96	0xbe081a60	-0.13291311
97	0x3df7b1c2	0.120944515
98	0x3dadd279	0.0848741
99	0xbc4bd669	-0.012441256
100	0xbe11c00e	-0.1423342
101	0x391f97a6	0.00015219915
102	0x3be2027e	0.0068972697
103	0xbc02f587	-0.007993109
104	0xbe026f81	-0.12737848
105	0xbe4ef13c	-0.20209211
106	0x3d85c53c	0.0653176
107	0x3e2f715f	0.17133091
108	0xbd863b5d	-0.065542914
109	0x3de7a626	0.11310987
110	0x3e0e4635	0.1389397
111	0xbdf4f3c2	-0.119605556
112	0xbe0ec9b4	-0.13944131
113	0xbdfdc090	-0.12390244
114	0xbe0a6478	-0.13514888
115	0x3e42a2ce	0.19007418
116	0x3e356090	0.17712617
117	0xbe2c753a	-0.16841593
118	0x3d68ac25	0.056804795
119	0xbd6a358e	-0.05717998
120	0xbdd46eee	-0.10372721
121	0xbe373c21	-0.17894031
122	0xbd5ead14	-0.05436428
123	0x3dfd8784	0.12379363
124	0x3d8261de	0.06366323
125	0x3c837eb7	0.016051633
126	0xbc1dc51f	-0.009629517
127	0x3e0ee63d	0.13955016
128	0xbdcaba5c	-0.098988265
129	0x3e2570d5	0.16156323
130	0xbe13dd1f	-0.1443982
131	0x3e5f2523	0.2179151
132	0xbe22e45e	-0.15907428
133	0x3e055a05	0.13022621
134	0x3d251cf9	0.040310834
135	0xbe0273dd	-0.12739511
136	0xbdf63abb	-0.12022921
137	0x3e1b60a6	0.15173587
138	0x3e61da99	0.22056045
139	0xbe4562b3	-0.19275932
140	0xbe19a768	-0.15005267
141	0xbe448c27	-0.19194089
142	0xbd8b229b	-0.0679371
143	0x3e4866cb	0.19570462
144	0xbd8c6ad3	-0.068563126
145	0xbd8cd399	-0.068762966
146	0xbe3c011f	-0.18359803
147	0x3d80c5ce	0.06287728
148	0xbe0db425	-0.13838251
149	0x3e16a9aa	0.14713159
150	0xbe04b2bc	-0.12958807
151	0xbe11a9a7	-0.14224873
152	0xbe546b70	-0.20744109
153	0x3e412bda	0.18864384
154	0xbc81450b	-0.015779993
155	0xbe4509c1	-0.19242002
156	0x3d6bae61	0.057539348
157	0xbd894187	-0.067019515
158	0x3e592f9b	0.21209566
159	0xbe4428db	-0.1915621

fc4.bias f4 [5]
0	0x3e0cc119	0.13745536
1	0xbd5dcd09	-0.054150615
2	0xbc96691b	-0.018360665
3	0x3d45cba4	0.04828991
4	0xbddd3774	-0.108015925
