clean_code/trained_models/actor_886.pth (torch, 54872 bytes, 8 tensors)

fc1.weight f4 [128, 18]
0	0x3e21be40	0.15795231
1	0x3db474f2	0.08811368
2	0xbe1e0ac5	-0.15433796
3	0x3e44f00d	0.19232197
4	0x3dfe11dd	0.12405751
5	0xbd83fa71	-0.06444252
6	0x3d006034	0.031341746
7	0x3cd6a26f	0.026200501
8	0x3dc47248	0.0959211
9	0xbd8b8e03	-0.06814196
10	0xbe149e4a	-0.14513507
11	0x3bb21e16	0.0054357154
12	0x3e5faf7b	0.21844284
13	0x3da946e2	0.08265473
14	0x3e191803	0.14950566
15	0x3d0265e8	0.031835467
16	0xbe68aa2c	-0.22721165
17	0x3e82fe61	0.255847
18	0x3e110bd7	0.14164673
19	0x3e2b0ab4	0.16703302
20	0x3daec83e	0.08534287
21	0xbd9ed3d2	-0.07755245
22	0x3d90e9cc	0.07075843
23	0xbc8a4f52	-0.016883526
24	0x3e17281d	0.14761396
25	0x3e5387d9	0.2065729
26	0x3dcc0a8c	0.09962949
27	0x3d2a4e38	0.0415785
28	0x3e18bc3a	0.14915553
29	0x3e152490	0.14564729
30	0xbe290335	-0.1650513
31	0xbe0c3224	-0.13691002
32	0xbdbb6717	-0.09150522
33	0x3d6cfe9c	0.057860002
34	0xbe274e62	-0.16338494
35	0x3d2b1e3e	0.041776888
36	0x3e1d3790	0.15353227
37	0x3db507d1	0.088393815
38	0xbe162e77	-0.14666162
39	0x3d80dd2c	0.06292185
40	0xbe3578e9	-0.17721905
41	0x3d0af814	0.033927992
42	0x3e472a49	0.19449724
43	0x3e1e64e6	0.15468177
44	0xbd7921b8	-0.060823172
45	0xbe333521	-0.17500736
46	0xbdd4781e	-0.10374473
47	0x3e37284a	0.17886463
48	0x3e862fab	0.26208243
49	0x3dc56982	0.09639265
50	0x3d83ced5	0.064359345
51	0xbddae3fe	-0.10688017
52	0x3e5003bd	0.20313926
53	0x3d670048	0.056396753
54	0x3e02bc3f	0.12767123
55	0xbd206016	-0.039154135
56	0x3e2c5702	0.16830066
57	0x3cd30a9a	0.025761891
58	0xbe3bf8e8	-0.18356669
59	0xbe0a72f0	-0.13520408
60	0xbe453d98	-0.19261777
61	0xbe412107	-0.18860255
62	0xbdff1ec7	-0.12457042
63	0x3e2a8c95	0.1665519
64	0x3dc70239	0.09717221
65	0xbdd62ffd	-0.10458372
66	0x3e5539d1	0.20822836
67	0x3e3e1977	0.18564402
68	0xbbb0d41b	-0.0053963787
69	0xbe3fc930	-0.1872909
70	0x3e2abd0b	0.16673677
71	0xbd84c1a6	-0.06482248
72	0xbd999b22	-0.07500292
73	0x3e6fa4b7	0.23402677
74	0xbd0d7bf1	-0.034542028
75	0xbe4f4d8c	-0.20244426
76	0x3e5acc75	0.21367057
77	0x3e23507e	0.15948674
78	0xbdc3f16e	-0.095675334
79	0x3e85efac	0.26159418
80	0xbce025fd	-0.027361864
81	0x3d225ef1	0.039641324
82	0x3d87b3a1	0.06626058
83	0x3dcba359	0.099432655
84	0x3ccf3c93	0.025297439
85	0xbe0629f4	-0.13101941
86	0x3e78652c	0.24257344
87	0x3e2c158f	0.16805099
88	0xbe0e56a9	-0.13900246
89	0x3e59a72e	0.2125518
90	0x3dd2a784	0.10285857
91	0xbd591025	-0.052993912
92	0x3d22ec76	0.039776288
93	0x3e41f6a9	0.1894175
94	0x3e74bfa7	0.23901235
95	0xbcd9ad12	-0.026571784
96	0xbda902e4	-0.082525045
97	0xbbc18b00	-0.0059064627
98	0x3dc4c8dc	0.096086234
99	0xbe34f34e	-0.17670938
100	0xbca3c5b9	-0.019991742
101	0x3e24355d	0.16035981
102	0xbe3387d2	-0.1753228
103	0x3e52badf	0.20579098
104	0xbe24b255	-0.16083653
105	0x3e4d9d25	0.20079477
106	0x3d71bfb5	0.059020717
107	0x3e561f21	0.20910312
108	0x3e0fbe3e	0.14037415
109	0xbe7e0c2a	-0.24809328
110	0x3e1590da	0.14606038
111	0xbe098890	-0.13431
112	0x3dbeeedb	0.09322902
113	0x3e2f5bcd	0.17124863
114	0x3e33ac0b	0.17546098
115	0x3da15472	0.07877435
116	0xbe3708cd	-0.17874451
117	0xbb30ec2f	-0.0026996245
118	0xbe69680a	-0.22793594
119	0xbcd07af1	-0.025449248
120	0xbe658339	-0.22413339
121	0xbc1fa760	-0.009744495
122	0xbe04c59f	-0.12966011
123	0x3d5a892f	0.053353485
124	0xbe77a3a7	-0.24183522
125	0xbc0e995a	-0.008703554
126	0x3d004c06	0.0313225
127	0x3e1e93e4	0.15486103
128	0xbe5306b2	-0.20608023
129	0xbe55060c	-0.20803088
130	0xbe0819d4	-0.13291103
131	0x3db671f5	0.08908454
132	0x3e555c2c	0.20835942
133	0xbe00c755	-0.12576039
134	0x3e348347	0.17628203
135	0xbe3ec37c	-0.18629259
136	0x3e31cd44	0.17363459
137	0x3e37959d	0.17928167
138	0xbca939ef	-0.020657508
139	0x3cc9f3c8	0.024652377
140	0x3e14755f	0.14497899
141	0x3b6ac19f	0.0035820974
142	0x3d455684	0.04817821
143	0xbe18e106	-0.1492959
144	0xbb475376	-0.0030414737
145	0xbdb29862	-0.08720471
146	0xbd90b43c	-0.07065627
147	0x3e2bbd4a	0.16771427
148	0xbd8aad0b	-0.067712866
149	0xbe71cb4d	-0.2361271
150	0xbdd7011a	-0.10498257
151	0xbe42e85f	-0.19033955
152	0x3bdc71d9	0.006727439
153	0xbe5e7644	-0.21724802
154	0xbdd43e93	-0.103634976
155	0xbe7ed56d	-0.24886103
156	0x3e219a2f	0.15781473
157	0xbe57ab97	-0.2106155
158	0xbdd7bef3	-0.105344675
159	0xbe418d60	-0.18901587
160	0x3d2324ae	0.039829902
161	0x3e1e4c83	0.15458874
162	0x3e1e190e	0.15439245
163	0x3e65a08a	0.22424522
164	0x3e6813d2	0.22663811
165	0xbd9001a6	-0.070315644
166	0x3dfcc668	0.123425305
167	0xbe5fdc05	-0.21861275
168	0x3e6803a5	0.2265764
169	0x3e13d8fd	0.14438243
170	0xbd80eab7	-0.06294768
171	0x3e521594	0.20516044
172	0x3dd0d874	0.10197535
173	0x3e6e5488	0.23274434
174	0x3e2ac82c	0.16677922
175	0xbdf4ba4f	-0.11949598
176	0xbd89dbaa	-0.06731351
177	0x3e5b1a77	0.21396814
178	0xbe36a9be	-0.17838189
179	0xbdbc7866	-0.09202652
180	0xbdf73a29	-0.1207164
181	0xbe46fce3	-0.19432406
182	0xbe1d4a70	-0.15360427
183	0xbe45b2a9	-0.19306435
184	0x3dc4832f	0.09595334
185	0x3dc8128a	0.09769161
186	0xbc398715	-0.01132371
187	0x3dda6ea9	0.10665638
188	0x3c531cd6	0.012885293
189	0x3cb985be	0.022646781
190	0xbcb7b92e	-0.022427168
191	0x3d8bc620	0.06824899
192	0xbe3aeba5	-0.18253954
193	0xbd6ec4f0	-0.058293283
194	0xbe63ede2	-0.22258714
195	0xbe3287f8	-0.1743468
196	0x3e000d03	0.12504964
197	0x3d06b34a	0.032885827
198	0xbd4ca847	-0.04996517
199	0x3e4a465d	0.19753404
200	0xbcd87894	-0.026424684
201	0xbdf745a3	-0.12073829
202	0xbdee0f42	-0.11624004
203	0x3e4fa91b	0.20279352
204	0x3da0784d	0.078354456
205	0x3e43bbde	0.19114634
206	0x3d30a5fd	0.04312705
207	0xbd972285	-0.07379631
208	0x3dfe706d	0.12423787
209	0x3ddfef19	0.10934276
210	0x37ffb33e	3.0481835e-05
211	0xbd091168	-0.033463866
212	0xbdcc3b15	-0.099722065
213	0x3dfd7022	0.12374903
214	0xbe31bedc	-0.17357963
215	0x3e6cd110	0.23126626
216	0xbdd5e1e0	-0.10443473
217	0xbdb03168	-0.086031735
218	0x3e0f8e9b	0.14019243
219	0xbde7c853	-0.11317506
220	0xbe57c807	-0.21072398
221	0xbd332419	-0.043735597
222	0xbe5b9cf5	-0.21446593
223	0x3c8deab4	0.01732383
224	0xbe425335	-0.18977053
225	0xbe316c72	-0.17326525
226	0xbd256115	-0.040375788
227	0x3e3ba109	0.18323149
228	0xbe1247d9	-0.1428522
229	0xbb4c57c0	-0.0031180233
230	0x3d9a4716	0.0753309
231	0xbddf6140	-0.10907221
232	0x3e12d00b	0.14337175
233	0x3e17eabc	0.14835638
234	0x3e89aa50	0.2688775
235	0xbdb27d8d	-0.08715353
236	0x3d9b9816	0.075973675
237	0xbd573e91	-0.052549902
238	0x3cb2b078	0.021812662
239	0x3d7b317c	0.06132649
240	0x3e5c10f4	0.21490842
241	0x3e619984	0.22031218
242	0x3e3302d5	0.17481549
243	0x3e7aed31	0.24504544
244	0xbcf3bbac	-0.029752575
245	0x3d7d5563	0.06184901
246	0xbe36dfec	-0.17858857
247	0xbdfcac6f	-0.123375766
248	0x3c9ad9d1	0.018902691
249	0x3d0fc303	0.035098087
250	0xbc9358c4	-0.017986663
251	0xbda36838	-0.079788625
252	0x3e63e9e3	0.2225719
253	0xbd601dd1	-0.054715935
254	0x3ba08832	0.0048990482
255	0x3d035ab6	0.03206893

fc1.bias f4 [128]
0	0x3e1b90e4	0.1519199
1	0x3e245f86	0.16052064
2	0x3e266c60	0.1625228
3	0x3e3b2e5b	0.18279402
4	0x3cbfc230	0.023408026
5	0x3da90696	0.08253209
6	0x3d2db6df	0.042410728
7	0xbdc55f9c	-0.09637377
8	0x3dd84531	0.10560072
9	0xbe373dba	-0.1789464
10	0xbe5e5f9d	-0.21716161
11	0x3e749d63	0.23888163
12	0x3e20cc8e	0.15703031
13	0xbd709477	-0.058735337
14	0x3db4ac29	0.088218994
15	0x3e6cde63	0.23131709
16	0x3c4d1fb1	0.012519763
17	0x3e588911	0.21146037
18	0xbe225a60	-0.15854788
19	0x3dc9518a	0.098300055
20	0x3e369585	0.17830475
21	0x3da9459a	0.082652286
22	0xbe20d3fc	-0.15705866
23	0x3cca8850	0.024723202
24	0xbe5140b2	-0.20434836
25	0x3ddb61f1	0.1071204
26	0x3c9baecf	0.019004254
27	0x3e4168cc	0.18887633
28	0xbdb6033d	-0.088873364
29	0x3d829262	0.063755766
30	0xbba95f2f	-0.0051688175
31	0xbe488c73	-0.19584827
32	0x3d76d4fc	0.06026171
33	0x3e7f0fbc	0.24908346
34	0x3dbe1909	0.09282119
35	0xbdb9ab18	-0.09065837
36	0xbdee4154	-0.11633554
37	0x3c2d5992	0.010580437
38	0x3e8b3fd9	0.2719715
39	0xbe1d55f4	-0.1536482
40	0x3ca94b1b	0.020665696
41	0x3e3f6326	0.18690166
42	0xbe31c4a3	-0.17360167
43	0x3e816407	0.25271627
44	0xbda6498f	-0.08119499
45	0x3e5110c8	0.20416558
46	0x3e86f288	0.26356912
47	0x3e31f9c6	0.17380437
48	0x3e83e9e6	0.25764388
49	0xbe13b1ba	-0.14423266
50	0x3de0140d	0.109413244
51	0xbd5150e2	-0.051102526
52	0xbe19ce55	-0.15020116
53	0xbe879191	-0.26478246
54	0xbd450e4e	-0.048109345
55	0x3e891959	0.2677715
56	0x3c93b4c9	0.018030541
57	0x3e7c82c3	0.24659257
58	0xbe415604	-0.18880469
59	0xbc117d60	-0.008879989
60	0xbd468d05	-0.04847433
61	0x3e80c4e3	0.25150213
62	0x3cb33deb	0.02188011
63	0xbe1f602d	-0.15564032
64	0x3deb2009	0.114807196
65	0xbe6167ad	-0.22012205
66	0x3cb87001	0.022514345
67	0x3db8823a	0.09009214
68	0xbd8e2535	-0.069406904
69	0x3e294bbc	0.16532797
70	0x3e82a2ca	0.25514823
71	0x3da4665e	0.080273375
72	0xbe0e8a5f	-0.13919972
73	0x3d5d6361	0.054049853
74	0xbe34feda	-0.17675343
75	0x3e183260	0.14862967
76	0x3e33bf5b	0.17553465
77	0xbc5f72b2	-0.013638185
78	0x3e61ebde	0.22062632
79	0x3e14702a	0.14495912
80	0x3d4f731e	0.050646894
81	0xbe27cbbe	-0.16386315
82	0xbe77fb7f	-0.24217032
83	0xbe29f0de	-0.1659579
84	0x3dbff625	0.0937312
85	0x3e09bba6	0.13450488
86	0xbdbce67d	-0.0922365
87	0xbd890705	-0.06690792
88	0xbddc738b	-0.107642256
89	0x3a713bb0	0.00092023145
90	0x3e0c3905	0.13693626
91	0xbc85fd24	-0.016356058
92	0x3cb83232	0.022484872
93	0x3e69289c	0.22769397
94	0x3e515fa2	0.20446637
95	0xbe896f30	-0.26842642
96	0x3de85170	0.11343658
97	0xbe5731bb	-0.21015064
98	0xbe5119c0	-0.20419979
99	0x3d3d918a	0.046281375
100	0x3e27c094	0.16382056
101	0xbe4cd90a	-0.20004669
102	0x3e23f3a7	0.16010915
103	0xbd7818de	-0.06057059
104	0x3e0846da	0.13308278
105	0x3e55ec4b	0.2089092
106	0x3d116b3c	0.035502657
107	0xbe25bea9	-0.16186012
108	0x3e263934	0.16232759
109	0x3e0bf26d	0.13666697
110	0xbdc269f1	-0.09492863
111	0xbcfcd6d5	-0.030864159
112	0xbc16ad61	-0.00919661
113	0x3e5e09e2	0.21683457
114	0xbe2a4def	-0.16631292
115	0x3e8235b4	0.25431597
116	0xbe1302f8	-0.14356601
117	0xbe2ecb9e	-0.17069861
118	0xbe2681e8	-0.16260493
119	0x3e5c43f8	0.21510303
120	0x3d83c214	0.06433502
121	0x3cfb5eaa	0.030684788
122	0x3e322831	0.17398144
123	0x3d7a17c5	0.061057825
124	0xbe71c56c	-0.23610467
125	0x3e3a2723	0.18178992
126	0x3dbd357a	0.092387155
127	0xbe15f734	-0.14645082

fc2.weight f4 [64, 128]
0	0x3d93afbc	0.07211253
1	0xbcf15a40	-0.02946198
2	0x3cbd53ce	0.02311125
3	0xbb957390	-0.0045608953
4	0x3d66e0d2	0.05636675
5	0x3d62c98c	0.05536799
6	0x3d6b760f	0.057485636
7	0x3d3d6ef1	0.04624838
8	0x3bc3a1ed	0.005970231
9	0xbcd4e386	-0.025987398
10	0x3c434ac1	0.011919678
11	0x3d99d47c	0.07511231
12	0xbcf945bd	-0.030428762
13	0x3ba9116b	0.005159547
14	0x3d1a676b	0.037696283
15	0x3cc13636	0.02358542
16	0x3c0ce188	0.008598693
17	0x3c13e1f0	0.009026036
18	0xbd309d82	-0.04311896
19	0x3d1155f9	0.03548238
20	0x3d0443cd	0.032291222
21	0xbdbf4fcc	-0.09341392
22	0x3d665586	0.056233905
23	0xbd706b71	-0.058696214
24	0x3da40556	0.0800883
25	0x3cd8cc00	0.026464462
26	0xbb6c1be6	-0.003602737
27	0x3daae803	0.08345034
28	0xbdf008e6	-0.11720447
29	0xbc81e057	-0.015854044
30	0x3d48c3a9	0.04901472
31	0x3d3e9c19	0.046535585
32	0xbd1c25b3	-0.03812189
33	0x3d2b68c4	0.04184796
34	0xbd9a4168	-0.075320065
35	0x3db5236b	0.08844646
36	0xbd83ecd2	-0.06441654
37	0xbc38eceb	-0.011286954
38	0xbc0a2eae	-0.008433981
39	0x3d8f6dbb	0.07003351
40	0x3dcefd4f	0.101069085
41	0x3d1b39e4	0.037897006
42	0xbd59121d	-0.05299579
43	0x3b746cb4	0.0037296237
44	0xbdd25e2c	-0.10271868
45	0x3dd35e7a	0.10320754
46	0x3ceb9b18	0.028760478
47	0xbc050586	-0.008118993
48	0x3d603930	0.05474204
49	0x3d90b83e	0.070663914
50	0x3bfc9e72	0.007709318
51	0xbd881f0a	-0.06646545
52	0x3cf005f9	0.029299723
53	0xbd68a57b	-0.05679844
54	0x3d73ec05	0.059551258
55	0xbce9cc91	-0.028539928
56	0xbc9de9b5	-0.01927648
57	0xbca42cdb	-0.02004092
58	0xbd961870	-0.0732888
59	0x3cb55e09	0.022139566
60	0x3db5f8e7	0.08885365
61	0xbd57681a	-0.052589513
62	0xbd65ffaf	-0.056152042
63	0x3d266309	0.04062179
64	0x3d10b6ca	0.03533057
65	0x3cdbe193	0.02684096
66	0x3d9f622e	0.07782398
67	0xbd941d1b	-0.07232114
68	0xbd78a9fa	-0.060708977
69	0xbd74c74f	-0.059760388
70	0x3ab3b3ef	0.0013710241
71	0x3d84fc4e	0.06493436
72	0xbd4b9113	-0.0496989
73	0xbc90974f	-0.017650275
74	0x3c5955f2	0.01326512
75	0x3c4ab5e3	0.012372467
76	0x3d75a9d0	0.0599764
77	0xbd0c5870	-0.034264028
78	0x3dcd065c	0.100109786
79	0x3da099eb	0.078418575
80	0xbcafb947	-0.021450652
81	0xbd304cd4	-0.04304202
82	0xbdbb8701	-0.09156609
83	0xbd813ed1	-0.063108094
84	0x3ba0d41f	0.0049080993
85	0xbdb0e5ce	-0.08637582
86	0xbde34ea8	-0.11098987
87	0x3d48ff0f	0.049071368
88	0xbda1d6b3	-0.07902279
89	0x3d30db41	0.043177847
90	0x3d380edc	0.044936046
91	0x3d87eae1	0.066365965
92	0x3c83c10b	0.016083261
93	0xbaa5142f	-0.0012594516
94	0x3e02da25	0.12778528
95	0xbd6cdc4d	-0.057827283
96	0xbba968f9	-0.0051699844
97	0xba9b57b7	-0.0011851703
98	0xbde6de50	-0.112728715
99	0x3d303818	0.043022245
100	0xbc9fe18b	-0.019516727
101	0x3c36afef	0.011150344
102	0x3ce0f31b	0.027459672
103	0xbcc14792	-0.023593698
104	0x3d024ad6	0.03180965
105	0xbcee82b7	-0.029115064
106	0xbc678600	-0.014131069
107	0xbdad6993	-0.08467402
108	0xbd09acd4	-0.033612087
109	0xbd00af59	-0.031417225
110	0xbdddcd5c	-0.10830185
111	0xbd58f218	-0.052965254
112	0xbd3d84e8	-0.046269327
113	0x3d3a0e44	0.04542376
114	0xbc6f13a7	-0.014592088
115	0x3daec742	0.08534099
116	0xbdbe3538	-0.092874944
117	0x3d0b330e	0.033984236
118	0xbdacb506	-0.08432965
119	0x3d854bed	0.06508622
120	0x3d957db9	0.0729937
121	0x3d23ba54	0.03997262
122	0x3ce7039d	0.028199965
123	0xbd53d27b	-0.0517144
124	0x3d130770	0.035895765
125	0x3dccab6e	0.09993635
126	0xbc781c7a	-0.015143508
127	0xbca92332	-0.020646665
128	0x3dd110be	0.102082714
129	0x3dceb69a	0.10093422
130	0x3de1abbb	0.11019083
131	0xbd8e61ec	-0.06952271
132	0x3d9a2e2d	0.075283386
133	0x3c4bd078	0.01243984
134	0xbd9af9f4	-0.07567206
135	0x3dc1a64f	0.09455549
136	0xbd6d7bad	-0.057979275
137	0xbc2c5e9e	-0.010520605
138	0xbdb7fa3c	-0.08983275
139	0x3c915c2e	0.01774415
140	0xbcfe37d7	-0.031032486
141	0x3dd3836c	0.10327801
142	0x3d553ef8	0.052062005
143	0x3d90f7c7	0.0707851
144	0x3d6227d4	0.055213764
145	0x3d57af43	0.052657377
146	0x3d87eaee	0.06636606
147	0x3d234055	0.039856274
148	0x3d1c9c0f	0.038234767
149	0xbd944d53	-0.07241311
150	0x3cf8d88d	0.030376697
151	0xbd7c896c	-0.061654493
152	0xbbb8253f	-0.0056196745
153	0xbd6cf207	-0.057848003
154	0x3dba82cb	0.09106978
155	0x3ccea8b8	0.025226936
156	0xbde9948e	-0.11405288
157	0xbdca96bc	-0.098920316
158	0x3d88a7ec	0.066726536
159	0x3d2a2ed3	0.04154856
160	0x3dd0a089	0.1018687
161	0x3d07327f	0.03300714
162	0x3cc56b9d	0.024099166
163	0x3cb1210c	0.021622203
164	0xbddfb822	-0.109237924
165	0x3d5956e0	0.053061366
166	0xbd0e043a	-0.034672
167	0x3ca0b254	0.019616283
168	0xbd6f2178	-0.058381528
169	0xbba57fc0	-0.0050506294
170	0x3ca83005	0.02053071
171	0xbd1e5da0	-0.038663507
172	0x3cce722e	0.02520093
173	0x3d8def32	0.069303885
174	0x3cefe169	0.029282289
175	0x3d1a29cc	0.037637517
176	0x3d8eb795	0.06968609
177	0xbd95bea9	-0.07311756
178	0x3ddab6da	0.106794074
179	0xbd16ed69	-0.036847506
180	0x3d5a5eba	0.053312995
181	0xbda48bf9	-0.0803451
182	0xbd9ebe67	-0.0775116
183	0x3d881897	0.06645315
184	0x3c96661f	0.018359242
185	0x3de02ebc	0.10946414
186	0x3d02df64	0.031951323
187	0xbd628351	-0.055301014
188	0x3d73a406	0.059482597
189	0x3da25502	0.0792637
190	0x3cdc30e4	0.026878782
191	0xbce8e3c3	-0.028428918
192	0xbb1ef6fe	-0.0024256106
193	0xbd92e12d	-0.07171855
194	0x3d9df134	0.077120215
195	0x3cff81b5	0.031189779
196	0xbc942fde	-0.018089231
197	0x3d8c196c	0.06840786
198	0xbd464fdb	-0.048416
199	0x3d890060	0.06689525
200	0xbba3fd2c	-0.0050045457
201	0xbd7b2c91	-0.0613218
202	0xbcbb2ade	-0.02284759
203	0x3a6cb3ec	0.0009029496
204	0xbd93223d	-0.07184265
205	0xbd068a0e	-0.032846503
206	0x3bd7420b	0.006569152
207	0x3d8b08d5	0.06788794
208	0xbdb38995	-0.08766476
209	0xbd051f33	-0.032500457
210	0x3d4dbfb3	0.050231647
211	0xbda26cb5	-0.079308905
212	0x3be436ab	0.0069645247
213	0x3d0900cb	0.03344802
214	0x3ceb2a4a	0.028706688
215	0xbd3949b7	-0.045236316
216	0x3a4435c0	0.0007484816
217	0xbd1807f7	-0.03711697
218	0xbc310c88	-0.01080621
219	0x3d41c26a	0.04730455
220	0x3c0cf595	0.008603473
221	0x3db3c6f4	0.08778182
222	0x3db85b2f	0.09001767
223	0x3d1bd1a2	0.03804172
224	0xbd795d76	-0.060880147
225	0xbd044582	-0.03229285
226	0xbd4815bc	-0.048848853
227	0x3ccb45d8	0.024813578
228	0x3d00a9bb	0.031411868
229	0xbce5b2b3	-0.028039312
230	0x3d871a91	0.06596864
231	0xbd81ad6d	-0.063319065
232	0xbd7c6f8b	-0.061629813
233	0xbc264284	-0.0101476945
234	0x3b9c9982	0.0047790417
235	0xbd4d3ddb	-0.050107818
236	0x3c7940bd	0.015213189
237	0x3d389ebf	0.045073267
238	0xbda3c68e	-0.07996856
239	0x3dc52159	0.09625501
240	0x3caa3dc7	0.02078141
241	0xbd1a9aff	-0.037745472
242	0x3d9adb63	0.07561376
243	0x3d05cb12	0.032664366
244	0xbcf3199e	-0.029675301
245	0x3dc9f619	0.098613925
246	0x3cdaef43	0.026725417
247	0x3b96f245	0.0046065175
248	0x3d63645f	0.055515643
249	0x3d00b5fb	0.03142355
250	0xbcb5b914	-0.022182979
251	0xbc82b2f9	-0.015954481
252	0xbd033b4d	-0.032038976
253	0xbd295f70	-0.041350782
254	0x3cec45db	0.028841903
255	0x3bfc229a	0.0076945545

fc2.bias f4 [64]
0	0x3d021a56	0.031763397
1	0x3c1146df	0.008866995
2	0xbd630774	-0.05542703
3	0x3d3942c3	0.045229685
4	0xbdbad11d	-0.091219164
5	0xbcc0a7ac	-0.023517452
6	0x3d053b8b	0.032527488
7	0x3cca8e9c	0.024726205
8	0x3dd2da71	0.10295571
9	0xbdd5930c	-0.104284376
10	0x3cc2ae45	0.023764739
11	0xbd52606e	-0.051361494
12	0xbd43e9b5	-0.047830302
13	0xbc86d4ac	-0.016458832
14	0x3ce275de	0.027644094
15	0xbd648600	-0.055791855
16	0x3dde2cc0	0.10848379
17	0x3c5e2873	0.0135594485
18	0xb9fcf909	-0.0004825073
19	0x3d243397	0.040088262
20	0x3c8366d9	0.016040253
21	0xbd8a03b7	-0.0673899
22	0x3c8756f8	0.016520962
23	0xbd62938b	-0.05531649
24	0xbdadc5b7	-0.08484977
25	0xbd2c9a24	-0.042139187
26	0xbdcad460	-0.099037886
27	0xbdaaac6d	-0.08333669
28	0xbab10ec3	-0.0013508428
29	0x3c804533	0.015657997
30	0x3b4472ce	0.0029975655
31	0xbd5f0eaf	-0.054457363
32	0x3db057b5	0.08610479
33	0xbd9aebec	-0.0756453
34	0xbd94ec73	-0.072716616
35	0xbd92bb0d	-0.07164583
36	0xbd53aa0b	-0.051675837
37	0xbdb05d1f	-0.086115114
38	0x3cc59082	0.024116758
39	0xbd80f0c4	-0.062959224
40	0x3c3cc759	0.011522138
41	0x3d42fcf1	0.047604505
42	0x3d1ebea0	0.038756013
43	0xbd82f359	-0.06394071
44	0xbc9c5ffd	-0.01908874
45	0x3cdb47cb	0.026767632
46	0x3de0ddc4	0.109797984
47	0x3ca733bc	0.020410411
48	0x3d405eed	0.04696553
49	0xbdb8949a	-0.090127185
50	0xbd83c583	-0.06434157
51	0xb891de7f	-6.955582e-05
52	0x3c92687b	0.017872086
53	0x3c9c448d	0.019075656
54	0xbd6db645	-0.058035154
55	0x3d0495fa	0.03236959
56	0x3d0a7a45	0.03380801
57	0x3c259f1a	0.010108734
58	0xbdcf1585	-0.101115264
59	0x3dd13a7c	0.10216233
60	0xbc8ac49a	-0.01693945
61	0x3dcd9660	0.100384474
62	0x3b90c153	0.0044175773
63	0xbc345a37	-0.011007837

fc3.weight f4 [32, 64]
0	0xbe088647	-0.13332473
1	0xbd1e480d	-0.03864293
2	0xbd8f4dcc	-0.069972605
3	0x3e10ad73	0.14128666
4	0xbdb4acd2	-0.08822025
5	0xbe04dab1	-0.12974049
6	0x3d40bb5f	0.04705369
7	0xbe06755f	-0.13130711
8	0x3d4ba2c6	0.04971578
9	0xbc11ab17	-0.008890889
10	0x3e116ab3	0.14200859
11	0xbad2f63c	-0.0016095112
12	0xbd519eaa	-0.051176704
13	0xbd9adcce	-0.075616464
14	0xbce1e0bf	-0.027572988
15	0xbdc80d33	-0.097681426
16	0xbd3dd2b9	-0.04634354
17	0xbda686cf	-0.081311814
18	0xbbc559de	-0.006022676
19	0x3e017fdc	0.1264643
20	0xbc045456	-0.008076748
21	0x3d90fa8e	0.070790395
22	0xbd595bca	-0.053066052
23	0x3d81ac7b	0.06331726
24	0xbda0c2a6	-0.07849626
25	0xbd1d2810	-0.038368285
26	0x3dabf75b	0.08396789
27	0x3caacf53	0.020850813
28	0x3d75fbb5	0.0600545
29	0xbdc78453	-0.09742036
30	0xbe07edef	-0.13274358
31	0x3e051e47	0.12999831
32	0xbd4bbf82	-0.049743183
33	0xbd91d5be	-0.07120846
34	0x3db39087	0.08767801
35	0x3dcb73a5	0.09934167
36	0x3df9a834	0.12190285
37	0x3daa1370	0.08304489
38	0x3ce80618	0.028323218
39	0x3de05547	0.10953765
40	0xbddea333	-0.108709715
41	0x3dde882e	0.10865818
42	0x3db24e72	0.087063685
43	0x3d64d3a8	0.055865914
44	0xbdd10f5d	-0.102080084
45	0x3dd24bbc	0.102683514
46	0xbe14d41a	-0.14534035
47	0x3e018e44	0.12651926
48	0xbdf2415d	-0.11828873
49	0x3da8a7b0	0.08235109
50	0xbdb29df3	-0.08721533
51	0xbe152030	-0.1456306
52	0x3dcd6f03	0.100309394
53	0x3c1c8db2	0.009555267
54	0xbd1aa412	-0.037754126
55	0x3d6f1de8	0.05837813
56	0x3da8e9e6	0.082477376
57	0xbd85550e	-0.065103635
58	0x3d83ae38	0.06429714
59	0xbbab8749	-0.005234633
60	0x3d9f9ff4	0.077941805
61	0xbda19782	-0.07890226
62	0xbd803df0	-0.06261814
63	0xbd8f311c	-0.06991789
64	0x3d368676	0.044561826
65	0x3d4f62ef	0.05063146
66	0xbdb8c706	-0.09022336
67	0xbd310558	-0.043217987
68	0x3c306c88	0.010768063
69	0x3dcc8a5e	0.09987329
70	0x3e2a4708	0.16628659
71	0x3e1ad983	0.15122037
72	0x3c36bb6e	0.011153085
73	0xbdf884a9	-0.12134678
74	0x3e226e21	0.15862323
75	0x3d5263a3	0.051364552
76	0x3d3f3770	0.04668373
77	0x3c729a5b	0.014807309
78	0xbc10896d	-0.008821827
79	0x3d0d885e	0.034553878
80	0x3d96c2c4	0.07361367
81	0x3c83cc98	0.016088769
82	0x3e1831fb	0.14862816
83	0xbd457cd0	-0.048214734
84	0x3d4c1595	0.04982527
85	0x3cd2b110	0.025719196
86	0x3db5757a	0.088602975
87	0xbca92aa7	-0.020650221
88	0x3c50f9e3	0.01275489
89	0xbe005f28	-0.12536299
90	0x3d65d226	0.056108616
91	0xbdad0465	-0.08448104
92	0xbbe5f68d	-0.0070179165
93	0xbbae6130	-0.0053216442
94	0xbdf39d1d	-0.11895201
95	0x3d5d377d	0.054007996
96	0x3d26ad17	0.040692415
97	0x3d1eea41	0.03879762
98	0x3d09874e	0.033576302
99	0xbd413a07	-0.04717448
100	0xbb9ff3c6	-0.004881355
101	0xbe1d971f	-0.1538968
102	0x3e2473fc	0.1605987
103	0xbe0e17cc	-0.13876265
104	0x3dabf90e	0.08397113
105	0xbd3daa97	-0.046305265
106	0xbdae55c8	-0.08512455
107	0xbd19444a	-0.03741864
108	0x3cafa4bd	0.021440858
109	0x3dd3fab0	0.10350549
110	0xbc3560ee	-0.011070473
111	0xbe12d330	-0.14338374
112	0x3e2aeeb1	0.16692616
113	0x3ce77382	0.02825332
114	0x3d9d2135	0.07672349
115	0x3d05c71f	0.0326606
116	0xbe23b451	-0.15986754
117	0x3d74e78d	0.059791137
118	0x3dfeb812	0.124374524
119	0xbd9ad3ed	-0.07559953
120	0x3ce85120	0.028358996
121	0xbd0ba901	-0.03409672
122	0xbb0611c2	-0.0020457362
123	0x3cfe4427	0.031038357
124	0xbe2c4049	-0.16821398
125	0x3e1a9df4	0.15099317
126	0x3d5a2555	0.05325826
127	0xbd52006f	-0.051269945
128	0xbe05d85e	-0.13070819
129	0xbd675165	-0.05647411
130	0x3df5d3fe	0.12003325
131	0x3d0fbfcf	0.035095032
132	0xbc442575	-0.011971821
133	0x3cde2b62	0.027120296
134	0xbe149608	-0.14510357
135	0xbbdf9c46	-0.006824049
136	0xbce03863	-0.027370637
137	0x3d94da9c	0.07268259
138	0x3d7aa68c	0.061193988
139	0x3d8da0cb	0.069154344
140	0xbc628482	-0.013825538
141	0x3dbd8d33	0.09255447
142	0x3e03672a	0.12832323
143	0xbb7705c1	-0.0037692639
144	0xbd109628	-0.03529945
145	0xbd93caba	-0.072164014
146	0x3b945bf7	0.0045275646
147	0x3c9da342	0.019242886
148	0x3c57aad1	0.013163284
149	0x3e0aabf2	0.13542154
150	0xbd712a01	-0.05887795
151	0x3ca4d5d3	0.02012149
152	0x3dcf1094	0.10110584
153	0x3d260bb6	0.040538512
154	0xbdacda5c	-0.08440086
155	0x3c48c26d	0.012253386
156	0x3d150d02	0.03638936
157	0xbd133411	-0.035938326
158	0x3da474f3	0.08030119
159	0xbde74be5	-0.112937726
160	0xbd23dd49	-0.040005956
161	0x3cdbc02b	0.026825031
162	0xbdd073e7	-0.101783566
163	0x3d8b032c	0.06787714
164	0x3dc4df89	0.096129484
165	0x3e0f51e8	0.13996089
166	0x3b157ed1	0.0022811184
167	0x3e006b15	0.12540849
168	0xbde40cdf	-0.111352675
169	0xbd191d90	-0.03738171
170	0xbd75886b	-0.05994455
171	0xbd8e8441	-0.06958819
172	0xbb7d60a7	-0.0038662346
173	0xbdba4b6a	-0.09096415
174	0xbe11ce86	-0.14238939
175	0xbb1d43c9	-0.0023996702
176	0xbda26988	-0.07930285
177	0xbd21bcb3	-0.0394866
178	0xbbcbd2c7	-0.006220195
179	0xbdcacfc9	-0.09902913
180	0xbd1fe8ce	-0.03904038
181	0xbcbdb24a	-0.023156304
182	0xbe09104f	-0.13385127
183	0xbd34732e	-0.044055156
184	0xbe12b61b	-0.1432728
185	0xbcedf06e	-0.02904531
186	0x3d5dd956	0.054162346
187	0xbe0a09d0	-0.13480306
188	0x3d1491e9	0.036271963
189	0xbe061222	-0.13092855
190	0xbdafe65b	-0.08588859
191	0xbdf2ec74	-0.11861506
192	0x3cc7241d	0.024309212
193	0x3e09bdbb	0.13451283
194	0xbdbf67c6	-0.09345965
195	0x3d320f32	0.043471523
196	0xbd1edd96	-0.03878554
197	0x3d871a7d	0.06596849
198	0x3c38bc96	0.011275431
199	0x3d964e1b	0.07339116
200	0x3d81b56a	0.0633343
201	0xb80392d8	-3.1369593e-05
202	0x3c43fd87	0.011962301
203	0xbcb3aaa8	-0.021931961
204	0x3cdede8c	0.027205728
205	0x3d74c755	0.05976041
206	0x3b895f29	0.004192252
207	0xbc892e50	-0.016745716
208	0x3e16d9fa	0.14731589
209	0x3e07c68e	0.13259336
210	0xbd5ecef3	-0.05439658
211	0x3c9bfae3	0.01904053
212	0x3d3cd5de	0.046102397
213	0xbe1e0485	-0.15431412
214	0x3e1c6e08	0.15276349
215	0xbcee5d59	-0.029097246
216	0xbde79fca	-0.11309774
217	0xbd4807ee	-0.048835687
218	0xbdc33059	-0.09530706
219	0x3d60f58a	0.054921664
220	0xbc8a420a	-0.016877193
221	0xbdfd3a8d	-0.12364683
222	0x3d55e032	0.052215762
223	0x3de7e481	0.113228805
224	0xbd8cfe7e	-0.06884478
225	0xbe11e1ce	-0.14246294
226	0xbc58da7d	-0.013235685
227	0xbe143d2d	-0.14476462
228	0x3cad03ba	0.021119941
229	0xbbe74cbf	-0.0070587094
230	0xba119962	-0.0005554167
231	0x3d9be4fc	0.07612035
232	0xbd58c575	-0.052922685
233	0xbd33e2e5	-0.043917555
234	0x3c01ebe7	0.007929779
235	0x3dbd65a2	0.092479005
236	0xbdc90113	-0.09814658
237	0x3e1161cc	0.14197463
238	0x3d52b79e	0.051444642
239	0xbd2392f3	-0.039935064
240	0x3d359df0	0.044340074
241	0x3dc712ac	0.09720358
242	0x3d57fab6	0.05272933
243	0xbdb7f67e	-0.089825615
244	0x3d1bd9af	0.038049396
245	0x3d0691e0	0.03285396
246	0x3c997a58	0.018735096
247	0x3e13064a	0.14357868
248	0x3c8a98c7	0.016918553
249	0x3c36407f	0.0111237755
250	0xbe1be383	-0.15223508
251	0xbd0135e4	-0.031545535
252	0xbde57e91	-0.11205781
253	0x3d4e40ae	0.050354652
254	0xbcc384a1	-0.023866953
255	0x3e1a99f2	0.15097788

fc3.bias f4 [32]
0	0x3d5b5143	0.053544294
1	0xbbabead9	-0.005246502
2	0xbd91bebf	-0.0711646
3	0x3d9d7487	0.076882415
4	0x3dad80cc	0.08471832
5	0x3d90f917	0.0707876
6	0xbbd9c439	-0.006645706
7	0xbd11b9d8	-0.035577625
8	0xbd22a671	-0.039709512
9	0xbd9041dc	-0.07043812
10	0xbdc11d3c	-0.09429404
11	0x3dce397e	0.100695595
12	0xbde9a545	-0.11408476
13	0xbbf61e5f	-0.0075109447
14	0x3da05145	0.07828001
15	0x3d034572	0.03204865
16	0x3dee2e00	0.116298676
17	0xbda4d45a	-0.08048315
18	0x3c1221c6	0.008919185
19	0x3d0a5d7a	0.033780552
20	0x3d33c298	0.04388675
21	0xbd88647a	-0.066597894
22	0xbddcc32f	-0.10779416
23	0x3d709758	0.058738083
24	0x3d578c51	0.05262405
25	0x3e0617b8	0.13094985
26	0xbd56b717	-0.0524207
27	0xbc067e50	-0.008208826
28	0x3df86e4a	0.12130411
29	0x3dc781b3	0.09741535
30	0xbcf2117e	-0.029549357
31	0xbdc57371	-0.09641159

fc4.weight f4 [5, 32]
0	0xbd3fb316	-0.04680165
1	0xbddf69b1	-0.10908831
2	0x3e232221	0.15930988
3	0xbe1b7218	-0.15180242
4	0x3cefcd4d	0.0292727
5	0xbd9ebe0b	-0.077510916
6	0xbe4cc68b	-0.19997613
7	0x3d308666	0.043096922
8	0x3dee0108	0.116212904
9	0xbd05753d	-0.03258251
10	0xbdafbb46	-0.085806414
11	0xbcc5c1d5	-0.024140278
12	0x3e324840	0.17410374
13	0xbd9e9662	-0.07743527
14	0x3dac7f7a	0.08422752
15	0xbe1b7227	-0.15180264
16	0xbe0450c0	-0.12921429
17	0x3e16af5d	0.14715333
18	0xbda2c08f	-0.07946884
19	0x3e4d86d3	0.20070963
20	0x3e3b99bd	0.18320365
21	0xbe49a4ce	-0.19691774
22	0x3e2b9ca3	0.16758971
23	0x3df56d65	0.11983756
24	0x3e2d23f1	0.16908242
25	0x3e03436f	0.12818693
26	0x3e163896	0.14670023
27	0xbdbe2591	-0.09284509
28	0xbe193954	-0.14963275
29	0xbe3d538e	-0.18488905
30	0xbb263304	-0.0025359998
31	0xbc50ebee	-0.0127515625
32	0xbd8f4bc9	-0.06996877
33	0x3e174778	0.14773357
34	0xbe024113	-0.12720136
35	0xbc88aea0	-0.01668483
36	0xbd7c7b13	-0.06164081
37	0x3d531668	0.05153504
38	0xbc552e9f	-0.013011604
39	0xbc9d0a49	-0.019169943
40	0xbd6a35a6	-0.05718007
41	0x3e19cefe	0.15020368
42	0xbe049943	-0.1294909
43	0x3dd3a7c6	0.103347346
44	0x3e142ada	0.14469472
45	0x3e224c83	0.158495
46	0x3e2b0791	0.16702105
47	0xbe471079	-0.19439878
48	0x3de6531a	0.11246319
49	0x3c0b2df9	0.008494847
50	0x3da31698	0.07963294
51	0x3d99cd8d	0.07509909
52	0xbcabde8a	-0.020980138
53	0xbe06ec70	-0.13176131
54	0xbc6147e7	-0.013750053
55	0x3cd2819e	0.025696572
56	0x3dff5947	0.124682
57	0xbd1de5ea	-0.03854934
58	0x3d3a56e6	0.04549303
59	0xbdea7d5d	-0.114496924
60	0xbe06b1e3	-0.13153796
61	0x3def6741	0.11689616
62	0xbde7cede	-0.11318754
63	0x3dec8b81	0.11550046
64	0x3dc39ef3	0.095518015
65	0xbbef3ac9	-0.007300709
66	0x3ca3e9fb	0.020009032
67	0x3e2394fc	0.15974802
68	0xbc98df7d	-0.018661255
69	0xbe3a4a22	-0.18192342
70	0xbdc0030e	-0.09375583
71	0xbcdee74f	-0.027209906
72	0x3ba649c5	0.005074712
73	0x3bf55b71	0.0074877073
74	0x3d648425	0.055790085
75	0xbdbfe1d5	-0.09369246
76	0x3de2fe8d	0.11083708
77	0xbdd9a115	-0.10626427
78	0xbd7599b1	-0.059961025
79	0x3dcd572d	0.10026393
80	0x3e432eb4	0.19060785
81	0x3de95374	0.113928705
82	0x3e32c38a	0.17457405
83	0xbd60419c	-0.05475007
84	0xbd3ecf11	-0.046584193
85	0xbe410d1a	-0.18852654
86	0xbc119747	-0.008886165
87	0xbca53918	-0.020168826
88	0xbd749827	-0.059715416
89	0x3dd3e7b0	0.10346925
90	0xbdd45bf8	-0.10369104
91	0x3c318bb7	0.010836533
92	0xbc842491	-0.016130717
93	0xbd85aab0	-0.06526697
94	0xbe3bbf0a	-0.18334594
95	0x3d6e5ae6	0.058192156
96	0xbe06bf17	-0.13158832
97	0x3df29e11	0.11846555
98	0x3daf122c	0.08548388
99	0xbc6674ae	-0.014065905
100	0xbe10e876	-0.14151177
101	0xbb089f33	-0.0020846843
102	0x3bae61f0	0.0053217337
103	0xbbe3682b	-0.006939908
104	0xbe018bff	-0.1265106
105	0xbe50fd11	-0.20409037
106	0x3d819927	0.063280396
107	0x3e30592d	0.17221518
108	0xbd84b2a0	-0.064793825
109	0x3de92848	0.11384636
110	0x3e0fbdea	0.1403729
111	0xbdf7721b	-0.12082311
112	0xbe0e0828	-0.13870299
113	0xbdfa6354	-0.122259766
114	0xbe09653f	-0.13417529
115	0x3e436c9e	0.19084403
116	0x3e361705	0.17782219
117	0xbe2e9e3f	-0.17052554
118	0x3d6b6c1c	0.057476148
119	0xbd635825	-0.055503983
120	0xbdd18019	-0.10229511
121	0xbe390526	-0.1806837
122	0xbd57cdba	-0.05268643
123	0x3e000775	0.12502845
124	0x3d7e9ba9	0.062160168
125	0x3c74f882	0.014951827
126	0xbc3d119f	-0.011539846
127	0x3e0f7fab	0.14013545
128	0xbdcb581f	-0.09928917
129	0x3e2664ba	0.16249362
130	0xbe140bc6	-0.14457616
131	0x3e5fb7b2	0.21847418
132	0xbe2323e2	-0.15931657
133	0x3e060ab4	0.1309002
134	0x3d272fe3	0.040817153
135	0xbe02b74c	-0.12765235
136	0xbdf6a3bf	-0.12042951
137	0x3e1c3945	0.15256222
138	0x3e62a0f4	0.22131711
139	0xbe45b2c5	-0.19306476
140	0xbe19ddc7	-0.15026008
141	0xbe44cf60	-0.19219732
142	0xbd8be38d	-0.06830511
143	0x3e48c782	0.19607356
144	0xbd8ce99f	-0.06880497
145	0xbd8dcf35	-0.06924287
146	0xbe3c3d00	-0.18382645
147	0x3d80484c	0.062637895
148	0xbe0de7e1	-0.13857986
149	0x3e176023	0.14782767
150	0xbe04eb85	-0.12980469
151	0xbe1238cd	-0.1427948
152	0xbe54f9dc	-0.20798439
153	0x3e41ce36	0.1892632
154	0xbc860c42	-0.016363267
155	0xbe456e42	-0.19280341
156	0x3d6d9530	0.058003604
157	0xbd88ce0a	-0.06679924
158	0x3e59ce1d	0.21270032
159	0xbe4455ac	-0.19173306

fc4.bias f4 [5]
0	0x3e0cb657	0.13741432
1	0xbd5cdeb6	-0.05392333
2	0xbc976ef4	-0.018485524
3	0x3d44a126	0.048005246
4	0xbddd1005	-0.10794071
