clean_code/trained_models/actor_84.pth (torch, 54860 bytes, 8 tensors)

fc1.weight f4 [128, 18]
000000 54 80 0b 3e 62 0f 92 3d 7b 24 27 be 2b 27 32 3e
       0.13623172 0.0713184 -0.1632251 0.17397754
000010 dd 9b d8 3d 4a 82 a9 bd f2 96 55 3c bf 2f a3 3b
       0.105766036 -0.08276804 0.013036476 0.004980057
000020 5a 6c a1 3d 4a 67 94 bd ef 59 27 be 80 12 17 bc
       0.078819945 -0.07246263 -0.163429 -0.009220719
000030 e6 ce 50 3e e2 46 a9 3d 33 1b 1e 3e d6 16 be bc
       0.20391425 0.08265473 0.15440063 -0.023204248
000040 40 4f 7d be 3b 2c 7e 3e d4 72 e6 3d a6 25 14 3e
       -0.24737263 0.2482156 0.112523705 0.14467487
000050 78 bc 8e 3d 8c 72 cf bd d4 8d 40 3d 48 46 26 bd
       0.06969541 -0.1012927 0.047010258 -0.04059437
000060 00 80 fd 3d 17 d7 36 3e a2 b7 9d 3d 59 bd 0c 3d
       0.1237793 0.17855488 0.07701041 0.034360263
000070 14 7f 00 3e 1f c7 01 3e 47 d2 3c be 24 32 0c be
       0.12548476 0.12673615 -0.1843959 -0.13691002
000080 4b 1b b7 bd 07 eb 09 3d 9e 29 31 be 03 b2 ee 3c
       -0.089407526 0.033671405 -0.17301032 0.029137617
000090 f1 f8 0e 3e 47 66 9d 3d 16 17 20 be e8 12 50 3d
       0.13962151 0.076855235 -0.15633807 0.05079928
0000a0 16 dd 41 be ee b7 b2 3c d7 c3 3a 3e 97 66 10 3e
       -0.18931994 0.02181622 0.1823877 0.14101635
0000b0 a9 73 94 bd c4 a5 3a be b8 3d ed bd b3 ac 2c 3e
       -0.07248623 -0.18227297 -0.115840375 0.16862755
0000c0 b2 39 81 3e 82 69 c5 3d 51 09 82 3d f8 19 0c be
       0.2523933 0.09639265 0.06349433 -0.13681781
0000d0 18 79 36 3e 73 02 46 3d 0c 04 0a 3e 46 6d 11 bd
       0.17819631 0.04834218 0.13478106 -0.035504602
0000e0 18 04 2d 3e 70 87 f7 3c d0 6c 37 be c6 e4 05 be
       0.16896093 0.030215949 -0.17912602 -0.13075551
0000f0 02 a7 40 be fd 4d 3a be b3 13 f7 bd 19 21 27 3e
       -0.18813708 -0.18193813 -0.12064304 0.1632122
000100 a5 15 d0 3d c4 8e d0 bd 9f d8 58 3e 77 19 3e 3e
       0.10160378 -0.101834804 0.21176384 0.18564402
000110 50 da 29 bc 99 5c 27 be 30 87 2a 3e ee 46 55 bd
       -0.010366991 -0.16343917 0.16653132 -0.052069597
000120 6c 5e b6 bd 4c 7f 64 3e 41 e4 27 bd b8 7b 5b be
       -0.08904728 0.22314185 -0.040989164 -0.21433914
000130 1d a8 4e 3e 53 25 17 3e 6a 43 dc bd 73 b8 7d 3e
       0.20181318 0.14760332 -0.10755046 0.24777393
000140 aa 82 1d bd 17 b7 13 3d ca ce 5e 3d 57 12 b7 3d
       -0.03845469 0.03606328 0.05439643 0.08939045
000150 cf 5c 83 3c f4 29 06 be 74 57 7a 3e 3a b8 0e 3e
       0.016035466 -0.13101941 0.24447423 0.13937464
000160 77 68 1a be 03 1f 54 3e dd 36 86 3d 14 aa ab bd
       -0.15078913 0.20714955 0.06553433 -0.08382049
000170 3b d7 88 3c 1f 78 22 3e e5 2d 55 3e 45 a7 6a bd
       0.016704192 0.15866135 0.20818289 -0.057288427
000180 d2 f0 e7 bd 95 6e 2c bd a9 5b 85 3d c8 c9 44 be
       -0.1132523 -0.042097647 0.065116234 -0.19217598
000190 2d 79 4f bd 2b d2 10 3e f6 13 4d be df ba 52 3e
       -0.05065267 0.14142673 -0.20027146 0.20579098
0001a0 f1 9b 25 be 17 8d 40 3e f6 43 ea 3c a1 ac 42 3e
       -0.16172768 0.18803822 0.02859686 0.19011165
0001b0 f5 76 19 3e 4b 07 76 be af f1 1b 3e ab 11 01 be
       0.14986785 -0.2402622 0.15228914 -0.12604396
0001c0 58 d8 cf 3d 62 d1 37 3e f5 21 3c 3e 04 73 b4 3d
       0.10148686 0.17950967 0.18372329 0.08811
0001d0 2d fb 2e be a3 e7 1c 3b 4f f5 60 be af f5 94 bc
       -0.17088003 0.0023941777 -0.21968578 -0.018183557
0001e0 c2 f4 5e be 60 a7 1f bc 19 8b 03 be 88 34 8c 3d
       -0.21773055 -0.009744495 -0.1284603 0.06845957
0001f0 53 7d 68 be 93 78 71 bb 78 f0 82 3c 88 e3 11 3e
       -0.22704057 -0.003684555 0.015983805 0.14246953
000200 89 89 58 be 1e 4f 63 be c7 4c 16 be a0 e7 99 3d
       -0.21146215 -0.2219815 -0.14677726 0.07514882
000210 04 26 47 3e 9c bb 10 be 4c 85 27 3e 31 0c 42 be
       0.19448096 -0.14134067 0.16359442 -0.18949963
000220 1a 8d 23 3e c3 87 2c 3e c5 30 fd bc c8 f3 c9 3c
       0.15971795 0.16848664 -0.030907044 0.024652377
000230 67 d8 18 3e f2 08 e6 bc 55 ac 16 3d 12 24 1b be
       0.14926301 -0.028080437 0.036785442 -0.15150478
000240 48 cb ad 3c 39 5a 89 bd 76 ef 63 bd 36 49 41 3e
       0.021215096 -0.06706662 -0.05564829 0.18875584
000250 45 59 3f bd f0 44 5c be 56 f6 ab bd eb 88 2a be
       -0.046715993 -0.21510673 -0.08396594 -0.16653793
000260 88 b2 de 3c 42 07 54 be b1 40 a9 bd 23 c7 6d be
       0.02718474 -0.20705894 -0.08264292 -0.23220496
000270 96 d0 32 3e 97 ab 57 be 76 bb d7 bd 87 9a 03 be
       0.17462382 -0.2106155 -0.10533802 -0.12851916
000280 40 fa 81 3d c0 31 2b 3e 88 44 05 3e 32 94 52 3e
       0.063465595 0.16718197 0.13014424 0.20564345
000290 72 85 5a 3e 87 07 ba bd bc cf d2 3d d9 d9 74 be
       0.21339968 -0.09083467 0.102935284 -0.23911227
0002a0 f2 e6 52 3e 3c 95 f7 3d ec 3a a8 bd 8d b0 4e 3e
       0.20595911 0.12089011 -0.082143635 0.20184536
0002b0 12 f9 a6 3d d3 0e 5f 3e 73 93 1d 3e 4f ba f4 bd
       0.08152975 0.21782999 0.15388279 -0.11949598
0002c0 aa 58 80 bd 24 56 2a 3e e4 c1 45 be d8 c0 f5 bd
       -0.06266911 0.16634423 -0.19312245 -0.11999673
0002d0 ce d2 be bd 31 88 31 be ec ae 13 be 6a 35 2e be
       -0.093175516 -0.17337109 -0.14422196 -0.17012563
0002e0 87 68 f3 3d e3 05 f7 3d 40 de 3d 3c 92 6f 08 3e
       0.118851714 0.1206167 0.011588633 0.1332381
0002f0 25 ad 0b 3d af 77 d5 3c 6d 52 ee 39 04 23 b3 3d
       0.03410067 0.026058046 0.0004545631 0.08746913
000300 b7 f8 27 be f0 c4 6e bd 6b 2d 69 be 1b 33 00 be
       -0.16403471 -0.058293283 -0.22771232 -0.12519495
000310 db 96 1a 3e 8d 98 29 3d 5a ba 8f bd 0d 23 3a 3e
       0.1509661 0.04140525 -0.070179656 0.18177433
000320 21 7c 16 bd 84 f1 0c be 26 4e 08 be 32 5e 3e 3e
       -0.036739472 -0.13764006 -0.13311061 0.1859062
000330 e9 c6 7b 3d 19 84 2f 3e 47 37 de 3c b3 c3 a3 bd
       0.061468992 0.17140235 0.027125968 -0.07996311
000340 47 e9 db 3d 63 6c c3 3d d4 3d 57 bc 68 11 09 bd
       0.107378535 0.095421575 -0.0131373 -0.033463866
000350 3d d3 c8 bd 9d 54 b2 3d 60 13 50 be fd 42 62 3e
       -0.098059155 0.08707545 -0.20319891 0.22095867
000360 df d8 d4 bd 01 2b af bd 36 32 11 3e ee 2d e7 bd
       -0.103929274 -0.08553124 0.1417931 -0.11288057
000370 96 79 57 be 91 ee 31 bd 0c 50 5b be 44 eb 91 3c
       -0.21042475 -0.043440405 -0.21417254 0.017812379
000380 78 d1 41 be d1 17 30 be f4 2d 24 bd 74 91 3b 3e
       -0.18927562 -0.17196585 -0.040082887 0.18317205
000390 39 10 12 be c0 57 4c bb a4 6c 9b 3d 41 a2 e0 bd
       -0.14264001 -0.0031180233 0.07589081 -0.109684475
0003a0 e2 ac 14 3e 68 58 18 3e fb ea 7b 3e 64 57 d9 bd
       0.14519075 0.14877474 0.24601357 -0.106123716
0003b0 05 5c 6e 3d 83 a6 93 bd c6 f1 15 3b 82 37 2b 3d
       0.058193225 -0.07209494 0.0022879704 0.041800983
0003c0 63 0d 48 3e c9 dd 4a 3e 33 61 1f 3e fc ff 6d 3e
       0.19536357 0.19811167 0.15564422 0.23242182
0003d0 af b8 49 bd 0a 1b 3e 3d f3 a6 46 be 6f ac fc bd
       -0.049248394 0.046412505 -0.19399624 -0.123375766
0003e0 55 9d 8c 3c 44 d5 24 bc 19 82 67 bd 79 dd c2 bd
       0.017164866 -0.010060612 -0.056520555 -0.09514899
0003f0 00 e5 4e 3e 1f b1 91 bd 5c 40 f9 bb 51 dc 71 3c
       0.20204544 -0.07113861 -0.007606549 0.014762

fc1.bias f4 [128]
000000 b5 ca 08 3e bd 14 0c 3e 1e 04 1a 3e 07 be 3f 3e
       0.13358577 0.13679786 0.15040633 0.18724833
000010 b8 b7 3c 3c 7c 29 54 3d 14 8f 4f 3d fb ed e1 bd
       0.011518411 0.051797375 0.05067356 -0.11031719
000020 9d ab 01 3e 1e 3d 4c be 66 e4 46 be 9b 50 63 3e
       0.12663122 -0.1994519 -0.19423065 0.22198717
000030 aa 19 21 3e 5a 4a a0 bd 3b 3e 91 3d 8b 23 62 3e
       0.15732446 -0.078266814 0.07091948 0.22083871
000040 ca ba 67 bb 3b d9 44 3e 9c 20 1d be bc 39 b5 3d
       -0.0035359138 0.19223492 -0.1534447 0.088489026
000050 c2 8f 32 3e 67 11 ca 3d b0 e4 27 be d8 e6 32 3d
       0.17437652 0.098666005 -0.16395831 0.04367718
000060 30 f8 65 be e0 12 c2 3d 82 4e f2 3b e4 7c 33 3e
       -0.22457957 0.09476256 0.0073946128 0.1752811
000070 95 6d 66 bd 87 e7 96 3d 2a 1f 37 bc 7a 37 39 be
       -0.05625685 0.07368379 -0.011176864 -0.18087569
000080 47 c0 32 3d 78 e8 6b 3e e5 ee dc 3d 56 c3 cf bd
       0.0436404 0.23037899 0.10787753 -0.10144679
000090 fd bd c8 bd ef 1a fa 3c 36 fe 6f 3e 59 05 25 be
       -0.098018624 0.030530421 0.23436818 -0.16115321
0000a0 a5 96 27 bc 64 c6 54 3e 49 9a 08 be 79 3c 60 3e
       -0.010228788 0.20778805 -0.13340105 0.21898068
0000b0 40 17 8e bd 12 af 46 3e 04 14 7a 3e 2d e8 c5 3d
       -0.06938028 0.19402722 0.24421698 0.09663425
0000c0 94 4f 7c 3e 20 dc 09 be 7b 31 ae 3d 6f c4 7e bd
       0.24639732 -0.13462877 0.085055314 -0.062199052
0000d0 14 e9 1f be 60 e6 80 be a0 7d 2d bd b6 47 78 3e
       -0.15616256 -0.25175762 -0.042356133 0.24246106
0000e0 4b 1f b9 3c 5a 52 6d 3e 15 5a 25 be df 34 fe bb
       0.02259793 0.23175946 -0.16147645 -0.0077577676
0000f0 5c 4c 77 bd de b6 70 3e 91 ec 0c bc f9 cd 16 be
       -0.060375556 0.23507258 -0.008601324 -0.1472701
000100 9c 62 e0 3d 55 53 3d be 0b a6 27 3c 87 3d cf 3d
       0.10956308 -0.1848882 0.010232459 0.10119157
000110 6a db a4 bd 3c e9 27 3e 3c e9 71 3e 78 7a 74 3d
       -0.080496624 0.16397566 0.23624128 0.059687108
000120 d4 5b fd bd 5b a3 2e 3d 3a 87 25 be 00 d7 18 3e
       -0.123710304 0.042636257 -0.16164866 0.14925766
000130 e7 f4 40 3e bf 9b 15 bb da 7a 54 3e 22 7f 12 3e
       0.18843423 -0.0022828428 0.20749989 0.1430631
000140 82 0f 86 3d 13 9b 14 be 47 55 6c be b7 a9 17 be
       0.06545927 -0.14512281 -0.23079406 -0.14810835
000150 b6 d7 df 3d 63 d6 0e 3e 03 05 a0 bd 25 e4 2d bd
       0.109298155 0.1394897 -0.07813456 -0.042453904
000160 16 2f ec bd da f8 ab 3c 76 f1 eb 3d d9 db 01 bd
       -0.115324184 0.020992685 0.115206644 -0.031703804
000170 0f d4 e8 3c d9 1e 5f 3e d0 ab 10 3e c7 8d 80 be
       0.02842143 0.21789111 0.14128041 -0.25108168
000180 8e d8 03 3e a9 f4 43 be ae ec 2f be fd 88 87 3d
       0.12875578 -0.19136299 -0.1718013 0.06617925
000190 55 ba 23 3e 4a 91 3f be fa 38 0b 3e d6 11 2f bd
       0.15989049 -0.18707767 0.13595954 -0.04274162
0001a0 b2 e3 1a 3e 86 73 4e 3e 99 2b 25 3d e4 ed 19 be
       0.15125921 0.20161256 0.04032478 -0.15032154
0001b0 87 2c 32 3e 81 ae f6 3d d6 e8 a2 bd 22 f1 16 bd
       0.17399798 0.12045003 -0.07954566 -0.036851056
0001c0 f4 8a f2 bb 4a 9f 50 3e 94 1e 25 be 12 c5 72 3e
       -0.0074018184 0.20373264 -0.16124946 0.23707989
0001d0 81 f8 09 be 68 a3 39 be fd 35 19 be 68 ff 4f 3e
       -0.13473703 -0.18128741 -0.14962001 0.20312274
0001e0 09 59 4d 3d e0 1c b7 3c a9 db 17 3e 26 8f 3d 3d
       0.05013374 0.022352636 0.14829887 0.046279095
0001f0 f4 c4 66 be 10 a2 21 3e bd 6a 96 3d c7 32 09 be
       -0.22536069 0.15784478 0.073445775 -0.13398276

fc2.weight f4 [64, 128]
000000 4f 1b 8a 3d c7 ce 30 bd 6d aa 5b 3c f5 41 11 3c
       0.0674349 -0.04316595 0.013407332 0.008865823
000010 c5 58 4b 3d d2 8f 00 3d b2 7a 66 3d 81 e6 6b 3d
       0.049645204 0.031387158 0.056269355 0.057592873
000020 1f c7 0d 3d 30 5d 25 bd b4 82 9f 3c 01 9f 78 3d
       0.034613725 -0.040372074 0.019471504 0.060698513
000030 24 4e 9b bc 3a fa b1 bc 84 87 95 3c 84 df 64 3c
       -0.018958159 -0.021725763 0.018253095 0.013969306
000040 8c 55 54 ba 18 93 46 bc a5 58 ec bc 84 f4 04 3d
       -0.00080999057 -0.012120031 -0.028850863 0.03245975
000050 01 7b 33 3d 88 57 97 bd 7d d5 a8 3d 86 32 5c bd
       0.043818478 -0.07389742 0.08243845 -0.05375912
000060 23 74 88 3d 3c 4e e3 3c 99 a1 44 3a a7 bc 9a 3d
       0.06662776 0.027747266 0.00075008866 0.07555514
000070 35 9e d3 bd da d8 e6 b9 a5 c5 57 3d 6b c8 6c 3d
       -0.1033291 -0.00044030586 0.052678723 0.05780832
000080 8a b3 39 bd ed c9 ef 3c 9e e4 6f bd ce fb c0 3d
       -0.045337237 0.02927109 -0.058567636 0.09423028
000090 4c 29 4d bd 71 60 db 3a 64 27 19 bd 21 e1 8a 3d
       -0.050088212 0.0016737116 -0.03739108 0.06781221
0000a0 60 84 bd 3d b7 40 37 3d 50 d1 ae bc 0a 59 9e 3b
       0.09253764 0.04473945 -0.021340042 0.0048323916
0000b0 f1 0c c2 bd 96 cc ba 3d bc 69 81 3c 06 ea 84 bd
       -0.094751246 0.09121053 0.015797488 -0.06489949
0000c0 cc f8 38 3d cb f0 b1 3d 19 84 2e bc 68 ac 8f bd
       0.045159146 0.08688506 -0.010651612 -0.07015306
0000d0 86 be 87 3c 22 fb 2d bd 84 df 86 3d 7e b3 32 bd
       0.01657034 -0.042475827 0.06585601 -0.04362821
0000e0 a1 b8 d3 3b 20 a4 e4 bc 32 aa 47 bd bb bf df 3c
       0.0064612185 -0.027910292 -0.048746295 0.027313104
0000f0 9f 63 b2 3d 8d 97 8c bd 19 56 7e bd 1d 8d 6d 3d
       0.087104075 -0.068648435 -0.062093828 0.057995904
000100 79 27 4e 3d e9 34 72 3d 57 81 93 3d 25 18 88 bd
       0.050330613 0.05913249 0.07202404 -0.0664523
000110 3d cb 58 bd 05 8f 83 bd 79 5a 8f bc 04 9c 80 3d
       -0.052928198 -0.06423763 -0.017499195 0.062797576
000120 5f da f7 bc b0 a8 8c bc c0 e7 b4 3c fd f7 e3 3b
       -0.030255495 -0.01717028 0.022083163 0.0069570527
000130 4b ad 86 3d bb e0 d0 bc c7 1a ae 3d 82 d8 bc 3d
       0.06576022 -0.025497785 0.08501201 0.09220983
000140 b1 98 5b 3b dc 5b 9a bc 5d 99 9b bd 3f 04 6f bd
       0.003350776 -0.01884263 -0.07597611 -0.05835366
000150 91 9b 73 3b ff ab c2 bd 5b 94 d1 bd 78 ca 9c 3d
       0.0037171582 -0.09505462 -0.10233375 0.07655805
000160 40 96 a8 bd b7 30 59 3d bc a0 c1 3c ca cf 60 3d
       -0.08231783 0.053024974 0.023636214 0.054885663
000170 f0 73 30 bc 1e b2 15 bc 85 87 ae 3d d7 8a 2c bd
       -0.010769829 -0.009136705 0.08521942 -0.042124595
000180 27 5c 70 3c 57 1e 34 3c eb be c2 bd ae ac 3e 3d
       0.014670408 0.010993562 -0.09509071 0.0465514
000190 79 cb 91 bb 6e 0f e8 3c 59 44 05 3c 47 b9 0c bc
       -0.0044493047 0.02832767 0.008133971 -0.008589095
0001a0 a9 2f 2a 3d 9d 0e 2c bd 8f e7 d0 bc 56 2b b4 bd
       0.04154936 -0.042006124 -0.02550104 -0.08797328
0001b0 2c 5b bc bc c0 b1 11 bd bc a9 d1 bd 93 ba 84 bd
       -0.022992693 -0.035569906 -0.102374524 -0.06480899
0001c0 f3 7f 1f bd a8 a2 2d 3d ad a6 10 bd 19 3d 99 3d
       -0.03894038 0.04239145 -0.035315204 0.074823566
0001d0 90 eb a5 bd a8 ee 0a 3d b4 6f 8f bd aa 00 5a 3d
       -0.081015706 0.033919007 -0.070037276 0.05322329
0001e0 d1 d2 80 3d db 79 0f 3d 0e 56 e2 3c 1f be 71 bd
       0.0629021 0.03502832 0.027628925 -0.059019204
0001f0 e5 3c 40 3d d4 c8 b2 3d f3 88 a8 bc c3 d3 d8 bc
       0.046933074 0.08729711 -0.020573115 -0.026468163
000200 b3 6b c6 3d be 7d b6 3d 0d 16 d1 3d f6 73 61 bd
       0.09688511 0.08910702 0.10209284 -0.05504223
000210 86 56 8c 3d b6 58 ed ba ab ba 8d bd 0c ad bb 3d
       0.068524405 -0.0018108103 -0.0692037 0.091638654
000220 51 0e 0f bd 90 62 bb bc d5 5a a9 bd 6b 4f 93 3b
       -0.034925763 -0.022874147 -0.08269278 0.0044955513
000230 db 83 b4 bc 73 d8 98 3d 08 aa 18 3d b6 48 80 3d
       -0.02203553 0.074631594 0.03727153 0.062638685
000240 b7 88 3b 3d 85 aa 1a 3d 89 51 9f 3d a8 d6 11 3d
       0.04578468 0.037760276 0.077792235 0.035605103
000250 d5 0b 42 3d 9b a5 6e bd 3e 38 06 3d e5 a5 64 bd
       0.047374565 -0.058263402 0.03276848 -0.05582227
000260 08 df 97 bc 39 18 71 bd 45 d7 bc 3d d0 68 8f 3c
       -0.018538967 -0.05886099 0.09220747 0.017506033
000270 b1 f6 cc bd ab 8f b2 bd 82 69 94 3d 5e 89 4e 3d
       -0.1000799 -0.08718809 0.072466865 0.050423972
000280 87 50 ba 3d 9a 2c c0 3c 72 ae 16 3d f7 6f a3 3c
       0.090973906 0.023458768 0.036787458 0.01995085
000290 27 c4 c4 bd c0 17 89 3d 74 39 74 bd aa 29 8b 3c
       -0.096077256 0.06693983 -0.059625104 0.01698764
0002a0 a4 0b 89 bd 93 19 96 3b 82 74 3f 3d d7 df 3a bd
       -0.066916734 0.0045806854 0.04674197 -0.045623627
0002b0 ed 34 05 3d ee 56 73 3d bf 8b 9a 3c b5 53 2e bd
       0.032521177 0.059409074 0.018865464 -0.042560298
0002c0 7d ef 79 3d 11 b1 63 bd 2b 15 be 3d bd fb 2c bd
       0.06101941 -0.055588786 0.09281381 -0.042232264
0002d0 4f 16 0b 3d 0a 9c 8e bd 4a b8 8e bd 4c 5a 60 3d
       0.033956822 -0.06963356 -0.06968744 0.054773614
0002e0 83 02 15 3d 50 67 cf 3d f7 5e 4b 3d f9 0b 4c bd
       0.03637935 0.10127127 0.049651112 -0.049816106
0002f0 32 5f 62 3d 77 1d 8a 3d 14 08 a8 3c 8e b1 85 bc
       0.055266567 0.06743901 0.020511664 -0.016320016
000300 51 48 18 3c 1b 8f 29 bd 1a 33 91 3d bc 47 1b 3d
       0.009294585 -0.04139624 0.07089825 0.037910208
000310 5a f4 92 bc 45 cc 83 3d 44 50 52 bd 02 55 81 3d
       -0.017938782 0.06435446 -0.05134608 0.06315042
000320 95 a1 23 3c 0e 3f 86 bd d7 a8 ce bb 3e 2d 45 bc
       0.009987255 -0.065549955 -0.0063067484 -0.012034712
000330 2a 79 75 bd 20 08 c7 bc 6f 30 9b bb 0a 95 a9 3d
       -0.059930004 -0.024295866 -0.0047359983 0.0828038
000340 2b 3d 86 bd 2e 10 2f bc 6e f6 7a 3d 22 74 97 bd
       -0.065546356 -0.01068501 0.06127017 -0.073951975
000350 f0 0d 01 3c c8 7c d2 3c 63 fd 15 3d db fc d1 bc
       0.007876858 0.025694266 0.0366186 -0.025633266
000360 e6 a1 68 bc 9c e3 e0 bc 17 07 fe bc 12 47 1c 3d
       -0.014198756 -0.027452283 -0.03100924 0.038153715
000370 6a 3d ab 3a 3f d2 a4 3d 76 6e 62 3d f5 37 4c 3d
       0.0013064567 0.08047914 0.055281125 0.049858052
000380 49 39 4d bd 60 f8 ba bc 3b 13 08 bd f2 92 f5 3c
       -0.05010346 -0.022823513 -0.033221465 0.029977296
000390 3d dc 31 3d 2b 45 81 bc 89 37 54 3d 9d 90 50 bd
       0.043422926 -0.015780052 0.051810775 -0.050919164
0003a0 98 fe 59 bd 6c 84 bf bc 25 6a a4 ba f3 a9 5a bd
       -0.053221315 -0.023378573 -0.001254384 -0.053384732
0003b0 02 f3 cb 3c 11 51 21 3d 80 ea 96 bd 94 93 a9 3d
       0.024896149 0.03938395 -0.07368946 0.082801014
0003c0 c4 d3 b3 3c d5 74 2a bd 92 6a 87 3d 86 73 13 3c
       0.021951564 -0.041615326 0.066121235 0.008999711
0003d0 50 95 9a bc 58 22 c4 3d 6a d7 18 3d d3 a5 95 bb
       -0.018870026 0.09576863 0.03731481 -0.004566887
0003e0 1b ac 41 3d e8 1f ce 3c 47 49 c2 bc 5b 62 e3 bc
       0.047283273 0.025161698 -0.023716582 -0.02775686
0003f0 ae 23 bc bc f9 f4 5a bd f5 3c bd 3c d1 6c 8a 3b
       -0.022966232 -0.05345628 0.023100356 0.0042243977

fc2.bias f4 [64]
000000 a4 63 b2 3c e5 e1 69 3a 40 bd 50 bd 05 f4 52 3d
       0.021776028 0.00089219055 -0.050961733 0.051502246
000010 79 38 b2 bd 4f c3 07 bd 5b 71 d0 3c be fc 4e 3c
       -0.087021776 -0.033145245 0.025444677 0.012633501
000020 5e 6a c1 3d 72 a1 cd bd e7 18 74 3c 6f 7d 38 bd
       0.09444116 -0.10040559 0.014898515 -0.045041498
000030 81 cb 9a bd ad 98 ed bc a9 d9 08 3d 0c f9 49 bd
       -0.075583465 -0.029003466 0.033410702 -0.049309775
000040 5c 0a b9 3d d0 4d a9 bb d3 59 fb bb 71 ef 3a 3d
       0.09035179 -0.0051667467 -0.00767062 0.045638505
000050 75 eb ea 3c a7 4f 7f bd 2e c5 df 3b 41 17 4b bd
       0.028676728 -0.06233182 0.0068289256 -0.049582724
000060 33 67 a3 bd 3c 44 19 bd 7d b2 be bd 9c bc 8a bd
       -0.07978668 -0.03741859 -0.09311388 -0.06774256
000070 e4 83 12 bc 19 32 ab 3c 2f 34 cd 3b d0 40 7d bd
       -0.008942578 0.020897912 0.0062623243 -0.06182939
000080 05 dc a2 3d 49 29 8f bd 5c 34 93 bd 24 85 84 bd
       0.07952122 -0.069902964 -0.07187721 -0.06470707
000090 c4 61 3f bd fc f6 a4 bd 94 d2 80 3c c2 55 7a bd
       -0.046724096 -0.08054921 0.015725411 -0.06111694
0000a0 03 cb ad 3b 11 c8 2c 3d ee 9d 42 3d 82 cb 74 bd
       0.005303742 0.042182986 0.047513895 -0.059764393
0000b0 b7 ee 49 bc f2 ae 09 3c 47 99 cd 3d 9d ce eb 3c
       -0.01232498 0.008403527 0.10039001 0.028785044
0000c0 23 e5 18 3d 55 6c af bd cf 09 8e bd 59 94 8e 3b
       0.037327897 -0.085655846 -0.069354646 0.0043511805
0000d0 66 1c d8 3c d0 dd 1d 3c 44 3f 84 bd 5e be d6 3c
       0.026380729 0.009635404 -0.064573795 0.026213821
0000e0 1c 87 cf 3c 5a 4f 9f 3c af 5a c1 bd d1 f3 b5 3d
       0.02533298 0.019447017 -0.09441125 0.08884395
0000f0 f2 7a 1c bc f4 31 93 3d 19 40 31 3c 07 49 98 bc
       -0.009550797 0.07187262 0.010818505 -0.01858951

fc3.weight f4 [32, 64]
000000 48 c3 fb bd f6 bb e5 bc 8c 77 9f bd 0c 7b 08 3e
       -0.12293106 -0.028043728 -0.07786474 0.13328189
000010 c5 83 ca bd fa 93 e0 bd 12 a6 61 3d 24 82 f3 bd
       -0.09888414 -0.10965724 0.055090018 -0.11890057
000020 bf 6b 61 3d 3e 7f 7f bc 9e aa 15 3e 3e 3b d8 ba
       0.055034395 -0.015594302 0.14615867 -0.0016497148
000030 f6 43 f8 bc b7 22 83 bd d8 67 fe bc 27 c9 d1 bd
       -0.030305844 -0.06403106 -0.031055376 -0.10243445
000040 c9 09 0f bd e8 d0 83 bd 99 c3 92 3c df 8d f2 3d
       -0.03492144 -0.0643633 0.017915534 0.11843466
000050 b3 c0 c0 bc b6 a3 87 3d cc c8 37 bd cd 5f 72 3d
       -0.023529386 0.06623022 -0.04486923 0.059173394
000060 d7 b5 9c bd 6c fa 33 bd d7 fd ad 3d 2c 92 07 3c
       -0.07651871 -0.043939993 0.08495682 0.008274596
000070 d1 54 94 3d 72 da de bd b5 76 08 be f2 58 08 3e
       0.0724274 -0.10881509 -0.13326533 0.1331518
000080 f0 85 32 bd 68 a0 9d bd 62 ed bd 3d 39 07 b3 3d
       -0.043584764 -0.07696611 0.09273793 0.08741612
000090 81 eb eb 3d c5 f9 a1 3d 7b 2e 29 3d cf ac da 3d
       0.11519528 0.07908968 0.041304093 0.10677492
0000a0 2e 7f ca bd 75 44 eb 3d 1b 22 99 3d 72 40 41 3d
       -0.09887539 0.114876665 0.07477208 0.0471806
0000b0 4f 49 d7 bd 9a df df 3d 67 67 03 be 8e b4 ed 3d
       -0.105120294 0.109313205 -0.12832414 0.11606704
0000c0 6c 77 d0 bd 27 ed a1 3d a3 8a a6 bd ea bd 0f be
       -0.10179028 0.07906561 -0.081319116 -0.1403729
0000d0 44 39 a8 3d b1 fd d7 3c 40 67 1d bd 63 a7 81 3d
       0.082140476 0.026366087 -0.038428545 0.063307546
0000e0 b8 70 b1 3d d3 d6 a2 bd 04 ea 7b 3d d8 7b 5d 3c
       0.086640775 -0.07951131 0.06150247 0.013518296
0000f0 79 01 a1 3d d5 01 52 bd cb 3c 9a bd 79 4f 5a bd
       0.07861609 -0.05127128 -0.075311266 -0.053298447
000100 49 61 ea 3c ce 18 ff 3c ff fc 9b bd 46 23 07 bd
       0.028610842 0.031139757 -0.076166146 -0.032992624
000110 17 6c e2 3c ef 46 8c 3d 40 46 16 3e e5 3e 09 3e
       0.027639432 0.06849467 0.14675236 0.13402899
000120 b2 bf 86 bc 1a b1 d3 bd 3c 47 f7 3d 94 22 9b 3d
       -0.01644883 -0.10336514 0.12074134 0.07574955
000130 78 16 b7 3c 92 14 15 bb 20 0e c5 3b 12 ef 87 3d
       0.022349581 -0.0022747857 0.0060136467 0.06637396
000140 4c b9 62 3d a6 09 9a bc de da f7 3d 90 3c ea bc
       0.055352494 -0.018803429 0.121022925 -0.028593332
000150 c6 b5 8f 3d fc 55 63 3d be 0b 7d 3d 04 fc 5b 3b
       0.070170924 0.055501923 0.061778776 0.003356696
000160 2b 5c 15 3d 74 ad c5 bd 4c f5 91 3d ac fe 94 bd
       0.03646485 -0.09652224 0.07126865 -0.07275137
000170 46 4f 23 bd 8e 2d 7f 3c c6 6a c7 bd 36 05 f5 3c
       -0.039870523 0.015574826 -0.09737162 0.029909711
000180 7a 25 d7 3c 91 40 5c 3d 07 97 43 3d 00 b8 db bc
       0.026262987 0.053772513 0.047751453 -0.026821136
000190 e9 17 0d 3c 3b e5 0f be 1a 8e 0b 3e 0f 43 0b be
       0.008611658 -0.14052288 0.13628426 -0.135998
0001a0 c2 16 a9 3d 1e a2 a6 bd a8 75 90 bd de 47 90 bc
       0.08256294 -0.0813639 -0.07053691 -0.017612394
0001b0 6c 39 44 3d c7 01 86 3d 37 80 10 bd 06 c9 f1 bd
       0.047906324 0.06543308 -0.035278525 -0.1180592
0001c0 a4 b8 0e 3e ad f3 31 3d 3d b7 5d 3d ba a9 96 3d
       0.13937622 0.043445278 0.054129828 0.073565915
0001d0 23 53 09 be e6 1d d4 3c d3 46 d6 3d 6d 36 d2 bd
       -0.1341062 0.025893163 0.104627274 -0.10264287
0001e0 59 12 79 3b ad 06 5f bb 95 af cd 3c de 63 f6 3a
       0.003800532 -0.0034031079 0.025108138 0.0018798073
0001f0 38 94 13 be f6 3d fb 3d 79 b1 9d 3d 80 19 a2 bd
       -0.1441201 0.122676775 0.07699866 -0.0791502
000200 e4 0f 02 be e9 c7 53 bd 22 c5 ee 3d c3 b8 04 3d
       -0.12701374 -0.05170432 0.11658694 0.032402765
000210 6c 21 86 bc f1 84 14 3d 0b dc 0f be b2 29 0b bb
       -0.016373359 0.036259595 -0.14048783 -0.002123457
000220 bd 7a a4 bc 98 7d 8c 3d d0 71 90 3d 08 00 84 3d
       -0.020078057 0.068598926 0.07052958 0.064453185
000230 93 35 eb bb 23 9c c6 3d 50 1f 00 3e b8 1b 42 bc
       -0.0071780174 0.096977495 0.12511945 -0.011847429
000240 8b 59 f7 bc fa 1f 77 bd 33 70 56 3c 2d 15 70 3c
       -0.030194065 -0.06033323 0.013088274 0.014653486
000250 db 38 01 3c 9b c9 02 3e 58 9a 52 bd 5e 6c 74 3c
       0.007887091 0.12772219 -0.051416725 0.014918415
000260 30 66 c5 3d 02 3e ff 3c bf 5a b2 bd 77 3b 21 3c
       0.09638631 0.031157497 -0.08708715 0.009840838
000270 5b 2d 3a 3d bd be 2a bd 79 bd 9a 3d 5b 12 dc bd
       0.04545341 -0.04168581 0.0755567 -0.107456885
000280 10 f7 15 bd f4 60 bb 3c 5e fe d5 bd 12 41 81 3d
       -0.03661257 0.02287338 -0.10448907 0.06311239
000290 b4 47 be 3d ab 32 0c 3e ab 09 22 3c e9 a8 00 3e
       0.0929102 0.13691203 0.00989 0.12564434
0002a0 ae f4 e5 bd 40 0f eb bc 08 2c 83 bd ac a8 98 bd
       -0.112283096 -0.028693795 -0.06404883 -0.074540466
0002b0 fd 0b 82 bc 3d 02 a3 bd 98 b0 0a be 35 78 19 bc
       -0.015874857 -0.07959411 -0.13543928 -0.0093670385
0002c0 1a 67 93 bd 55 8f 2e bd 3d 2d 99 ba 5d 70 d8 bd
       -0.071973994 -0.04261716 -0.0011686456 -0.105683066
0002d0 4f 45 3f bd 43 18 48 bc 21 d8 04 be 4b 64 1b bd
       -0.046696957 -0.012212816 -0.12973072 -0.037937444
0002e0 c5 36 0d be 27 a3 2e bd dc 9e 44 3d 2f db 01 be
       -0.13790424 -0.042636063 0.048003063 -0.12681268
0002f0 5a d4 01 3d d5 c6 fc bd a2 be c0 bd 7c 9e e5 bd
       0.031696655 -0.12342612 -0.0941136 -0.11211869
000300 1e 6f 77 3c d3 df fd 3d 11 71 af bd 10 23 3a 3d
       0.015102176 0.12396207 -0.085664876 0.045443594
000310 3f 80 f2 bc 46 e6 39 3d 13 05 f3 39 cb c3 79 3d
       -0.029602168 0.04538562 0.00046352352 0.06097774
000320 0e 92 42 3d 8b bc 0c 3c 78 d0 b6 bb f6 2d 46 bc
       0.04750257 0.008589874 -0.0055790506 -0.012095919
000330 47 9d d8 3b b3 95 45 3d df ba 5e 3c 8c 6b 05 bb
       0.006610546 0.048238467 0.013594358 -0.0020358292
000340 18 45 09 3e c1 d6 d6 3d cc b7 90 bd 23 0e eb 3c
       0.13405263 0.1049018 -0.070663065 0.028693264
000350 b6 51 69 3d 76 48 0f be a3 7f 0c 3e 8a b8 9a bc
       0.05696269 -0.13992485 0.13720565 -0.018886823
000360 67 f8 c8 bd 41 c9 f8 bc 91 f0 b3 bd aa ba 75 3d
       -0.09813004 -0.030369403 -0.08786119 0.05999247
000370 7f 17 0c bd 46 e5 e3 bd ab 48 7c 3d e6 c1 cf 3d
       -0.034202095 -0.11127715 0.06159274 0.10144405
000380 b2 0f 9e bd 69 df 07 be fb e8 d2 bb 60 f3 07 be
       -0.077178374 -0.13268818 -0.006436465 -0.13276434
000390 23 e7 e7 3c 50 80 4f 3a db d6 96 bc 60 8e 8a 3d
       0.028308457 0.00079155434 -0.018412998 0.06765437
0003a0 b8 5c 4a bd 48 a8 78 bd 12 90 8c 3c bc 18 d4 3d
       -0.04940483 -0.06070736 0.017158542 0.1035628
0003b0 7f 3b 90 bd d8 38 e7 3d 4a 76 15 3d e2 65 ce bc
       -0.07042598 0.11290139 0.036489762 -0.025195066
0003c0 83 22 ed 3c a8 10 d7 3d 99 4a 2c 3d fa 33 9c bd
       0.02894712 0.10501224 0.04206333 -0.07627101
0003d0 a1 d5 57 3d c8 ef 3e 3c 7f df ff 3b d3 2a 06 3e
       0.052693967 0.011653848 0.007808625 0.13102274
0003e0 33 7d b3 3b 82 2b 01 3d 1f 4d 0a be 80 21 45 bd
       0.0054775714 0.031535633 -0.13505982 -0.04812765
0003f0 22 46 d1 bd 76 b0 fe 3c 61 52 f8 bb 86 af 0c 3e
       -0.10218455 0.031090003 -0.0075781797 0.13738832

fc3.bias f4 [32]
000000 4e e3 72 3d 75 df 84 bc 4d 55 8c bd e5 8d 91 3d
       0.059298806 -0.016219834 -0.06852207 0.07107142
000010 94 71 b4 3d fa 59 7f 3d 8b 99 7d bc 18 69 00 bd
       0.08810726 0.062341668 -0.015478502 -0.031350225
000020 22 f3 0f bd ff 62 9f bd 6e b8 cd bd 38 61 d3 3d
       -0.03514398 -0.07782554 -0.10044943 0.103212774
000030 50 fc e3 bd 5f 52 a6 bb c4 e7 a6 3d ba dd db 3c
       -0.11132109 -0.0050757374 0.081496745 0.026839126
000040 43 28 f3 3d 7d 79 9a bd 72 c1 52 3c ee 41 14 3d
       0.11872914 -0.07542703 0.012863504 0.036195688
000050 2f 13 3e 3d 89 66 95 bd 2b bd d7 bd eb 55 7f 3d
       0.046405014 -0.07294948 -0.10534128 0.062337797
000060 c4 23 63 3d 2c 02 01 3e ab 6a 4c bd 1f 8b 86 bb
       0.05545403 0.12598485 -0.049906414 -0.00410594
000070 fe 6b ea 3d 56 8a c6 3d 84 41 13 bd 7d ad c0 bd
       0.11446379 0.09694354 -0.035951152 -0.0940809

fc4.weight f4 [5, 32]
000000 d6 ac 1b bd 8f 61 b2 bd 61 1b 19 3e 5c 23 09 be
       -0.038006626 -0.08710014 0.1495185 -0.13392395
000010 76 28 8d 3c 8c 90 84 bd 44 08 3b be 20 32 04 3d
       0.017231207 -0.06472883 -0.18264872 0.032274365
000020 f4 6b d8 3d 55 44 61 bc 51 d0 85 bd 98 9a 18 bd
       0.105674654 -0.013749202 -0.06533874 -0.037256807
000030 ba e5 27 3e 67 e7 b5 bd d0 47 90 3d c3 9f 0d be
       0.16396227 -0.08882027 0.07044947 -0.13830476
000040 fe 2d de bd ac 92 06 3e a0 e9 aa bd 70 50 40 3e
       -0.10848616 0.13141888 -0.08345342 0.18780684
000050 8c b0 30 3e f6 10 3a be 13 50 1f 3e 01 81 cc 3d
       0.17254847 -0.18170533 0.1555789 0.09985543
000060 2b da 18 3e af dc 0f 3e 44 c7 ec 3d b4 e1 d0 bd
       0.14926974 0.14049028 0.115614444 -0.101992995
000070 12 2a 07 be 1d 7d 28 be e5 d2 21 3c c9 cc b5 bc
       -0.13199642 -0.16453977 0.009876941 -0.022192376
000080 61 96 64 bd 57 12 17 3e d6 d5 04 be 10 79 20 bc
       -0.055807475 0.1475309 -0.12972197 -0.009794489
000090 cd 84 84 bd fd 38 57 3d 4b f7 05 bc c8 52 9a bc
       -0.06470642 0.052544583 -0.008176635 -0.018838301
0000a0 85 de 70 bd 1f 8b 22 3e c1 07 f8 bd 99 6c ca 3d
       -0.05880596 0.15873383 -0.12110854 0.098839946
0000b0 6e 2d 11 3e d0 a0 1c 3e aa 93 24 3e 77 7a 42 be
       0.14177486 0.1529572 0.16071954 -0.18992029
0000c0 f1 4e f9 3d b7 75 0f 3c d1 a9 b2 3d 73 0c 91 3d
       0.1217326 0.008756093 0.08723796 0.070824526
0000d0 72 e0 c7 bc 03 c8 03 be d5 74 90 bc 18 74 a3 3c
       -0.024399016 -0.12869267 -0.017633835 0.019952819
0000e0 6f d9 ef 3d 3f cf 02 bd d8 e2 05 3d a2 73 ee bd
       0.11711394 -0.031935927 0.03268704 -0.11643149
0000f0 78 cc 00 be 48 42 f1 3d 99 99 de bd 17 fc e6 3d
       -0.12577999 0.1178022 -0.1086914 0.11278551
000100 c1 6c ab 3d 47 88 d2 3c 44 2b 22 3c 62 2d 30 3e
       0.083703525 0.025699748 0.009898011 0.17204812
000110 2c a0 ec bc ad 8e 1a be 01 1b a5 bd ed 87 28 bd
       -0.02888497 -0.15093489 -0.08061791 -0.041145254
000120 17 79 d1 bb c0 e3 ac 3c 57 7b 98 3d 1c 80 cd bd
       -0.006392609 0.021104693 0.074454 -0.100342005
000130 f7 84 c8 3d 32 14 e8 bd 5a 46 85 bd 88 dd e6 3d
       0.09790986 -0.11331977 -0.06507559 0.112727225
000140 65 4c 3a 3e 37 a0 b8 3d 1e b9 24 3e 38 67 7e bd
       0.18193205 0.090149336 0.16086242 -0.062110156
000150 92 09 65 bd 5c 1d 25 be 25 9d 84 bc f1 66 1c bd
       -0.05591733 -0.16124481 -0.016188214 -0.03818411
000160 d0 d4 8d bd 39 fb f2 3d 7f 4b e5 bd e0 b1 44 bc
       -0.069253564 0.11864323 -0.1119604 -0.012005299
000170 42 38 9c bb e4 1a 4e bd 5e df 1f be d0 95 49 3d
       -0.0047674486 -0.050318614 -0.15612552 0.049215138
000180 1b 30 ff bd 0e e5 11 3e bb a7 a0 3d a8 34 25 3b
       -0.12460347 0.14247534 0.07844492 0.0025208388
000190 0e 7b 1a be 38 2c 82 3c 98 8a b1 3c 55 08 8d bc
       -0.15086004 0.015890226 0.021672532 -0.017215887
0001a0 8e 2d 0b be ff da 3c be 7c 0e ad 3d a2 f9 25 3e
       -0.13591596 -0.18442915 0.08450028 0.16208509
0001b0 9d 11 95 bd c1 0f d7 3d 38 fb fb 3d d5 d7 de bd
       -0.0727875 0.10501052 0.123037755 -0.108810104
0001c0 47 cd 01 be 6c dd 0d be e1 8b 0e be a9 b0 39 3e
       -0.12675963 -0.13853997 -0.13920547 0.18133797
0001d0 3a a4 2d 3e 1f 5e 1b be c8 10 49 3d 71 be 9b bd
       0.16957179 -0.15172623 0.04908827 -0.07604683
0001e0 e8 b3 f6 bd 6f 1e 2a be db 69 aa bd ba dc ea 3d
       -0.12046033 -0.16613172 -0.083209716 0.114678815
0001f0 ff b0 a0 3d b1 50 01 3d 84 7c 72 3b 60 95 08 3e
       0.07846259 0.031571094 0.0037000487 0.13338232
000200 02 ff c9 bd 38 65 f3 3d 11 14 09 be ef 62 44 3e
       -0.09863092 0.1188454 -0.13386561 0.19178365
000210 62 9d 14 be fe a5 d9 3d a1 df 83 3c 47 74 ea bd
       -0.14513162 0.106273636 0.016097846 -0.114479594
000220 20 4c de bd 61 92 f0 3d 0a 96 3d 3e 78 b9 34 be
       -0.108543634 0.117466696 0.18514267 -0.17648876
000230 5e 88 0d be 30 80 36 be 06 12 53 bd 98 79 36 3e
       -0.13821551 -0.17822337 -0.05153086 0.17819822
000240 6b 6b ac bd c3 01 2e bd c4 ea 34 be 5e 35 9f 3d
       -0.08418926 -0.04248215 -0.17667681 0.07773851
000250 72 6c 01 be 89 32 f5 3d 08 49 ee bd dd 7e e3 bd
       -0.12639025 0.119725294 -0.11635023 -0.111081816
000260 91 56 32 be 32 77 2c 3e 84 31 d5 3c 3f d8 35 be
       -0.17415835 0.16842344 0.026024587 -0.17758273
000270 7e 85 0c 3d 07 87 b4 bd 80 c2 42 3e b9 f0 39 be
       0.034306996 -0.08814817 0.19019508 -0.18158235

fc4.bias f4 [5]
000000 01 a2 12 3e 99 fd 55 bd 2d 73 56 bc 3f ca 54 3d
       0.14319612 -0.052243803 -0.0130889835 0.05195069
000010 e8 29 e8 bd
       -0.11336118
