clean_code/trained_models/actor_1400.pth (torch, 54884 bytes, 8 tensors)

fc1.weight f4 [128, 18]
00000000: 73f5 1f3e 8fd7 b23d a9e1 1abe 12c1 433e
00000010: ffa7 fb3d 546a 86bd 41f8 f63c a333 c73c
00000020: cc42 c33d 51b6 84bd 12d8 15be 67a9 2f3b
00000030: 2118 5a3e e246 a93d 823b 183e 1d3a fe3c
00000040: 51f8 64be d4c3 813e 4a0c 0e3e 83ab 293e
00000050: 3015 b73d 8ec4 a2bd 6ce6 8c3d 1777 9abc
00000060: aa1f 153e 7757 503e 2bdf c93d 6977 3a3d
00000070: feb3 163e 6cb9 103e 7887 31be 2432 0cbe
00000080: 1d07 bdbd 7678 683d ff08 25be 1aaa 193d
00000090: 8e18 1c3e ea20 b43d bead 13be a106 7f3d
000000a0: d529 36be 0f2c 083d 8876 463e ba2c 1d3e
000000b0: 894f 7abd 8b85 30be 29e0 d5bd b65d 353e
000000c0: a47d 843e 8269 c53d d4a9 823d f6bd dbbd
000000d0: 08e0 533e 2e1e 5d3d 5aaa 043e 172e 1abd
000000e0: c975 2a3e c7d2 e03c d83d 3abe 44b6 08be
000000f0: 1280 43be 082e 3fbe aa5e fcbd 9b46 283e
00000100: 867b ca3d 4954 d2bd 5f09 583e 7719 3e3e
00000110: 1b2f a5bb 1467 3cbe ad4f 2b3e 5fb6 76bd
00000120: 2766 9bbd da43 6f3e 36f7 03bd 55e4 4fbe
00000130: 5c32 5a3e 77b4 223e 7b2a c5bd 6c71 853e
00000140: 6507 e2bc 6bcb 2c3d cd79 863d 5289 c83d
00000150: 9696 b83c f429 06be 3ef8 773e 7daf 2b3e
00000160: b519 0cbe ef45 583e cdcf cd3d 9abf 58bd
00000170: bda6 393d d5fd 403e 75bb 733e 73ef e1bc
00000180: 401b abbd 308b 0cbc a682 c53d 2a84 2fbe
00000190: 443d acbc f53c 1f3e 9b3b 3fbe dfba 523e
000001a0: c98d 25be b65f 4d3e afab 853d ff8a 4f3e
000001b0: 77a0 0f3e 24a9 7ebe 79b0 133e 4604 0abe
000001c0: 70fc bd3d c6e3 2e3e d734 333e db45 a13d
000001d0: 8fba 37be b6ad 92bb 39df 69be cab5 cdbc
000001e0: a31d 64be 60a7 1fbc 269b 04be 9eb7 553d
000001f0: 5cec 7abe 1612 02bc 0130 fc3c 1ad3 1e3e
00000200: a344 50be 311b 55be 2234 08be 8d38 b63d
00000210: 073e 553e 7d7c 01be a7ec 343e b081 3bbe
00000220: 05af 313e 41c1 353e 1595 c7bc c8f3 c93c
00000230: c4e0 133e 8aa6 893b c526 533d 4098 19be
00000240: abad 91ba c424 b1bd a490 9abd d736 2d3e
00000250: 6dac 87bd 6047 70be 43f7 d3bd eac4 40be
00000260: 4674 ec3b 9873 63be 5134 d1bd 454b 7bbe
00000270: 2052 283e 97ab 57be 4002 d4bd 6ece 41be
00000280: 7186 103d 7fc3 223e 0e60 1a3e 4062 633e
00000290: c8a1 6c3e b4db 95bd 07dc f63d e8d4 62be
000002a0: 3307 653e 28f6 0f3e f1c3 84bd e393 563e
000002b0: 95e0 ca3d 742b 693e fa02 233e 4fba f4bd
000002c0: 5162 8cbd 1b93 583e 3814 34be 7c2f ccbd
000002d0: 04ac f6bd 87df 47be 2e00 22be 5a0a 46be
000002e0: 9cdf c33d c574 c73d 0c5c 3ebc 2b46 db3d
000002f0: a391 413c fcff 973c 0911 babc 2b2c 903d
00000300: 8e51 36be f0c4 6ebd 507c 63be b889 33be
00000310: d16e f53d 4e17 0d3d 8a6f 51bd 8df8 493e
00000320: 95e6 bcbc 0097 f8bd 796b efbd 5ef8 4e3e
00000330: 6a14 9f3d a067 423e 9539 303d f812 90bd
00000340: cc0b fd3d 6d4c db3d b791 8dbb 6811 09bd
00000350: d777 cdbd 5020 fd3d a3bf 2cbe d6f4 693e
00000360: 239e d5bd 642f b0bd 617e 0e3e 0b9f e7bd
00000370: 8fb2 57be c7cc 32bd ee86 5bbe 0825 8f3c
00000380: 1e5b 42be 3f75 32be 9707 25bd f5f4 3b3e
00000390: b89f 11be c057 4cbb a169 9a3d 095d dfbd
000003a0: 38c7 113e e24f 183e a5c5 883e ac52 b3bd
000003b0: 3f2a a43d 29f3 5abd ea09 ab3c cb50 773d
000003c0: 8716 5b3e 6ca1 5f3e 05d7 323e d207 7f3e
000003d0: 5292 fbbc 5079 703d d360 3dbe 6fac fcbd
000003e0: 6cf4 913c d1b5 103d 94cc 3ebc e5d8 acbd
000003f0: cf9e 633e 909a 5dbd 1f51 133c 0230 043d
0.15620975 0.08732521 -0.15125145 0.19116619 0.12287902 -0.06563249 0.030147674 0.024316614
0.09534225 -0.064800866 -0.14633206 0.0026803853 0.21298267 0.08265473 0.1486645 0.03103357
-0.2236035 0.25344718 0.13871875 0.16569333 0.08939588 -0.07947646 0.06879887 -0.018855615
0.1456286 0.20345865 0.09857019 0.045524035 0.14717099 0.14133233 -0.17336833 -0.13691002
-0.092298724 0.056755506 -0.16116713 0.037515737 0.15243742 0.0879534 -0.14421746 0.06226218
-0.17789395 0.033245143 0.19381154 0.15349093 -0.061111007 -0.17238443 -0.10443146 0.17711529
0.25877106 0.09639265 0.063800484 -0.107295915 0.2069093 0.05398386 0.12955609 -0.03764161
0.16646494 0.027444256 -0.18187654 -0.13350779 -0.19091824 -0.18669903 -0.12322743 0.16433184
0.098868415 -0.10269982 0.21097325 0.18564402 -0.005041016 -0.18398696 0.16729613 -0.060232516
-0.075878434 0.23365727 -0.03221818 -0.20301946 0.21308273 0.15889154 -0.09627243 0.26063097
-0.027591417 0.042186182 0.065662004 0.09791817 0.022532742 -0.13101941 0.2421579 0.16766162
-0.13681681 0.21120428 0.100494005 -0.0529171 0.04532503 0.18846829 0.23801978 -0.027579999
-0.08354807 -0.008578107 0.0964406 -0.1714026 -0.021025307 0.15550597 -0.18675081 0.20579098
-0.16167368 0.20056042 0.06526887 0.20267867 0.14026056 -0.2486921 0.14422788 -0.13478193
0.09276664 0.17079076 0.17500626 0.07874652 -0.1794226 -0.0044762744 -0.22839059 -0.025111098
-0.2227693 -0.009744495 -0.1294981 0.052177064 -0.24504226 -0.007938882 0.030784609 0.15510216
-0.20338683 -0.20811154 -0.13301137 0.08897505 0.20824443 -0.12645145 0.176684 -0.1831119
0.17351921 0.17749502 -0.02436308 0.024652377 0.1444121 0.004200761 0.051550645 -0.14999485
-0.0011114379 -0.086495906 -0.07547119 0.16915451 -0.066246845 -0.23464727 -0.10349896 -0.18825117
0.0072160093 -0.22212064 -0.10215057 -0.24540432 0.16437578 -0.2106155 -0.10351992 -0.18926403
0.035284463 0.15894888 0.15075704 0.22205448 0.2310859 -0.07317296 0.12053686 -0.2215153
0.22366028 0.14058745 -0.06482685 0.20954852 0.09906117 0.22770482 0.15919104 -0.11949598
-0.0685469 0.21149866 -0.17585838 -0.099699944 -0.12044528 -0.19518863 -0.15820381 -0.19339886
0.095641345 0.09739069 -0.011618625 0.10706743 0.011814508 0.01855468 -0.022713201 0.07039674
-0.17804548 -0.058293283 -0.2221539 -0.17533004 0.11984027 0.034446053 -0.051131763 0.19723721
-0.023059169 -0.12138176 -0.11690421 0.20211932 0.077675655 0.18984842 0.043023665 -0.07034868
0.12355766 0.107079364 -0.004320349 -0.033463866 -0.10032623 0.12359679 -0.16869979 0.22847304
-0.10430553 -0.08602789 0.13915397 -0.11309632 -0.21064208 -0.043652322 -0.2143819 0.017473713
-0.18980071 -0.17427538 -0.04029044 0.18355162 -0.14221084 -0.0031180233 0.07539678 -0.10906417
0.14236152 0.14874223 0.2671329 -0.08756003 0.0801587 -0.05345455 0.02087875 0.060379785
0.21395312 0.21838921 0.17464836 0.24905327 -0.03070942 0.058709443 -0.18493967 -0.123375766
0.017816745 0.035329644 -0.011645455 -0.08439807 0.2222855 -0.05410248 0.008991509 0.032272346

fc1.bias f4 [128]
00000000: d05c 1a3e d15f 223e 09bc 253e bbe8 3c3e
00000010: 78f4 ba3c 4102 a73d 56d1 2b3d ec92 c5bd
00000020: b943 db3d e130 3abe 05b2 5ebe 31f0 733e
00000030: f5e1 203e e062 74bd 700d b53d d7cc 6c3e
00000040: 2ee3 4b3c 0f31 573e 6689 22be 809e c93d
00000050: cc66 353e 9457 aa3d ec7d 20be 2ef9 cc3c
00000060: 3cf5 4fbe 8a0d dd3d 33e9 983c 7457 413e
00000070: 2709 b0bd 51a4 823d 5649 a7bb 9f10 49be
00000080: a516 763d ea07 7f3e 2d79 c03d eb7f babd
00000090: 5653 ecbd 5b42 3c3c 4ea3 8a3e 1771 1fbe
000000a0: 1afd 983c b44d 403e 3518 31be ce07 803e
000000b0: 26bc a5bd 98f9 503e 8fde 863e 5353 323e
000000c0: d0e6 833e aad7 12be 5985 e13d fe5a 50bd
000000d0: 4198 17be ab32 87be 40bd 4bbd c480 883e
000000e0: 19b0 9b3c e5c0 7c3e 54e1 3fbe d0f2 37bc
000000f0: fa75 48bd 4fa3 803e a06f a93c d699 1fbe
00000100: 1cc8 e93d 710d 61be 0bf4 b13c 7884 b73d
00000110: 29c8 8abd c1a0 283e 4ba3 803e 9c32 a13d
00000120: 2083 0dbe 1db2 5e3d c8e2 35be 7e97 193e
00000130: ab7e 343e 7b52 1ebc ccae 613e 800d 143e
00000140: 5ee2 543d 86ea 26be 8f0f 78be ddb5 29be
00000150: 61d0 bf3d b371 0b3e 4d2e bdbd 149f 86bd
00000160: 4350 dbbd 1ab7 713a 7b6f 0c3e 0ef6 91bc
00000170: 0d52 b73c 3a6c 693e a113 503e 4c27 89be
00000180: 4969 ea3d e14e 57be 8145 50be 1668 3f3d
00000190: 9541 273e c9c1 4cbe 36ac 223e 7d75 78bd
000001a0: 398d 073e e41d 573e 7578 113d 55c6 21be
000001b0: bfc1 263e 0528 0c3e 87d4 bdbd 16fa 00bd
000001c0: f464 07bc e1cc 5d3e a25e 2abe b0c7 813e
000001d0: efb3 12be def6 2ebe fb91 25be d03d 5c3e
000001e0: 90c3 813d 967b fd3c c4a9 2e3e 5f65 7f3d
000001f0: db9e 71be a3c0 393e d12c bb3d 1e7d 15be
0.15074468 0.15856864 0.16185011 0.18448155 0.02282165 0.08154727 0.041947685 -0.09647164
0.107062764 -0.18182708 -0.21747597 0.23822095 0.15711196 -0.059664607 0.088404536 0.23125015
0.012444301 0.21014808 -0.15872726 0.098446846 0.17714995 0.083174855 -0.15673035 0.025021162
-0.20308393 0.10793598 0.018665886 0.18881017 -0.08595496 0.06378997 -0.005105178 -0.19635247
0.06008019 0.24905363 0.093981124 -0.0910643 -0.115393326 0.01149043 0.27077717 -0.15570484
0.018675376 0.18779641 -0.1729439 0.25005955 -0.08092527 0.20407712 0.26341674 0.17414598
0.25762033 -0.14340082 0.11011762 -0.050868027 -0.14804174 -0.26405844 -0.04974103 0.2666074
0.019004868 0.24682958 -0.187383 -0.011227325 -0.048940636 0.25124595 0.02068311 -0.15586028
0.11415121 -0.21977784 0.021722814 0.08960813 -0.06776459 0.16467573 0.25124583 0.07870981
-0.13819551 0.05436908 -0.17762291 0.14999196 0.17626445 -0.00966322 0.22039336 0.14458275
0.051973693 -0.16300401 -0.24224685 -0.16573282 0.09365917 0.13617592 -0.09237347 -0.065733105
-0.10708668 0.00092207047 0.13714401 -0.017817523 0.022377992 0.22795191 0.20319988 -0.26787794
0.11445863 -0.21026184 -0.20339014 0.046730123 0.16333611 -0.19995798 0.15886006 -0.06065892
0.13237466 0.21007496 0.035515267 -0.15798314 0.16284846 0.13687141 -0.09269052 -0.0314885
-0.008263815 0.21660186 -0.16637662 0.25347662 -0.14326452 -0.1708636 -0.16168968 0.21507955
0.06336129 0.03094272 0.17056948 0.062352534 -0.23595755 0.18139891 0.091394074 -0.1459851

fc2.weight f4 [64, 128]
00000000: 42cd 8f3d dfcc fdbc c0b4 a73c 164c 96bb
00000010: a43e 603d e7ce 5f3d c868 733d 6bd9 343d
00000020: 82d7 ff3b 1118 ebbc b310 603c 56b3 953d
00000030: c58a ebbc f550 613b af58 0f3d b638 b73c
00000040: 03b8 cd3b 4e4c c33b b94c 27bd 4637 0a3d
00000050: 3d4b 053d 32e2 babd d44d 683d 24c5 69bd
00000060: 104d a33d 13ae cb3c cf49 81bb 1462 a63d
00000070: f237 edbd b460 68bc fe0f 443d d24b 453d
00000080: 7596 22bd 3f07 243d 4449 98bd 0800 b33d
00000090: fb4c 7dbd cc28 22bc 622b 45bc 72f1 8f3d
000000a0: f51d ca3d a529 303d 3fc6 47bd 711d 423b
000000b0: a478 cfbd cbb6 ce3d 5129 d53c 0876 59bc
000000c0: b26c 583d a16e 923d ff8f b13b 5ecd 8cbd
000000d0: 6f55 e33c b16d 62bd 4604 763d fd0e fcbc
000000e0: fedc 92bc 778f afbc c427 91bd 6f0c c03c
000000f0: 0f63 b03d 2f42 5fbd 6b2a 6ebd 044f 2e3d
00000100: 4054 113d 4bab f53c 169e 9c3d fb0d 8ebd
00000110: 9a78 7ebd fc56 7cbd 0353 873a 16b9 7e3d
00000120: e58a 43bd 5ee5 a5bc f0da 7d3c 8008 653c
00000130: 375c 753d 1871 09bd 7a19 c93d 4287 9f3d
00000140: 1c9b 9bbc e651 26bd a881 b6bd 8734 7bbd
00000150: 168c d43b f3ed aebd 0018 e0bd 3dca 4f3d
00000160: 641d 9ebd dd64 3b3d 4834 323d 69c1 833d
00000170: 139d 713c 751e 2dbb e76c fa3d 2ac3 64bd
00000180: 1d27 24bb 9ce1 893a 36ea e2bd c383 383d
00000190: 4bb8 9fbc 620e 523c b325 cb3c 3970 b0bc
000001a0: 8bd3 093d 4f61 f6bc d51e 5abc a68b abbd
000001b0: f170 01bd 5898 08bd 305a dbbd b550 5dbd
000001c0: def0 40bd b058 313d 1346 71bc 0bad af3d
000001d0: b38f babd 1b72 053d 3ab1 a8bd 44c4 813d
000001e0: 0a12 913d 4498 1f3d 8b1a df3c ebcd 58bd
000001f0: f304 1c3d 0c0b c83d 5d23 8bbc b669 a0bc
00000200: 93c9 ce3d 7643 ce3d f593 e03d b5f2 8ebd
00000210: 4aee 983d 6676 5a3c 66c4 9abd b624 c13d
00000220: e4e9 6fbd b5db 46bc dfcc b6bd b0cc 8a3c
00000230: 3251 f9bc 3bd6 d63d 6812 533d c727 913d
00000240: 9b5a 5e3d a6a7 543d 2207 8a3d fe5b 203d
00000250: db56 1a3d a3c0 93bd 52ff fb3c 9569 7bbd
00000260: b400 93bb 56ac 71bd ac0d ba3d 986c cb3c
00000270: 7c3b e9bd d7ad cabd c284 843d edd2 2a3d
00000280: cc28 d13d eb48 063d 1fb4 c03c 3fd8 af3c
00000290: 780f debd 1ae5 593d 9ad3 0ebd 2f73 a33c
000002a0: d03a 74bd d8d9 2abb 7c55 b33c 6c66 1bbd
000002b0: b0c5 ce3c 8447 8d3d b4fc ed3c c054 183d
000002c0: ca1f 8e3d 2587 97bd 8c6a da3d 005f 19bd
000002d0: 90d1 593d 5889 a4bd 5d50 9fbd 465c 873d
000002e0: dcfe 913c 0ce1 df3d 32c3 043d 6736 61bd
000002f0: 4329 6e3d 00c7 a13d 9576 d43c 5490 e6bc
00000300: 8c1a 59bb 74a7 92bd 7d7b 9d3d 68bb 033d
00000310: a214 98bc e869 893d 0804 47bd 5c72 853d
00000320: 2f7b acbb a753 7dbd b58c b5bc a77a 8b3b
00000330: 2cf3 95bd 18f1 05bd 94aa d13b 5332 873d
00000340: cff5 b2bd fdd0 04bd f51a 503d d52e a1bd
00000350: 04dc 043c 0ee8 0e3d 024e ef3c ef88 3abd
00000360: 3cb9 923b b8ef 12bd 5e8e 22bc a624 413d
00000370: ab3b 023c cb92 b33d 0ef1 b43d 5b93 1c3d
00000380: fff5 73bd 011c 02bd 6349 46bd 3ec3 d03c
00000390: 67ff f83c 4f14 e6bc 5bf5 853d c4ce 80bd
000003a0: 4833 7abd 73dd 1cbc 7948 b73b 4fc0 48bd
000003b0: 1f59 793c b602 363d 4867 a1bd 31bf c53d
000003c0: 8ef2 a53c 8d06 21bd 66c2 9b3d 5065 123d
000003d0: d99f f2bc 7f07 c93d 8bb4 de3c 5389 933b
000003e0: 50ca 613d 35fb 013d 7b05 bebc 6102 77bc
000003f0: ebad 01bd a7af 28bd f3ff e43c 5fcf 0f3c
0.07021572 -0.03098148 0.02047193 -0.004586707 0.05474724 0.054640677 0.0594261 0.04415266
0.007807673 -0.028698 0.013675856 0.07309596 -0.028752694 0.003438053 0.034996685 0.02236591
0.0062780394 0.005960024 -0.040844653 0.03374412 0.032542456 -0.091251746 0.056714848 -0.057072774
0.07973683 0.024863278 -0.0039455662 0.08124176 -0.11582936 -0.014183212 0.047866814 0.04816801
-0.03969427 0.040045973 -0.07435849 0.0874024 -0.061840992 -0.009897422 -0.012034269 0.07028474
0.09868995 0.043008465 -0.048773047 0.00296196 -0.10130432 0.10093459 0.026020678 -0.01327277
0.052838035 0.07150007 0.005418777 -0.06875108 0.027750699 -0.05528039 0.06006267 -0.030768866
-0.017927643 -0.021430714 -0.07087663 0.023443429 0.08612644 -0.054506477 -0.05814592 0.042555824
0.035480738 0.029988905 0.0764734 -0.0693626 -0.062126733 -0.061606392 0.0010324422 0.06218823
-0.047739882 -0.020250972 0.015494093 0.013979077 0.059902396 -0.03355512 0.098193124 0.0778947
-0.01899486 -0.04060545 -0.08911449 -0.06132939 0.006486426 -0.08541479 -0.10942078 0.05072998
-0.077204496 0.045750488 0.04350689 0.064333744 0.014746922 -0.002641586 0.12227803 -0.055850185
-0.0025047727 0.0010519507 -0.110798284 0.045047533 -0.019497057 0.012820812 0.02479825 -0.021537887
0.03364901 -0.030075697 -0.013313015 -0.08376245 -0.03160185 -0.03334841 -0.10710561 -0.054032046
-0.04710471 0.04329747 -0.01472618 0.08577927 -0.0910944 0.032579523 -0.08236928 0.06336263
0.07083519 0.03896357 0.027234336 -0.052930754 0.038090657 0.09767732 -0.016984636 -0.019581657
0.10097041 0.10071461 0.109657206 -0.069798864 0.07467325 0.013333892 -0.07556991 0.0943083
-0.058572665 -0.012137343 -0.08925795 0.016943306 -0.030434225 0.1049008 0.051531225 0.07087665
0.054285627 0.051917695 0.06739642 0.03915023 0.037680488 -0.07214477 0.030761395 -0.061379988
-0.004486168 -0.059002243 0.09084639 0.024832055 -0.11388299 -0.098964386 0.06470634 0.04170506
0.102128595 0.032784384 0.023523388 0.021465419 -0.10842794 0.053197004 -0.034869768 0.019952385
-0.0596264 -0.0026069786 0.021891348 -0.037939474 0.02524075 0.06898406 0.029051162 0.0371902
0.06939657 -0.07398824 0.106648535 -0.037444115 0.05317837 -0.08034009 -0.07779 0.06609397
0.017821722 0.10931596 0.032412715 -0.054983523 0.05814482 0.07899284 0.02593545 -0.028144993
-0.0033127395 -0.071608454 0.07689569 0.032161146 -0.018564526 0.06709653 -0.04858783 0.06515953
-0.005263708 -0.061847355 -0.02216182 0.0042565647 -0.07321772 -0.032700628 0.0063985083 0.066013955
-0.087382905 -0.03242587 0.05080696 -0.078702606 0.008109096 0.034889273 0.029212002 -0.045540746
0.004477648 -0.035873145 -0.009921638 0.04715409 0.007948796 0.08768233 0.0883504 0.038226467
-0.059560772 -0.031764988 -0.04840983 0.025483724 0.030395223 -0.028085856 0.065409385 -0.062894374
-0.06108406 -0.009574282 0.005593356 -0.049011525 0.015219002 0.04443618 -0.078810275 0.096556075
0.02025726 -0.039312888 0.07605438 0.03574115 -0.029617237 0.09815883 0.027185699 0.0045024543
0.05512458 0.03173371 -0.023195973 -0.015076251 -0.03166 -0.04118314 0.027954077 0.008777468

fc2.bias f4 [64]
00000000: 0207 fa3c e541 0f3c 27c8 62bd 98ad 403d
00000010: 2d32 bbbd ae1e ccbc fa55 023d cef6 b73c
00000020: 30d7 d63d e566 d5bd 9415 c03c 4566 54bd
00000030: cd53 51bd 5894 91bc 75c1 e23c 952f 67bd
00000040: 6926 d73d 80db 633c 2460 6dba dd4b 253d
00000050: 6988 8b3c 2279 8bbd aa3f 883c 1406 63bd
00000060: b030 b0bd e86f 2dbd cca9 cabd 7573 a5bd
00000070: 1db1 04bb 867c 803c b0cd 393b 0d2e 5ebd
00000080: fe07 af3d 27cd 9cbd d8e4 96bd b292 90bd
00000090: 9d49 53bd 05c4 b0bd 31cf c13c e14b 74bd
000000a0: 0cf3 cb3b 336d 463d bc1d 203d 6e20 84bd
000000b0: 6c35 a2bc f125 f13c 637e df3d 7a70 a83c
000000c0: e332 3c3d 5d3a b8bd 14eb 82bd 7ea7 83ba
000000d0: 5d53 953c c3a3 993c 3a36 6ebd f8b0 083d
000000e0: 0def 0a3d db1d 1c3c 1853 cfbd cc24 cf3d
000000f0: bd08 90bc e2bf c93d e279 863b b503 30bc
0.03052092 0.008743738 -0.05536666 0.047040552 -0.0914043 -0.024916973 0.031820275 0.022456553
0.104902625 -0.10420016 0.02344779 -0.051855344 -0.05110531 -0.017770931 0.027680138 -0.056441862
0.10505373 0.013907313 -0.00090551586 0.040355552 0.017032819 -0.068102136 0.01663192 -0.05542572
-0.086030364 -0.04234305 -0.098956674 -0.08078662 -0.002024717 0.015684377 0.002835136 -0.054243136
0.08546446 -0.07656317 -0.07367867 -0.0705923 -0.051583875 -0.08631138 0.023658367 -0.059642676
0.006224042 0.048443984 0.039090857 -0.06451498 -0.019800864 0.029437037 0.10912778 0.020561446
0.045946967 -0.08995507 -0.06392494 -0.0010044423 0.018228227 0.018754845 -0.058157183 0.033371896
0.033919383 0.0095286025 -0.10123271 0.1011444 -0.017582292 0.09851052 0.004103885 -0.010743071

fc3.weight f4 [32, 64]
00000000: df48 01be a217 00bd 081b 9abd a8bd 0d3e
00000010: 095e c0bd 72a1 f2bd 4f5e 653d 30ce febd
00000020: c33d 6a3d 6c12 66bc 1667 193e ffc3 febb
00000030: d335 29bd 5c7f 8abd ea30 05bd aa21 d5bd
00000040: 6478 21bd 4de2 90bd faee 1a3b ea7b f63d
00000050: 5087 6fbc a68d 833d 7a07 31bd 449d 6c3d
00000060: 5e7f acbd cdd4 39bd 1438 9e3d ea0c 783c
00000070: 3767 8f3d 59d6 d4bd 86df 0bbe b1e9 0d3e
00000080: 424e 32bd 42a3 9cbd 7b1a ac3d ddc6 bf3d
00000090: 1445 ef3d a68b 9e3d 4bc1 163d b086 e13d
000000a0: f878 ddbd 8537 ec3d b0a9 a73d 4b58 4d3d
000000b0: e4c1 dcbd 5484 df3d f533 0cbe 2b3a f33d
000000c0: 6a49 dfbd a5a1 9c3d d470 a3bd 613b 1abe
000000d0: 7ea4 ba3d c8f8 9d3c 1777 eebc 7ad4 843d
000000e0: ccdc ba3d 7ee1 92bd 21b5 683d 9b50 a73b
000000f0: 97ca 933d bda0 89bd 3576 8ebd 5028 7ebd
00000100: 74fb 203d dc12 3a3d 3286 b1bd 16f4 1fbd
00000110: 3408 723c 9a56 bc3d e216 243e b3bb 133e
00000120: 1ee8 9d3b 5d6e f0bd 8bc9 1a3e 69f4 683d
00000130: df2a 1d3d 18d2 113c 7a5b 94bb e44f 273d
00000140: a434 8b3d 3c39 013c 5ca7 113e 8bb1 32bd
00000150: 00a5 5f3d a6ae 033d 0571 a63d 7667 7cbc
00000160: f2cd 9a3c d86f f4bd 72c0 793d fcc7 a4bd
00000170: cf75 70bc 1140 0fba 3437 e9bd c46f 423d
00000180: 59fb 143d f7bf 2f3d aec2 193d 8d39 2bbd
00000190: cafd c8ba c784 19be 6666 1d3e 4636 0ebe
000001a0: 46b5 aa3d 08fd 58bd ad7d a5bd 74ae 06bd
000001b0: 1648 e33c ec5c c43d 921c 8dbc 61e9 0cbe
000001c0: 63ff 233e f1ce 033d 5c15 913d 484c 243d
000001d0: 7a4b 1dbe 0051 563d 4fdb f13d 20c0 a6bd
000001e0: b050 b33c ad7d e0bc 0a66 8f3b 9d1b c13c
000001f0: 4a5e 26be 87ef 113e 7184 733d b0a1 6bbd
00000200: 56c6 05be a431 67bd e1c7 f53d aef2 0e3d
00000210: 0294 44bc c68f de3c 858a 14be 69ea d9bb
00000220: 60f2 dfbc 4ed6 943d 77be 7a3d a999 8d3d
00000230: c01a 60bc 8db9 bd3d 465d 033e 24ef 76bb
00000240: 213a 10bd 1c8e 93bd 4e0c 943b 8579 9d3c
00000250: 8d47 573c bcab 0a3e a7c5 70bd 24c1 a43c
00000260: 44fa ce3d b323 263d fcf7 acbd 69f7 473c
00000270: 1151 153d 2250 13bd bc79 a43d c13b e7bd
00000280: 00ba 23bd 9b76 db3c f971 d0bd 560b 8b3d
00000290: dbd2 c43d c849 0f3e 87c6 1c3b 3f53 003e
000002a0: 4129 e4bd 292a 19bd 4abe 75bd 108f 8ebd
000002b0: 2742 7fbb 6974 babd 9cc3 11be a112 20bb
000002c0: 4c5c a2bd 65c4 21bd 2fcb cabb d4df cabd
000002d0: a42b 20bd a561 bdbc 0102 09be 2a6c 34bd
000002e0: e5ae 12be d467 eebc 0faa 5d3d e0f7 09be
000002f0: c98e 143d 1bf0 05be 6b11 b0bd 40f3 f2bd
00000300: 2e53 d93c baea 0b3e 8a29 c2bd b5fb 293d
00000310: aa2b 25bd 59b1 913d 2732 633c 4772 a03d
00000320: b699 873d fc0e bfba e834 7b3c e01d c2bc
00000330: 6087 0b3d c779 803d 12a4 133b bdb2 9fbc
00000340: 82c8 193e a6a0 0d3e 76de 4ebd 9eea 8d3c
00000350: 8a0c 343d f902 21be 61e0 1f3e 3de2 fcbc
00000360: 51ef ecbd 7c3b 57bd 1404 c6bd f1c4 593d
00000370: 3408 54bc dad8 00be 9708 4f3d fe56 ed3d
00000380: 4373 89bd 8ca2 13be 2204 6abc bf68 17be
00000390: 7375 a33c 3cbc 0dbc 45cb 653b f9ac a23d
000003a0: cabb 56bd 1eac 26bd f49e ae3b 64c3 b93d
000003b0: efa9 d2bd 33a6 173e 8529 603d deec 2ebd
000003c0: ab35 443d b6dc c33d ac44 603d 719b bcbd
000003d0: 23be 0e3d 02ef 183d 0e04 af3c ae53 153e
000003e0: 1a3f a13c 6f24 e03b 945e 1fbe 46ce e1bc
000003f0: 7555 e9bd 98c7 663d 1c3c dfbc 24cc 1d3e
-0.12625454 -0.031272538 -0.07524687 0.1384188 -0.09392936 -0.118471995 0.055998143 -0.12441671
0.057187807 -0.014042478 0.1498073 -0.0077748294 -0.041311096 -0.06762573 -0.03251735 -0.104068115
-0.039421454 -0.070744134 0.0023640976 0.120353535 -0.014619663 0.06423502 -0.04322002 0.057767168
-0.08422731 -0.04536896 0.0772554 0.015139798 0.070021085 -0.10392446 -0.13659486 0.13858677
-0.043531664 -0.076483265 0.08403488 0.09364102 0.116830975 0.077414796 0.036805432 0.11012018
-0.108140886 0.11534027 0.08186662 0.05013303 -0.10779169 0.109139115 -0.13691695 0.11876329
-0.109026745 0.07648019 -0.07980505 -0.15061714 0.09113406 0.019283667 -0.02910952 0.06485839
0.09124145 -0.071719155 0.056813363 0.0051060445 0.07216375 -0.067201115 -0.0695614 -0.062050164
0.039302304 0.045428142 -0.08668174 -0.039051138 0.014772464 0.091962054 0.16024354 0.1442707
0.0048189303 -0.117398 0.15115945 0.056873713 0.038370963 0.008900188 -0.0045275064 0.040847674
0.0679715 0.007887181 0.14223999 -0.04362635 0.054600716 0.03214898 0.081270255 -0.015405526
0.01889703 -0.11935395 0.060974546 -0.080459565 -0.014676525 -0.0005464564 -0.11387482 0.04746987
0.036372516 0.04290768 0.037539177 -0.04180293 -0.0015334424 -0.14992057 0.15371093 -0.13887891
0.083353564 -0.052975684 -0.080806114 -0.032881215 0.027744334 0.09588036 -0.017225537 -0.13760902
0.16015391 0.032179777 0.07084152 0.04011181 -0.15360823 0.05232334 0.11809408 -0.08142114
0.02188906 -0.027403677 0.0043761777 0.023572737 -0.16246906 0.14251529 0.059452478 -0.057527244
-0.1306394 -0.056443825 0.120010145 0.034899406 -0.011998178 0.027168166 -0.14505966 -0.0066502583
-0.027337253 0.07267438 0.061216798 0.06914074 -0.013678253 0.09263907 0.1282855 -0.003767916
-0.035211686 -0.072048396 0.0045180684 0.019222984 0.013139618 0.13542074 -0.058782246 0.020111628
0.10106328 0.04056139 -0.08445737 0.012204983 0.036454264 -0.035965092 0.080310315 -0.11290694
-0.039972305 0.026789954 -0.101779886 0.067892715 0.0961053 0.13992989 0.0023922042 0.12531756
-0.11140681 -0.037393723 -0.059995927 -0.06960881 -0.0038949342 -0.09104235 -0.14234775 -0.0024425166
-0.079277605 -0.039493937 -0.006188772 -0.09905973 -0.03910412 -0.02311785 -0.1337967 -0.044048466
-0.1432453 -0.029102243 0.05411726 -0.13473463 0.036268983 -0.13079874 -0.08597072 -0.118628025
0.026528921 0.1366376 -0.09480579 0.041499812 -0.040324844 0.071139045 0.013866938 0.07834297
0.06621115 -0.0014576609 0.015332438 -0.023695886 0.03406465 0.06273227 0.0022528213 -0.019494409
0.15017894 0.13830814 -0.050505124 0.017323788 0.04395727 -0.1572379 0.15612938 -0.030869598
-0.115690835 -0.052546963 -0.096687466 0.053166334 -0.012941409 -0.12582722 0.0505453 0.11588858
-0.067114376 -0.14417475 -0.014283212 -0.14786051 0.019953465 -0.008650836 0.0035063785 0.07943148
-0.052425183 -0.040691487 0.0053290073 0.09070471 -0.102863185 0.14809494 0.054727096 -0.042706363
0.047902744 0.09563582 0.05475299 -0.092093356 0.034849297 0.03733731 0.021364238 0.14582703
0.01968341 0.0068402807 -0.15563422 -0.02756418 -0.11393253 0.05634269 -0.027250342 0.15409905

fc3.bias f4 [32]
00000000: 324c 693d 0f7d f7bb 5bba 91bd 9931 9f3d
00000010: b9f1 ad3d 1f20 8c3d 5f32 04bc 9df2 11bd
00000020: 06e5 20bd 0bb9 8ebd 3316 c1bd 55ad cd3d
00000030: d35f e9bd db68 01bc ecbb 9e3d c49d 063d
00000040: 997d f73d de03 a3bd 0c92 1f3c 7d69 073d
00000050: 6f38 333d 0962 89bd 1bd3 dcbd 92ca 703d
00000060: 6d78 573d d2ca 073e 6ad9 5abd f8a6 06bc
00000070: 398c f73d 5be4 c43d 8be9 fcbc 5683 c5bd
0.05695743 -0.00755275 -0.071156226 0.07773132 0.084933706 0.06842064 -0.00806865 -0.035631765
-0.039280914 -0.06968888 -0.09428062 0.10042826 -0.1139523 -0.007898535 0.07750687 0.0328653
0.12084503 -0.07959722 0.00973941 0.033059586 0.04375499 -0.06708152 -0.10782453 0.058786936
0.05260508 0.13260964 -0.05343 -0.008218519 0.12087292 0.09613868 -0.03087308 -0.09644191

fc4.weight f4 [5, 32]
00000000: 9f86 3dbd 0e2c e3bd c284 233e cca3 1cbe
00000010: 95d2 f33c 1470 a1bd 4acc 4dbe 3cb7 323d
00000020: d4da ee3d 3f30 0cbd e0bb b2bd cbff c0bc
00000030: 45b7 323e 6d79 9dbd 4a4a ae3d b63f 1cbe
00000040: cb43 04be 0e95 173e b4cd a1bd 1202 4e3e
00000050: 6304 3c3e 4005 4bbe ce11 2c3e f695 f73d
00000060: db04 2e3e 95e1 013e 5b69 173e 759f bcbd
00000070: e930 1abe b7b8 3dbe edc2 70bb eef5 4abc
00000080: c058 8dbd 3123 153e c032 00be 68c2 9dbc
00000090: 7aa6 72bd 4835 4a3d be08 7cbc 6995 86bc
000000a0: ebb9 60bd cfff 163e 8715 07be 6fcf d83d
000000b0: d879 163e 5496 243e bdd5 2d3e 168b 49be
000000c0: f14c e23d d233 3a3c 463d a83d 2895 9e3d
000000d0: 8777 9abc 0c71 09be 3205 40bc e0bf e93c
000000e0: 2c9e 023e 8a36 2abd b414 473d db94 e4bd
000000f0: 4e06 09be ba25 ec3d ce99 ecbd a767 f03d
00000100: e404 b83d 8116 e03b 1aa5 2c3c 3c24 313e
00000110: 56d4 edbc e6ae 2bbe 37b2 a5bd b143 1bbd
00000120: 83b7 8dbb 91a7 af3c 7607 8e3d d16f d5bd
00000130: f8a3 ce3d 5e42 edbd c3ce 90bd bb0a e73d
00000140: 48dc 423e cd64 d23d 8409 293e bbf9 83bd
00000150: 7158 66bd 8b88 32be c6ee 95bc e39f 04bd
00000160: ae28 90bd 8c2f f23d 3887 e8bd f6d2 0abb
00000170: de72 75bb 89ed 6dbd a941 2dbe 5a58 473d
00000180: 3ad6 febd 22d6 da3d b442 b93d e022 c6bc
00000190: f65c 0abe b1c4 58bc 5f8c 8abb 35de 4f3a
000001a0: 848e f5bd 19b5 5cbe aa24 563d a44d 373e
000001b0: 5c7a 71bd 761d f53d bfe1 193e 1561 04be
000001c0: e13a 0ebe c115 e6bd 0a33 02be 77a3 493e
000001d0: c8cd 3b3e 4bfd 39be 31c1 803d 23bf 39bd
000001e0: 5d65 bebd ed14 44be 8d42 2dbd 11ae 083e
000001f0: b99c 583d d11c 063c 5b91 b3bc 1c65 143e
00000200: 5863 c7bd 91b7 233e c13b 13be d07f 5d3e
00000210: fd05 22be 7c81 033e a4bf 1e3d 6663 01be
00000220: 2f80 f4bd 4cec 193e ef5a 603e c456 44be
00000230: 60e9 18be 65cd 43be ff43 88bd 28ff 463e
00000240: 090f 8bbd 7b38 8abd 3502 3bbe b46b 823d
00000250: 51fc 0cbe b9ec 143e 34f7 03be c56c 10be
00000260: f81e 53be fe87 3f3e 8dfc 71bc a7df 43be
00000270: 8399 653d 0746 8bbd 4a81 573e a587 43be
-0.046270963 -0.11092387 0.15968612 -0.15296859 0.0297635 -0.07882705 -0.20097461 0.043631777
0.11662832 -0.0342257 -0.087272406 -0.023559472 0.17452724 -0.07689176 0.08510263 -0.15258679
-0.12916486 0.14802954 -0.07900563 0.20117977 0.18361048 -0.19826221 0.16803667 0.1208915
0.1699404 0.12683709 0.14786284 -0.092101015 -0.1505772 -0.18527494 -0.0036737279 -0.012387736
-0.06901693 0.14564206 -0.1251936 -0.01925774 -0.059240796 0.04936722 -0.015382944 -0.016428666
-0.054864805 0.1474602 -0.13191806 0.1058644 0.14694917 0.1607297 0.16976066 -0.19681963
0.11049832 0.011364894 0.08214812 0.07743293 -0.018855823 -0.1342203 -0.011719989 0.028533876
0.1275565 -0.04155592 0.04860373 -0.111612044 -0.13381311 0.11530633 -0.115527734 0.1173852
0.08985308 0.00683862 0.01053741 0.17298979 -0.029031914 -0.16765937 -0.080906324 -0.037906352
-0.004324855 0.021442207 0.06935017 -0.10421718 0.10089868 -0.11584924 -0.07070687 0.112813435
0.19029343 0.102731325 0.16507536 -0.06444117 -0.056236688 -0.174349 -0.018302333 -0.032379042
-0.07039009 0.11825475 -0.11353916 -0.0021182871 -0.00374525 -0.05808786 -0.16919579 0.048668243
-0.12443204 0.10685374 0.09045926 -0.024186552 -0.13512024 -0.013230489 -0.0042281593 0.0007929535
-0.11990073 -0.21553458 0.05228106 0.17900711 -0.05895458 0.1196851 0.15027522 -0.12927659
-0.13889648 -0.11234618 -0.12714782 0.19691263 0.18340218 -0.1816303 0.06286848 -0.045348298
-0.09296677 -0.19148608 -0.042299796 0.13347651 0.052883837 0.008185581 -0.021919897 0.14491695
-0.09735745 0.15987994 -0.14378263 0.21630788 -0.15822597 0.12842363 0.03875698 -0.12635574
-0.119385116 0.15031546 0.21909688 -0.19173723 -0.14932775 -0.1912132 -0.06653594 0.19433272
-0.06789977 -0.06749054 -0.1826256 0.06368199 -0.13768126 0.14543428 -0.1288727 -0.14103992
-0.20617282 0.1870422 -0.014769685 -0.19128285 0.056054603 -0.06800466 0.21045414 -0.19094713

fc4.bias f4 [5]
00000000: b689 0c3e 2e9f 60bd 3ce2 4ebc 886d 3a3d
00000010: 89c2 ddbd
0.13724408 -0.054839306 -0.012627181 0.045514613 -0.1082812
