clean_code/trained_models/actor_930.pth (torch, 54872 bytes, 8 tensors)

fc1.weight f4 [128, 18]
00000000: 32e5 213e 8ac0 b43d cc2c 1ebe 4014 453e
00000010: 655b fe3d f1b0 83bd 96f3 003d 22ca d73c
00000020: 1bcd c43d f42d 8cbd 767a 14be 3b53 b73b
00000030: 8e97 5f3e e246 a93d 81cd 183e 7b57 053d
00000040: 7c33 68be ab00 833e be46 113e 5a47 2b3e
00000050: fe5f ae3d a95e 9ebd f360 913d 1f74 88bc
00000060: 0464 173e 47bf 533e 6e9a cc3d e19e 283d
00000070: 37f6 183e 7866 153e 0626 29be 2432 0cbe
00000080: 8be3 bbbd 2519 6f3d 4203 27be 4341 2b3d
00000090: 7650 1d3e ea34 b53d 144e 16be 1008 813d
000000a0: 2063 35be 454f 0b3d 3140 473e 727c 1e3e
000000b0: c8b3 78bd 5c76 33be bb4d d4bd 7041 373e
000000c0: d727 863e 8269 c53d 2975 833d 50ca d9bd
000000d0: a672 503e f210 673d 2eb4 023e dbb2 20bd
000000e0: 8664 2c3e 4558 d23c 5c0f 3cbe 5e89 0abe
000000f0: 2454 45be d028 41be ed4b ffbd b2a4 2a3e
00000100: a0d5 c63d 8d4a d6bd f034 553e 7719 3e3e
00000110: 0f10 b0bb 820f 40be 2199 2a3e 75e2 84bd
00000120: 3073 99bd 48b7 6f3e 37d8 0dbd aa3b 4fbe
00000130: 9ade 5a3e a662 233e f9cc c3bd 30f9 853e
00000140: 1b70 dfbc 5b89 213d fcd6 873d 35cb cb3d
00000150: 26d8 ce3c f429 06be 2c43 783e 9e76 2c3e
00000160: e61a 0ebe 56a9 593e b27b d33d 91a4 57bd
00000170: fa2b 223d ac4d 423e 5618 753e 40ea d6bc
00000180: 4051 a8bd ea26 b5bb 97a6 c53d 5373 35be
00000190: fb17 a1bc b3a2 243e 87d4 33be dfba 523e
000001a0: 6a0f 25be 522b 4e3e f7a4 743d 802f 563e
000001b0: 7ea7 0f3e 1d1a 7ebe d2a5 153e 0196 09be
000001c0: 9bd3 be3d 284e 2f3e 639e 333e 352a a13d
000001d0: d919 37be 6d29 25bb 2875 69be 0a3a d1bc
000001e0: e477 65be 60a7 1fbc 52a4 04be ad42 593d
000001f0: c3db 77be 21ee 0ebc e0d6 003d 09ad 1e3e
00000200: d21c 53be f3ed 54be 6401 08be f2a2 b63d
00000210: b574 553e 62a5 00be 27a3 343e f902 3fbe
00000220: e0e4 313e 8ab7 373e 95f7 a9bc c8f3 c93c
00000230: 9332 143e 803b 863b dc62 463d 19e0 18be
00000240: b107 51bb e2dc b2bd b97c 90bd 059e 2b3e
00000250: dbec 8abd 30eb 71be 5441 d7bd b80c 43be
00000260: ff0a d73b 9b1f 5ebe 3a7c d4bd d0ee 7ebe
00000270: 90bb 213e 97ab 57be f6f3 d6bd c989 42be
00000280: 0a3e 213d 414b 1e3e 7455 1e3e cdea 653e
00000290: abf3 673e 356c 8fbd a05d fd3d 8f90 5fbe
000002a0: a64f 683e b412 143e 043f 80bd aeb7 513e
000002b0: be6c d13d e09e 6e3e 87ba 2a3e 4fba f4bd
000002c0: 2185 8abd 6717 5c3e 4a0e 36be 5e35 bcbd
000002d0: cabc f7bd 7038 47be 0f47 1dbe c3ed 45be
000002e0: cf0b c43d 419b c73d 3343 3dbc 11f3 d93d
000002f0: aed5 4e3c c56f bb3c 578c b9bc cb36 8b3d
00000300: 3fdf 3abe f0c4 6ebd da81 63be 9f58 33be
00000310: 3df1 fe3d db77 063d 4715 4cbd ed65 4a3e
00000320: b478 d9bc 2609 f7bd bdd1 edbd d4c7 4f3e
00000330: 02b6 a03d 7bde 433e 1e40 313d 8bbb 97bd
00000340: 18ac fe3d 6937 e03d 4c63 50b8 6811 09bd
00000350: dab4 ccbd 54a6 fe3d aa32 31be 0bd7 6c3e
00000360: d4ee d5bd 9f3c b0bd cc8f 0f3e 5bd3 e7bd
00000370: a3cd 57be 863a 33bd 9ba2 5bbe 78b9 8d3c
00000380: 045a 42be 9560 31be f076 25bd 859a 3b3e
00000390: e744 12be c057 4cbb fa58 9a3d 0098 dfbd
000003a0: a3b3 123e ece9 173e 42c4 893e 7326 b2bd
000003b0: 5c36 9b3d 099b 56bd a7fd b33c ced7 7b3d
000003c0: ca3a 5c3e 03ca 613e b438 333e 6780 7a3e
000003d0: 2a79 f2bc 4b1d 7e3d 3c03 37be 6fac fcbd
000003e0: 00b9 973c 8aca 133d 2e60 8dbc ca59 a3bd
000003f0: d918 643e 5e9f 5fbd 8b3b 9d3b 23d2 033d
0.15810087 0.088257864 -0.15446776 0.19246006 0.12419776 -0.06430233 0.0314823 0.026341502
0.09609433 -0.06844702 -0.1449984 0.0055946386 0.21835157 0.08265473 0.14922144 0.03255413
-0.2267589 0.25586447 0.14187142 0.16726437 0.08514403 -0.07732899 0.0709857 -0.016656933
0.14784247 0.20678435 0.099903926 0.041167144 0.14937674 0.1458987 -0.16518411 -0.13691002
-0.0917426 0.05837359 -0.16309837 0.041810285 0.15362725 0.08847983 -0.14678222 0.06300366
-0.17713594 0.034011144 0.19458081 0.1547716 -0.060718328 -0.1752562 -0.103663884 0.17896056
0.2620227 0.09639265 0.06418831 -0.10634291 0.20356235 0.056412645 0.12764046 -0.03923307
0.16835222 0.025676856 -0.18365234 -0.13528964 -0.19270378 -0.18863225 -0.124656536 0.16664389
0.097087145 -0.10463438 0.20820975 0.18564402 -0.005373008 -0.18755916 0.16659977 -0.06488506
-0.074926734 0.2340976 -0.034630027 -0.20237604 0.21373978 0.159556 -0.0956058 0.26166677
-0.027275136 0.039437633 0.06632802 0.09950868 0.025249552 -0.13101941 0.24244374 0.16842124
-0.13877448 0.21256003 0.103263274 -0.052647177 0.03959272 0.18974942 0.23935065 -0.026234746
-0.08218622 -0.0055283206 0.09650915 -0.17719774 -0.019664755 0.1607769 -0.17561541 0.20579098
-0.16119161 0.20133713 0.059727635 0.20916557 0.14028737 -0.24814649 0.14614037 -0.13436128
0.09317704 0.17119658 0.17540888 0.078693785 -0.17880954 -0.0025201694 -0.22798598 -0.02554037
-0.22409016 -0.009744495 -0.12953308 0.053042103 -0.24204926 -0.008723767 0.03145492 0.15495695
-0.20616463 -0.20793895 -0.1328178 0.08917798 0.20845301 -0.12563089 0.17640363 -0.18653478
0.17372465 0.17941108 -0.02074794 0.024652377 0.14472418 0.0040964484 0.048434123 -0.14929236
-0.0031895454 -0.08733536 -0.07055039 0.16759498 -0.06783458 -0.23624873 -0.10510507 -0.1904782
0.00656259 -0.21691744 -0.10375257 -0.24895787 0.15794206 -0.2106155 -0.104957506 -0.18997873
0.039365806 0.15458395 0.15462285 0.2245285 0.22651546 -0.07003061 0.12371373 -0.21832488
0.22686633 0.1446026 -0.06262019 0.20480224 0.10225819 0.23302794 0.16672717 -0.11949598
-0.067636736 0.21493302 -0.17778888 -0.091898665 -0.120965555 -0.19455123 -0.15359138 -0.1932898
0.09572565 0.09746409 -0.011551666 0.10642064 0.012624187 0.022880444 -0.022649927 0.0679756
-0.18249224 -0.058293283 -0.22217503 -0.17514275 0.12448356 0.032829147 -0.04982498 0.19765444
-0.026546814 -0.12062292 -0.1161227 0.20291072 0.07847215 0.19127838 0.043274038 -0.07408818
0.12435168 0.10948069 -4.9683542e-05 -0.033463866 -0.09995432 0.12434068 -0.17304483 0.23128907
-0.104459435 -0.086053126 0.14019698 -0.1131961 -0.21074538 -0.043756984 -0.21448748 0.017300352
-0.1897965 -0.17322 -0.04039663 0.18320663 -0.14284097 -0.0031180233 0.07536502 -0.109176636
0.14326338 0.14835328 0.26907545 -0.0869874 0.075787276 -0.052393947 0.021971537 0.061485104
0.21506801 0.22049718 0.175021 0.24463044 -0.029598791 0.062039655 -0.17872328 -0.123375766
0.018520832 0.03608183 -0.017257776 -0.0797611 0.22275104 -0.054595344 0.004798358 0.032182824

fc1.bias f4 [128]
00000000: c5b5 1b3e 199b 243e 4482 263e e217 3b3e
00000010: fd53 c03c efb7 a93d 3f80 2d3d 6f2e c5bd
00000020: 2c05 d83d 13f2 36be 5e9b 5ebe 34bc 743e
00000030: ecc6 203e 85ed 6fbd 12e9 b43d a9ee 6c3e
00000040: 63bc 4e3c f2b2 583e 5d65 22be ff6c c93d
00000050: 389c 363e af2d a93d 6fcd 20be 7e26 c93c
00000060: 9207 51be 646b db3d 5b43 9c3c 4a7d 413e
00000070: 9b6d b6bd 3f8a 823d 861a a9bb d7a7 48be
00000080: 5162 773d 252e 7f3e a0ee bd3d d088 b9bd
00000090: fa8f eebd f35c 2b3c e768 8b3e 183e 1dbe
000000a0: 0148 ab3c ac22 3f3e 9c0d 32be a492 813e
000000b0: 2071 a6bd c320 513e c406 873e 2363 323e
000000c0: 25f2 833e 4aac 13be 1b55 e03d 9b15 51bd
000000d0: f7cf 19be 1096 87be 0ef6 44bd b22f 893e
000000e0: ef46 933c e296 7c3e 3970 41be ca66 10bc
000000f0: ba45 46bd 70d3 803e 1fca b43c 585d 1fbe
00000100: 442e eb3d 1089 61be 602c b93c 6457 b83d
00000110: 390a 8ebd bd51 293e 80c2 823e a9d1 a43d
00000120: e9a2 0ebe bf96 5d3d 4726 35be bb29 183e
00000130: 08b2 333e 649b 62bc 0800 623e c976 143e
00000140: a509 4f3d efdb 27be 520b 78be 5226 2abe
00000150: fca3 bf3d 3ab5 093e 1826 bdbd eff8 88bd
00000160: 4265 dcbd f179 453a 685e 0c3e f3e8 84bc
00000170: 7702 b83c 5533 693e add1 513e 8c79 89be
00000180: 7f07 e83d d457 57be f841 51be 31df 3c3d
00000190: 32c4 273e 13df 4cbe 1e21 243e 7069 78bd
000001a0: 8713 083e 8502 563e ef5c 113d 74e3 25be
000001b0: 3120 263e 170f 0c3e 85ae c2bd 9a1f fcbc
000001c0: f7f6 16bc 081a 5e3e a54e 2abe 1a47 823e
000001d0: d60f 13be afb8 2ebe 58a2 26be 1b56 5c3e
000001e0: 5ef7 833d b0be fb3c ff5e 323e 3998 7a3d
000001f0: 3ed8 71be ce48 3a3e 027b bd3d a706 16be
0.15206058 0.1607479 0.1626063 0.1827083 0.023477549 0.08287036 0.042358633 -0.09627997
0.105478615 -0.17865781 -0.21738955 0.23899919 0.15700883 -0.058576126 0.08833517 0.23137917
0.012618157 0.21162012 -0.1585898 0.098352425 0.1783303 0.082606666 -0.15703367 0.024554487
-0.20413044 0.107138425 0.019075086 0.1889545 -0.08907624 0.063740246 -0.0051606325 -0.19595276
0.060396496 0.24919946 0.0927403 -0.09059298 -0.11648555 0.010459173 0.27228472 -0.15355718
0.020908358 0.1866557 -0.17388004 0.2530719 -0.08127046 0.20422654 0.2637235 0.1742063
0.2577068 -0.14421192 0.109537326 -0.051045995 -0.15020739 -0.26481676 -0.04808622 0.267942
0.01797816 0.24666932 -0.18890466 -0.008813569 -0.04840634 0.25161314 0.022069035 -0.15562952
0.11483434 -0.22024941 0.022604167 0.090010434 -0.069355436 0.16535087 0.25539017 0.08047802
-0.13929333 0.05409884 -0.17690383 0.14859669 0.17548382 -0.013830993 0.22070324 0.14498438
0.050546307 -0.16392492 -0.24223068 -0.1661618 0.093574494 0.13448039 -0.092357814 -0.06688105
-0.10761501 0.00075331243 0.13707888 -0.01622436 0.022462113 0.22773488 0.20490141 -0.26850545
0.11329555 -0.21029598 -0.20435321 0.04611129 0.16383436 -0.20006971 0.16028258 -0.060647428
0.13288699 0.20899399 0.03548902 -0.16200048 0.16223218 0.13677631 -0.09505943 -0.030776788
-0.009214154 0.21689618 -0.16631563 0.2544487 -0.1436151 -0.17062639 -0.16272867 0.21517222
0.06443666 0.030730575 0.1741905 0.061180327 -0.23617646 0.18191835 0.092519775 -0.14650975

fc2.weight f4 [64, 128]
00000000: 47ad 933d 59c7 f0bc 12a6 bd3c 8a60 9abb
00000010: 32f3 663d cca0 633d 2f42 6b3d 3577 3e3d
00000020: e7d3 bd3b 0ce9 d4bc 250e 433c b1f2 993d
00000030: 3e6b f9bc 7b79 ae3b 7c98 1a3d eba1 c13c
00000040: cf75 0d3c 0acf 143c c2cd 30bd 9f4d 113d
00000050: f02c 043d bb79 bfbd ff08 663d 9d8a 70bd
00000060: 613e a43d fc6c d83c 8c12 6dbb 66fc aa3d
00000070: 102c f0bd ad89 82bc d483 483d 8e61 3e3d
00000080: bcb7 1bbd efac 2b3d 03a2 9abd af22 b53d
00000090: 2c03 84bd 5f24 3abc 99b7 06bc 1a7f 8f3d
000000a0: 45f9 ce3d b251 1b3d 4c86 59bd d014 853b
000000b0: bd7d d2bd ea80 d33d de47 ec3c 09a8 febb
000000c0: 8970 603d a081 903d 9d98 ff3b 4622 88bd
000000d0: ca4f f03c ddf1 68bd 79d2 733d ad3f e9bc
000000e0: 97e4 9ebc edb4 a3bc 6546 96bd 275d b53c
000000f0: aaf7 b53d 6127 57bd a3f8 65bd cd0e 263d
00000100: 5068 103d 39af da3c d470 9f3d c217 94bd
00000110: 2ba9 78bd 2be5 74bd 3757 c73a 08f0 843d
00000120: 7e23 4cbd 0bce 90bc ed64 593c e455 4d3c
00000130: 300b 753d e699 0cbd 9e27 cd3d e45e a03d
00000140: 3c96 b0bc f3b7 30bd 66ad bbbd 1639 81bd
00000150: c47d a23b 95b6 b0bd ce59 e3bd a66e 483d
00000160: 9391 a1bd 34bc 303d e1ab 383d 5107 883d
00000170: e662 833c 5c58 9eba 9a0d 033e 6724 6dbd
00000180: ca52 aabb 2e1b a1ba b10a e7bd bc2f 303d
00000190: 4aa5 a0bc 062c 353c 3287 e13c 8ad0 c1bc
000001a0: 2540 023d 72e1 edbc 6504 66bc 2658 adbd
000001b0: a4de 09bd 54ae 00bd b7d1 ddbd fa8f 58bd
000001c0: baae 3dbd 38e1 393d 61e0 6dbc 7207 af3d
000001d0: c25c bebd 0d27 0b3d e7cf acbd c266 853d
000001e0: 5881 953d 5502 243d 38fe e63c 2235 53bd
000001f0: 58f2 123d 51d3 cc3d be15 78bc e89a a8bc
00000200: ff00 d13d fbe4 ce3d ccb0 e13d 3870 8fbd
00000210: 2a2d 9a3d 510f 503c 49f4 9abd 41af c13d
00000220: 933c 6ebd bb5a 2bbc 70f8 b7bd 0004 923c
00000230: f976 febc f909 d43d 2f88 553d e604 913d
00000240: a032 623d 2900 583d 5acf 873d d815 233d
00000250: 1c1d 1c3d e175 94bd 5be6 f73c ba7f 7cbd
00000260: 75a8 b0bb e965 6dbd 8456 ba3d 26a5 ce3c
00000270: 83c9 e9bd 38b6 cabd bd53 883d ad0f 2a3d
00000280: b6b6 d03d fc5c 073d 79a8 c43c c9b6 b03c
00000290: c8cf dfbd 51e8 583d e743 0dbd a5e5 a03c
000002a0: de2f 6fbd aba7 a2bb 58df a63c bf0d 1ebd
000002b0: 7950 ce3c b5fd 8d3d 9a27 f03c 26ec 1b3d
000002c0: 0cc0 8e3d 940c 96bd 94de da3d c20e 17bd
000002d0: 6af4 5a3d 3fa7 a4bd 0ded 9ebd 432f 883d
000002e0: 51c3 943c 0f37 e03d 7659 023d 6973 62bd
000002f0: 2272 733d 5775 a23d 5304 dc3c ac87 e9bc
00000300: dcc6 2bbb 3849 93bd 7bed 9d3d a1b0 ff3c
00000310: 6dd4 94bc 16ff 8b3d 6bb0 45bd eede 883d
00000320: 2a02 a7bb 0968 7bbd 26b7 bbbc 8ccd 993a
00000330: e75a 93bd 8e14 07bd ae24 d93b 0988 8a3d
00000340: fef3 b3bd 6bdd 05bd 9788 4d3d a45b a2bd
00000350: b73a e73b fbc8 093d 9f16 eb3c 3e02 3abd
00000360: 52c8 663a a90e 18bd 1f34 2ebc 91e4 413d
00000370: ff64 0e3c e4cd b33d f1cf b83d 9698 1b3d
00000380: 02d0 79bd f861 04bd ff81 48bd 0974 cb3c
00000390: 2fa9 ff3c b945 e6bc 6043 873d 7ecf 81bd
000003a0: 4a73 7cbd 4ee6 24bc e7dc a13b 42cf 4cbd
000003b0: 7ddd 783c 4284 383d bac7 a3bd ce64 c53d
000003c0: 5199 a93c e5e9 1abd 2031 9b3d 20ce 063d
000003d0: 0973 f3bc 6bde c93d 5477 da3c 84e9 973b
000003e0: eb60 633d c5be 003d bd30 b6bc e340 82bc
000003f0: c43b 03bd 6667 29bd 5c13 ec3c 8c4d 003c
0.072107844 -0.029391931 0.023150478 -0.0047112154 0.056384273 0.05557327 0.057436164 0.046500403
0.005793083 -0.025990032 0.011905228 0.07516993 -0.030446645 0.00532454 0.037743077 0.023636779
0.008634045 0.009082565 -0.043164976 0.035474416 0.03226942 -0.0934939 0.056160923 -0.058725942
0.0801971 0.026419155 -0.0036174385 0.083489224 -0.11727154 -0.01593479 0.048953846 0.046479754
-0.03801702 0.04191297 -0.075504325 0.08844506 -0.064459175 -0.011361211 -0.008222484 0.070066646
0.10106138 0.037919708 -0.05310659 0.004061319 -0.10277889 0.10327323 0.028842863 -0.007771496
0.054794822 0.07055974 0.0078001753 -0.06647162 0.029334921 -0.056871284 0.059526894 -0.028472746
-0.01939611 -0.019983733 -0.073376454 0.022139145 0.08885129 -0.05252779 -0.05614532 0.04054146
0.03525573 0.02669488 0.07785192 -0.07231094 -0.060708206 -0.059788864 0.0015208487 0.06491095
-0.049838535 -0.017676374 0.0132686915 0.012532685 0.059825122 -0.034326456 0.10017322 0.07830599
-0.021556012 -0.043144178 -0.091639325 -0.063097164 0.00495884 -0.08628575 -0.11101113 0.048933648
-0.07889094 0.043148234 0.04508579 0.066420205 0.01603837 -0.0012080777 0.12798157 -0.057896044
-0.0051978575 -0.0012291425 -0.11281336 0.043014273 -0.019610066 0.011057859 0.027530286 -0.02365901
0.031799454 -0.029038165 -0.014039134 -0.084640786 -0.033659592 -0.031416252 -0.108310156 -0.05287168
-0.04630921 0.0453808 -0.014518828 0.08546342 -0.09295036 0.03397279 -0.08438092 0.0651374
0.07300061 0.040041286 0.028197393 -0.051564343 0.03587565 0.10001243 -0.0151419025 -0.020581678
0.10205268 0.10102268 0.110200495 -0.07003826 0.075281456 0.012698964 -0.07566125 0.09457255
-0.058163237 -0.010458644 -0.089829326 0.017824173 -0.03106259 0.10353465 0.052131828 0.070810124
0.05522406 0.052734528 0.06631346 0.039815754 0.0381137 -0.07249046 0.03026121 -0.061645247
-0.0053911754 -0.057958517 0.09098533 0.025225233 -0.114153884 -0.09898037 0.06656597 0.041518856
0.10191099 0.03304766 0.024006115 0.021571534 -0.10928303 0.05295593 -0.034488585 0.019640753
-0.05839526 -0.0049638352 0.02037017 -0.038587328 0.025184857 0.069331564 0.029315758 0.038067006
0.06970224 -0.07326618 0.10686985 -0.03687931 0.053455748 -0.08039712 -0.077600576 0.066496395
0.01815954 0.109480016 0.031823598 -0.055285845 0.059435017 0.07932537 0.02685753 -0.028507076
-0.0026211059 -0.071917 0.077113114 0.031212153 -0.018167699 0.06835763 -0.04826395 0.066831455
-0.0050966935 -0.061378513 -0.02291448 0.0011734231 -0.071950726 -0.032978587 0.006626687 0.06764228
-0.08786772 -0.032681864 0.05017909 -0.07927635 0.00705656 0.033638936 0.02869731 -0.045412295
0.0008803654 -0.037123356 -0.010632544 0.04733712 0.0086910715 0.08779505 0.09024037 0.037987314
-0.060989387 -0.032319993 -0.0489521 0.024835603 0.031208603 -0.028109418 0.06604648 -0.06338404
-0.061633386 -0.010064675 0.0049396637 -0.050002344 0.015189526 0.045048006 -0.07997079 0.096383676
0.02070299 -0.037820715 0.07577729 0.03291142 -0.029717939 0.09856876 0.026668228 0.0046359915
0.05551235 0.031431932 -0.022240037 -0.015900081 -0.03203942 -0.041358374 0.028817825 0.007830989

fc2.bias f4 [64]
00000000: 884b 023d 28af 113c 6b24 63bd a2ee 383d
00000010: 6bd6 babd a000 c0bc 6f8d 053d f596 cb3c
00000020: f3c5 d23d 3699 d5bd 3ec3 c23c 7070 52bd
00000030: 7b0e 42bd 07ef 85bc f632 e23c 5785 64bd
00000040: b689 de3d 2d70 5f3c 35ce e5b9 d717 243d
00000050: 4bbe 823c 1501 8abd 9fd3 873c 0fa1 62bd
00000060: 42c1 adbd bfa3 2cbd bce3 cabd 621c abbd
00000070: d1e1 a9ba c33b 803c 874c 443b 8fe5 5ebd
00000080: d36f b03d ddf5 9abd 8fde 94bd 4ed3 92bd
00000090: 3ec2 53bd 476e b0bd 4ff2 c53c 13df 80bd
000000a0: e13e 3f3c 91e9 423d a980 1e3d 5ce3 82bd
000000b0: f26a 9cbc 2005 dc3c 6201 e13d 32db a63c
000000c0: 38a6 403d 059e b8bd a0be 83bd 4f24 d7b8
000000d0: d302 923c 87ac 9c3c 3c7f 6dbd 6461 043d
000000e0: 15ac 0a3d 7c57 253c 3c23 cfbd e977 d13d
000000f0: f60c 8bbc 773a ce3d 3f04 903b e2d9 33bc
0.031810313 0.008891858 -0.055454653 0.045149453 -0.09122928 -0.023437798 0.032605585 0.024852255
0.10291662 -0.10429613 0.02377474 -0.05137676 -0.04737709 -0.016349329 0.02761219 -0.055791225
0.1086611 0.013637585 -0.0004383192 0.040061798 0.01595988 -0.06738488 0.016580401 -0.05532938
-0.084841266 -0.042148348 -0.09906718 -0.08355023 -0.0012960975 0.015653497 0.002995284 -0.054418143
0.08615079 -0.07566426 -0.07269012 -0.071692094 -0.051698916 -0.08614784 0.024163393 -0.06292548
0.011672706 0.047586028 0.03869692 -0.063910216 -0.019093964 0.026857913 0.10986592 0.020368192
0.04703352 -0.09014515 -0.06432843 -0.00010258762 0.017823612 0.019125236 -0.05798267 0.03231944
0.033855516 0.010091659 -0.10114142 0.10227949 -0.016973954 0.10069745 0.0043950374 -0.01097724

fc3.weight f4 [32, 64]
00000000: 47c4 08be ec4f 1fbd 61f5 8ebd b1bf 103e
00000010: f945 b4bd 2c51 05be a36c 3f3d 2cb0 06be
00000020: 7e9d 4a3d dfa3 0ebc 0320 113e 7c46 b4ba
00000030: 3718 53bd a267 9bbd 7588 e0bc 6d8f c7bd
00000040: 25bb 3ebd b465 a7bd 00a5 cebb f6ba 013e
00000050: 917b 00bc f17b 913d 81e4 5abd f614 823d
00000060: c15c a0bd cbfd 1bbd 496b ac3d bf44 ac3c
00000070: 3931 743d d50e c7bd 56cb 07be 70c9 043e
00000080: 169e 4cbd 0583 91bd 9ccf b33d 49dd cb3d
00000090: ed00 fa3d 6377 aa3d 917b e53c ac42 e03d
000000a0: 98c7 debd cc04 de3d e5a8 b23d 7f96 653d
000000b0: 23a3 d0bd 16d3 d13d 7421 15be 66d9 013e
000000c0: 74f7 f2bd 291f a93d a81b b3bd 45ef 14be
000000d0: 6136 ce3d 588d 163c dc0d 1cbd 5d31 6e3d
000000e0: 1324 a83d 87d8 84bd 6042 843d 7866 b9bb
000000f0: 7b0d a03d 93a3 a2bd ca8a 7fbd cac7 8fbd
00000100: 5331 373d 252c 503d b404 b9bd 1455 31bd
00000110: 52dd 2d3c 6d50 cd3d 8d7e 2a3e 3720 1b3e
00000120: a174 3a3c 39db f8bd b5d2 223e 4b61 513d
00000130: 03ca 403d 70c0 753c b0d1 12bc a02c 0c3d
00000140: b51d 973d 3000 873c 7383 183e 9b45 46bd
00000150: c842 4b3d c2ea cf3c 7a0a b63d e915 abbc
00000160: 937b 4d3c e8b4 00be 9358 653d 0c43 adbd
00000170: 99fc d7bb 6248 b4bb 281b f4bd eb62 5e3d
00000180: ce3d 273d 516c 1e3d 2ef8 083d 8660 42bd
00000190: 2a8e a3bb a0b6 1dbe 8cb7 243e c9ec 0dbe
000001a0: b638 ac3d dc15 3cbd eda8 aebd 14f5 19bd
000001b0: 6716 ad3c cf1f d53d a747 31bc f30f 13be
000001c0: d03f 2b3e 6526 e63c c690 9d3d 321c 043d
000001d0: 02fe 23be d764 763d dd2c ff3d 4e4e 9abd
000001e0: a7cf ea3c 0a0b 0dbd 77ec 16bb 4c99 003d
000001f0: c885 2cbe ab14 1b3e 2823 593d f78e 50bd
00000200: 21db 05be c25e 67bd 7bd7 f53d 5ac9 0f3d
00000210: 6afa 43bc 46ca dd3c f299 14be 5bb4 e0bb
00000220: 8655 e0bc 0edf 943d a489 7a3d 25a6 8d3d
00000230: 476c 63bc 7085 bd3d 9e68 033e ed8b 75bb
00000240: 94a4 10bd 6de1 93bd 990c 933b 25ba 9d3c
00000250: 7ce6 573c e5b1 0a3e 5241 71bd 1fef a43c
00000260: 8e13 cf3d 8b28 263d 41d9 acbd e5e2 483c
00000270: 17e5 143d 1a27 13bd 277b a43d 7555 e7bd
00000280: c1e4 23bd f6ce db3c 4972 d0bd 320f 8b3d
00000290: 60e2 c43d 4053 0f3e 5f02 143b 8466 003e
000002a0: 7915 e4bd e839 19bd 817a 75bd e57e 8ebd
000002b0: bb24 7bbb 6e68 babd 3fd4 11be d236 1cbb
000002c0: d078 a2bd dab5 21bd be42 ccbb c2c9 cabd
000002d0: c3d0 1fbd c407 bebc ab12 09be 5a82 34bd
000002e0: 6bba 12be 1494 edbc 24e6 5d3d 3712 0abe
000002f0: 959e 143d ab1f 06be 55d9 afbd 73fb f2bd
00000300: 77b7 c63c b2b7 093e f25d bfbd 947d 323d
00000310: 65cd 1ebd cf12 873d 5521 383c cc33 963d
00000320: 7c99 813d f5c5 7db7 9382 433c ce6a b3bc
00000330: 0488 de3c 0792 743d 8ecb 8a3b 77fb 88bc
00000340: beca 163e 27b2 073e b9a4 5ebd af29 9c3c
00000350: 84e6 3c3d 01fd 1dbe 545b 1c3e 8a30 eebc
00000360: c175 e7bd 83e1 47bd f510 c3bd 7a17 613d
00000370: 3797 8abc d52c fdbd d1f1 553d 14d5 e73d
00000380: 2913 8dbd dbd8 11be aa58 58bc de3f 14be
00000390: 5636 ad3c 5fc0 e5bb a276 29ba 863e 9c3d
000003a0: c669 58bd c8f2 33bd 9878 023c 1870 bd3d
000003b0: 74df c8bd ae68 113e 25a7 523d f36b 23bd
000003c0: b88f 353d 3421 c73d cae0 573d 4fd9 b7bd
000003d0: 9803 1c3d 3b83 063d f4d2 983c 68ff 123e
000003e0: eb2e 8a3c 68b0 363c 85ce 1bbe f35a 01bd
000003f0: 0171 e5bd 5a20 4e3d a637 c3bc e69f 1a3e
-0.13356124 -0.03889458 -0.06980396 0.14135624 -0.08802409 -0.13019246 0.046734463 -0.13153142
0.049466603 -0.008706062 0.14172368 -0.0013753916 -0.051536765 -0.07588126 -0.027408818 -0.09744153
-0.046565194 -0.08173695 -0.0063062906 0.12668976 -0.0078419605 0.07103718 -0.053440575 0.06351654
-0.078301914 -0.038083833 0.084189005 0.021028874 0.059617255 -0.09719626 -0.1326116 0.12967467
-0.04995545 -0.07105068 0.08779833 0.09954316 0.12207208 0.083235525 0.028013023 0.10950217
-0.10877913 0.10840759 0.0872362 0.056051727 -0.10187366 0.102453396 -0.14563543 0.12680587
-0.11863604 0.082578965 -0.087455094 -0.14544399 0.10068966 0.009188972 -0.038099155 0.058152545
0.082100056 -0.06486612 0.064579725 -0.005657967 0.07815071 -0.079413556 -0.06238822 -0.070205286
0.044724774 0.05082335 -0.090341 -0.043294027 0.010611849 0.100251056 0.16649838 0.15149008
0.011380346 -0.121511884 0.15900691 0.051118176 0.047067653 0.014999494 -0.008961126 0.034222245
0.07378713 0.016479582 0.14893894 -0.048406225 0.049624234 0.025380496 0.08888717 -0.020884471
0.012541669 -0.1256901 0.055992674 -0.08460054 -0.0065913913 -0.0055017928 -0.11919242 0.054293554
0.040830426 0.038677517 0.033439808 -0.047455333 -0.0049913125 -0.15401697 0.16085643 -0.13859858
0.08409254 -0.045919284 -0.08528314 -0.03758724 0.021128846 0.10406458 -0.010820306 -0.14361553
0.16723561 0.02809448 0.07693629 0.03225345 -0.16014865 0.060154762 0.12459729 -0.07534467
0.02866347 -0.034434356 -0.0023029128 0.031396195 -0.16847908 0.15144603 0.053012043 -0.050917592
-0.13071872 -0.056486852 0.1200399 0.035104133 -0.011961559 0.02707399 -0.1451185 -0.0068574375
-0.02738453 0.07269107 0.06116642 0.06916455 -0.013880796 0.09253967 0.12832877 -0.0037467435
-0.035313204 -0.07220731 0.0044875857 0.0192538 0.01317751 0.13544424 -0.058900185 0.020133553
0.10111152 0.04056601 -0.084398754 0.012261127 0.03635129 -0.035925962 0.08031302 -0.112955965
-0.04001308 0.026832085 -0.10178048 0.06790008 0.0961349 0.13996601 0.002258442 0.12539107
-0.11136908 -0.03740874 -0.059931282 -0.06957797 -0.0038321454 -0.0910195 -0.14241122 -0.0023836386
-0.079331994 -0.039480068 -0.006233542 -0.099017635 -0.03901745 -0.023197062 -0.13386028 -0.044069625
-0.14328925 -0.029001273 0.054174557 -0.13483511 0.036284048 -0.13098018 -0.08586375 -0.118643664
0.024257405 0.1344898 -0.093440905 0.043576792 -0.0387701 0.06595384 0.011238416 0.07334098
0.06328103 -1.5126066e-05 0.011932987 -0.021901514 0.027164467 0.059709575 0.0042356914 -0.01672147
0.14725778 0.13251553 -0.05435631 0.019062845 0.046118274 -0.15428545 0.15269214 -0.02907588
-0.11301757 -0.04879905 -0.09524719 0.05495403 -0.016917808 -0.12362067 0.052232567 0.11319938
-0.0688842 -0.1424288 -0.013204733 -0.14477488 0.021144073 -0.007011458 -0.0006464516 0.07629113
-0.05283525 -0.043932706 0.007963322 0.09249896 -0.09808245 0.14200088 0.051428933 -0.03989787
0.044326514 0.0972313 0.05270461 -0.08976995 0.038089365 0.032839995 0.018655278 0.14355242
0.016868075 0.011150457 -0.152155 -0.031580877 -0.112031944 0.05032382 -0.023830246 0.15100059

fc3.bias f4 [32]
00000000: f3d1 5a3d 1ee6 a8bb 0bc1 91bd 796e 9d3d
00000010: 1c7b ad3d ec38 913d 751e d8bb efc5 11bd
00000020: 84b6 22bd f81b 90bd 151a c1bd c538 ce3d
00000030: 2fa9 e9bd eaf4 f5bb 0657 a03d 0e3d 033d
00000040: 51ea ed3d 4be3 a4bd 217a 113c 777a 0a3d
00000050: 17c2 333d 8a4b 88bd 69c4 dcbd 3194 703d
00000060: 898c 573d 0a1e 063e 4b72 56bd 11e7 06bc
00000070: a265 f83d 038b c73d 7f77 f1bc 5077 c5bd
0.05342288 -0.005154385 -0.07116898 0.076870866 0.08470747 0.07090935 -0.0065954276 -0.035589155
-0.03972484 -0.070365846 -0.09428803 0.10069422 -0.11409222 -0.0075060027 0.078290984 0.03204065
0.11616958 -0.08051165 0.008879215 0.033808198 0.04388627 -0.06655033 -0.1077965 0.058735076
0.05262426 0.13097396 -0.052355092 -0.008233801 0.1212876 0.09743311 -0.029475925 -0.09641898

fc4.weight f4 [5, 32]
00000000: 710f 40bd aedc debd bd15 233e 0d4e 1bbe
00000010: 8c49 ef3c 0b60 9ebd 4da0 4cbe f73a 303d
00000020: 21e3 ed3d 97a7 04bd dd5c afbd 4a5a c6bc
00000030: 4a3a 323e 63b6 9ebd b848 ac3d 3a59 1bbe
00000040: ee5c 04be 2391 163e 6ae1 a2bd 8577 4d3e
00000050: 698c 3b3e 5d77 49be 158e 2b3e 9c29 f53d
00000060: 5807 2d3e c869 033e 6f15 163e 6755 bebd
00000070: 6217 19be ef3d 3dbe 809b 1cbb 75ac 51bc
00000080: 9fd6 8fbd 30f3 173e 7471 02be d1f1 84bc
00000090: 6880 7dbd 4ddb 553d 4ed8 4dbc c8e9 9fbc
000000a0: 904c 6bbd fc6a 1a3e 2a02 04be b316 d33d
000000b0: 88ed 133e 1d14 223e 62b4 2a3e ecb1 46be
000000c0: 7309 e63d ffed 033c c052 a23d 8453 993d
000000d0: 9787 adbc 7844 06be 9e68 64bc b785 cf3c
000000e0: 1b83 fe3d 849b 1bbd 15ad 383d 3261 ebbd
000000f0: e64a 06be 02e4 ef3d eb96 e6bd 312f ec3d
00000100: fb16 c43d b7c9 06bc 8fac a73c 84da 223e
00000110: 7f96 94bc 4c41 3bbe f993 c1bd af82 dabc
00000120: 3492 b43b d907 da3b d033 613d 74d0 bebd
00000130: d6fd e33d a7b2 d8bd 0ea7 73bd 8603 cc3d
00000140: 2a56 433e 068f ea3d a536 333e 4d5a 5ebd
00000150: 38e9 3cbd 01fc 41be 6836 0abc 767d 9fbc
00000160: f364 72bd a9f6 d13d 4c66 d3bd a07f 3e3c
00000170: d2b2 89bc 2a5a 86bd 94b1 3cbe 2639 703d
00000180: 4f94 06be 76f4 f13d 8335 af3d a628 6abc
00000190: aed1 10be 3840 1cbb b061 a93b 9e61 e0bb
000001a0: d877 01be 4140 51be fffc 803d e972 303e
000001b0: bd84 84bd 8b5f e93d 28df 0f3e 08c2 f7bd
000001c0: 18da 0dbe 0e04 fabd 384b 09be 8d83 433e
000001d0: aa2b 363e afe9 2ebe e9bc 6b3d 5873 62bd
000001e0: 4329 d1bd 3548 39be c4de 56bd 7c30 003e
000001f0: 32e5 7d3d b3b9 733c 72b3 41bc dd90 0f3e
00000200: ab98 cbbd 8fcc 263e 3621 14be 43fa 5f3e
00000210: fe40 23be 3759 063e 3619 283d 4ad5 02be
00000220: aed1 f6bd 4f9a 1c3e 40f9 623e 4bd7 45be
00000230: 6ff6 19be b2ef 44be 9a34 8cbd fef1 483e
00000240: 5f1b 8dbd c93f 8ebd 4257 3cbe 870e 803d
00000250: cfff 0dbe ffb1 173e b005 05be 5d7b 12be
00000260: 2a3b 55be c91a 423e 154a 88bc ea9b 45be
00000270: bc6b 6e3d 309f 88bd 6b15 5a3e 166a 44be
-0.046889726 -0.10881935 0.15926261 -0.15166493 0.029209875 -0.077331625 -0.19983025 0.043024983
0.11615587 -0.03238639 -0.08562634 -0.024212975 0.17405048 -0.07749631 0.084123075 -0.15170756
-0.12926075 0.14703803 -0.079531506 0.20065124 0.18315281 -0.1967444 0.16753419 0.11970827
0.16897333 0.12833321 0.14656614 -0.09293633 -0.14950326 -0.18480657 -0.0023896396 -0.012797465
-0.070233576 0.14838862 -0.12738591 -0.016228588 -0.061890036 0.052211095 -0.012563778 -0.019520655
-0.057446063 0.15079874 -0.1289145 0.10307064 0.1444608 0.15827985 0.16670373 -0.1940381
0.11232271 0.008052348 0.079259396 0.074866325 -0.021182818 -0.13112056 -0.013940958 0.025332315
0.1242735 -0.037990108 0.04508694 -0.11493148 -0.13114509 0.11713411 -0.11259254 0.115324385
0.09574696 -0.0082268035 0.020468025 0.1590367 -0.018138168 -0.18286628 -0.09452052 -0.026673643
0.005510593 0.0066537675 0.054981053 -0.09317103 0.111324 -0.1058095 -0.059485488 0.099616095
0.19075838 0.11453061 0.17501314 -0.054285336 -0.046120852 -0.18943788 -0.008435823 -0.019469004
-0.059178304 0.10252125 -0.10322246 0.011627108 -0.016808901 -0.06560166 -0.18427116 0.05864825
-0.13142513 0.11814205 0.085551284 -0.014291918 -0.14142486 -0.0023841988 0.005169116 -0.0068475744
-0.12643373 -0.20434667 0.06298255 0.17231335 -0.0647063 0.113951765 0.14049971 -0.120975554
-0.13852727 -0.122078046 -0.134076 0.19093151 0.17790094 -0.1708133 0.057553206 -0.05528578
-0.10212948 -0.18093951 -0.05245854 0.12518495 0.061986156 0.014875817 -0.011822568 0.14020105
-0.099412285 0.1628897 -0.14465794 0.21872811 -0.15942761 0.1311997 0.041039668 -0.12776676
-0.12051712 0.15293239 0.22165394 -0.19320409 -0.15035413 -0.19232062 -0.068459705 0.19623563
-0.06889986 -0.0694576 -0.18392661 0.06252771 -0.13867114 0.14813994 -0.12990451 -0.14304872
-0.2082335 0.1895553 -0.016636888 -0.19297758 0.058208212 -0.066709876 0.21297233 -0.19181094

fc4.bias f4 [5]
00000000: f6bb 0c3e fd93 5cbd b272 99bc 6782 443d
00000010: cdfd dcbd
0.13743576 -0.05385207 -0.018731449 0.047975924 -0.10790596
