clean_code/trained_models/actor_1394.pth (torch, 54884 bytes, 8 tensors)

fc1.weight f4 [128, 18]
0	0x3e2016d5	0.1563371
1	0x3db3e5eb	0.08784088
2	0xbe1a8283	-0.15088849
3	0x3e4412e1	0.19147827
4	0x3dfc4c44	0.12319234
5	0xbd85c508	-0.06531721
6	0x3cf98e24	0.030463286
7	0x3cc884d5	0.024477402
8	0x3dc42007	0.09576421
9	0xbd84a734	-0.06477204
10	0xbe158580	-0.14601707
11	0x3b372ac2	0.002794907
12	0x3e5aa5c2	0.21352294
13	0x3da946e2	0.08265473
14	0x3e187ccf	0.1489136
15	0x3cfff07d	0.031242603
16	0xbe64bd22	-0.22337773
17	0x3e81e6d9	0.25371435
18	0x3e0e3a28	0.13889372
19	0x3e2a5e1e	0.16637465
20	0x3db7f1b5	0.08981649
21	0xbda1e6dd	-0.07905362
22	0x3d8dc544	0.06922391
23	0xbc96f70c	-0.018428348
24	0x3e159013	0.14605741
25	0x3e5090cc	0.20367736
26	0x3dcb02ef	0.09912669
27	0x3d3ab242	0.045580156
28	0x3e1723df	0.14759777
29	0x3e10e8c4	0.14151293
30	0xbe30c4db	-0.17262594
31	0xbe0c3224	-0.13691002
32	0xbdbc8df6	-0.092067644
33	0x3d69500a	0.056961097
34	0xbe24d64a	-0.1609737
35	0x3d1b767a	0.037954785
36	0x3e1c2ae9	0.15250744
37	0x3db4cfd1	0.088287
38	0xbe1360f5	-0.14392455
39	0x3d7fcbed	0.06245034
40	0xbe35f84c	-0.17770499
41	0x3d08f3aa	0.0334355
42	0x3e46a88c	0.19400233
43	0x3e1d45c4	0.15358645
44	0xbd793600	-0.060842514
45	0xbe308f15	-0.17242081
46	0xbdd57c7a	-0.10424133
47	0x3e356663	0.17714839
48	0x3e84a8fa	0.2591017
49	0x3dc56982	0.09639265
50	0x3d83015d	0.063967444
51	0xbddb7f9e	-0.107177004
52	0x3e540b3c	0.2070741
53	0x3d5e2a20	0.054239392
54	0x3e0494c4	0.12947375
55	0xbd1b809f	-0.03796446
56	0x3e2a0efd	0.1660728
57	0x3cdf0387	0.027223362
58	0xbe3a7813	-0.18209867
59	0xbe08f0c2	-0.13373092
60	0xbe43baba	-0.191142
61	0xbe3f43b7	-0.18678175
62	0xbdfceae4	-0.12349489
63	0x3e27f588	0.16402256
64	0x3dca06ad	0.098645546
65	0xbdd2bb0e	-0.10289584
66	0x3e57c7e0	0.2107234
67	0x3e3e1977	0.18564402
68	0xbba75c25	-0.00510742
69	0xbe3cc777	-0.18435465
70	0x3e2b1978	0.16708934
71	0xbd785fdb	-0.06063829
72	0xbd9b41ff	-0.07580947
73	0x3e6f97b7	0.23397718
74	0xbd02bcc0	-0.031918287
75	0xbe4fb31b	-0.20283167
76	0x3e5a63c0	0.21327114
77	0x3e22e637	0.15908132
78	0xbdc4c6e3	-0.09608247
79	0x3e857d39	0.260721
80	0xbcdfe3e2	-0.027330343
81	0x3d2cd98c	0.042199656
82	0x3d86dd37	0.06585162
83	0x3dc8a5cc	0.09797248
84	0x3cbb064d	0.022830153
85	0xbe0629f4	-0.13101941
86	0x3e781c1c	0.24229473
87	0x3e2bd008	0.16778576
88	0xbe0bf5d6	-0.13667998
89	0x3e586f64	0.21136242
90	0x3dce2cf9	0.100671716
91	0xbd55c913	-0.052193712
92	0x3d3b3ec3	0.04571415
93	0x3e417178	0.18890941
94	0x3e742fa4	0.23846298
95	0xbcde4863	-0.027134126
96	0xbdaa30e4	-0.083101064
97	0xbc08a215	-0.008339425
98	0x3dc6b50f	0.09702503
99	0xbe2f8c74	-0.17143422
100	0xbca897bf	-0.02058017
101	0x3e1f562e	0.15560219
102	0xbe3e4e59	-0.18584575
103	0x3e52badf	0.20579098
104	0xbe25441d	-0.16139264
105	0x3e4d8651	0.20070769
106	0x3d86244a	0.0654989
107	0x3e502c3a	0.20329371
108	0x3e0fa0ea	0.14026228
109	0xbe7ec99e	-0.24881598
110	0x3e139841	0.14413549
111	0xbe0a0d9c	-0.13481754
112	0x3dbde9ae	0.092730865
113	0x3e2eda20	0.17075396
114	0x3e332b24	0.17496926
115	0x3da13a4d	0.07872448
116	0xbe37d04f	-0.17950557
117	0xbb8a08f0	-0.004212491
118	0xbe69e8cc	-0.22842711
119	0xbcccf24d	-0.025017882
120	0xbe644724	-0.22292763
121	0xbc1fa760	-0.009744495
122	0xbe04b3e5	-0.1295925
123	0x3d5601fd	0.05224799
124	0xbe7ae5ae	-0.24501678
125	0xbc03d711	-0.008046881
126	0x3cfcd048	0.030861035
127	0x3e1f3692	0.1554816
128	0xbe50001f	-0.20312546
129	0xbe54e3a8	-0.20789969
130	0xbe07fc7a	-0.13279906
131	0x3db6a8e6	0.089189336
132	0x3e557630	0.20845866
133	0xbe015e8d	-0.12633725
134	0x3e353d01	0.17699052
135	0xbe3b996d	-0.18320246
136	0x3e31e722	0.17373326
137	0x3e35c01d	0.17749067
138	0xbcc43190	-0.023949414
139	0x3cc9f3c8	0.024652377
140	0x3e141b1d	0.14463468
141	0x3b8ba472	0.004261547
142	0x3d537a8c	0.05163054
143	0xbe198069	-0.14990391
144	0xbaa5dceb	-0.001265434
145	0xbdb2646a	-0.08710559
146	0xbd9b8523	-0.07593753
147	0x3e2cceb3	0.16875724
148	0xbd887d90	-0.06664574
149	0xbe70b07d	-0.23504825
150	0xbdd4c9f4	-0.10390082
151	0xbe40f62a	-0.18843904
152	0x3bdbbe94	0.0067060683
153	0xbe639224	-0.22223717
154	0xbdd20634	-0.102550894
155	0xbe7b791a	-0.24557915
156	0x3e27a994	0.16373283
157	0xbe57ab97	-0.2106155
158	0xbdd4b712	-0.103864804
159	0xbe420a96	-0.1894935
160	0x3d0f7fdd	0.03503405
161	0x3e224950	0.15848279
162	0x3e1a9439	0.15095605
163	0x3e642002	0.22277835
164	0x3e6d1616	0.23152956
165	0xbd94e1d9	-0.072696395
166	0x3df7d714	0.1210157
167	0xbe6256c0	-0.22103405
168	0x3e6585c1	0.22414304
169	0x3e10327e	0.14081761
170	0xbd838ab4	-0.0642294
171	0x3e56be72	0.20971087
172	0x3dcbdc98	0.09954184
173	0x3e697a6f	0.22800611
174	0x3e23b2df	0.15986203
175	0xbdf4ba4f	-0.11949598
176	0xbd8bd9b2	-0.068286315
177	0x3e58f44c	0.21186942
178	0xbe33b6dc	-0.17550224
179	0xbdcadd6c	-0.09905514
180	0xbdf6dc0c	-0.12053689
181	0xbe4850c7	-0.19562064
182	0xbe2238ec	-0.15842026
183	0xbe4645a5	-0.19362505
184	0x3dc36881	0.09541417
185	0x3dc6fcbc	0.09716174
186	0xbc421d68	-0.011847831
187	0x3ddb0091	0.106934674
188	0x3c3c0f09	0.011478194
189	0x3c998780	0.01874137
190	0xbcbbf10f	-0.022942094
191	0x3d903bc0	0.070426464
192	0xbe36d5a3	-0.17854933
193	0xbd6ec4f0	-0.058293283
194	0xbe63c0ac	-0.22241467
195	0xbe33a0be	-0.17541787
196	0x3df53976	0.119738504
197	0x3d0c3415	0.034229357
198	0xbd51033c	-0.051028475
199	0x3e4a6f5a	0.1976904
200	0xbcba0e4f	-0.022711901
201	0xbdf80bc1	-0.12111617
202	0xbdeedf9e	-0.11663745
203	0x3e4f3ec0	0.20238781
204	0x3d9fa174	0.077944666
205	0x3e428b53	0.1899846
206	0x3d31bb25	0.043391366
207	0xbd901a71	-0.07036293
208	0x3dfd9860	0.12382579
209	0x3ddb6c5f	0.107140295
210	0xbb7cd749	-0.0038580468
211	0xbd091168	-0.033463866
212	0xbdcd083d	-0.10011337
213	0x3dfd6b3f	0.12373971
214	0xbe2c8afa	-0.1684989
215	0x3e6a4b30	0.22880244
216	0xbdd5a2fc	-0.104314774
217	0xbdb0536e	-0.08609663
218	0x3e0e65d5	0.13906033
219	0xbde7b2f2	-0.11313428
220	0xbe57bc8e	-0.21068022
221	0xbd32f4f7	-0.043690648
222	0xbe5b9106	-0.21442041
223	0x3c8f063f	0.017459033
224	0xbe42696e	-0.1898553
225	0xbe3272ac	-0.17426556
226	0xbd252fd6	-0.040328823
227	0x3e3bf4fa	0.1835517
228	0xbe11b0bc	-0.14227575
229	0xbb4c57c0	-0.0031180233
230	0x3d9a5d37	0.075373106
231	0xbddf6695	-0.10908238
232	0x3e11be70	0.14232802
233	0x3e1844cc	0.14869994
234	0x3e88d66d	0.26726094
235	0xbdb226b7	-0.086987905
236	0x3da4ef82	0.08053495
237	0xbd599542	-0.05312086
238	0x3cadc8d6	0.02121393
239	0x3d78b293	0.060717177
240	0x3e5b6f43	0.21429162
241	0x3e5fcf27	0.21856366
242	0x3e33505b	0.17511122
243	0x3e7efe27	0.24901639
244	0xbcf8cfa1	-0.030372443
245	0x3d70b71d	0.05876838
246	0xbe3cbca7	-0.1843134
247	0xbdfcac6f	-0.123375766
248	0x3c94987f	0.018139122
249	0x3d115b28	0.035487324
250	0xbc3b4bcf	-0.011431648
251	0xbdabd93b	-0.08391043
252	0x3e63b592	0.22237232
253	0xbd5be6e6	-0.053687
254	0x3c18636c	0.009301048
255	0x3d05207b	0.03250168

fc1.bias f4 [128]
0	0x3e1aaef4	0.15105802
1	0x3e22cf21	0.15899326
2	0x3e25ed95	0.16203912
3	0x3e3cae8b	0.18425958
4	0x3cbc7fe0	0.023010194
5	0x3da7ea7e	0.08199023
6	0x3d2babb8	0.04191181
7	0xbdc52369	-0.096258946
8	0x3dda729c	0.10666391
9	0xbe39b371	-0.18134858
10	0xbe5eed86	-0.21770296
11	0x3e74361b	0.23848765
12	0x3e20d7f6	0.15707383
13	0xbd730382	-0.059329517
14	0x3db5861b	0.08863469
15	0x3e6cf348	0.2313968
16	0x3c4efc01	0.012633325
17	0x3e57884b	0.21048085
18	0xbe229d59	-0.15880336
19	0x3dc9de9f	0.09856915
20	0x3e3581f2	0.17725351
21	0x3da9c905	0.082902946
22	0xbe206fb2	-0.15667608
23	0x3ccb3023	0.024803227
24	0xbe4fa598	-0.20278013
25	0x3ddd3726	0.10801534
26	0x3c9a7069	0.01885243
27	0x3e4186d2	0.18899086
28	0xbdb11cb6	-0.08648054
29	0x3d825c97	0.06365316
30	0xbba67c80	-0.0050807595
31	0xbe49344c	-0.19648856
32	0x3d770442	0.060306795
33	0x3e7f4d3d	0.24931808
34	0x3dbfdc24	0.0936816
35	0xbdba33ff	-0.09091949
36	0xbdecfbcd	-0.11571465
37	0x3c35b977	0.011091582
38	0x3e8adb7a	0.27120572
39	0xbe1f16ca	-0.15536037
40	0x3c9c354b	0.01906838
41	0x3e3ffcba	0.18748751
42	0xbe319933	-0.17343597
43	0x3e804990	0.25056124
44	0xbda60546	-0.081064746
45	0x3e512076	0.20422539
46	0x3e87038b	0.2636989
47	0x3e32b579	0.17452039
48	0x3e83f979	0.2577627
49	0xbe130dd1	-0.1436074
50	0x3de1eda7	0.11031657
51	0xbd4fe5fc	-0.05075644
52	0xbe17ac85	-0.14811905
53	0xbe874e6e	-0.26427025
54	0xbd4c0c68	-0.04981652
55	0x3e88abf5	0.26693693
56	0x3c99c1f6	0.018769246
57	0x3e7ceb03	0.24699025
58	0xbe404863	-0.18777613
59	0xbc34f32e	-0.011044307
60	0xbd47cf7f	-0.048781868
61	0x3e80c308	0.25148797
62	0x3cabf877	0.0209925
63	0xbe1fc336	-0.15601811
64	0x3de9f794	0.11424175
65	0xbe61724c	-0.22016257
66	0x3cb3c855	0.021946112
67	0x3db7321e	0.08945106
68	0xbd8ad49e	-0.06778835
69	0x3e28abbb	0.1647176
70	0x3e80e916	0.2517783
71	0x3da1f521	0.07908083
72	0xbe0dc09d	-0.13843007
73	0x3d5f1a7a	0.05446861
74	0xbe362c12	-0.17790249
75	0x3e199787	0.1499921
76	0x3e344417	0.17604099
77	0xbc270283	-0.01019347
78	0x3e61e5ee	0.22060367
79	0x3e140ab3	0.14457206
80	0x3d53a091	0.0516668
81	0xbe274d94	-0.16338187
82	0xbe784712	-0.24245861
83	0xbe29eb2b	-0.16593616
84	0x3dbf886b	0.093521915
85	0x3e0b4fee	0.1360471
86	0xbdbd84a1	-0.092538126
87	0xbd87a5b3	-0.066234015
88	0xbddb0adf	-0.10695433
89	0x3a3f3fa9	0.0007295558
90	0x3e0cb914	0.13742477
91	0xbc8f84ed	-0.017519439
92	0x3cb727e4	0.022357889
93	0x3e698439	0.22804345
94	0x3e508b3e	0.20365617
95	0xbe894657	-0.26811478
96	0x3de9d576	0.114176676
97	0xbe578b72	-0.21049288
98	0xbe50b7e9	-0.20382656
99	0x3d3e655d	0.046483386
100	0x3e27594d	0.1634266
101	0xbe4cf5d3	-0.2001565
102	0x3e2305aa	0.1592013
103	0xbd799291	-0.060930792
104	0x3e076806	0.13223276
105	0x3e5736c8	0.21016991
106	0x3d116eee	0.03550618
107	0xbe222942	-0.15836051
108	0x3e2685e2	0.1626201
109	0x3e0c56c8	0.1370498
110	0xbdbeb2cb	-0.09311446
111	0xbd004468	-0.031315237
112	0xbc0a1680	-0.008428216
113	0x3e5df674	0.21676046
114	0xbe2a5789	-0.16634955
115	0x3e81f259	0.2538021
116	0xbe12d451	-0.14338805
117	0xbe2ece73	-0.17070942
118	0xbe25e82a	-0.16201845
119	0x3e5c6cf5	0.21525939
120	0x3d82531a	0.063635066
121	0x3cfe480e	0.031040218
122	0x3e2f2725	0.17104776
123	0x3d801da0	0.062556505
124	0xbe71be69	-0.23607792
125	0x3e3a067e	0.18166539
126	0x3dbbc499	0.091683574
127	0xbe159d22	-0.14610723

fc2.weight f4 [64, 128]
0	0x3d9034ce	0.07041322
1	0xbcfc2cf0	-0.030783147
2	0x3caa7e94	0.02081231
3	0xbb923dd2	-0.004462936
4	0x3d6124f6	0.05496689
5	0x3d607795	0.054801542
6	0x3d70da7c	0.058802113
7	0x3d37c380	0.044864178
8	0x3bf52910	0.0074817017
9	0xbce9581a	-0.028484393
10	0x3c5b8914	0.013399381
11	0x3d96361e	0.07334541
12	0xbced3ed7	-0.028960628
13	0x3b6b2207	0.0035878436
14	0x3d109711	0.03530032
15	0x3cb9836d	0.022645677
16	0x3bda8285	0.006668391
17	0x3bcdbda0	0.0062787086
18	0xbd2906c1	-0.041266207
19	0x3d0b2477	0.033970322
20	0x3d04bab1	0.032404605
21	0xbdbb89da	-0.091571525
22	0x3d6a7e04	0.057249084
23	0xbd6ae5e3	-0.057348143
24	0x3da37ade	0.079824194
25	0x3ccd2557	0.02504222
26	0xbb76949b	-0.0037625197
27	0x3da74e46	0.08169226
28	0xbdedad9d	-0.1160538
29	0xbc6dbcde	-0.0145103615
30	0x3d43fdc4	0.04784943
31	0x3d43f599	0.047841642
32	0xbd20b980	-0.039239407
33	0x3d251ff8	0.04031369
34	0xbd98f5e0	-0.07468772
35	0x3db3d550	0.087809205
36	0xbd7ec324	-0.06219782
37	0xbc25a41a	-0.010109926
38	0xbc3e2174	-0.0116046555
39	0x3d90386a	0.0704201
40	0x3dca964a	0.098919466
41	0x3d2de690	0.04245621
42	0xbd4943dc	-0.04913698
43	0x3b62372b	0.0034517746
44	0xbdd01bcd	-0.101615526
45	0x3dcfc641	0.10145236
46	0x3cd948cb	0.026523968
47	0xbc501246	-0.012699669
48	0x3d5a5a4d	0.053308774
49	0x3d91f9c7	0.07127719
50	0x3bbd2dfa	0.005773303
51	0xbd8c29c3	-0.06843903
52	0x3ce477bd	0.027889127
53	0xbd63b248	-0.055589944
54	0x3d75a3a7	0.059970524
55	0xbcf991c8	-0.030465022
56	0xbc93979a	-0.018016625
57	0xbcad340a	-0.021142978
58	0xbd91ec7a	-0.071251824
59	0x3cbf0929	0.023319798
60	0x3db11777	0.08647054
61	0xbd5e2860	-0.054237723
62	0xbd6d2eec	-0.057906076
63	0x3d2d3e57	0.04229578
64	0x3d11695a	0.03550086
65	0x3cf25985	0.029583702
66	0x3d9d3775	0.07676593
67	0xbd8e9c1d	-0.0696337
68	0xbd7dc66f	-0.06195682
69	0xbd7b80c4	-0.061402097
70	0x3a5e5ec9	0.0008482752
71	0x3d80110a	0.0625325
72	0xbd458f8f	-0.04823261
73	0xbca2d7c3	-0.019878274
74	0x3c7a0bf2	0.015261637
75	0x3c6a6c22	0.014308007
76	0x3d73de0a	0.059537925
77	0xbd09bde5	-0.033628363
78	0x3dc9d0db	0.09854289
79	0x3d9f6ae1	0.077840574
80	0xbc9f00ac	-0.0194095
81	0xbd27682f	-0.04087084
82	0xbdb712bc	-0.0893912
83	0xbd7c4987	-0.06159356
84	0x3bcd3d01	0.0062633757
85	0xbdaf0464	-0.08545759
86	0xbde095fc	-0.10966107
87	0x3d4ef0ae	0.0505225
88	0xbd9d3a92	-0.07677187
89	0x3d39b7d9	0.045341346
90	0x3d33a974	0.043862775
91	0x3d846921	0.06465364
92	0x3c6b736c	0.01437078
93	0xbb1e06ba	-0.0024112896
94	0x3dfb88c1	0.12281943
95	0xbd66353f	-0.056203123
96	0xbb40e8cf	-0.002943564
97	0x3a4043d3	0.00073343253
98	0xbde38289	-0.11108882
99	0x3d375ffa	0.044769265
100	0xbca00501	-0.019533636
101	0x3c4d7e98	0.012542389
102	0x3cce21a1	0.02516252
103	0xbcb2ad8d	-0.021811271
104	0x3d08d53b	0.033406477
105	0xbcf41d13	-0.02979902
106	0xbc5a8c42	-0.013339104
107	0xbdabdd70	-0.08391845
108	0xbd02c621	-0.03192723
109	0xbd07773c	-0.033072695
110	0xbddb4fc3	-0.10708573
111	0xbd5be482	-0.05368472
112	0xbd405369	-0.046954546
113	0x3d31e25d	0.043428767
114	0xbc732b71	-0.0148419
115	0x3db02780	0.08601284
116	0xbdbb72c2	-0.09152748
117	0x3d0628bc	0.03275369
118	0xbda94afd	-0.08266256
119	0x3d82762c	0.06370196
120	0x3d9190f9	0.071077295
121	0x3d20b935	0.039239127
122	0x3cdf3ddc	0.027251177
123	0xbd567cf1	-0.052365247
124	0x3d1a6e5f	0.037702914
125	0x3dc8e9bb	0.098102055
126	0xbc89423c	-0.016755216
127	0xbca1378f	-0.019679813
128	0x3dcf0973	0.10109224
129	0x3dce63a0	0.10077596
130	0x3de0cd4e	0.10976659
131	0xbd8e3cad	-0.06945167
132	0x3d9923ac	0.07477507
133	0x3c5a0767	0.013307429
134	0xbd9b468b	-0.075818144
135	0x3dc18b99	0.09450454
136	0xbd702425	-0.05862822
137	0xbc455026	-0.012043035
138	0xbdb712c9	-0.0893913
139	0x3c8bc532	0.017061803
140	0xbcfa2e0f	-0.03053954
141	0x3dd6b87d	0.10484407
142	0x3d538b72	0.051646657
143	0x3d915409	0.070961066
144	0x3d5f1ffe	0.05447387
145	0x3d552922	0.05204118
146	0x3d897a7b	0.067128144
147	0x3d20d5cb	0.03926639
148	0x3d1a019d	0.037599195
149	0xbd93f65f	-0.07224726
150	0x3cfd96c0	0.030955672
151	0xbd7bf797	-0.061515417
152	0xbb94d058	-0.004541438
153	0xbd7116f7	-0.05885979
154	0x3dba58cd	0.09098969
155	0x3ccce6c1	0.025012376
156	0xbde97d17	-0.11400812
157	0xbdcae1dc	-0.099063605
158	0x3d8499d1	0.06474651
159	0x3d2a5c36	0.041591845
160	0x3dd17c01	0.1022873
161	0x3d069c41	0.03286386
162	0x3cc03b84	0.02346588
163	0x3cb11243	0.021615153
164	0xbdde6735	-0.10859529
165	0x3d599ef3	0.0531301
166	0xbd0e4e19	-0.03474245
167	0x3ca3c561	0.019991579
168	0xbd73b54d	-0.059499074
169	0xbb469af4	-0.0030304762
170	0x3cb1d0c2	0.021705989
171	0xbd1af161	-0.037827853
172	0x3ccdf791	0.025142463
173	0x3d8daf93	0.06918254
174	0x3cef99eb	0.029248198
175	0x3d199a3a	0.037500598
176	0x3d8e7b7e	0.06957148
177	0xbd97afa7	-0.0740655
178	0x3ddaa693	0.10676303
179	0xbd18e44c	-0.037327096
180	0x3d5a1cb5	0.053250033
181	0xbda4bfbc	-0.08044383
182	0xbd9f68e5	-0.07783679
183	0x3d87969c	0.06620523
184	0x3c920eea	0.017829377
185	0x3de020fb	0.109437905
186	0x3d041c1b	0.032253366
187	0xbd616175	-0.055024583
188	0x3d6ed86d	0.05831187
189	0x3da1f570	0.079081416
190	0x3cd57be8	0.02606006
191	0xbce73711	-0.0282245
192	0xbb54ef5c	-0.0032491302
193	0xbd92f7f5	-0.071762
194	0x3d9dc238	0.0770306
195	0x3d036868	0.03208199
196	0xbc975630	-0.018473715
197	0x3d89bcb8	0.06725448
198	0xbd4795d3	-0.048726868
199	0x3d85ee25	0.06539563
200	0xbbb3177a	-0.005465445
201	0xbd7ccc7f	-0.06171846
202	0xbcb738d4	-0.022365965
203	0x3b93c545	0.0045096003
204	0xbd96376f	-0.07334792
205	0xbd062f7b	-0.032760125
206	0x3bd57af0	0.0065148994
207	0x3d8754e9	0.06607992
208	0xbdb34e13	-0.08755126
209	0xbd05415e	-0.032533042
210	0x3d4fc696	0.050726496
211	0xbda1714d	-0.078829385
212	0x3c0270b7	0.007961444
213	0x3d0e6fa7	0.03477445
214	0x3cee6337	0.029100044
215	0xbd3a9c41	-0.04555917
216	0x3b9a3ae9	0.0047067297
217	0xbd140361	-0.036136035
218	0xbc201807	-0.009771354
219	0x3d41a317	0.047274675
220	0x3bfd919e	0.007738306
221	0x3db3b0b6	0.08773939
222	0x3db5803d	0.0886235
223	0x3d1c0bb1	0.038097087
224	0xbd751d5c	-0.059842452
225	0xbd0295e2	-0.03188122
226	0xbd46b58c	-0.04851298
227	0x3ccfc06e	0.025360312
228	0x3cf93ec3	0.030425435
229	0xbce6d2a0	-0.028176606
230	0x3d863d18	0.065546215
231	0xbd8105ec	-0.06299958
232	0xbd7aa9b5	-0.061197
233	0xbc1b7e67	-0.009490586
234	0x3bb4affe	0.005514144
235	0xbd497adc	-0.049189433
236	0x3c77b99a	0.015119934
237	0x3d3669d5	0.044534523
238	0xbda1558a	-0.078776434
239	0x3dc61414	0.09671798
240	0x3ca6a06c	0.020340167
241	0xbd209565	-0.039204974
242	0x3d9b7b1c	0.075918406
243	0x3d12e431	0.03586215
244	0xbcf3dc71	-0.0297682
245	0x3dc92f6e	0.098234996
246	0x3cdde291	0.027085574
247	0x3b975bc1	0.004619092
248	0x3d622182	0.055207737
249	0x3d02595f	0.031823512
250	0xbcbe3411	-0.023218187
251	0xbc725ff4	-0.014793385
252	0xbd0254ab	-0.031819027
253	0xbd27fec3	-0.041014444
254	0x3ce60989	0.028080719
255	0x3c0de877	0.008661381

fc2.bias f4 [64]
0	0x3cfbec8c	0.030752443
1	0x3c1088fa	0.00882172
2	0xbd62fca7	-0.05541673
3	0x3d3fa844	0.04679133
4	0xbdbb42a9	-0.09143574
5	0xbcc9ef26	-0.024650168
6	0x3d0305c4	0.03198792
7	0x3cbb2aba	0.022847522
8	0x3dd68cb4	0.10476056
9	0xbdd5729b	-0.1042225
10	0x3cc0cb28	0.023534372
11	0xbd545feb	-0.051849287
12	0xbd4ef8c4	-0.05053021
13	0xbc8f2338	-0.017472848
14	0x3ce241e6	0.027619313
15	0xbd673c61	-0.056454066
16	0x3dd7fe31	0.1054653
17	0x3c667b1c	0.0140674375
18	0xba45671c	-0.0007530318
19	0x3d250a43	0.04029299
20	0x3c89259b	0.016741564
21	0xbd8b7c7c	-0.06810853
22	0x3c892a8b	0.016743919
23	0xbd6322c7	-0.055453088
24	0xbdb008bf	-0.08595418
25	0xbd2d9764	-0.042380705
26	0xbdcac52e	-0.0990089
27	0xbda66125	-0.081239976
28	0xbaf4ca74	-0.0018676058
29	0x3c804dd1	0.015662106
30	0x3b383cd9	0.002811244
31	0xbd5dc26f	-0.054140504
32	0x3daf5c0d	0.08562479
33	0xbd9cc50d	-0.07654772
34	0xbd96b694	-0.07359043
35	0xbd910f90	-0.070830464
36	0xbd5371ec	-0.051622316
37	0xbdb0d6e4	-0.08634737
38	0x3cc2ebd7	0.023794098
39	0xbd74a9dc	-0.059732303
40	0x3bd9c1af	0.0066454033
41	0x3d4638fe	0.048394196
42	0x3d1f6c63	0.038921725
43	0xbd83fff9	-0.06445307
44	0xbca23df8	-0.01980494
45	0x3cf18a9f	0.029485045
46	0x3ddfd265	0.109288014
47	0x3ca7c4a6	0.020479511
48	0x3d3d1a22	0.0461675
49	0xbdb85bfa	-0.09001918
50	0xbd82dd0f	-0.0638982
51	0xba773d5a	-0.00094314443
52	0x3c944f20	0.018104136
53	0x3c9ab4c4	0.018885024
54	0xbd6dcf27	-0.058058884
55	0x3d086ef8	0.033308953
56	0x3d0b5c00	0.034023285
57	0x3c1b4c15	0.009478589
58	0xbdcf637d	-0.10126398
59	0x3dcfa3e6	0.10138683
60	0xbc907479	-0.017633663
61	0x3dcab811	0.09898389
62	0x3b8447f8	0.0040368997
63	0xbc2e15bf	-0.010625302

fc3.weight f4 [32, 64]
0	0xbe022360	-0.12708807
1	0xbd03b785	-0.03215744
2	0xbd98b4d4	-0.07456365
3	0x3e0e165a	0.13875714
4	0xbdbed101	-0.09317208
5	0xbdf4ade3	-0.11947229
6	0x3d6175af	0.055043872
7	0xbe003386	-0.12519655
8	0x3d66852e	0.056279354
9	0xbc5a8d83	-0.013339403
10	0x3e1879fb	0.14890282
11	0xbbe3be9c	-0.0069502126
12	0xbd2d1e22	-0.042265065
13	0xbd8c4803	-0.06849673
14	0xbd027712	-0.031851836
15	0xbdd36ab7	-0.103230886
16	0xbd24a5bf	-0.04019713
17	0xbd930b8e	-0.07179938
18	0x3aba4903	0.0014212433
19	0x3df829a2	0.12117316
20	0xbc6255d0	-0.013814405
21	0x3d854445	0.06507162
22	0xbd354ae2	-0.044260867
23	0x3d6faa88	0.05851224
24	0xbdaadb75	-0.08342639
25	0xbd3631df	-0.044481155
26	0x3d9fe93e	0.07808159
27	0x3c817269	0.015801625
28	0x3d8d3a24	0.06895855
29	0xbdd33631	-0.103130706
30	0xbe0b51c4	-0.1360541
31	0x3e0ce239	0.13758172
32	0xbd358e06	-0.044324897
33	0xbd9b3d5c	-0.07580063
34	0x3dad4116	0.0845968
35	0x3dc141ac	0.09436354
36	0x3df0ab80	0.11751461
37	0x3da01e77	0.07818311
38	0x3d12f270	0.035875738
39	0x3de0fea9	0.109860726
40	0xbddd0d78	-0.107935846
41	0x3dea6114	0.114442974
42	0x3da90ff6	0.082549974
43	0x3d505c67	0.05086937
44	0xbddb2a56	-0.10701434
45	0x3dddbe04	0.10827258
46	0xbe0d1eda	-0.137813
47	0x3df50a20	0.11964822
48	0xbde143d5	-0.10999266
49	0x3d9e3a36	0.077259466
50	0xbda549fb	-0.08070751
51	0xbe19777e	-0.14986989
52	0x3dbca989	0.09212024
53	0x3c95d4c1	0.018289926
54	0xbcf6b9c3	-0.030117875
55	0x3d831239	0.0639996
56	0x3db8c1fe	0.09021376
57	0xbd912aa0	-0.07088208
58	0x3d6c618a	0.057710208
59	0x3b85dfa1	0.0040854965
60	0x3d956cfb	0.07296177
61	0xbd8bd0c9	-0.06826932
62	0xbd8cc15f	-0.0687282
63	0xbd80ff70	-0.06298721
64	0x3d22bc93	0.03973062
65	0x3d3be7bb	0.045875292
66	0xbdb22b54	-0.086996704
67	0xbd21214c	-0.039338395
68	0x3c6becbf	0.014399706
69	0x3dbd6125	0.092470445
70	0x3e2492d7	0.1607164
71	0x3e143b22	0.14475682
72	0x3baf3fb1	0.005348169
73	0xbdf1323a	-0.11777158
74	0x3e1b5b85	0.1517163
75	0x3d66e1a3	0.056367528
76	0x3d1f5472	0.038898893
77	0x3c191374	0.009343017
78	0xbba0917f	-0.004900157
79	0x3d251c13	0.040309977
80	0x3d8c0b8c	0.0683814
81	0x3c0ae00c	0.0084762685
82	0x3e1227ee	0.14273044
83	0xbd347b25	-0.044062752
84	0x3d5df66b	0.05419008
85	0x3d017b1c	0.031611547
86	0x3da7a24c	0.081852525
87	0xbc820aba	-0.015874255
88	0x3c964219	0.018342065
89	0xbdf58130	-0.11987531
90	0x3d780a06	0.060556434
91	0xbda56aeb	-0.080770336
92	0xbc669bd8	-0.014075242
93	0xba798070	-0.0009517735
94	0xbdea25db	-0.114330016
95	0x3d44ad8d	0.048017073
96	0x3d169457	0.03676256
97	0x3d2e46e9	0.042548094
98	0x3d17f125	0.037095208
99	0xbd2d03be	-0.042239897
100	0xbaf247ce	-0.0018484534
101	0xbe19eb0e	-0.15031072
102	0x3e1dedc5	0.15422733
103	0xbe0df995	-0.13864739
104	0x3daa5d7f	0.08318614
105	0xbd569807	-0.05239108
106	0xbda64318	-0.08118266
107	0xbd0856db	-0.033285957
108	0x3cded164	0.027199455
109	0x3dc5a005	0.09649662
110	0xbc896090	-0.016769677
111	0xbe0d6288	-0.13807118
112	0x3e248416	0.16066012
113	0x3d02451d	0.031804193
114	0x3d921b6e	0.07134138
115	0x3d219ab3	0.039454173
116	0xbe1dd08b	-0.15411584
117	0x3d5887fb	0.052864056
118	0x3df2fb20	0.118643045
119	0xbda5ac22	-0.08089472
120	0x3cb7f306	0.02245475
121	0xbce4e044	-0.02793897
122	0x3b7c9ad2	0.0038544429
123	0x3cc59cbc	0.024122588
124	0xbe26e67b	-0.16298859
125	0x3e128671	0.14309098
126	0x3d717f3c	0.05895923
127	0xbd697e39	-0.05700514
128	0xbe05cd70	-0.1306665
129	0xbd674b74	-0.056468442
130	0x3df5cf64	0.12002447
131	0x3d0f12c8	0.03493002
132	0xbc444974	-0.011980403
133	0x3cde1521	0.027109684
134	0xbe1492a7	-0.14509068
135	0xbbdba37a	-0.0067028375
136	0xbce041ed	-0.027375186
137	0x3d94de69	0.07268984
138	0x3d7a9084	0.061172977
139	0x3d8da662	0.06916501
140	0xbc615bf9	-0.013754838
141	0x3dbda927	0.09260779
142	0x3e0361e8	0.12830317
143	0xbb747fb2	-0.0037307558
144	0xbd1058e6	-0.03524103
145	0xbd93b951	-0.07213081
146	0x3b92d157	0.0044805217
147	0x3c9da654	0.01924435
148	0x3c57a42e	0.013161702
149	0x3e0ab60e	0.13546011
150	0xbd70ffdc	-0.058837757
151	0x3ca4f036	0.020134073
152	0x3dcf0a6f	0.10109412
153	0x3d265356	0.04060682
154	0xbdaced6f	-0.08443724
155	0x3c4840e0	0.012222499
156	0x3d151289	0.03639463
157	0xbd133785	-0.03594162
158	0x3da484b0	0.08033121
159	0xbde74e03	-0.112941764
160	0xbd23cfd8	-0.039993137
161	0x3cdb9e7f	0.026808975
162	0xbdd069f3	-0.10176458
163	0x3d8b1749	0.06791551
164	0x3dc4da4b	0.096119486
165	0x3e0f4f55	0.13995107
166	0x3b19534a	0.0023395591
167	0x3e0052f6	0.12531647
168	0xbde42239	-0.1113934
169	0xbd19539f	-0.037433263
170	0xbd75a39d	-0.059970487
171	0xbd8e84c6	-0.06958918
172	0xbb7afc60	-0.00382974
173	0xbdba94dc	-0.09110424
174	0xbe11cc2c	-0.14238042
175	0xbb1dff0d	-0.002410832
176	0xbda270d6	-0.07931678
177	0xbd21b3a2	-0.03947795
178	0xbbcbad95	-0.006215761
179	0xbdcacae3	-0.09901979
180	0xbd1fffa6	-0.039062165
181	0xbcbdd806	-0.023174297
182	0xbe090bff	-0.13383482
183	0xbd3489f7	-0.044076886
184	0xbe12b92e	-0.14328453
185	0xbceddb62	-0.029035274
186	0x3d5dd176	0.054154836
187	0xbe0a051f	-0.13478516
188	0x3d14a88c	0.03629355
189	0xbe0602c1	-0.13086988
190	0xbdaffa41	-0.08592654
191	0xbdf3022a	-0.11865647
192	0x3cd8f48c	0.026483797
193	0x3e0bdd2f	0.13658594
194	0xbdc2182c	-0.09477267
195	0x3d2a088c	0.041512057
196	0xbd24fa02	-0.04027749
197	0x3d91648a	0.070992544
198	0x3c623775	0.013807167
199	0x3da03603	0.07822802
200	0x3d877b36	0.066152975
201	0xbab9ab6a	-0.0014165465
202	0x3c79ab37	0.015238575
203	0xbcc1c960	-0.023655593
204	0x3d0adf92	0.03390462
205	0x3d80554d	0.0626627
206	0x3b16ca2e	0.0023008692
207	0xbc9f063b	-0.01941215
208	0x3e19b65f	0.15010975
209	0x3e0d7e2c	0.13817662
210	0xbd4f850b	-0.05066399
211	0x3c8e4afd	0.017369742
212	0x3d345145	0.044022817
213	0xbe20ee41	-0.15715887
214	0x3e1fd009	0.15606703
215	0xbcfc7d2e	-0.03082141
216	0xbdecdc8c	-0.115655035
217	0xbd56c3bc	-0.05243276
218	0xbdc5fc5c	-0.09667274
219	0x3d59e9af	0.053201374
220	0xbc55f5f2	-0.013059126
221	0xbe00caa4	-0.12577301
222	0x3d4f330d	0.050585795
223	0x3ded2de6	0.1158102
224	0xbd898435	-0.067146696
225	0xbe1398ec	-0.14413804
226	0xbc69ef91	-0.0142783085
227	0xbe174b94	-0.14774925
228	0x3ca3aa3b	0.019978633
229	0xbc0d7114	-0.008632917
230	0x3b5f6bed	0.0034091428
231	0x3da211f4	0.079135805
232	0xbd56ebe7	-0.052471068
233	0xbd271a9d	-0.040796865
234	0x3bb0edee	0.005399457
235	0x3db9d814	0.09074417
236	0xbdd26aa5	-0.10274247
237	0x3e1773a1	0.14790203
238	0x3d5fc746	0.0546334
239	0xbd2ea078	-0.042633504
240	0x3d43c402	0.04779435
241	0x3dc3f067	0.095673375
242	0x3d6010c8	0.054703504
243	0xbdbc8527	-0.09205084
244	0x3d0f1811	0.03493506
245	0x3d186adc	0.037211284
246	0x3caeb620	0.021327078
247	0x3e1543f4	0.14576703
248	0x3ca0ab06	0.0196128
249	0x3be46606	0.00697017
250	0xbe1f4baa	-0.15556207
251	0xbce2a20a	-0.027665157
252	0xbde9388f	-0.11387741
253	0x3d661b60	0.05617845
254	0xbcde7dd3	-0.027159607
255	0x3e1dac66	0.15397796

fc3.bias f4 [32]
0	0x3d673f65	0.056456942
1	0xbbeff637	-0.0073230523
2	0xbd91bece	-0.07116471
3	0x3d9f2404	0.07770541
4	0x3dade2ae	0.08490501
5	0x3d8cc29d	0.06873057
6	0xbc01bed0	-0.007919028
7	0xbd1205c0	-0.035650015
8	0xbd21158c	-0.03932719
9	0xbd8e8fa3	-0.0696099
10	0xbdc0f0df	-0.094209425
11	0x3dcdacb3	0.100427054
12	0xbde96e0d	-0.11397944
13	0xbc019252	-0.007908421
14	0x3d9ec930	0.07753217
15	0x3d069b42	0.03286291
16	0x3df667d8	0.120315254
17	0xbda33994	-0.079699665
18	0x3c1d476c	0.009599548
19	0x3d07ad91	0.03312451
20	0x3d333933	0.04375572
21	0xbd8919fa	-0.06694408
22	0xbddcd67f	-0.107830994
23	0x3d70b6a7	0.05876794
24	0x3d576eb8	0.052595824
25	0x3e07d0d9	0.13263263
26	0xbd5a58d9	-0.053307388
27	0xbc0784ab	-0.008271377
28	0x3df7a86c	0.12092671
29	0x3dc4ce03	0.09609606
30	0xbcfb0210	-0.030640632
31	0xbdc58dce	-0.09646188

fc4.weight f4 [5, 32]
0	0xbd3defed	-0.04637139
1	0xbde233b2	-0.11045016
2	0x3e236773	0.15957431
3	0xbe1c48cb	-0.15262143
4	0x3cf29e12	0.02961639
5	0xbda0bafc	-0.078481644
6	0xbe4d812c	-0.20068806
7	0x3d320adc	0.043467388
8	0x3dee98c0	0.116502285
9	0xbd0a45e7	-0.03375807
10	0xbdb1e66a	-0.08686526
11	0xbcc26ea1	-0.023734393
12	0x3e329670	0.174402
13	0xbd9dcdaf	-0.07705247
14	0x3dadad88	0.08480364
15	0xbe1c0157	-0.15234886
16	0xbe0425bb	-0.12905018
17	0x3e17532a	0.14777818
18	0xbda21440	-0.07914019
19	0x3e4ddd1f	0.20103882
20	0x3e3be494	0.18348914
21	0xbe4aa3ce	-0.19789049
22	0x3e2beef8	0.16790378
23	0x3df6f5f0	0.120586276
24	0x3e2dc1fd	0.16968532
25	0x3e024a49	0.1272365
26	0x3e170e35	0.14751513
27	0xbdbd1199	-0.09231872
28	0xbe19e6f9	-0.15029515
29	0xbe3da686	-0.18520555
30	0xbb5c8e10	-0.0033654012
31	0xbc4cbd58	-0.012496315
32	0xbd8d4943	-0.06898739
33	0x3e151cdf	0.14561795
34	0xbe00333d	-0.12519546
35	0xbc9dee23	-0.019278591
36	0xbd72a28a	-0.05923704
37	0x3d4a22db	0.049349647
38	0xbc7c9a44	-0.015417639
39	0xbc867221	-0.016411843
40	0xbd60a4cd	-0.054844666
41	0x3e16fb2c	0.14744252
42	0xbe071a12	-0.13193539
43	0x3dd8d0bd	0.10586689
44	0x3e1679a0	0.14694834
45	0x3e249366	0.16071853
46	0x3e2dd925	0.16977365
47	0xbe499186	-0.19684419
48	0x3de226af	0.110425346
49	0x3c3a3eb9	0.011367493
50	0x3da84a0a	0.08217247
51	0x3d9e949b	0.07743188
52	0xbc9a7626	-0.018855166
53	0xbe097512	-0.13423565
54	0xbc400da2	-0.011722
55	0x3ce9b26c	0.028527461
56	0x3e029f81	0.12756158
57	0xbd2a396b	-0.041558664
58	0x3d470aab	0.04859416
59	0xbde49514	-0.11161247
60	0xbe090ee2	-0.13384584
61	0x3dec17cc	0.115279764
62	0xbdec9ce4	-0.11553362
63	0x3df06808	0.117385924
64	0x3db8ad53	0.09017434
65	0x3bc391fb	0.00596833
66	0x3c39af16	0.011333248
67	0x3e302b96	0.17204127
68	0xbce70281	-0.028199436
69	0xbe2c959d	-0.16853948
70	0xbda779a8	-0.08177501
71	0xbd17d3d5	-0.037067253
72	0xbb68b49e	-0.0035508047
73	0x3ca7ca7e	0.020482298
74	0x3d8c2528	0.068430245
75	0xbdd3b29e	-0.10336803
76	0x3dd04d4a	0.10170992
77	0xbdeb8d9b	-0.115016185
78	0xbd8ee1cf	-0.06976663
79	0x3de526ce	0.11189042
80	0x3e423dc9	0.18968882
81	0x3dd419b5	0.10356466
82	0x3e29d07c	0.16583437
83	0xbd825017	-0.06362932
84	0xbd630d82	-0.055432804
85	0xbe33788e	-0.17526457
86	0xbc8f65d1	-0.017504605
87	0xbd00f37e	-0.031482212
88	0xbd8e6d78	-0.06954473
89	0x3df01dd9	0.11724443
90	0xbde6c819	-0.11268634
91	0xba9e77c6	-0.0012090139
92	0xbb97b55b	-0.0046297736
93	0xbd6f632b	-0.058444183
94	0xbe2e2f04	-0.17010123
95	0x3d4a9bed	0.04946511
96	0xbdfee05c	-0.12445137
97	0x3ddb2545	0.10700468
98	0x3db90dd0	0.09035838
99	0xbcc4bea2	-0.024016682
100	0xbe0a7ca4	-0.13524109
101	0xbc564e00	-0.01308012
102	0xbb86103b	-0.0040912903
103	0x3a2cd4d8	0.00065929955
104	0xbdf5c931	-0.12001265
105	0xbe5c85e2	-0.21535447
106	0x3d56d76f	0.052451547
107	0x3e372be7	0.17887841
108	0xbd71f162	-0.05906809
109	0x3df4db74	0.1195592
110	0x3e19b2ba	0.15009585
111	0xbe043adf	-0.12913083
112	0xbe0e20e6	-0.13879737
113	0xbde66757	-0.11250179
114	0xbe0250f6	-0.12726197
115	0x3e49842e	0.19679329
116	0x3e3bb0db	0.18329184
117	0xbe39d22c	-0.1814658
118	0x3d808864	0.062760144
119	0xbd3a74ee	-0.04552167
120	0xbdbeb930	-0.093126655
121	0xbe43e354	-0.19129688
122	0xbd2e0599	-0.042485807
123	0x3e0885f2	0.13332346
124	0x3d59368a	0.053030528
125	0x3c06751b	0.008206631
126	0xbcb243b0	-0.021760792
127	0x3e144bc9	0.14482035
128	0xbdc7d8e6	-0.09758167
129	0x3e24437a	0.16041365
130	0xbe137d5e	-0.14403293
131	0x3e5e0da3	0.2168489
132	0xbe225c25	-0.15855463
133	0x3e0404ca	0.12892452
134	0x3d20bdf4	0.039243653
135	0xbe01c170	-0.12671447
136	0xbdf51900	-0.11967659
137	0x3e1a8697	0.15090404
138	0x3e60e914	0.21963912
139	0xbe44bd7c	-0.19212908
140	0xbe1932e7	-0.14960824
141	0xbe442528	-0.19154799
142	0xbd8956f3	-0.06706037
143	0x3e4776cd	0.19478913
144	0xbd8a529b	-0.06754037
145	0xbd8b2804	-0.06794742
146	0xbe3b521a	-0.18293038
147	0x3d81c206	0.06335835
148	0xbe0d44fa	-0.13795844
149	0x3e15775a	0.1459631
150	0xbe044495	-0.12916787
151	0xbe10edac	-0.14153165
152	0xbe53a27b	-0.2066745
153	0x3e401e39	0.18761529
154	0xbc7a8c32	-0.015292214
155	0xbe444e7f	-0.19170569
156	0x3d678f1f	0.056532975
157	0xbd8aeba2	-0.06783225
158	0x3e58015e	0.21094272
159	0xbe43c76f	-0.19119047

fc4.bias f4 [5]
0	0x3e0c9715	0.13729508
1	0xbd609ca1	-0.054836873
2	0xbc586ea6	-0.013209974
3	0x3d3aa682	0.04556895
4	0xbddd86e2	-0.108167425
