clean_code/trained_models/actor_570.pth (torch, 54872 bytes, 8 tensors)

fc1.weight f4 [128, 18]
0.15577349 0.08560697 -0.1591146 0.19001201 0.12175435 -0.06674683 0.029039316 0.024078533
0.09336767 -0.072014265 -0.14743005 0.004216986 0.21664906 0.08265473 0.14981101 0.026674481
-0.23145735 0.25497928 0.13832101 0.1632382 0.07778821 -0.08109049 0.06722293 -0.0204114
0.14406754 0.20337462 0.09578152 0.03628215 0.14564082 0.14371438 -0.16776264 -0.13691002
-0.0912369 0.05431456 -0.16588426 0.040287256 0.1521349 0.08684796 -0.1503046 0.06149919
-0.17863783 0.032508932 0.19307682 0.15332529 -0.062401537 -0.17779024 -0.10515772 0.17812192
0.26102516 0.09639265 0.06452804 -0.11073905 0.19919391 0.05547206 0.12820983 -0.0384597
0.17010918 0.026470214 -0.18286113 -0.13449821 -0.1919091 -0.18809144 -0.12385024 0.16773738
0.09787586 -0.104160696 0.20873003 0.18564402 -0.0054953564 -0.18528345 0.16758306 -0.06400218
-0.07616409 0.23270783 -0.03749028 -0.20366338 0.21245588 0.15827098 -0.09689075 0.26045835
-0.028710073 0.037255928 0.06504999 0.09881039 0.02441567 -0.13101941 0.2426926 0.1654102
-0.14115506 0.21206114 0.09735364 -0.05942446 0.030120173 0.18351872 0.23311171 -0.03245287
-0.088417016 -0.011221647 0.08956317 -0.1838631 -0.025851792 0.15725257 -0.18040538 0.20579098
-0.16043127 0.19751073 0.052742336 0.2051631 0.1413402 -0.24710268 0.14849834 -0.13342416
0.09411362 0.17213294 0.17634669 0.07971028 -0.17773339 -0.000864073 -0.22705613 -0.025001867
-0.22345626 -0.009744495 -0.12974721 0.055298805 -0.2399864 -0.0078654215 0.029528378 0.1528027
-0.20931032 -0.20991366 -0.1347843 0.08720532 0.20648775 -0.1275759 0.17417523 -0.18929331
0.17176321 0.1783115 -0.022062456 0.024652377 0.1452059 7.445548e-05 0.045640483 -0.14961416
-0.00057247205 -0.08427213 -0.06442574 0.17033261 -0.065102674 -0.23351514 -0.10236935 -0.18793103
0.009714729 -0.21239851 -0.101033084 -0.24754599 0.15976608 -0.2106155 -0.10583927 -0.18203615
0.044483047 0.1559106 0.15147196 0.22063823 0.21904942 -0.073762655 0.11998513 -0.22205085
0.22312023 0.14154789 -0.06665479 0.19985367 0.09855141 0.23076814 0.16462216 -0.11949598
-0.06685214 0.20753609 -0.18288893 -0.09516304 -0.11812915 -0.19136783 -0.1486358 -0.19037902
0.098633565 0.10037143 -0.008644351 0.109153576 0.015891341 0.026319094 -0.019759493 0.06966438
-0.18036807 -0.058293283 -0.2230135 -0.16959143 0.12951928 0.033951916 -0.05191212 0.19534573
-0.03113454 -0.122741364 -0.11823818 0.20079547 0.0763553 0.18925607 0.04089542 -0.07744123
0.12224798 0.10831035 -0.0014586496 -0.033463866 -0.09949825 0.11970288 -0.17866226 0.23009494
-0.10416645 -0.08572816 0.14103216 -0.11289989 -0.21044916 -0.043460988 -0.2141909 0.017583925
-0.18945901 -0.1726202 -0.040102407 0.18337859 -0.14266287 -0.0031180233 0.07529588 -0.10853292
0.14414853 0.14849533 0.26604775 -0.0902972 0.06898308 -0.055412937 0.018956264 0.058470998
0.21204679 0.21758607 0.17160957 0.23987353 -0.03259634 0.060387023 -0.18071075 -0.123375766
0.019277746 0.028106345 -0.025120694 -0.08185142 0.22033292 -0.05716694 -0.0003962886 0.029867789
00000000: 1683 1f3e b552 af3d f0ee 22be 8292 423e
00000010: 585a f93d 90b2 88bd dce3 ed3c 5840 c53c
00000020: 8d37 bf3d 377c 93bd e7f7 16be a42e 8a3b
00000030: 40d9 5d3e e246 a93d 0f68 193e 7184 da3c
00000040: 2803 6dbe a58c 823e 06a4 0d3e ea27 273e
00000050: 6d4f 9f3d c512 a6bd 2dac 893d cf35 a7bc
00000060: 7186 133e 7041 503e 1a29 c43d 979c 143d
00000070: de22 153e dd29 133e f8c9 2bbe 2432 0cbe
00000080: 69da babd f278 5e3d 90dd 29be 4004 253d
00000090: 40c9 1b3e 58dd b13d 73e9 19be 93e6 7b3d
000000a0: d6ec 36be 1628 053d eeb5 453e 4e01 1d3e
000000b0: c198 7fbd a50e 36be ee5c d7bd 9865 363e
000000c0: 17a5 853e 8269 c53d 4727 843d 28cb e2bd
000000d0: 7df9 4b3e ac36 633d 7049 033e eb87 1dbd
000000e0: 1a31 2e3e 10d8 d83c f33f 3bbe e6b9 09be
000000f0: d283 44be 0b9b 40be 32a5 fdbd 59c3 2b3e
00000100: 2473 c83d 3452 d5bd 53bd 553e 7719 3e3e
00000110: 6412 b4bb f2ba 3dbe e59a 2b3e 9313 83bd
00000120: ebfb 9bbd f64a 6e3e 688f 19bd 228d 50be
00000130: 098e 593e ca11 223e a86e c6bd cc5a 853e
00000140: 6331 ebbc ac99 183d ee38 853d 1a5d ca3d
00000150: 5f03 c83c f429 06be 6984 783e 4b61 293e
00000160: f48a 10be 8e26 593e 5861 c73d 1067 73bd
00000170: 95be f63c 55ec 3b3e d6b4 6e3e 4ded 04bd
00000180: fb13 b5bd 00db 37bc e56c b73d 9c46 3cbe
00000190: 23c7 d3bc d106 213e 30bc 38be dfba 523e
000001a0: 1848 24be 4140 4a3e 5908 583d 4716 523e
000001b0: 7cbb 103e 7c08 7dbe f30f 183e 58a0 08be
000001c0: a4be c03d 9e43 303e 3a94 343e 253f a33d
000001d0: beff 35be f582 62ba 6781 68be b7d0 ccbc
000001e0: b8d1 64be 60a7 1fbc 74dc 04be 0081 623d
000001f0: ffbe 75be f8dd 00bc 7fe5 f13c 5078 1c3e
00000200: 7255 56be 9bf3 56be e504 0abe b498 b23d
00000210: 8671 533e 42a3 02be fe5a 323e 1bd6 41be
00000220: b2e2 2f3e 4a97 363e 53bc b4bc c8f3 c93c
00000230: dbb0 143e fb24 9c38 84f1 3a3d 7434 19be
00000240: f311 16ba de96 acbd a4f1 83bd ac6b 2e3e
00000250: 8d54 85bd 981e 6fbe 06a7 d1bd fe70 40be
00000260: 872a 1f3c ff7e 59be 6fea cebd b27c 7dbe
00000270: b899 233e 97ab 57be 42c2 d8bd af67 3abe
00000280: db33 363d 07a7 1f3e 771b 1b3e fdee 613e
00000290: 7e4e 603e e010 97bd c4ba f53d 4c61 63be
000002a0: a179 643e eef1 103e 4e82 88bd 71a6 4c3e
000002b0: 52d5 c93d 7c4e 6c3e b692 283e 4fba f4bd
000002c0: c6e9 88bd 5784 543e 3c47 3bbe d7e4 c2bd
000002d0: b2ed f1bd eef5 43be fc33 18be b8f2 42be
000002e0: 6500 ca3d 898f cd3d 09a1 0dbc e98b df3d
000002f0: 8f2e 823c 249b d73c a9de a1bc 33ac 8e3d
00000300: 68b2 38be f0c4 6ebd a75d 64be 60a9 2dbe
00000310: b4a0 043e 2a11 0b3d cea1 54bd b608 483e
00000320: dd0d ffbc d35f fbbd dc26 f2bd 549d 4d3e
00000330: 2b60 9c3d 58cc 413e f581 273d 8299 9ebd
00000340: 265d fa3d d1d1 dd3d 2930 bfba 6811 09bd
00000350: bdc5 cbbd c926 f53d 3df3 36be 029e 6b3e
00000360: 3855 d5bd 3f92 afbd bc6a 103e 0f38 e7bd
00000370: fc7f 57be 2604 32bd dc54 5bbe 2a0c 903c
00000380: 8b01 42be 5ac3 30be 6c42 24bd 99c7 3b3e
00000390: 3716 12be c057 4cbb ba34 9a3d 8246 debd
000003a0: ac9b 133e 290f 183e 6937 883e bded b8bd
000003b0: 0047 8d3d adf8 62bd 2b4a 9b3c 497f 6f3d
000003c0: cb22 593e e2ce 5e3e 6bba 2f3e 68a1 753e
000003d0: bd83 05bd 6258 773d 3d0c 39be 6fac fcbd
000003e0: 5dec 9d3c 473f e63c eac9 cdbc b8a1 a7bd
000003f0: f49e 613e e227 6abd f5c4 cfb9 4bad f43c

fc1.bias f4 [128]
0.14961545 0.15699153 0.1611033 0.18350023 0.022191977 0.076647006 0.04329504 -0.09825296
0.10821295 -0.18238455 -0.21448193 0.23688288 0.15730515 -0.06159182 0.08602231 0.23013783
0.010675695 0.20886827 -0.15768756 0.09725511 0.1781233 0.084370084 -0.15772355 0.027134525
-0.20891865 0.10596168 0.017706782 0.18723089 -0.08504945 0.06475394 -0.0056021675 -0.19408217
0.05773226 0.24664545 0.09461093 -0.09175207 -0.114088 0.013328373 0.2663035 -0.15474395
0.01695161 0.19018768 -0.16802928 0.24693693 -0.07994175 0.20293777 0.26084247 0.16459988
0.25643295 -0.14322366 0.106285445 -0.052335788 -0.15142071 -0.26339462 -0.04670968 0.26471293
0.019063065 0.24488239 -0.18560633 -0.008607548 -0.049685888 0.24944995 0.01841201 -0.15448268
0.11437659 -0.21550766 0.02111452 0.09146058 -0.070908494 0.16515216 0.25291649 0.07748538
-0.1374134 0.052817747 -0.17314027 0.14829886 0.1774052 -0.011701008 0.21901792 0.14499764
0.052449238 -0.16128315 -0.24072553 -0.16394031 0.09525415 0.13459001 -0.09070442 -0.06373588
-0.1088244 0.0032134813 0.13385658 -0.018206103 0.022935668 0.22670597 0.19671768 -0.26660952
0.11554422 -0.20780545 -0.20052983 0.048590764 0.16345088 -0.19849543 0.15701859 -0.05828843
0.13560838 0.20705993 0.035705905 -0.16095437 0.16381611 0.13467094 -0.09305988 -0.032182124
-0.009074419 0.2154957 -0.16627146 0.25098583 -0.14263518 -0.17190191 -0.16047044 0.21368182
0.06258367 0.029676203 0.1711832 0.05835693 -0.23502669 0.17874964 0.09018053 -0.14546387
00000000: cb34 193e 63c2 203e 43f8 243e 7ce7 3b3e
00000010: f3cb b53c 1bf9 9c3d 2456 313d d938 c9bd
00000020: c09e dd3d 04c3 3abe 27a1 5bbe 6d91 723e
00000030: 9a14 213e b447 7cbd 772c b03d 40a9 6b3e
00000040: 1ce9 2e3c 90e1 553e d978 21be b02d c73d
00000050: f465 363e 39ca ac3d 4882 21be 3949 de3c
00000060: c5ee 55be 7002 d93d d00d 913c 74b9 3f3e
00000070: 682e aebd b79d 843d 6392 b7bb 7abd 46be
00000080: aa78 6c3d a090 7c3e 60c3 c13d 82e8 bbbd
00000090: f8a6 e9bd 405f 5a3c ef58 883e 3375 1ebe
000000a0: 1ade 8a3c 8fc0 423e de0f 2cbe 09dd 7c3e
000000b0: 80b8 a3bd ebce 4f3e 258d 853e df8c 283e
000000c0: 2e4b 833e 39a9 12be 2fac d93d 0d5e 56bd
000000d0: 080e 1bbe a9db 86be a652 3fbd 7488 873e
000000e0: 252a 9c3c 73c2 7a3e 960f 3ebe ac06 0dbc
000000f0: 6e83 4bbd cf6f 7f3e c9d4 963c b530 1ebe
00000100: 463e ea3d 0aae 5cbe 5cf8 ac3c af4f bb3d
00000110: 7938 91bd a61d 293e 457e 813e a8b0 9e3d
00000120: 19b6 0cbe 6c57 583d af4b 31be a8db 173e
00000130: b5a9 353e 96b5 3fbc 3c46 603e 437a 143e
00000140: 03d5 563d 6927 25be c180 76be f8df 27be
00000150: 9c14 c33d f7d1 093e 3dc3 b9bd f587 82bd
00000160: 54df debd 4599 523b b311 093e f724 95bc
00000170: 95e3 bb3c 9c25 683e 5c70 493e 0b81 88be
00000180: 73a2 ec3d f4ca 54be b157 4dbe 1c07 473d
00000190: ab5f 273e 6342 4bbe 7bc9 203e d9bf 6ebd
000001a0: ecdc 0a3e 8507 543e 5b40 123d 39d1 24be
000001b0: 69bf 273e 2ee7 093e 2e96 bebd 67d1 03bd
000001c0: dfac 14bc e8aa 5c3e 1143 2abe 3781 803e
000001d0: f50e 12be 0e07 30be 5d52 24be 68cf 5a3e
000001e0: de2b 803d 821b f33c a64a 2f3e ad07 6f3d
000001f0: d6aa 70be 250a 373e 92b0 b83d 7bf4 14be

fc2.weight f4 [64, 128]
0.07174146 -0.030436236 0.022034705 -0.0045911083 0.055796705 0.053712294 0.058949556 0.04525944
0.008545655 -0.026883049 0.012706246 0.074221134 -0.029712727 0.0023856617 0.036134847 0.022462975
0.0076049305 0.007482317 -0.042148244 0.03506442 0.033134397 -0.09187197 0.055596277 -0.057900425
0.07905429 0.026241338 -0.0036849154 0.08218575 -0.11615511 -0.014377439 0.049343936 0.047691755
-0.039977174 0.040773157 -0.07335488 0.087884635 -0.06310658 -0.010302848 -0.012093435 0.069661945
0.100383595 0.039666153 -0.050695244 0.00077896676 -0.10166983 0.10160426 0.026944209 -0.013635234
0.05337599 0.072109506 0.006013194 -0.067233 0.02827106 -0.055503502 0.060183108 -0.029888181
-0.017872326 -0.02100906 -0.07154855 0.022584919 0.08842848 -0.053802934 -0.05667611 0.041775253
0.03613119 0.02975961 0.07700524 -0.07152793 -0.060617723 -0.060023908 0.0011214083 0.064331144
-0.04746187 -0.018570838 0.014431042 0.011407641 0.061508555 -0.0338108 0.098695055 0.07931999
-0.019520028 -0.041205812 -0.09048136 -0.062457066 0.005144011 -0.08687281 -0.110255085 0.050790302
-0.08131132 0.044082776 0.042737387 0.06513582 0.015790168 -0.0021251943 0.123752594 -0.05639225
-0.003915195 -0.00010709573 -0.11133872 0.043687414 -0.018731426 0.012545168 0.025904523 -0.022484979
0.0326281 -0.030734662 -0.0146552455 -0.08476137 -0.032045167 -0.032128647 -0.108146384 -0.05416947
-0.046040323 0.045193475 -0.015329062 0.08381512 -0.0913139 0.033612136 -0.08320433 0.06382057
0.07185577 0.038906902 0.028096057 -0.05404842 0.037301056 0.0973504 -0.015628455 -0.02083202
0.101697825 0.099850476 0.109487854 -0.06940851 0.07474538 0.010798096 -0.07470418 0.094082385
-0.055541422 -0.011733731 -0.089119524 0.01665022 -0.030302815 0.09991932 0.05061782 0.06999581
0.05427504 0.05129016 0.067460075 0.039537806 0.039404575 -0.07111957 0.030091587 -0.060991388
-0.0071313474 -0.057995148 0.09105576 0.02436927 -0.112593345 -0.09781837 0.067458056 0.04238685
0.100527875 0.032199405 0.025403261 0.021278257 -0.10782827 0.05438523 -0.037877183 0.019157417
-0.05913554 -0.0028297852 0.02323542 -0.03998888 0.025895502 0.06821681 0.028087828 0.02971447
0.06872568 -0.071376815 0.10545789 -0.03734839 0.051447455 -0.079351075 -0.076472655 0.0653674
0.01993309 0.10864587 0.033721052 -0.054947387 0.059130803 0.078235716 0.026379803 -0.027448896
-0.0013015337 -0.068471394 0.076475725 0.031768125 -0.017976416 0.068151146 -0.048614793 0.06625746
-0.0032608164 -0.061803184 -0.020488944 -0.0010436424 -0.070352845 -0.0319802 0.0054580243 0.069346555
-0.08516794 -0.030273179 0.051071342 -0.07876825 0.007182506 0.032698918 0.029401971 -0.043509424
-0.0020936404 -0.036096044 -0.013069248 0.04638511 0.008368724 0.087189764 0.08565598 0.039179344
-0.059392646 -0.031452697 -0.047267575 0.025355272 0.032530367 -0.026953887 0.06461916 -0.06224344
-0.06089666 -0.011625863 0.0041781706 -0.050284486 0.016233321 0.04450877 -0.07974753 0.09479481
0.020985464 -0.037969902 0.07489788 0.029622128 -0.028545527 0.09836292 0.027725311 0.0037049819
0.05471668 0.030802717 -0.022230892 -0.017726462 -0.031037794 -0.042858027 0.028386863 0.0073898863
00000000: 30ed 923d 6a55 f9bc 2082 b43c 0271 96bb
00000010: 168b 643d 6c01 5c3d 1775 713d f661 393d
00000020: 1303 0c3c d739 dcbc dc2d 503c 4001 983d
00000030: 1b68 f3bc c358 1c3b 2202 143d 4604 b83c
00000040: c832 f93b 392e f53b a3a3 2cbd b69f 0f3d
00000050: efb7 073d 5f27 bcbd ecb8 633d ff28 6dbd
00000060: 37e7 a13d 13f8 d63c 9f7e 71bb 0151 a83d
00000070: bbe2 edbd 5a8f 6bbc de1c 4a3d 6e58 433d
00000080: 1bbf 23bd c101 273d 153b 96bd dcfc b33d
00000090: 063e 81bd 47cd 28bc 8b23 46bc ecaa 8e3d
000000a0: ea95 cd3d fa78 223d d1a5 4fbd 9333 4c3a
000000b0: 4638 d0bd e515 d03d 1aba dc3c 5166 5fbc
000000c0: c8a0 5a3d 26ae 933d 540a c53b 75b1 89bd
000000d0: b698 e73c a457 63bd 9082 763d 0fd8 f4bc
000000e0: fc68 92bc 311b acbc 0c88 92bd 0204 b93c
000000f0: fe19 b53d 7760 5cbd 3525 68bd 871c 2b3d
00000100: 4cfe 133d 6dca f33c ecb4 9d3d 3c7d 92bd
00000110: 4a4a 78bd a1db 75bd 38fc 923a 0cc0 833d
00000120: 6167 42bd df21 98bc 2d70 6c3c 1de7 3a3c
00000130: 65f0 7b3d 327d 0abd a220 ca3d 8572 a23d
00000140: 77e8 9fbc 6dc7 28bd 4b4e b9bd fbd2 7fbd
00000150: 188f a83b 5fea b1bd 6bcd e1bd 7e09 503d
00000160: 8d86 a6bd 2490 343d 660d 2f3d ee65 853d
00000170: 625a 813c d846 0bbb 0072 fd3d 8ffb 66bd
00000180: 094b 80bb 9598 e0b8 8e05 e4bd 93f1 323d
00000190: a672 99bc 408a 4d3c b935 d43c 6b32 b8bc
000001a0: 0ba5 053d 42c7 fbbc 8e1c 70bc 5f97 adbd
000001b0: cb41 03bd 5499 03bd da7b ddbd cee0 5dbd
000001c0: c794 3cbd cb1c 393d bf26 7bbc 43a7 ab3d
000001d0: c802 bbbd e1ac 093d 0867 aabd 5cb4 823d
000001e0: 1e29 933d d85c 1f3d b429 e63c e061 5dbd
000001f0: fec8 183d a65f c73d 3f07 80bc eaa7 aabc
00000200: f346 d03d 687e cc3d 2b3b e03d 0d26 8ebd
00000210: 1b14 993d 7fea 303c 81fe 98bd 44ae c03d
00000220: 677f 63bd d63e 40bc 4c84 b6bd 0b66 883c
00000230: 9c3d f8bc 80a2 cc3d a254 4f3d f759 8f3d
00000240: 814f 5e3d a115 523d 8228 8a3d 65f2 213d
00000250: b166 213d 23a7 91bd a282 f63c 1bd2 79bd
00000260: 14ae e9bb 528c 6dbd 717b ba3d 10a2 c73c
00000270: 5797 e6bd ff54 c8bd 7327 8a3d d59d 2d3d
00000280: 8fe1 cd3d 86e3 033d 801a d03c bd4f ae3c
00000290: 11d5 dcbd 0cc3 5e3d 1b25 1bbd 04f0 9c3c
000002a0: 1c38 72bd eb73 39bb 3558 be3c 61cb 23bd
000002b0: ce22 d43c 41b5 8b3d 7218 e63c c36b f33c
000002c0: 0dc0 8c3d 022e 92bd 4efa d73d a0fa 18bd
000002d0: 91ba 523d d182 a2bd b29d 9cbd 58df 853d
000002e0: b84a a33c ba81 de3d 161f 0a3d 8310 61bd
000002f0: 2433 723d 0c3a a03d 751a d83c 82dc e0bc
00000300: 3998 aaba bb3a 8cbd 4e9f 9c3d 4b1f 023d
00000310: 4743 93bc d492 8b3d 4e20 47bd feb1 873d
00000320: 6cb3 55bb 5625 7dbd 6ed8 a7bc d4ca 88ba
00000330: 2715 90bd acfd 02bd 3ad9 b23b 9105 8e3d
00000340: 876c aebd 75ff f7bc 2f30 513d 4051 a1bd
00000350: 3a5b eb3b 4def 053d 67dc f03c f036 32bd
00000360: 7535 09bb 72d9 13bd 6620 56bc 50fe 3d3d
00000370: f91c 093c 8c90 b23d 676c af3d 857a 203d
00000380: b445 73bd 8bd4 00bd a59b 41bd dcb5 cf3c
00000390: 903e 053d 66ce dcbc 0d57 843d faf2 7ebd
000003a0: c76e 79bd 677a 3ebc 09e9 883b 1bf7 4dbd
000003b0: befb 843c d44e 363d ac52 a3bd c823 c23d
000003c0: b5e9 ab3c 5486 1bbd 0f64 993d 1baa f23c
000003d0: 4fd8 e9bc 8072 c93d 3120 e33c 48cf 723b
000003e0: 991e 603d fb55 fc3c 8f1d b6bc 1637 91bc
000003f0: f942 febc e68b 2fbd 918b e83c dc26 f23b

fc2.bias f4 [64]
0.030897215 0.008208535 -0.055080462 0.04579649 -0.09092793 -0.024702126 0.03158527 0.023053885
0.10252492 -0.10405473 0.022982985 -0.050912496 -0.05264944 -0.018085618 0.028114581 -0.055288065
0.10637754 0.011551751 -0.001293777 0.04047808 0.017264908 -0.0670297 0.015415287 -0.054920822
-0.08446574 -0.041755438 -0.09866525 -0.08141691 -0.0022058724 0.015890729 0.0032385045 -0.055308215
0.085371755 -0.07514749 -0.07226341 -0.070871584 -0.051395055 -0.0856784 0.023273857 -0.06375795
0.010767569 0.04727109 0.03959212 -0.06379676 -0.018513838 0.024152774 0.10882568 0.021034721
0.045876022 -0.08983884 -0.06472906 0.0007279655 0.0186081 0.018102808 -0.058771197 0.03217897
0.03294673 0.010897386 -0.100643344 0.10044358 -0.016151492 0.09599191 0.0049969894 -0.011849417
00000000: 281c fd3c 177d 063c 0d9c 61bd 1a95 3b3d
00000010: 6c38 babd 1d5c cabc 8e5f 013d 80db bc3c
00000020: 96f8 d13d a51a d5bd d046 bc3c 9f89 50bd
00000030: f0a6 57bd 4a28 94bc 8d50 e63c bd75 62bd
00000040: 78dc d93d 8e43 3d3c f493 a9ba 58cc 253d
00000050: 236f 8d3c de46 89bd 6690 7c3c a8f4 60bd
00000060: 60fc acbd c007 2bbd 0211 cabd e9bd a6bd
00000070: 6690 10bb 462d 823c 173d 543b de8a 62bd
00000080: 63d7 ae3d ede6 99bd d7fe 93bd 1f25 91bd
00000090: 9f83 52bd 2878 afbd d1a8 be3c 8793 82bd
000000a0: 756a 303c 559f 413d 592b 223d e0a7 82bd
000000b0: 55aa 97bc 0adc c53c 00e0 de3d 0251 ac3c
000000c0: 7fe8 3b3d 6dfd b7bd ab90 84bd f0d4 3e3a
000000d0: 0470 983c 574c 943c 11ba 70bd 18ce 033d
000000e0: 26f3 063d f38a 323c 191e cebd 5db5 cd3d
000000f0: 2250 84bc 6897 c43d c9bd a33b 0f24 42bc

fc3.weight f4 [32, 64]
-0.1317696 -0.037000224 -0.071063116 0.14076927 -0.089505106 -0.12661947 0.04912647 -0.129859
0.051320154 -0.010061115 0.14379802 -0.003019555 -0.04876885 -0.07392172 -0.028543849 -0.09920983
-0.04487709 -0.078594424 -0.0038520151 0.12502246 -0.009620629 0.0692792 -0.050680026 0.062069204
-0.079569526 -0.040159304 0.082658604 0.019681795 0.06283085 -0.09889422 -0.13351558 0.13199885
-0.048411135 -0.07223335 0.08705417 0.097970344 0.12082753 0.081867 0.030325806 0.1096483
-0.10808567 0.11022451 0.08594963 0.054653943 -0.103321716 0.10406902 -0.14340802 0.12468586
-0.115872934 0.080984145 -0.08561786 -0.14659339 0.09789275 0.01203883 -0.035756994 0.059825033
0.08473317 -0.06662781 0.06259614 -0.002492725 0.07664593 -0.07555143 -0.064111605 -0.06796372
0.0422886 0.048235025 -0.088742405 -0.041839115 0.0125941485 0.094905436 0.16346501 0.14796536
0.00804059 -0.11943109 0.15395716 0.05427312 0.04175261 0.012301994 -0.007062047 0.0384206
0.07118701 0.0111333765 0.14481255 -0.04595461 0.052169472 0.029554972 0.08486698 -0.017907431
0.0155327115 -0.12155843 0.057937052 -0.08288131 -0.011975843 -0.0030763038 -0.11629817 0.050583582
0.038849223 0.040431432 0.03525916 -0.044046454 -0.003475281 -0.15224391 0.15712662 -0.1392426
0.08277607 -0.050580863 -0.083234526 -0.035358146 0.025000008 0.09774527 -0.014089376 -0.14051825
0.16303377 0.030127844 0.0739433 0.03732301 -0.15658276 0.05529745 0.12140261 -0.07871662
0.024733054 -0.030235894 0.0013027444 0.026781127 -0.1650167 0.14565527 0.056220304 -0.05502938
-0.13048351 -0.05625403 0.11990493 0.03486142 -0.012134067 0.027817216 -0.14482324 -0.006331515
-0.027068283 0.07253698 0.06163944 0.068953335 -0.013039072 0.09282796 0.12817882 -0.0041275285
-0.03502385 -0.07143614 0.0050073713 0.019054996 0.012943193 0.1350554 -0.058452822 0.019913577
0.10090607 0.04008784 -0.08453437 0.012096271 0.03695189 -0.036159515 0.080099 -0.112627596
-0.039840817 0.02667179 -0.10188381 0.067585215 0.09601284 0.13981262 0.0027327915 0.12545949
-0.111227594 -0.036994975 -0.060167253 -0.069763504 -0.004444291 -0.09031196 -0.14205319 -0.002695555
-0.07887887 -0.039624657 -0.0059841713 -0.09930928 -0.039421253 -0.022565596 -0.13358788 -0.04380261
-0.14295521 -0.029694732 0.053860594 -0.13432454 0.036052916 -0.13022813 -0.08628392 -0.118284285
0.023131754 0.13350886 -0.09284875 0.045274563 -0.03808953 0.06290431 0.009991229 0.0702037
0.06200676 0.00058348035 0.010368978 -0.021166882 0.021799803 0.058241207 0.0050492673 -0.015534293
0.14573766 0.1292998 -0.056437843 0.019818023 0.047070146 -0.15306477 0.15106088 -0.028323954
-0.11194806 -0.04718538 -0.09462754 0.055775348 -0.018858362 -0.12264235 0.052915733 0.11200247
-0.06966596 -0.14168468 -0.012794658 -0.14334118 0.021653885 -0.006315131 -0.0027226256 0.07561776
-0.05358445 -0.045333114 0.009142829 0.093291 -0.09588438 0.13910533 0.04987869 -0.03865431
0.042530786 0.09786099 0.05175729 -0.0888695 0.039529208 0.030524353 0.017494194 0.14256643
0.015683034 0.013155384 -0.15063779 -0.03353074 -0.111238696 0.046764337 -0.022244792 0.14958066
00000000: 9cee 06be 8c8d 17bd 8a89 91bd d225 103e
00000010: 744e b7bd 89a8 01be d638 493d c2f9 04be
00000020: 1535 523d 60d7 24bc ca3f 133e bae3 45bb
00000030: d8c1 47bd 4564 97bd cad4 e9bc 862e cbbd
00000040: 0ad1 37bd 1df6 a0bd 1772 7cbb e305 003e
00000050: d89f 1dbc 41e2 8d3d dc95 4fbd 473c 7e3d
00000060: 59f5 a2bd 157e 24bd ea48 a93d b73b a13c
00000070: 76ad 803d 0e89 cabd 4fb8 08be b52a 073e
00000080: c14a 46bd 14ef 93bd 7549 b23d ada4 c83d
00000090: 6d74 f73d e3a9 a73d d36d f83c 4a8f e03d
000000a0: 055c ddbd 63bd e13d 5c06 b03d d0dc 5f3d
000000b0: 569a d3bd 2322 d53d 8dd9 12be 4d5b ff3d
000000c0: ca4e edbd 04db a53d 6b58 afbd 941c 16be
000000d0: fe7b c83d 833e 453c ed75 12bd 180b 753d
000000e0: 9688 ad3d 2974 88bd 6832 803d fc5c 23bb
000000f0: 8bf8 9c3d b5ba 9abd f24c 83bd 9030 8bbd
00000100: d036 2d3d 1792 453d 94be b5bd 7e5f 2bbd
00000110: b057 4e3c c85d c23d 5f63 273e 3b84 173e
00000120: aebc 033c 4a98 f4bd f2a6 1d3e 7e4d 5e3d
00000130: c904 2b3d 4d8e 493c be68 e7bb eb5e 1d3d
00000140: 7fca 913d c468 363c be49 143e e73a 3cbd
00000150: a8af 553d 451d f23c bdce ad3d 9bb2 92bc
00000160: ea7c 7e3c a0f3 f8bd 674f 6d3d adbd a9bd
00000170: 5436 44bc d09b 49bb bc2d eebd bb30 4f3d
00000180: 5d20 1f3d 6e9b 253d e96b 103d 0e6a 34bd
00000190: 8ac1 63bb d4e5 1bbe cde5 203e 9d95 0ebe
000001a0: 8086 a93d e12d 4fbd dd76 aabd b4d3 10bd
000001b0: d1cc cc3c ac2e c83d 20d7 66bc 04e4 0fbe
000001c0: 53f2 263e abce f63c 966f 973d 03e0 183d
000001d0: 3b57 20be 947f 623d eea1 f83d 2e36 a1bd
000001e0: f99c ca3c 44b1 f7bc d9c0 aa3a 1864 db3c
000001f0: 23fa 28be a826 153e 4347 663d 7d66 61bd
00000200: 789d 05be a06a 66bd b790 f53d d9ca 0e3d
00000210: f7cd 46bc eee0 e33c 8b4c 14be 9978 cfbb
00000220: 4ebe ddbc 458e 943d a379 7c3d 6837 8d3d
00000230: d5a1 55bc 961c be3d 4f41 033e 3840 87bb
00000240: 2b75 0fbd 1c4d 92bd e014 a43b 3919 9c3c
00000250: b00f 543c f64b 0a3e 3a6c 6fbd cc21 a33c
00000260: d7a7 ce3d 2633 243d 5b20 adbd 702f 463c
00000270: dd5a 173d 001c 14bd f20a a43d 4ca9 e6bd
00000280: 2030 23bd cc7e da3c 75a8 d0bd 1e6a 8a3d
00000290: 61a2 c43d 0a2b 0f3e a218 333b 7478 003e
000002a0: 4bcb e3bd 0b88 17bd f071 76bd 2be0 8ebd
000002b0: 6aa1 91bb 7af5 b8bd 6476 11be e9a7 30bb
000002c0: 3f8b a1bd 774d 22bd de16 c4bb aa62 cbbd
000002d0: 2e78 21bd 7cdb b8bc 43cb 08be 5e6a 33bd
000002e0: da62 12be 5e42 f3bc ed9c 5c3d 5f8c 09be
000002f0: 39ac 133d 865a 05be a0b5 b0bd 083f f2bd
00000300: ce7e bd3c 8cb6 083e 7c27 bebd d271 393d
00000310: c403 1cbd fad3 803d 40b2 233c f5c6 8f3d
00000320: cdfa 7d3d b4f4 183a a5e2 293c 2b66 adbc
00000330: 8095 b23c 558e 6e3d 5374 a53b 8c83 7ebc
00000340: 413c 153e 2b67 043e 5e2b 67bd 6859 a23c
00000350: a0cc 403d 03bd 1cbe b4af 1a3e a307 e8bc
00000360: 0645 e5bd 7545 41bd 15cc c1bd b174 643d
00000370: da7c 9abc ea2b fbbd 2bbe 583d 8d61 e53d
00000380: 07ad 8ebd ca15 11be afa0 51bc 08c8 12be
00000390: 7d63 b13c 29ef cebb 146e 32bb 7cdd 9a3d
000003a0: 5e7b 5bbd 37af 39bd cecb 153c 5a0f bf3d
000003b0: 085f c4bd a171 0e3e 994d 4c3d fb53 1ebd
000003c0: c334 2e3d 586b c83d 74ff 533d 3601 b6bd
000003d0: 61e9 213d 350e fa3c fc4f 8f3c effc 113e
000003e0: b579 803c ae89 573c cb40 1abe 8757 09bd
000003f0: 1dd1 e3bd f68b 3f3d b63a b6bc ac2b 193e

fc3.bias f4 [32]
0.05430418 -0.0062948405 -0.07108569 0.07652772 0.08484698 0.069610015 -0.0073650395 -0.035378095
-0.039527137 -0.071484305 -0.09479145 0.10082751 -0.11397611 -0.00732233 0.07846198 0.031670254
0.11709297 -0.08024706 0.009286761 0.03371413 0.04396987 -0.06731789 -0.107706904 0.058877993
0.052709863 0.13017896 -0.052728564 -0.007847016 0.120981134 0.09760743 -0.030431645 -0.09628417
00000000: 0f6e 5e3d f344 cebb 6095 91bd 91ba 9c3d
00000010: 41c4 ad3d b28f 8e3d 6e56 f1bb 9fe8 10bd
00000020: 35e7 21bd 5d66 92bd 0522 c2bd a77e ce3d
00000030: 4f6c e9bd 28f0 efbb adb0 a03d abb8 013d
00000040: 70ce ef3d 9258 a4bd 8027 183c d417 0a3d
00000050: c019 343d f6dd 89bd 7095 dcbd 0d2a 713d
00000060: 4ce6 573d a24d 053e e8f9 57bd c590 00bc
00000070: f5c4 f73d 67e6 c73d c94b f9bc a330 c5bd

fc4.weight f4 [5, 32]
-0.047160372 -0.1079796 0.15912332 -0.15123509 0.02902431 -0.07678268 -0.19939162 0.042814206
0.1159881 -0.031795382 -0.08504712 -0.024428442 0.1738918 -0.07768035 0.08382358 -0.15141335
-0.12942834 0.14669341 -0.07972168 0.20047796 0.18300217 -0.19620703 0.16736917 0.11931487
0.16864353 0.12877186 0.1461513 -0.0932153 -0.14909959 -0.1845819 -0.0019355565 -0.012933795
-0.06975286 0.1475202 -0.12707695 -0.016876433 -0.06149081 0.05124177 -0.013180181 -0.018970756
-0.057042636 0.15000483 -0.12969126 0.103503294 0.14484437 0.15863888 0.16717431 -0.1945468
0.11268063 0.008753724 0.07985871 0.075240605 -0.020851184 -0.13206466 -0.013631863 0.02593835
0.12488873 -0.03891364 0.045726165 -0.1142465 -0.13168588 0.11682596 -0.11350614 0.11561154
0.09399617 -0.00036602898 0.016968783 0.16459228 -0.022142224 -0.17505102 -0.08856242 -0.030746821
0.0021678477 0.012955517 0.061586283 -0.0971308 0.10757001 -0.10919854 -0.06296297 0.10472126
0.18959618 0.10981777 0.1716929 -0.05783402 -0.049648624 -0.1819649 -0.011860744 -0.024971958
-0.06328345 0.10977425 -0.10678545 0.005295268 -0.01143132 -0.06287526 -0.17656185 0.05515848
-0.13475129 0.12503497 0.08395753 -0.0099981865 -0.14358714 0.0036630956 0.009339058 -0.009613834
-0.12871212 -0.19906352 0.06846825 0.1699955 -0.06666361 0.11202446 0.13670336 -0.11780498
-0.1401593 -0.1265362 -0.13659197 0.18890786 0.17607631 -0.1651274 0.055794757 -0.059836827
-0.105979756 -0.1764232 -0.057059485 0.12196426 0.06596901 0.017787622 -0.0067721247 0.13867515
-0.097131416 0.15512 -0.14322676 0.21424428 -0.15743688 0.12584564 0.03673434 -0.1256208
-0.11883312 0.1462865 0.21563616 -0.1907116 -0.14869687 -0.19032602 -0.06544881 0.19327393
-0.06755604 -0.06554744 -0.18209226 0.064472765 -0.1370695 0.1426185 -0.12815481 -0.13867618
-0.20370328 0.18489112 -0.01194341 -0.18998532 0.054334763 -0.0687412 0.2082916 -0.19043323
00000000: 3c2b 41bd 6924 ddbd 39f1 223e 5fdd 1abe
00000010: 64c4 ed3c 3d40 9dbd 512d 4cbe f35d 2f3d
00000020: 2b8b ed3d e03b 02bd 2f2d aebd 281e c8bc
00000030: b110 323e e016 9fbd b2ab ab3d 1a0c 1bbe
00000040: dd88 04be cc36 163e 1f45 a3bd 184a 4d3e
00000050: ec64 3b3e 7fea 48be d362 2b3e 5b5b f43d
00000060: e4b0 2c3e c5dc 033e b0a8 153e aae7 bebd
00000070: 90ad 18be 0a03 3dbe 80b2 fdba 45e8 53bc
00000080: 96da 8ebd 890f 173e 7620 02be 7240 8abc
00000090: cadd 7bbd e4e2 513d b0f1 57bc 8f68 9bbc
000000a0: 8aa5 69bd de9a 193e c9cd 04be 89f9 d33d
000000b0: 1552 143e 3b72 223e be2f 2b3e 4737 47be
000000c0: 1ac5 e63d c86b 0f3c f78c a33d bf17 9a3d
000000d0: 1ad0 aabc f53b 07be 2d58 5fbc aa7c d43c
000000e0: aac5 ff3d e963 1fbd 5c4b 3b3d 12fa e9bd
000000f0: aad8 06be 7342 ef3d e875 e8bd bec5 ec3d
00000100: 1081 c03d 94e7 bfb9 1e02 8b3c e18a 283e
00000110: 9c63 b5bc 9340 33be 3760 b5bd c2e0 fbbc
00000120: 7312 0e3b 6043 543c e641 7c3d 83ec c6bd
00000130: aa4d dc3d 7ca3 dfbd bbf2 80bd 1a78 d63d
00000140: 8025 423e 24e8 e03d 43d0 2f3e 5ee3 6cbd
00000150: 5b5c 4bbd 0255 3abe 9153 42bc fe91 ccbc
00000160: c19a 81bd 52d1 e03d 54b2 dabd ed83 ad3b
00000170: 6e4a 3bbc bfc4 80bd a1cc 34be dced 613d
00000180: 3efc 09be 2b09 003e edf1 ab3d 6fcf 23bc
00000190: 8208 13be 8c10 703b d902 193c 5883 1dbc
000001a0: 1ccd 03be 4fd7 4bbe 1539 8c3d 4d13 2e3e
000001b0: ee86 88bd 156d e53d f7fb 0b3e bd43 f1bd
000001c0: eb85 0fbe b592 01be c4de 0bbe 1071 413e
000001d0: 594d 343e 2817 29be 0b89 643d 7617 75bd
000001e0: ea0b d9bd 49a8 34be 35b7 69bd 66c8 f93d
000001f0: c31a 873d 59b7 913c b3e8 ddbb dc00 0e3e
00000200: d6ec c6bd c7d7 1e3e 09aa 12be da62 5b3e
00000210: 2237 21be aedd 003e bf76 163d bda2 00be
00000220: c75e f3bd 21cc 153e bacf 5c3e e749 43be
00000230: fe43 18be d3e4 42be 070a 86bd 9ae9 453e
00000240: d25a 8abd bc3d 86bd 6576 3abe 4c0a 843d
00000250: f25b 0cbe 960a 123e 043b 03be 2101 0ebe
00000260: 9897 50be 1954 3d3e 4bae 43bc 838b 42be
00000270: 218e 5e3d 30c8 8cbd 654a 553e ee00 43be

fc4.bias f4 [5]
0.13749783 -0.0539762 -0.016891956 0.048720874 -0.108514965
00000000: 3bcc 0c3e 2616 5dbd 0061 8abc 8a8f 473d
00000010: 183d debd
