clean_code/trained_models/actor_595.pth (torch, 54872 bytes, 8 tensors)

fc1.weight f4 [128, 18]
000000 fc f6 1f 3e 45 37 b0 3d 6e b0 22 be e8 0c 43 3e
       0.15621561 0.08604292 -0.15887615 0.19047892
000010 35 4f fa 3d de bd 87 bd f4 b3 f1 3c a9 db c8 3c
       0.12222139 -0.06628011 0.029504754 0.024518805
000020 2b 23 c0 3d 5a 72 93 bd ee 7d 16 be ef 5e 8f 3b
       0.09381708 -0.07199545 -0.14696476 0.0043753306
000030 3b 45 5e 3e e2 46 a9 3d 65 87 19 3e bd ca e0 3c
       0.21706097 0.08265473 0.14993055 0.027440423
000040 68 38 6c be eb a8 82 3e 76 52 0e 3e fe cf 27 3e
       -0.23068392 0.255195 0.13898644 0.16387936
000050 c7 22 a0 3d 26 a7 a4 bd c5 18 8b 3d 8a 88 a1 bc
       0.07819133 -0.080396935 0.06791834 -0.019718427
000060 bd 3c 14 3e f8 ec 50 3e 36 82 c5 3d 54 b5 14 3d
       0.14476295 0.20402896 0.096439764 0.03630574
000070 06 d8 15 3e f6 67 13 3e db 2b 2b be 24 32 0c be
       0.14633188 0.14395127 -0.16715948 -0.13691002
000080 a3 a6 ba bd 3c 80 60 3d 2a 6c 29 be 55 7e 26 3d
       -0.09113815 0.054809794 -0.16545168 0.040647823
000090 ac 13 1c 3e 94 68 b2 3d 32 be 19 be a1 10 7d 3d
       0.15241879 0.08711353 -0.1501396 0.061783437
0000a0 4a a2 36 be 09 52 06 3d 5c 00 46 3e 32 4b 1d 3e
       -0.17835346 0.03279308 0.19336075 0.15360716
0000b0 4d 79 7e bd e1 0e 36 be 6d c8 d6 bd 45 7e 36 3e
       -0.0621274 -0.17779113 -0.10487447 0.17821606
0000c0 d5 c4 85 3e 82 69 c5 3d 17 4e 84 3d a3 a3 e1 bd
       0.26126733 0.09639265 0.06460207 -0.11017539
0000d0 ec b4 4c 3e ef 24 64 3d 5f 2e 03 3e c7 ee 1d bd
       0.19990891 0.055699285 0.12810658 -0.038557794
0000e0 b8 09 2e 3e 79 e5 d7 3c 40 5e 3b be 28 d8 09 be
       0.16995895 0.026354538 -0.18297672 -0.13461363
0000f0 20 a2 44 be a5 b5 40 be 8a db fd bd fb b9 2b 3e
       -0.19202471 -0.18819292 -0.123953894 0.16770165
000100 cb 36 c8 3d d6 63 d5 bd 91 a6 55 3e 77 19 3e 3e
       0.09776076 -0.10419433 0.20864321 0.18564402
000110 e4 07 b5 bb 1e f6 3d be 7e 7c 2b 3e 61 74 83 bd
       -0.0055246223 -0.18550918 0.16746709 -0.06418682
000120 c9 7e 9b bd 21 87 6e 3e ef f7 18 bd 72 4c 50 be
       -0.07592542 0.23293735 -0.037345823 -0.20341662
000130 b2 ce 59 3e 75 52 22 3e a6 ed c5 bd 1d 7a 85 3e
       0.21270254 0.15851767 -0.096644685 0.26069728
000140 a7 3f e9 bc 98 a0 18 3d d4 b9 85 3d 6e 87 ca 3d
       -0.028472735 0.03726253 0.065295845 0.098891124
000150 aa ae c9 3c f4 29 06 be e8 93 78 3e 97 c6 29 3e
       0.02461942 -0.13101941 0.24275172 0.16579662
000160 00 24 10 be 8d 46 59 3e ac af c9 3d 05 ab 6e bd
       -0.14076233 0.21218319 0.0984796 -0.058268566
000170 7b c7 fb 3c 9d 30 3d 3e 69 fa 6f 3e 64 ba ff bc
       0.030734768 0.18475576 0.23435368 -0.031216808
000180 ed 8b b2 bd 3f bc 25 bc 44 da b9 3d c1 1d 3c be
       -0.08718095 -0.010115682 0.09074834 -0.18370725
000190 a0 ad c9 bc 02 80 21 3e ce 82 37 be df ba 52 3e
       -0.024618924 0.15771487 -0.17920992 0.20579098
0001a0 04 2b 24 be 6f ba 4a 3e d2 b5 5c 3d b6 1c 53 3e
       -0.16032034 0.19797681 0.053884335 0.20616421
0001b0 90 87 10 3e 1b 38 7d be 7d 00 18 3e 6e d2 08 be
       0.14114213 -0.24728434 0.14843936 -0.13361523
0001c0 4e 5a c0 3d 84 11 30 3e 26 62 34 3e 96 d8 a2 3d
       0.09392224 0.17194182 0.17615566 0.07951467
0001d0 a4 30 36 be 86 aa 58 ba 52 b3 68 be d2 51 cd bc
       -0.17791992 -0.0008265156 -0.22724655 -0.025063429
0001e0 e0 fd 64 be 60 a7 1f bc 15 e7 04 be df 2c 61 3d
       -0.2236247 -0.009744495 -0.12978776 0.054974433
0001f0 94 1c 76 be ef 45 04 bc bf f0 f4 3c 81 da 1c 3e
       -0.24034339 -0.008073314 0.029899953 0.15317728
000200 03 2d 56 be 70 8a 56 be f1 9b 09 be 18 6b b3 3d
       -0.20915608 -0.20951247 -0.13438393 0.08760661
000210 1a da 53 3e 90 3e 02 be 82 c0 32 3e 8f d1 41 be
       0.20688668 -0.12719178 0.17456248 -0.18927597
000220 92 4b 30 3e 1d bd 36 3e 90 ec b1 bc c8 f3 c9 3c
       0.17216328 0.17845578 -0.021719247 0.024652377
000230 10 ca 14 3e d2 a9 22 3a c9 eb 3c 3d 00 1f 19 be
       0.14530206 0.0006205115 0.0461233 -0.14953232
000240 2f 84 94 ba b2 ba ad bd b9 e0 84 bd 00 d1 2d 3e
       -0.0011330898 -0.08482875 -0.06488175 0.16974258
000250 f5 89 86 bd 39 b9 6f be ea db d2 bd 09 03 41 be
       -0.06569282 -0.234105 -0.102958515 -0.18848814
000260 bf c6 15 3c c6 ab 59 be e4 1e d0 bd 8d b7 7d be
       0.009141623 -0.21256933 -0.10162142 -0.2477705
000270 c6 14 23 3e 97 ab 57 be 63 13 d9 bd 6d 88 3b be
       0.15925893 -0.2106155 -0.10599401 -0.18313761
000280 1b 76 32 3d 29 43 1f 3e cc b1 1b 3e 0a 89 62 3e
       0.043569665 0.15552963 0.15204543 0.22122589
000290 9d d1 60 3e 08 bc 95 bd 12 10 f7 3d ff b6 62 be
       0.21954961 -0.07311255 0.12063612 -0.2214012
0002a0 84 24 65 3e 15 87 11 3e b7 41 87 bd 75 c0 4c 3e
       0.22377211 0.14211686 -0.06604331 0.19995292
0002b0 dd 28 cb 3d 0f 8c 6c 3e 4d 09 29 3e 4f ba f4 bd
       0.099199034 0.23100303 0.16507454 -0.11949598
0002c0 77 a6 88 bd f4 6a 55 3e 62 82 3a be c9 5a c1 bd
       -0.06672376 0.2084158 -0.182138 -0.09441144
0002d0 1f fd f2 bd ab 81 44 be b0 78 18 be 4a 85 43 be
       -0.11864685 -0.1919009 -0.14889789 -0.19093814
0002e0 db da c8 3d 61 6a cc 3d 84 c5 16 bc 92 81 de 3d
       0.09807368 0.09981228 -0.009202365 0.10864557
0002f0 e7 6d 7b 3c 41 72 d7 3c 56 6f a6 bc ce 40 8e 3d
       0.015346027 0.026299598 -0.020316761 0.06945954
000300 39 36 39 be f0 c4 6e bd e2 85 64 be eb 69 2e be
       -0.1808709 -0.058293283 -0.22316697 -0.17032592
000310 59 c4 03 3e 39 02 0a 3d dd ff 52 bd 30 6e 48 3e
       0.1286787 0.033693526 -0.05151354 0.19573283
000320 09 16 fd bc 7d 87 fa bd 5e 4e f1 bd 74 09 4e 3e
       -0.030894296 -0.122328736 -0.117825255 0.20120794
000330 2a 38 9d 3d fa 33 42 3e 60 24 29 3d 90 8c 9e bd
       0.07676728 0.1896514 0.041294456 -0.07741654
000340 c2 34 fb 3d a2 1c de 3d e9 87 91 ba 68 11 09 bd
       0.12265922 0.10845305 -0.0011103126 -0.033463866
000350 5e 94 cb bd c4 64 f6 3d f6 f9 35 be ff ea 6b 3e
       -0.09940408 0.12030938 -0.17771134 0.23038863
000360 31 6f d5 bd 81 ab af bd e6 60 10 3e 3c 53 e7 bd
       -0.10421599 -0.08577634 0.14099464 -0.112951726
000370 91 8d 57 be 72 3a 32 bd 6b 62 5b be 3c a5 8f 3c
       -0.21050097 -0.04351277 -0.21424262 0.017534845
000380 9b 0e 42 be e1 c4 30 be 8d 78 24 bd 01 c3 3b 3e
       -0.18950884 -0.17262603 -0.04015403 0.18336107
000390 e0 20 12 be c0 57 4c bb 02 2f 9a 3d a1 69 de bd
       -0.14270353 -0.0031180233 0.07528497 -0.10859991
0003a0 56 7a 13 3e 83 06 18 3e bd 82 88 3e 6f cf b7 bd
       0.14402136 0.14846234 0.26662245 -0.08975112
0003b0 42 fe 8d 3d 98 97 60 bd 98 0d a0 3c 14 e0 71 3d
       0.069332615 -0.05483207 0.019537732 0.05905159
0003c0 0e bb 59 3e 0c 63 5f 3e 09 4e 30 3e b0 a7 75 3e
       0.21262762 0.21815127 0.17217268 0.23989749
0003d0 cb 24 03 bd ac 25 78 3d 27 8b 38 be 6f ac fc bd
       -0.03201751 0.0605828 -0.18021832 -0.123375766
0003e0 ce 20 9f 3c 1d d5 ee 3c 89 e9 c2 bc 27 94 a6 bd
       0.019424822 0.029154355 -0.023792999 -0.081337266
0003f0 a4 18 62 3e e4 4b 68 bd 9c dc e9 b8 ec 96 f8 3c
       0.22079712 -0.056713 -0.000111513975 0.030345403

fc1.bias f4 [128]
000000 1f af 19 3e 1a 78 21 3e bf 42 25 3e 37 c9 3b 3e
       0.1500821 0.15768471 0.16138743 0.18338476
000010 45 d1 b7 3c 8c 81 9f 3d bb 8d 30 3d 7e 66 c8 bd
       0.022438655 0.07788381 0.043103915 -0.09785174
000020 76 69 dc 3d b3 18 3a be b0 33 5c be 97 fd 72 3e
       0.107623026 -0.18173485 -0.21504092 0.2372955
000030 07 07 21 3e d2 e6 79 bd de 26 b1 3d ee eb 6b 3e
       0.15725337 -0.061011143 0.086499915 0.23039219
000040 10 5e 35 3c fd 69 56 3e e1 a6 21 be b2 a6 c7 3d
       0.0110697895 0.20938869 -0.15786316 0.097485915
000050 81 6a 36 3e bc fb ab 3d 93 5a 21 be e6 71 da 3c
       0.17814066 0.08397624 -0.15757208 0.02666564
000060 f8 e5 54 be 2c 90 d9 3d ff 4a 93 3c aa 15 40 3e
       -0.20790851 0.10623202 0.017980097 0.18758264
000070 3e db af bd 96 20 84 3d 0e 38 b4 bb c0 29 47 be
       -0.08586739 0.06451528 -0.0054998463 -0.1944952
000080 3f a4 6e 3d ed 1a 7d 3e b1 fc c0 3d 90 76 bb bd
       0.058262106 0.24717303 0.09423197 -0.091534734
000090 83 9e ea bd c9 05 50 3c 46 f5 88 3e e1 41 1e be
       -0.11456015 0.012696692 0.2674963 -0.15454818
0000a0 a1 df 90 3c 59 1e 42 3e 94 41 2d be 63 09 7e 3e
       0.01768476 0.18956889 -0.16919547 0.24808268
0000b0 ce 3d a4 bd ce 14 50 3e 87 d9 85 3e f9 b4 2a 3e
       -0.08019601 0.20320436 0.26142523 0.16670598
0000c0 08 6d 83 3e 37 eb 12 be a7 0d db 3d d1 42 55 bd
       0.25669122 -0.1434754 0.10695963 -0.052065674
0000d0 9f c6 1a be c6 06 87 be 8e c2 40 bd 91 d8 87 3e
       -0.1511483 -0.26372355 -0.04706054 0.26532415
0000e0 3d 8f 9a 3c ee 23 7b 3e ba dc 3e be b5 ca 0e bc
       0.01886713 0.24525425 -0.18638888 -0.008715321
0000f0 85 82 4a bd 1e e1 7f 3e 5a 61 9c 3c 3d 73 1e be
       -0.04944088 0.24988219 0.01908939 -0.15473647
000100 c5 6c ea 3d 09 cd 5d be 9a 42 af 3c 21 b5 ba 3d
       0.114465274 -0.21660246 0.021394063 0.09116579
000110 03 84 90 bd 4b 21 29 3e f3 af 81 3e 62 d8 9f 3d
       -0.07056429 0.16516607 0.2532955 0.078049436
000120 f2 18 0d be cc 6b 59 3d 69 24 32 be 60 f5 17 3e
       -0.13779047 0.05308132 -0.17396702 0.14839697
000130 7a 36 35 3e f2 b7 44 bc 91 a0 60 3e e1 75 14 3e
       0.17696562 -0.012006747 0.21936251 0.14498092
000140 1a 34 55 3d 27 bd 25 be 63 ce 76 be 84 46 28 be
       0.05205164 -0.16185437 -0.24102168 -0.1643315
000150 15 73 c2 3d c3 d5 09 3e 01 6f ba bd c3 34 84 bd
       0.094946064 0.1346045 -0.091032036 -0.06455376
000160 8f 50 de bd 2c d6 35 3b 62 c0 09 3e 5d 4a 92 bc
       -0.10855209 0.0027746065 0.13452294 -0.017857725
000170 7d 1b bb 3c 66 5e 68 3e 51 1c 4b 3e 95 b6 88 be
       0.022840256 0.2269226 0.1983502 -0.267018
000180 da ac eb 3d ba 4b 55 be de 34 4e be de 35 45 3d
       0.11507578 -0.20829669 -0.20137355 0.048147075
000190 fa 75 27 3e de 9e 4b be b4 6c 21 3e e7 d4 70 bd
       0.16353598 -0.19884822 0.15764123 -0.05879679
0001a0 63 52 0a 3e e0 74 54 3e 41 0e 12 3d d4 ed 24 be
       0.1350799 0.2074771 0.035658125 -0.16106349
0001b0 df 6c 27 3e ee 54 0a 3e 77 43 bf bd 4e cd 02 bd
       0.16350125 0.1350896 -0.0933904 -0.031934075
0001c0 a2 c2 14 bc e6 f2 5c 3e 49 46 2a be 78 d7 80 3e
       -0.009079607 0.21577033 -0.16628374 0.2516439
0001d0 4b 44 12 be ed c3 2f be ca cc 24 be 8b 20 5b 3e
       -0.14283864 -0.17164584 -0.16093746 0.21399133
0001e0 98 e6 80 3d ff eb f4 3c 01 d1 2f 3e 19 8d 71 3d
       0.06293982 0.029897688 0.17169572 0.05897245
0001f0 b5 e6 70 be 7e ab 37 3e 31 9a b9 3d 1c 24 15 be
       -0.23525508 0.17936513 0.09062613 -0.14564556

fc2.weight f4 [64, 128]
000000 6f 1b 93 3d 18 35 f8 bc 64 79 b6 3c 30 f0 95 bb
       0.07182967 -0.030298755 0.02227468 -0.0045757517
000010 1a f8 64 3d d8 f9 5c 3d 12 41 70 3d 30 92 3a 3d
       0.05590067 0.053949207 0.058655806 0.04554957
000020 5f f3 06 3c 1d 72 db bc 51 e0 4d 3c d7 4d 98 3d
       0.008236735 -0.026787812 0.012565688 0.07436722
000030 13 67 f4 bc 34 17 34 3b d6 0c 15 3d 02 7d b9 3c
       -0.029834306 0.002747965 0.036389194 0.022642616
000040 03 dc fe 3b d1 51 fe 3b 50 7c 2d bd e3 16 10 3d
       0.0077776923 0.007761218 -0.04235488 0.035178076
000050 9f 48 07 3d 55 a9 bc bd 00 03 64 3d 02 db 6d bd
       0.03302824 -0.09211985 0.055666924 -0.05807019
000060 df 2a a2 3d 34 8d d7 3c f0 e9 6f bb 77 d6 a8 3d
       0.07918333 0.026312448 -0.0036607943 0.08244031
000070 e1 34 ee bd 33 ad 6f bc 78 f5 49 3d 18 83 42 3d
       -0.116311796 -0.014628696 0.049306363 0.047488302
000080 94 61 22 bd 6d ce 27 3d fa cf 96 bd 20 29 b4 3d
       -0.03964384 0.040968347 -0.07363887 0.087969065
000090 83 a7 81 bd e0 d4 2a bc a3 06 3d bc 37 9c 8e 3d
       -0.063307784 -0.01042673 -0.011537227 0.06963389
0000a0 bf d4 cd 3d a6 d9 20 3d 5b 7c 51 bd 8b 77 a1 3a
       0.10050344 0.039270066 -0.051143985 0.0012318952
0000b0 8e 9e d0 bd 4b b1 d0 3d 2c e5 df 3c 73 33 4e bc
       -0.10186492 0.10190066 0.027330957 -0.012585509
0000c0 99 84 5b 3d 10 2f 93 3d c7 f1 ce 3b 94 55 89 bd
       0.05359325 0.07186711 0.006315443 -0.06705776
0000d0 9a 5a e9 3c 63 3d 64 bd cb 05 76 3d c8 bf f2 bc
       0.028485585 -0.055722605 0.06006412 -0.029632464
0000e0 4e 69 94 bc f6 9e aa bc 53 0e 93 bd a5 38 b8 3c
       -0.01811662 -0.020827752 -0.071804665 0.022487948
0000f0 71 5a b5 3d f0 89 5b bd d4 b2 67 bd c8 3f 2a 3d
       0.08855141 -0.053598344 -0.05656703 0.041564733
000100 b2 7a 13 3d 1f 09 f0 3c 99 09 9e 3d 04 cc 92 bd
       0.036005683 0.029301224 0.07716674 -0.07167819
000110 b6 f5 77 bd 04 87 75 bd 65 10 90 3a f8 06 84 3d
       -0.060537063 -0.059943214 0.0010991214 0.06446642
000120 49 e3 43 bd 64 3e 96 bc d0 c7 68 3c fe 8b 3d 3c
       -0.047824178 -0.018340297 0.014207795 0.011569021
000130 b4 f1 7a 3d bd cc 0a bd 66 94 ca 3d d9 3b a2 3d
       0.061265662 -0.03388666 0.09891586 0.07921571
000140 2b 75 a1 bc e6 1f 2a bd 6b bf b9 bd 2f 2a 80 bd
       -0.01970919 -0.041534327 -0.09069713 -0.06258046
000150 bd a2 a7 3b 9b d4 b1 bd bf 10 e2 bd 5b 04 4f 3d
       0.0051158355 -0.086831294 -0.1103835 0.050541263
000160 9b 01 a6 bd 60 c3 33 3d cf a3 30 3d 2e de 85 3d
       -0.08105775 0.043887496 0.04312497 0.06536518
000170 23 1c 81 3c d5 1d 01 bb 1d f4 fe 3d cb fb 67 bd
       0.015760487 -0.001970162 0.12448905 -0.056636613
000180 71 68 85 bb ad 44 9f b9 bb 65 e4 bd 66 61 32 3d
       -0.0040712883 -0.0003037801 -0.11152216 0.043549918
000190 88 77 9a bc 53 5a 49 3c 04 57 d6 3c 1d c9 b9 bc
       -0.018855825 0.012289601 0.02616454 -0.022678906
0001a0 a9 08 05 3d e0 a8 f9 bc 1c cf 6f bc f8 9e ad bd
       0.032478962 -0.030476034 -0.014636781 -0.084775865
0001b0 78 74 04 bd 27 2c 03 bd 39 8f dd bd b6 17 5d bd
       -0.032337636 -0.03202453 -0.10818333 -0.05397769
0001c0 69 90 3c bd 6f 66 39 3d 5c 62 7a bc 3f 27 ac 3d
       -0.046036158 0.045263704 -0.01528224 0.08405923
0001d0 25 8e bb bd 9e 09 0a 3d bd be aa bd dc 28 83 3d
       -0.09157971 0.033700578 -0.08337162 0.06404278
0001e0 b8 97 93 3d 35 62 20 3d bb 3f e6 3c aa 63 5b bd
       0.072066724 0.039156158 0.02810656 -0.053561844
0001f0 95 c3 17 3d 2c 63 c8 3d 20 4e 7e bc 9b b6 aa bc
       0.037051756 0.097845405 -0.015521556 -0.020839026
000200 e3 7f d0 3d 8f dc cc 3d f9 94 e0 3d f6 0e 8e bd
       0.101806425 0.10003006 0.10965914 -0.06936447
000210 7b 52 99 3d 3a f4 34 3c a1 73 99 bd bb 07 c1 3d
       0.07486435 0.011044556 -0.074927576 0.094253026
000220 83 07 65 bd e1 c5 3d bc 55 d3 b6 bd 55 0c 8a 3c
       -0.055915367 -0.011582823 -0.08927027 0.016851583
000230 d3 58 f9 bc e8 b1 cd 3d 1f 64 50 3d 71 a9 8f 3d
       -0.030437863 0.100436985 0.050876733 0.0701474
000240 c7 1c 5f 3d b9 26 53 3d ce a9 89 3d 0c 61 22 3d
       0.054470804 0.0515506 0.06721841 0.039643332
000250 e4 d2 20 3d 4a 23 92 bd bc 1e f7 3c d0 7c 7a bd
       0.03926362 -0.07135637 0.030166022 -0.061154187
000260 a1 1f e3 bb 9e 30 6d bd 3a 90 ba 3d bf 3f c9 3c
       -0.0069312607 -0.057907693 0.0910954 0.02456653
000270 87 1a e7 bd 94 c4 c8 bd 75 f8 89 3d 11 eb 2c 3d
       -0.112843566 -0.09803119 0.067368425 0.042216364
000280 4b 75 ce 3d 41 93 04 3d 3c 1f ce 3c ea fb ae 3c
       0.100809656 0.032366995 0.025161378 0.021360356
000290 e2 5b dd bd 2f e7 5d 3d 43 c8 18 bd a7 02 9d 3c
       -0.10808541 0.054175552 -0.03730036 0.019166304
0002a0 78 97 71 bd 01 94 5c bb 35 c8 b9 3c b8 b0 22 bd
       -0.058982342 -0.0033657553 0.022678474 -0.039719313
0002b0 76 e0 d2 3c 44 2c 8c 3d e9 53 e8 3c 8e b4 00 3d
       0.025741797 0.068443805 0.028360324 0.03142219
0002c0 cf 21 8d 3d 56 d4 92 bd 24 84 d8 3d c6 6e 18 bd
       0.06891214 -0.07169406 0.10572079 -0.037215017
0002d0 23 41 54 3d d0 e7 a2 bd 11 00 9d bd 1a 59 86 3d
       0.05181993 -0.07954371 -0.07666028 0.065599635
0002e0 3b 12 a1 3c 9d e2 de 3d 27 ee 08 3d 4a 71 61 bd
       0.019662013 0.10883067 0.033430245 -0.05503968
0002f0 c4 b4 72 3d 74 9f a0 3d bc 21 d9 3c ca 70 e2 bc
       0.059254423 0.07842913 0.026505344 -0.027641673
000300 43 d9 be ba ed 69 8d bd 3e ee 9c 3d b9 93 01 3d
       -0.0014560599 -0.06904969 0.076626286 0.03163502
000310 0e ad 92 bc 98 c1 8b 3d 91 31 47 bd 3c 09 88 3d
       -0.017904785 0.068240345 -0.048631255 0.06642386
000320 e6 24 6b bb b3 8d 7c bd 0e 8a ab bc 85 cb 32 ba
       -0.0035880147 -0.061658572 -0.020939853 -0.0006820488
000330 db aa 90 bd e8 98 03 bd 68 5d b9 3b 91 a5 8d 3d
       -0.07063838 -0.032128245 0.005656887 0.06916345
000340 1e 10 af bd e2 5e fb bc bf 6f 50 3d 98 92 a1 bd
       -0.08547996 -0.030684892 0.05088782 -0.07889289
000350 52 ab e9 3b 99 34 06 3d fe af ef 3c 77 5f 33 bd
       0.0071310187 0.032765005 0.029258724 -0.043792214
000360 13 43 db ba e3 d7 14 bd 79 20 4f bc d0 c3 3e 3d
       -0.0016728364 -0.036338698 -0.012642019 0.04657346
000370 cf 5d 08 3c 63 d5 b2 3d 07 39 b1 3d 27 95 1f 3d
       0.008323147 0.087321065 0.08653455 0.038960602
000380 3c 11 74 bd 52 8a 01 bd e6 aa 42 bd 6d 9d ce 3c
       -0.05958675 -0.031626053 -0.047526263 0.02522155
000390 99 94 04 3d 45 9b de bc 51 d9 84 3d 55 cf 7f bd
       0.032368276 -0.027173648 0.06486762 -0.062453587
0003a0 3b 0d 7a bd 69 1c 3a bc 69 e1 89 3b bf 0d 4e bd
       -0.061047774 -0.011359313 0.004207779 -0.050306078
0003b0 49 3c 83 3c 6f c6 36 3d 63 75 a3 bd a4 a8 c2 3d
       0.016019957 0.044622835 -0.07981374 0.09504822
0003c0 07 fb ab 3c 34 2c 1b bd 01 7b 99 3d e9 26 f7 3c
       0.020993723 -0.037883952 0.07494164 0.030169921
0003d0 2f ab eb bc f6 9c c9 3d f6 b6 e1 3c f5 a0 7e 3b
       -0.02876815 0.09844391 0.027553063 0.0038853262
0003e0 88 d0 60 3d 39 aa fd 3c ea d5 b5 bc d8 dd 8d bc
       0.05488637 0.030964958 -0.022196729 -0.017317697
0003f0 b7 f1 ff bc a6 26 2e bd ea 85 e9 3c d4 00 f2 3b
       -0.031243188 -0.042517327 0.028506238 0.0073853526

fc2.bias f4 [64]
000000 b7 61 fe 3c 58 bf 08 3c 79 ec 61 bd 62 45 3b 3d
       0.031052453 0.008346401 -0.05515716 0.045720465
000010 85 5f ba bd 4b 85 c8 bc d3 2e 02 3d fd 62 bf 3c
       -0.0910025 -0.024477622 0.031782936 0.023362631
000020 f1 38 d2 3d 0c 35 d5 bd 1d 91 bd 3c bf fc 50 bd
       0.10264767 -0.104105085 0.023140484 -0.051022287
000030 a4 e0 53 bd 01 83 91 bc a1 7d e5 3c eb 07 63 bd
       -0.051727906 -0.017762663 0.028014006 -0.055427473
000040 51 9a da 3d c6 2a 44 3c 68 31 93 ba 67 73 25 3d
       0.10673965 0.011973089 -0.0011229934 0.04039326
000050 b2 48 8b 3c a5 7a 89 bd b2 3f 80 3c 76 55 61 bd
       0.017002437 -0.06712846 0.015655372 -0.055013143
000060 1c 30 ad bd 6d 6f 2b bd c4 36 ca bd 11 6b a7 bd
       -0.08456442 -0.04185431 -0.09873727 -0.08174718
000070 b7 26 05 bb d6 ce 81 3c 2e 75 50 3b a6 c1 61 bd
       -0.0020317265 0.015845697 0.0031808126 -0.05511632
000080 c0 26 af 3d 96 2c 9a bd 2e 33 94 bd b4 80 91 bd
       0.08552313 -0.07528035 -0.07236324 -0.07104626
000090 ca be 52 bd 4b ad af bd 8d 09 c0 3c a9 fc 81 bd
       -0.051451482 -0.08577975 0.023442054 -0.06347019
0000a0 d1 6b 30 3c 46 fb 41 3d 4c 6f 21 3d 7b b0 82 bd
       0.010767893 0.047358774 0.03941278 -0.06381317
0000b0 1a db 98 bc 8e ee ca 3c 0a 45 df 3d 50 4b ab 3c
       -0.018659163 0.024771955 0.1090184 0.020909935
0000c0 42 c9 3c 3d cc 1f b8 bd 3a 5e 84 bd 26 ed 0f 3a
       0.046090372 -0.0899044 -0.06463285 0.0005490355
0000d0 25 25 97 3c 03 f6 95 3c dd 11 70 bd b1 09 04 3d
       0.01845033 0.018305784 -0.058610786 0.032235805
0000e0 a0 b9 07 3d cf 44 2f 3c 60 52 ce bd fd 68 ce 3d
       0.03313601 0.010697558 -0.100743055 0.10078619
0000f0 6e 11 86 bc 7a 6a c6 3d ed 33 9f 3b ef ee 3e bc
       -0.016365733 0.096882775 0.004858485 -0.011653646

fc3.weight f4 [32, 64]
000000 91 20 07 be e6 5e 18 bd 0a 41 91 bd 3f 36 10 3e
       -0.13196017 -0.037199877 -0.07092483 0.14083193
000010 7d fd b6 bd f9 09 02 be e0 31 48 3d d7 25 05 be
       -0.08935068 -0.12699117 0.04887569 -0.13002716
000020 0c 5f 51 3d a1 7b 22 bc 3e 07 13 3e fc 7b 3a bb
       0.051116034 -0.009917171 0.14358231 -0.0028455248
000030 09 e0 48 bd cc d0 97 bd 73 d4 e8 bc 32 ce ca bd
       -0.04904178 -0.07412872 -0.028421616 -0.0990261
000040 f1 8b 38 bd 77 a0 a1 bd 0a 23 86 bb 10 33 00 3e
       -0.045055334 -0.07891934 -0.0040935325 0.12519479
000050 98 8a 1a bc 13 44 8e 3d 30 c6 50 bd 17 dd 7e 3d
       -0.009432457 0.06946578 -0.050970256 0.062222566
000060 a6 ac a2 bd 20 9d 23 bd 3a a1 a9 3d 86 78 a2 3c
       -0.07943086 -0.039944768 0.08282705 0.01983286
000070 70 0a 80 3d 8a 27 ca bd 60 9e 08 be 41 ee 06 3e
       0.06251991 -0.09870823 -0.13341665 0.13176824
000080 35 f8 46 bd 60 a9 93 bd 70 75 b2 3d 7a f8 c8 3d
       -0.048576552 -0.0721004 0.08713806 0.09813018
000090 e4 ba f7 3d 51 f7 a7 3d bd 6f f6 3c 0f 94 e0 3d
       0.120961934 0.08201469 0.030082578 0.1096574
0000a0 ef 79 dd bd 15 5f e1 3d b1 4d b0 3d 8c 7d 60 3d
       -0.108142726 0.110044636 0.086085685 0.05480723
0000b0 b1 4b d3 bd 27 d1 d4 3d ca 17 13 be 3a d4 ff 3d
       -0.10317171 0.10391455 -0.14364544 0.12491651
0000c0 af e4 ed bd d3 35 a6 3d b7 bc af bd 2a fe 15 be
       -0.116158836 0.08115735 -0.085809164 -0.14647737
0000d0 f8 16 c9 3d 99 5b 40 3c ce 74 13 bd df 53 74 3d
       0.09818834 0.011740589 -0.036000066 0.0596503
0000e0 b5 fe ac 3d 3f 15 88 bd 8f a3 80 3d 76 e2 38 bb
       0.08447019 -0.06644677 0.06281196 -0.0028211153
0000f0 11 49 9d 3d 42 84 9b bd e7 ec 82 bd 16 a4 8b bd
       0.07679952 -0.075935856 -0.06392842 -0.06818406
000100 21 a8 2e 3d aa 13 47 3d ca 3a b6 bd d1 3a 2c bd
       0.04264081 0.048602737 -0.08897932 -0.04204828
000110 74 d7 49 3c ac e6 c3 3d 60 d5 27 3e 11 ff 17 3e
       0.012319434 0.095654815 0.1638999 0.14843394
000120 a1 07 0c 3c 16 34 f5 bd 3f 65 1e 3e 86 68 5c 3d
       0.008546741 -0.11972825 0.1546831 0.05381062
000130 0a e3 2d 3d 77 e2 4f 3c 98 e3 f0 bb b7 f3 1a 3d
       0.04245285 0.012688271 -0.00735135 0.03783008
000140 e5 8e 92 3d 7f df 42 3c 5d d1 14 3e 8e a1 3d bd
       0.07156161 0.011894106 0.14532991 -0.04629665
000150 c9 3a 54 3d b3 2d ed 3c e4 fd ae 3d bc 34 96 bc
       0.051813874 0.028952455 0.085445195 -0.018335693
000160 3b ab 76 3c 36 23 fa bd b4 03 6c 3d 74 44 aa bd
       0.015055473 -0.12213747 0.05762072 -0.08313838
000170 71 86 38 bc d1 e4 60 bb 2f 11 ef bd 8b 4a 51 3d
       -0.011262522 -0.0034316073 -0.116731994 0.05109648
000180 c3 52 20 3d 96 83 24 3d 4a 38 0f 3d 08 3f 36 bd
       0.039141428 0.040164553 0.03496579 -0.044493705
000190 d4 77 72 bb f1 2b 1c be 85 72 21 3e 2b 9b 0e be
       -0.0036997693 -0.15251137 0.15766342 -0.1392638
0001a0 7e c5 a9 3d fa 99 4c bd e7 0d ab bd 54 29 12 bd
       0.08289622 -0.04995153 -0.08352261 -0.035683945
0001b0 69 45 c8 3c a4 dd c9 3d 40 3a 5f bc de 5b 10 be
       0.02444716 0.09856728 -0.013624728 -0.14097545
0001c0 f1 87 27 3e 90 53 f4 3c 97 4e 98 3d ef b6 15 3d
       0.16360451 0.029825002 0.07436865 0.036551412
0001d0 ac db 20 be cf 42 65 3d 50 9c f9 3d e0 39 a0 bd
       -0.15708798 0.055971917 0.12188017 -0.07823539
0001e0 3d 21 cf 3c 51 71 fc bc d5 4d 44 3a 05 9a e0 3c
       0.025284404 -0.030815752 0.00074884045 0.027417192
0001f0 a5 7a 29 be 68 ef 15 3e 20 6a 64 3d 4a 44 5f bd
       -0.16550691 0.14642107 0.05576527 -0.054508485
000200 34 ac 05 be bd a3 66 bd 26 a2 f5 3d 04 06 0f 3d
       -0.13053972 -0.056308497 0.11993818 0.034917846
000210 40 24 46 bc 6d 8a e2 3c 9d 5e 14 be a4 2e d3 bb
       -0.012093604 0.027653897 -0.14489217 -0.006444769
000220 a3 62 de bc d6 a1 94 3d 7d 05 7c 3d dd 52 8d 3d
       -0.027146643 0.0725743 0.06152867 0.069005705
000230 4f 79 58 bc 30 f9 bd 3d 80 4b 03 3e 77 52 84 bb
       -0.013212516 0.09276044 0.1282177 -0.004038151
000240 ec bc 0f bd e0 a9 92 bd f8 a9 a0 3b f8 7b 9c 3c
       -0.03509228 -0.07161307 0.0049030744 0.019102082
000250 ec f4 54 3c 59 64 0a 3e af da 6f bd 64 91 a3 3c
       0.012997847 0.13514842 -0.058558162 0.019966789
000260 d3 c4 ce 3d 39 a9 24 3d 89 0c ad bd 93 d8 46 3c
       0.10096135 0.040200446 -0.084496565 0.012136596
000270 d9 cf 16 3d 98 e0 13 bd e6 26 a4 3d 07 d1 e6 bd
       0.036819313 -0.03610286 0.08015232 -0.112703376
000280 9c 5c 23 bd 55 d3 da 3c d8 99 d0 bd cd 8d 8a 3d
       -0.03988324 0.0267121 -0.10185593 0.067653276
000290 74 b2 c4 3d 3d 35 0f 3e e2 b3 2b 3b a5 77 00 3e
       0.0960435 0.13985153 0.0026199748 0.12545641
0002a0 44 d5 e3 bd 58 ea 17 bd b9 37 76 bd b2 c8 8e bd
       -0.111246616 -0.037088722 -0.060111735 -0.06971873
0002b0 b0 cf 8c bb f9 43 b9 bd f6 8b 11 be 1b a6 2b bb
       -0.004297219 -0.09046168 -0.14213547 -0.0026191536
0002c0 67 bf a1 bd 13 27 22 bd be 00 c6 bb 05 3b cb bd
       -0.07897835 -0.039588045 -0.006042569 -0.099233665
0002d0 8a 13 21 bd 60 01 ba bc 34 dd 08 be f2 ac 33 bd
       -0.039325275 -0.022705734 -0.13365632 -0.043866105
0002e0 a5 77 12 be c2 f5 f1 bc 50 f1 5c 3d 61 aa 09 be
       -0.14303453 -0.029536132 0.05394107 -0.134439
0002f0 47 e6 13 3d 58 84 05 be 0a 82 b0 bd 5b 66 f2 bd
       0.03610828 -0.13038766 -0.08618553 -0.11835929
000300 3d e2 bf 3c 22 f7 08 3e fc 79 be bd 16 a1 37 3d
       0.023423309 0.13375524 -0.093006104 0.044831358
000310 1d bd 1c bd 92 46 82 3d 78 b8 28 3c b9 59 91 3d
       -0.03826629 0.063611165 0.010297887 0.07097191
000320 dd 59 7f 3d b7 5d df 39 65 57 30 3c fe 05 af bc
       0.06234156 0.00042603698 0.010763024 -0.021365162
000330 f0 b9 bc 3c 14 19 70 3d 63 09 9e 3b d9 b7 81 bc
       0.02303788 0.058617666 0.0048228963 -0.015834736
000340 fa a1 15 3e 4d 3b 05 3e 33 68 65 bd db be a0 3c
       0.1461257 0.13010903 -0.056007575 0.019622257
000350 f9 cd 3f 3d 69 10 1d be 77 1e 1b 3e 7d a5 e9 bc
       0.04682729 -0.15338291 0.1514834 -0.028521294
000360 a4 e7 e5 bd 38 ef 42 bd 79 2e c2 bd 17 8f 63 3d
       -0.112258226 -0.047591418 -0.0948152 0.055556383
000370 84 91 96 bc 4d b2 fb bd 50 ff 57 3d 57 fc e5 3d
       -0.018379934 -0.122898676 0.05273372 0.11229771
000380 a2 40 8e bd d9 4a 11 be 94 91 53 bc 59 1f 13 be
       -0.069459215 -0.14188708 -0.0129131265 -0.14367427
000390 84 3c b0 3c 10 4a d5 bb 01 06 0f bb a8 fa 9a 3d
       0.021513231 -0.006509073 -0.0021823647 0.0756734
0003a0 bd 20 5b bd 3b 46 38 bd be be 10 3c fc a1 be 3d
       -0.05349802 -0.044988852 0.008834539 0.0930824
0003b0 8b 8f c5 bd 50 21 0f 3e df dc 4d 3d 93 ac 1f bd
       -0.09646519 0.13977551 0.050259467 -0.03898294
0003c0 3c ea 2f 3d b5 11 c8 3d 91 f8 54 3d c3 86 b6 bd
       0.042947993 0.09769002 0.051994864 -0.089124225
0003d0 b3 59 20 3d 5d 8d fe 3c 2e e3 91 3c 06 3f 12 3e
       0.039148044 0.031073267 0.017808523 0.14281854
0003e0 63 fb 82 3c 4b 46 4f 3c ae ad 1a be 93 5d 07 bd
       0.015989011 0.0126510365 -0.15105316 -0.033048224
0003f0 2c 3b e4 bd 9e 06 43 3d ab 9b b9 bc cc 7f 19 3e
       -0.11144099 0.047613733 -0.022657236 0.14990157

fc3.bias f4 [32]
000000 e3 0a 5e 3d 90 e1 c8 bb 33 a0 91 bd ec eb 9c 3d
       0.0542096 -0.006130405 -0.07110634 0.07662186
000010 2c b9 ad 3d 6f fc 8e 3d 5a 7c ed bb 8a 18 11 bd
       0.08482584 0.06981742 -0.00724749 -0.035423793
000020 a1 01 22 bd 04 e2 91 bd 8e e9 c1 bd db 68 ce 3d
       -0.039552335 -0.07123187 -0.09468375 0.10078593
000030 b4 77 e9 bd f6 dc f1 bb 5b 90 a0 3d 5d 23 02 3d
       -0.11399785 -0.007381077 0.078400336 0.031772006
000040 72 9b ef 3d 41 66 a4 bd 59 1b 17 3c d4 0e 0a 3d
       0.11699571 -0.08027316 0.009222829 0.033705547
000050 21 ff 33 3d 0c 8f 89 bd 4a a1 dc bd 03 0a 71 3d
       0.04394448 -0.06716737 -0.10772951 0.05884744
000060 47 d2 57 3d f1 85 05 3e ef ba 57 bd 91 21 02 bc
       0.05269077 0.13039376 -0.05266851 -0.007942573
000070 71 df f7 3d 18 b8 c7 3d 61 e8 f7 bc 63 42 c5 bd
       0.12103165 0.0975191 -0.030262174 -0.09631803

fc4.weight f4 [5, 32]
000000 1c e8 40 bd 0b 89 dd bd f2 f9 22 3e 12 f7 1a be
       -0.047096357 -0.108171545 0.15915659 -0.15133312
000010 ea 21 ee 3c ae 80 9d bd c7 48 4c be f8 93 2f 3d
       0.029068906 -0.07690559 -0.19949637 0.042865723
000020 ed a0 ed 3d 73 c6 02 bd 7d 70 ae bd 9d b2 c7 bc
       0.1160296 -0.031927537 -0.08517549 -0.024377162
000030 8e 1a 32 3e 9a 01 9f bd 82 cf ab 3d 1b 1e 1b be
       0.17392942 -0.07763977 0.08389188 -0.15148203
000040 61 82 04 be 5a 4c 16 3e 42 2d a3 bd f7 54 4d 3e
       -0.1294036 0.14677563 -0.079676166 0.20051943
000050 5f 6e 3b 3e d2 09 49 be 15 6d 2b 3e bf 8a f4 3d
       0.18303822 -0.19632652 0.1674083 0.11940526
000060 61 c5 2c 3e 9c c4 03 3e 9a c1 15 3e 05 c6 be bd
       0.16872169 0.1286797 0.14624634 -0.09315113
000070 51 c6 18 be e0 14 3d be aa 4e 05 bb f0 5f 53 bc
       -0.14919402 -0.18464994 -0.0020341077 -0.012901291
000080 02 d1 8e bd 01 ea 16 3e e4 18 02 be 28 2a 8b bc
       -0.06973459 0.14737703 -0.12704808 -0.016987875
000090 a4 af 7b bd f6 41 51 3d cd a6 59 bc b2 ed 9a bc
       -0.0614468 0.051088296 -0.013284397 -0.01891217
0000a0 8e 75 69 bd 2f 76 19 3e 28 f2 04 be ec 14 d4 3d
       -0.056996875 0.1498649 -0.12983 0.10355553
0000b0 db 5b 14 3e 2c 7e 22 3e 76 41 2b 3e 49 4c 47 be
       0.14488165 0.15868443 0.1672419 -0.19462694
0000c0 46 b8 e6 3d c2 93 10 3c 11 ab a3 3d 3e 2d 9a 3d
       0.11265616 0.008824291 0.07991613 0.075281605
0000d0 ec 85 aa bc 64 60 07 be 6a cc 5e bc 6e 05 d5 3c
       -0.020815812 -0.13220364 -0.013598541 0.026003566
0000e0 73 f0 ff 3d 23 df 1f bd a6 a3 3b 3d da d4 e9 bd
       0.12497034 -0.03903116 0.045810364 -0.11417551
0000f0 c0 f0 06 be 66 30 ef 3d 38 b8 e8 bd b8 d4 ec 3d
       -0.13177776 0.11679153 -0.11363262 0.115640104
000100 cd e9 c0 3d d7 ae af ba 71 83 8e 3c a6 dd 27 3e
       0.09419594 -0.0013403547 0.01739666 0.16393146
000110 a3 5b b1 bc 43 3a 34 be 38 de b6 bd 8d cb f7 bc
       -0.021650141 -0.1760035 -0.089291036 -0.030248428
000120 3a 20 29 3b 6d 30 48 3c a3 fd 78 3d f5 f0 c5 bd
       0.0025806562 0.012218577 0.06078876 -0.096650995
000130 aa 3d dd 3d 62 d2 de bd d9 1e 80 bd 3a 35 d5 3d
       0.10802777 -0.10879971 -0.06255884 0.10410543
000140 03 3c 42 3e 05 18 e2 3d 33 38 30 3e 33 1c 6b bd
       0.18968205 0.110397376 0.17208938 -0.05739994
000150 5e 98 49 bd 43 43 3b be df 7c 3b bc e7 0f c7 bc
       -0.049217574 -0.18287377 -0.011443346 -0.024299575
000160 b4 95 80 bd 04 18 df 3d bc d1 d9 bd 95 e9 c6 3b
       -0.062785536 0.108932525 -0.10635707 0.0060703256
000170 7a 00 46 bc 3e 85 81 bd 22 c1 35 be 55 ac 63 3d
       -0.012085075 -0.06324242 -0.17749456 0.05558427
000180 8c 12 09 be 9b e4 fb 3d f6 ea ac 3d 1a 1e 37 bc
       -0.13385981 0.122994624 0.08443253 -0.01117661
000190 12 5f 12 be d8 7a ff 3a 6c 48 05 3c 2e b5 0f bc
       -0.14294079 0.0019491566 0.0081349425 -0.008771224
0001a0 f9 17 03 be d2 57 4d be 04 1b 89 3d 68 c5 2e 3e
       -0.12802114 -0.20053032 0.06694606 0.17067492
0001b0 69 59 87 bd e0 87 e6 3d 64 21 0d 3e 0d 0f f3 bd
       -0.066088505 0.11256385 0.13782269 -0.11868105
0001c0 05 49 0f be 4b 29 00 be 26 1f 0b be 7b 0e 42 3e
       -0.13992698 -0.12515752 -0.13586101 0.18950836
0001d0 ec da 34 3e 3c be 2a be e1 a8 66 3d e3 82 6f bd
       0.17661637 -0.16674131 0.0563134 -0.058474433
0001e0 8a af d6 bd a9 e2 35 be da 08 64 bd 68 a9 fb 3d
       -0.104827 -0.17762245 -0.055672504 0.12288171
0001f0 f0 ce 84 3d 06 b7 89 3c a3 66 05 bc d6 76 0e 3e
       0.06484783 0.016810905 -0.008142146 0.1391252
000200 32 c7 c7 bd 4e 68 20 3e 16 f5 12 be fb 44 5c 3e
       -0.0975479 0.15664789 -0.14351305 0.21510689
000210 e6 9f 21 be 28 e6 01 3e 42 f0 19 3d ad 13 01 be
       -0.15783653 0.12685454 0.037582643 -0.12605162
000220 4e 11 f4 bd eb 1b 17 3e 87 fe 5d 3e ed cb 43 be
       -0.11917363 0.14756744 0.21679126 -0.1912076
000230 33 9a 18 be 89 4a 43 be 85 40 87 bd a0 7f 46 3e
       -0.14902572 -0.19071402 -0.06604103 0.19384623
000240 9c a6 8a bd f6 d7 87 bd 3c d4 3a be ee 3d 83 3d
       -0.067700595 -0.06632988 -0.18245023 0.064082965
000250 f2 af 0c be 3a 1e 13 3e aa 96 03 be 15 e4 0e be
       -0.13738993 0.14367 -0.12850443 -0.13954194
000260 bb 86 51 be 70 35 3e 3e 19 25 53 bc 8d 22 43 be
       -0.20461552 0.18575072 -0.012887263 -0.19056149
000270 88 a5 61 3d 82 df 8b bd f3 2e 56 3e e4 48 43 be
       0.055089504 -0.0682974 0.20916347 -0.19070774

fc4.bias f4 [5]
000000 52 c8 0c 3e d8 20 5d bd fb 37 8c bc f0 a0 46 3d
       0.13748291 -0.0539864 -0.017116537 0.048493326
000010 5c fc dd bd
       -0.10839149
