clean_code/trained_models/actor_1154.pth (torch, 54884 bytes, 8 tensors)

fc1.weight f4 [128, 18]
000000 57 a7 21 3e fb 78 b6 3d 70 e8 1b be 80 83 45 3e
       0.15786491 0.08909794 -0.15225387 0.19288445
000010 04 34 ff 3d 66 d8 82 bd a0 a3 02 3d 64 dd d5 3c
       0.12461093 -0.06388931 0.031894326 0.026106544
000020 05 7b c6 3d 12 6a 88 bd 81 0e 14 be 2a b4 b1 3b
       0.09691433 -0.06660856 -0.14458658 0.0054230886
000030 a8 ac 5e 3e e2 46 a9 3d 20 8c 17 3e 42 db 0f 3d
       0.2174555 0.08265473 0.14799547 0.03512121
000040 45 76 65 be 79 d1 82 3e 24 d6 10 3e 20 77 2c 3e
       -0.22408397 0.2555044 0.14144188 0.16842318
000050 84 a2 b4 3d ab 44 9d bd 4c 72 92 3d c1 31 84 bc
       0.0882006 -0.07679113 0.07150707 -0.016137006
000060 ae ec 17 3e 3f 51 53 3e 54 ed ce 3d 7e f1 31 3d
       0.1483638 0.20636462 0.101038605 0.043443196
000070 13 7e 19 3e 98 ff 14 3e 52 a3 2a be 24 32 0c be
       0.149895 0.14550626 -0.16663864 -0.13691002
000080 e9 2a be bd c7 c8 76 3d 53 45 25 be 01 4e 28 3d
       -0.09285528 0.06025007 -0.16139726 0.041090015
000090 b2 24 1d 3e 35 5e b6 3d a0 83 14 be af a3 81 3d
       0.1534603 0.08904687 -0.14503336 0.06330048
0000a0 3a 17 35 be a1 7e 0c 3d 07 8c 47 3e 9a 50 1e 3e
       -0.17684641 0.03430045 0.1948701 0.15460435
0000b0 b5 6d 76 bd e0 0c 32 be 67 b6 d3 bd 38 28 37 3e
       -0.06016322 -0.17387724 -0.10337525 0.17886436
0000c0 0f e3 85 3e 82 69 c5 3d 5c e4 81 3d 8f 78 d5 bd
       0.26149794 0.09639265 0.06342384 -0.10423385
0000d0 21 22 53 3e 5c 93 65 3d a1 e5 02 3e b7 7a 20 bd
       0.20618488 0.056048736 0.12782909 -0.03917953
0000e0 ee e0 2b 3e b5 d0 d3 3c 5a df 3b be 72 59 0a be
       0.16785023 0.025856355 -0.1834692 -0.13510683
0000f0 19 24 45 be 49 fb 40 be 76 3e ff bd 3f 38 2a 3e
       -0.19252051 -0.18845858 -0.12463085 0.16623019
000100 a6 35 c7 3d 44 8d d5 bd 15 a1 55 3e 77 19 3e 3e
       0.097270295 -0.10427335 0.20862229 0.18564402
000110 7e f2 a3 bb 28 70 40 be 6c 49 2a 3e 90 d7 82 bd
       -0.0050032726 -0.18792784 0.1662957 -0.063887715
000120 8b b9 99 bd 8e 32 70 3e 9d 1a 08 bd 63 fd 4e be
       -0.07506093 0.23456785 -0.033228505 -0.20213847
000130 21 1b 5b 3e 40 9f 23 3e 2c 54 c3 bd 7b e7 85 3e
       0.21397068 0.15978718 -0.09537539 0.26153168
000140 1d a9 db bc f2 4d 26 3d da 4f 88 3d 1f 9d cb 3d
       -0.026814038 0.04060168 0.066558555 0.09942078
000150 ba 43 cb 3c f4 29 06 be b4 aa 77 3e 5d f9 2d 3e
       0.024812568 -0.13101941 0.24186212 0.16989656
000160 38 9e 0c be 4c 75 59 3e 6d 0a d3 3d db 9e 4d bd
       -0.1373223 0.21236151 0.10304723 -0.050200325
000170 76 96 34 3d 81 ce 43 3e 56 93 76 3e 03 1a cb bc
       0.044088803 0.19121744 0.24079642 -0.024792677
000180 2d 5d a5 bd e6 59 bc bb 7f 7f ca 3d d1 c4 31 be
       -0.080744125 -0.0057480214 0.09887599 -0.17360236
000190 db 53 95 bc 69 72 24 3e 4b 14 36 be df ba 52 3e
       -0.018228462 0.16059269 -0.17781179 0.20579098
0001a0 f4 78 26 be b3 79 50 3e f7 aa 83 3d 47 f2 54 3e
       -0.16257077 0.20358925 0.06429093 0.20795546
0001b0 a6 a9 0f 3e 8d c1 7e be d8 e7 13 3e ca 0b 0a be
       0.1402956 -0.24878521 0.1444391 -0.1348106
0001c0 03 ea bd 3d 88 d9 2e 3e ac 29 33 3e 9e 33 a1 3d
       0.0927315 0.17075169 0.17496365 0.07871173
0001d0 ff b9 37 be 8e 9f 76 bb a1 e9 69 be b9 ce d2 bc
       -0.17942046 -0.0037631723 -0.22843029 -0.025733339
0001e0 b1 4e 65 be 60 a7 1f bc 1d 37 04 be e4 df 52 3d
       -0.223933 -0.009744495 -0.12911649 0.05148305
0001f0 a2 89 79 be 8c 4b 10 bc 40 97 00 3d 4c af 1f 3e
       -0.24368909 -0.008807074 0.031394243 0.15594214
000200 0c 31 51 be 8c 4a 54 be da 60 07 be f6 e4 b7 3d
       -0.20428866 -0.20731562 -0.1322054 0.08979218
000210 b7 14 56 3e f4 b7 00 be 8a 9d 35 3e 82 2c 3d be
       0.2090634 -0.12570173 0.17735878 -0.1847401
000220 90 85 32 3e 10 cc 37 3e 13 7f ae bc c8 f3 c9 3c
       0.17433763 0.17948937 -0.021300828 0.024652377
000230 cd 3a 13 3e 57 63 d1 3b a3 61 4e 3d 67 f1 18 be
       0.143779 0.006390016 0.050386082 -0.14935838
000240 e8 07 3e bb a7 fe b4 bd 25 d6 96 bd 83 27 2b 3e
       -0.0028996412 -0.088376336 -0.073650636 0.16714291
000250 b4 d3 8b bd 80 5e 72 be d4 27 d8 bd 86 c0 42 be
       -0.068274885 -0.23668861 -0.105544716 -0.19018754
000260 fe 1a b6 3b ea ce 60 be ae 61 d5 bd b5 ac 7e be
       0.005557417 -0.21953931 -0.104190215 -0.2487057
000270 99 eb 22 3e 97 ab 57 be eb 80 d3 bd cb 44 46 be
       0.15910186 -0.2106155 -0.103273235 -0.1936218
000280 0a 82 14 3d 38 13 1f 3e 20 fd 1d 3e ce ec 66 3e
       0.036256827 0.15534675 0.15428591 0.22551271
000290 4c 37 6b 3e 08 98 8e bd d9 29 fe 3d b3 2a 5f be
       0.22970313 -0.069625914 0.124103256 -0.21793632
0002a0 e4 b5 68 3e 61 bf 13 3e 5c 6e 7c bd 22 38 54 3e
       0.22725636 0.14428474 -0.061628684 0.20724538
0002b0 2f 37 d2 3d 5a 03 6e 3e ee 81 29 3e 4f ba f4 bd
       0.10264432 0.23243466 0.1655347 -0.11949598
0002c0 5f 9f 8d bd 6b e4 5e 3e fa 27 33 be 92 92 bf bd
       -0.06915163 0.21766822 -0.17495719 -0.09354128
0002d0 f1 21 f8 bd b7 da 48 be 41 6d 20 be 96 08 47 be
       -0.12115849 -0.19614683 -0.15666677 -0.19436869
0002e0 f0 db c1 3d bc 6b c5 3d f9 b8 4e bc 15 90 d9 3d
       0.09465778 0.09639689 -0.012617343 0.106231846
0002f0 ae 76 35 3c 30 f9 a7 3c 24 44 c2 bc 2b bf 8a 3d
       0.011075659 0.020504564 -0.023714133 0.06774744
000300 5d 5c 3a be f0 c4 6e bd da 20 62 be e5 69 36 be
       -0.18199296 -0.058293283 -0.22082844 -0.17813833
000310 1f 10 f8 3d 13 96 06 3d 98 9a 4c bd c4 52 4b 3e
       0.1211245 0.032857966 -0.04995212 0.19855791
000320 33 c0 c5 bc 37 f9 f5 bd fa c6 ec bd 32 4d 50 3e
       -0.0241395 -0.120104246 -0.11561389 0.20341948
000330 5a c0 a1 3d c6 bc 43 3e 0d da 34 3d 66 be 93 bd
       0.07898016 0.1911498 0.044153262 -0.0721405
000340 2d b6 ff 3d 9c 18 e0 3d ae bf 39 ba 68 11 09 bd
       0.12485919 0.10942194 -0.00070857524 -0.033463866
000350 5f a3 ce bd 34 c0 01 3e 0f b8 2d be 39 76 6c 3e
       -0.10089754 0.12670976 -0.16964744 0.23091973
000360 fe e9 d5 bd b8 8e b0 bd 4a fe 0e 3e 33 01 e8 bd
       -0.10445021 -0.086209714 0.13964191 -0.11328354
000370 21 e4 57 be 64 94 33 bd 0d b9 5b be 8d cb 8d 3c
       -0.21083118 -0.04384269 -0.2145731 0.017308975
000380 30 82 42 be 8b d6 31 be 5c d0 25 bd 97 9d 3b 3e
       -0.18994975 -0.17366998 -0.04048191 0.18321835
000390 53 2a 12 be c0 57 4c bb 59 9a 9a 3d 9f 66 e0 bd
       -0.14273958 -0.0031180233 0.07548971 -0.109570734
0003a0 81 ff 11 3e 65 f9 17 3e e4 a1 89 3e 31 90 af bd
       0.14257623 0.1484123 0.26881325 -0.08572424
0003b0 8d d3 a1 3d fb b5 53 bd bb a9 b9 3c 30 ad 7e 3d
       0.07901678 -0.051687222 0.022663942 0.062176883
0003c0 1a f0 5c 3e 04 85 61 3e b2 7a 34 3e c2 0a 7d 3e
       0.21575966 0.22023398 0.1762493 0.24711135
0003d0 2a d2 ec bc f5 a1 7d 3d be 12 38 be 6f ac fc bd
       -0.028908808 0.061922032 -0.179759 -0.123375766
0003e0 de d6 8a 3c ba fb 22 3d 07 17 51 bc 47 d8 a4 bd
       0.01694816 0.039790846 -0.012761838 -0.08049064
0003f0 93 29 64 3e ed 3f 5a bd d3 52 02 3c 9a 69 07 3d
       0.22281484 -0.05328362 0.007954317 0.033059694

fc1.bias f4 [128]
000000 77 22 1c 3e 29 24 25 3e 5b ce 26 3e a0 47 3b 3e
       0.15247522 0.16127075 0.16289656 0.18289042
000010 6e 3a c2 3c 54 ae ac 3d e0 ac 2b 3d d1 eb c3 bd
       0.023709502 0.08431688 0.041912913 -0.09566463
000020 6c 1d d7 3d 5a 8b 36 be 71 b3 5f be f0 41 75 3e
       0.10503659 -0.17826596 -0.21845795 0.23950934
000030 69 b0 20 3e bf 15 6d bd 5a b0 b6 3d 1d 5c 6d 3e
       0.15692295 -0.057882067 0.08920355 0.2317967
000040 02 1f 59 3c c3 31 59 3e 6f a8 22 be e7 4a ca 3d
       0.013252022 0.21210389 -0.15884565 0.09877568
000050 86 44 36 3e 32 b1 a8 3d 80 76 20 be cf e2 c1 3c
       0.17799577 0.08236922 -0.15670204 0.023667721
000060 4a e6 4e be 56 85 dc 3d ed 51 9f 3c 95 0c 42 3e
       -0.20205036 0.10767619 0.019448245 0.18950112
000070 a2 74 b6 bd 7d f3 81 3d c3 3e a6 bb a8 75 49 be
       -0.08908965 0.0634527 -0.0050733997 -0.19673789
000080 28 d5 7a 3d 88 06 80 3e e3 4d bd 3d e6 05 b9 bd
       0.061238438 0.25004983 0.09243371 -0.09034328
000090 46 89 ef bd a7 48 20 3c 3c 04 8c 3e 60 4e 1d be
       -0.11696105 0.009782947 0.2734698 -0.15361929
0000a0 15 15 af 3c ad 5b 3e 3e c9 3f 33 be b7 f4 81 3e
       0.021372357 0.18589659 -0.17504801 0.25382015
0000b0 d6 50 a7 bd 67 90 51 3e 7b 80 87 3e 87 78 34 3e
       -0.08169715 0.20465241 0.2646521 0.17624103
0000c0 f1 29 84 3e b1 bf 13 be b9 ae e2 3d c6 0a 4f bd
       0.2581325 -0.14428593 0.11068482 -0.050547384
0000d0 02 d8 18 be 32 aa 87 be a8 03 49 bd 6f 7d 89 3e
       -0.1492615 -0.26497036 -0.049075752 0.2685351
0000e0 af d0 92 3c ac 42 7d 3e c0 4a 41 be 95 7e 1c bc
       0.017921774 0.24732465 -0.18876171 -0.009551664
0000f0 08 3e 45 bd e2 2a 81 3e 22 64 b9 3c a4 af 1f be
       -0.04815486 0.2522803 0.022630755 -0.15594345
000100 5e 05 eb 3d de a2 62 be 24 73 bb 3c 53 e7 b6 3d
       0.11475633 -0.22132441 0.022882052 0.0893084
000110 b5 39 8c bd 6e 29 29 3e 9c a9 82 3e 29 da a5 3d
       -0.06846944 0.1651971 0.25520027 0.080982514
000120 66 ee 0e be a5 7d 5f 3d d8 b9 36 be b3 ca 18 3e
       -0.1395813 0.054563183 -0.17844331 0.14921074
000130 27 28 33 3e 07 14 5a bc 55 82 62 3e 9d 53 14 3e
       0.17495786 -0.013310439 0.2212003 0.14485021
000140 0f 52 4e 3d ab 4d 28 be b0 92 78 be ec f2 2a be
       0.050371226 -0.16435878 -0.24274707 -0.1669423
000150 59 6a be 3d b7 43 0a 3e f9 4f be bd 98 d0 89 bd
       0.09297628 0.13502394 -0.09292597 -0.06729239
000160 b5 0a db bd c6 34 d6 38 ba 81 0d 3e 85 1c 83 bc
       -0.106954016 0.00010214145 0.13819018 -0.01600481
000170 61 84 b6 3c 9c 9f 69 3e 26 36 53 3e 3c a6 89 be
       0.02227992 0.22814792 0.20626125 -0.2688464
000180 af 8d e7 3d 97 27 58 be a8 ec 51 be 7a d2 39 3d
       0.11306321 -0.21108852 -0.20500433 0.04536674
000190 63 ba 27 3e 0a 6b 4d be 10 b9 24 3e 57 79 7b bd
       0.16379695 -0.20060363 0.1608622 -0.061395016
0001a0 0c da 06 3e 65 20 57 3e 86 4f 11 3d db 15 25 be
       0.13169116 0.21008451 0.03547623 -0.16121618
0001b0 a4 98 25 3e 0e db 0c 3e f3 a8 c2 bd b5 4c f9 bc
       0.16171509 0.13755438 -0.09504881 -0.030432085
0001c0 a6 58 14 bc 91 66 5e 3e 3b 42 2a be 6b ae 82 3e
       -0.009054339 0.21718813 -0.16626827 0.25523695
0001d0 9b 47 13 be ca 4e 2e be 1c fd 26 be 24 db 5c 3e
       -0.14382784 -0.17022243 -0.16307491 0.2156797
0001e0 d0 a8 84 3d 6b 85 ff 3c 24 34 32 3e 61 4b 80 3d
       0.06477511 0.031191548 0.17402703 0.062643774
0001f0 f1 2b 72 be 22 03 3b 3e 41 65 be 3d 9c 33 16 be
       -0.23649575 0.18262914 0.092966564 -0.14668125

fc2.weight f4 [64, 128]
000000 c7 c0 92 3d c2 58 f1 bc b9 4a b9 3c b6 5c ad bb
       0.071656756 -0.029461268 0.022618638 -0.005290593
000010 f2 9a 65 3d 2c 1a 67 3d 99 b2 6b 3d f1 61 3d 3d
       0.05605597 0.056421444 0.05754337 0.046235982
000020 de c5 b8 3b 45 da d6 bc a7 bc 47 3c 7e c4 99 3d
       0.005638822 -0.026227126 0.012190974 0.07508181
000030 a7 98 f8 bc aa aa a3 3b a8 94 19 3d 6b 5b c0 3c
       -0.030346228 0.00499471 0.037495285 0.023481091
000040 2d de 09 3c dc 47 10 3c 88 92 31 bd 76 1d 0f 3d
       0.008414787 0.008806195 -0.043352634 0.034940206
000050 91 c8 01 3d 39 6e bf bd 94 62 64 3d 28 7e 6e bd
       0.031685416 -0.09347195 0.055758074 -0.05822578
000060 6b 55 a5 3d cb b5 d2 3c 38 f6 81 bb 45 62 aa 3d
       0.08072933 0.025721451 -0.003966119 0.08319525
000070 86 2e f0 bd 7e 7b 82 bc 34 e7 45 3d a0 ca 3e 3d
       -0.11727624 -0.015928026 0.048316196 0.046579957
000080 ed fb 1b bd 8b d2 2a 3d fe fc 9a bd af 3b b4 3d
       -0.038082052 0.041704696 -0.07567786 0.08800446
000090 2d 8c 83 bd a7 0c 3a bc c6 c2 0f bc 61 00 90 3d
       -0.06423221 -0.011355556 -0.008774465 0.07031322
0000a0 cf f2 cd 3d 46 19 20 3d b6 8b 57 bd 21 b7 85 3b
       0.10056078 0.039086603 -0.052623473 0.0040806686
0000b0 37 07 d2 bd d1 7f d3 3d 42 48 ea 3c 66 3f 08 bc
       -0.10255282 0.103271134 0.028598908 -0.008315897
0000c0 ff 46 60 3d 8e eb 8f 3d 50 a1 fc 3b c7 88 89 bd
       0.054755207 0.0702735 0.0077096596 -0.06715541
0000d0 b1 22 f0 3c e4 f3 68 bd f5 01 73 3d a0 80 eb bc
       0.029313417 -0.056873217 0.05932804 -0.028747857
0000e0 60 a6 a1 bc 29 c0 a5 bc ed b8 96 bd d2 40 b9 3c
       -0.019732654 -0.02023323 -0.073594905 0.022613917
0000f0 6b 8d b4 3d 99 87 57 bd d5 f0 67 bd 32 eb 25 3d
       0.08816036 -0.05261955 -0.05662616 0.040507503
000100 c4 1e 0e 3d 0b 7a db 3c 89 e6 9e 3d 87 72 92 bd
       0.03469731 0.026791593 0.07758815 -0.071507506
000110 5b de 7c bd 8a 66 76 bd 99 b4 10 3b 36 b3 83 3d
       -0.061735492 -0.060156383 0.00220803 0.06430666
000120 e2 f3 4c bd 9b 10 99 bc 50 f1 5d 3c 7c ec 62 3c
       -0.050037272 -0.018684676 0.013546303 0.013850328
000130 77 6b 73 3d 1f e3 0c bd 04 27 cd 3d 37 bd 9e 3d
       0.05942866 -0.034396287 0.10017207 0.077509336
000140 fe 4f b3 bc 52 ec 30 bd c4 22 bb bd 05 50 80 bd
       -0.02188873 -0.043194123 -0.091374904 -0.062652625
000150 73 4f b2 3b c3 39 af bd 3c f6 e2 bd ef 25 47 3d
       0.0054416 -0.08555939 -0.11082122 0.04862016
000160 e4 90 9f bd 87 98 31 3d e4 f3 39 3d 9b 51 87 3d
       -0.077913076 0.043358352 0.045398608 0.06607362
000170 8e bf 83 3c cb b1 cb ba b1 78 02 3e e5 de 6c bd
       0.016082551 -0.0015540657 0.12741353 -0.057829756
000180 a5 41 b9 bb 9f a0 78 ba a8 0c e7 bd 30 9e 32 3d
       -0.0056535774 -0.00094843836 -0.11281711 0.04360789
000190 c6 57 a6 bc 72 0e 36 3c 51 b7 e0 3c df ad c0 bc
       -0.020305526 0.0111118425 0.027431162 -0.023520408
0001a0 ac af 03 3d bf 9b ec bc 41 11 56 bc 0e b7 ac bd
       0.032149956 -0.02888286 -0.013065637 -0.084333524
0001b0 3f 59 08 bd ae c3 02 bd 8c ae dc bd 7a b5 56 bd
       -0.033288237 -0.031924896 -0.1077548 -0.052419163
0001c0 1c 30 40 bd cd ee 36 3d ca c9 62 bc 11 39 b0 3d
       -0.04692088 0.044661332 -0.013842056 0.086046346
0001d0 ac 5e be bd 14 7b 08 3d 08 ca ac bd 27 2f 85 3d
       -0.09295401 0.0333205 -0.08436972 0.06503134
0001e0 a5 58 94 3d 1a 4a 22 3d c5 d6 e2 3c 5f a4 52 bd
       0.0724347 0.03962145 0.0276903 -0.051426288
0001f0 64 1b 14 3d c3 37 cb 3d 42 d7 7e bc 5c 19 a3 bc
       0.036158934 0.09922745 -0.015554251 -0.019909553
000200 a5 6b d0 3d 4d 6c cf 3d 59 9c e1 3d 33 8d 91 bd
       0.101767816 0.101280786 0.11016149 -0.0710701
000210 25 03 9a 3d 32 60 62 3c 87 8c 9b bd c9 d3 c1 3d
       0.07520131 0.01381688 -0.07595163 0.09464223
000220 d2 df 71 bd a6 0d 2a bc 6c 03 b8 bd 14 da 93 3c
       -0.059051342 -0.010379231 -0.08985028 0.018048324
000230 25 70 ff bc a6 99 d5 3d c1 9c 56 3d 7a 64 91 3d
       -0.031181404 0.10429697 0.052395586 0.070992425
000240 ad c4 62 3d 15 e4 58 3d 6e d2 86 3d 24 12 22 3d
       0.055363346 0.05295189 0.06583105 0.03956808
000250 93 41 18 3d 7e 40 95 bd d7 21 f8 3c bc 01 7c bd
       0.03717191 -0.072876915 0.030289574 -0.06152509
000260 18 25 8f bb 45 ae 6f bd 92 cc b9 3d b2 c4 cf 3c
       -0.0043684356 -0.058515806 0.09072222 0.025362346
000270 7d a8 ea bd 5a 72 cb bd de cc 85 3d d2 2c 29 3d
       -0.11457918 -0.0993392 0.06533216 0.04130251
000280 eb a7 d1 3d 35 eb 07 3d 93 42 c0 3c fe 0a b0 3c
       0.10237106 0.033183295 0.023469245 0.021489616
000290 50 50 e0 bd ad 46 57 3d 0c a7 0a bd 96 45 a4 3c
       -0.109528184 0.052557636 -0.033850715 0.020052712
0002a0 c9 18 70 bd 93 e3 96 bb 69 da a3 3c 86 f9 1b bd
       -0.058617387 -0.0046047657 0.020001607 -0.03807976
0002b0 e6 5c cd 3c 40 be 8e 3d a6 6d f2 3c 8a 60 21 3d
       0.025068711 0.06969881 0.0295933 0.039398707
0002c0 5b 61 8f 3d a5 ba 97 bd 5d a5 db 3d 28 cc 17 bd
       0.07000991 -0.074086465 0.107249 -0.037059933
0002d0 ce 51 5d 3d 37 50 a5 bd ea 27 a0 bd 71 8b 88 3d
       0.054033093 -0.080719404 -0.07820113 0.06667221
0002e0 21 89 8e 3c 72 70 e0 3d 87 0b ff 3c c3 b2 61 bd
       0.017399373 0.10958947 0.031133426 -0.05510212
0002f0 39 f0 71 3d 23 fd a2 3d 24 2c da 3c 0a 13 ec bc
       0.059066985 0.07958438 0.026632376 -0.028817672
000300 9f f8 63 bb 79 2c 95 bd b2 0a 9e 3d f2 e6 00 3d
       -0.003478564 -0.07283873 0.07716884 0.031470247
000310 20 42 9a bc 6d 74 8b 3d 11 3b 44 bd 49 32 88 3d
       -0.018830359 0.06809316 -0.047907893 0.06650216
000320 02 50 bd bb 9d 6a 7c bd 9e 06 bf bc 9a 70 74 3b
       -0.00577736 -0.06162511 -0.023318585 0.003729856
000330 06 0a 95 bd 4a 2d 08 bd 08 94 e4 3b c4 d5 87 3d
       -0.072773024 -0.033246316 0.0069756545 0.066325694
000340 39 fa b5 bd 1b e5 08 bd 9e 23 4d 3d e0 1d a2 bd
       -0.08885617 -0.033421617 0.050082795 -0.079158545
000350 cc 8d f2 3b 58 cd 0d 3d 72 7d ea 3c 56 12 3d bd
       0.0074021574 0.03461966 0.02862427 -0.046160065
000360 1f 38 3a 3b cd 8b 18 bd ad 06 1e bc 72 3b 42 3d
       0.0028414798 -0.0372427 -0.009645146 0.047419973
000370 72 f6 0e 3c e3 d7 b3 3d 00 70 ba 3d 83 47 1a 3d
       0.008725749 0.087814115 0.091033936 0.037665855
000380 38 06 7d bd 85 c0 04 bd 64 7e 4a bd 64 22 cd 3c
       -0.06177351 -0.032410163 -0.04943694 0.025040813
000390 c3 86 f7 3c 57 d5 e8 bc 59 f8 87 3d c1 42 82 bd
       0.030215627 -0.02842204 0.066391654 -0.063603885
0003a0 7c 5f 7c bd da 0a 1a bc 0c 8e bf 3b d3 34 4b bd
       -0.0616145 -0.009402001 0.0058457907 -0.049610924
0003b0 96 0b 76 3c 2f f6 37 3d 22 fd a1 bd 9f 1f c7 3d
       0.015017411 0.044912513 -0.079096094 0.09722828
0003c0 0b 4c a6 3c 50 89 1d bd a3 86 9c 3d 0c c0 0e 3d
       0.020299932 -0.03846103 0.076428674 0.03485112
0003d0 d2 a2 f6 bc c9 3a c9 3d ad ff d7 3c 92 a4 9f 3b
       -0.030106936 0.098256655 0.026367033 0.004871913
0003e0 ee 2e 63 3d 26 de 00 3d 77 0e bb bc a7 0f 78 bc
       0.055464678 0.031461857 -0.022834046 -0.015140451
0003f0 9f ed 03 bd 7f a7 28 bd 5d 90 ea 3c ac af 0b 3c
       -0.032209035 -0.04117536 0.02863329 0.00852577

fc2.bias f4 [64]
000000 2d d1 01 3d fe 07 14 3c d6 af 63 bd 4e 0c 3a 3d
       0.031693626 0.009035109 -0.055587612 0.04542189
000010 fa 1e bb bd a2 bb bf bc 2b 6d 06 3d 0e 4f cb 3c
       -0.09136768 -0.0234049 0.032818954 0.02481797
000020 79 e7 d3 3d cd b1 d5 bd ed 5f c3 3c 15 a7 53 bd
       0.10346884 -0.104343034 0.023849452 -0.051673014
000030 13 ef 3e bd 01 fc 83 bc 27 bb e0 3c 45 e0 65 bd
       -0.046614718 -0.016111376 0.027432991 -0.056122083
000040 83 e2 dd 3d d1 70 6a 3c 54 37 84 b9 c8 e9 23 3d
       0.10834219 0.014309124 -0.00025218225 0.040017873
000050 f6 5d 82 3c d5 b1 8a bd a9 56 8b 3c bb 3c 63 bd
       0.015913945 -0.067722 0.017009096 -0.05547784
000060 dd 9e ae bd d3 7d 2d bd f1 22 cb bd 3c 08 ab bd
       -0.085263945 -0.042356323 -0.09918774 -0.0835118
000070 46 81 97 ba 81 e8 7f 3c 8a fc 3a 3b 74 56 5d bd
       -0.0011558912 0.015619398 0.0028531873 -0.054037526
000080 55 a6 b0 3d ed fa 9b bd 16 4e 95 bd 26 c6 92 bd
       0.08625475 -0.0761622 -0.07290284 -0.071667
000090 08 03 54 bd 66 eb b0 bd 81 2c c7 3c 5f 59 7b bd
       -0.051760703 -0.08638649 0.024313213 -0.061364528
0000a0 e0 64 28 3c 5a f7 43 3d 62 b0 1d 3d 26 08 83 bd
       0.010277957 0.047843315 0.03849829 -0.063980386
0000b0 44 ad 9f bc ed 37 ea 3c ce 5e e1 3d 61 6d a5 3c
       -0.0194918 0.02859112 0.11004411 0.020193757
0000c0 a1 21 41 3d e9 cd b8 bd 93 2e 83 bd a6 19 29 ba
       0.04715121 -0.09023649 -0.06405368 -0.00064506603
0000d0 2e c4 90 3c 5c a2 9e 3c a1 56 6c bd 4b 39 05 3d
       0.01767167 0.019364528 -0.057699803 0.032525342
0000e0 73 1d 0c 3d 36 ca 1e 3c a1 88 cf bd 77 1e d2 3d
       0.034207772 0.0096917655 -0.10133482 0.10259717
0000f0 9c 76 8f bc b3 fc cf 3d 2e e7 85 3b de 3c 2d bc
       -0.017512612 0.101556204 0.0040863967 -0.010573594

fc3.weight f4 [32, 64]
000000 c9 85 07 be 4e 7f 1a bd 46 9d 90 bd 78 45 10 3e
       -0.13234629 -0.037719063 -0.070612475 0.14089
000010 33 07 b6 bd 4d 13 03 be 87 fc 45 3d 0e 8d 05 be
       -0.08888092 -0.12800331 0.048336532 -0.1304209
000020 4c 83 4f 3d 7b 8e 1b bc f3 69 12 3e 66 e5 1a bb
       0.050662324 -0.009494419 0.14298229 -0.0023635267
000030 d5 9d 4b bd e2 a1 98 bd 84 2b e7 bc be 99 c9 bd
       -0.049711067 -0.07452752 -0.028218992 -0.09843777
000040 a4 da 39 bd d9 5f a3 bd 6f 5b a2 bb 7e bd 00 3e
       -0.045374528 -0.07977266 -0.0049547474 0.12572286
000050 21 42 11 bc 87 6b 8f 3d 1e a6 53 bd 33 59 80 3d
       -0.008865864 0.07002931 -0.051672094 0.062670134
000060 89 34 a2 bd f1 d0 20 bd 33 fd a9 3d a8 bd a4 3c
       -0.079201765 -0.039261762 0.08300247 0.020109966
000070 76 9e 7b 3d 59 2a c9 bd ef 57 08 be 74 49 06 3e
       0.061430417 -0.0982253 -0.13314794 0.13113958
000080 de 5c 48 bd 7c 23 93 bd 96 d5 b2 3d cf 29 ca 3d
       -0.04891669 -0.071845025 0.087321445 0.098712556
000090 20 64 f8 3d 92 9d a8 3d a3 13 f2 3c 39 1c e0 3d
       0.12128472 0.08233179 0.02955038 0.10942883
0000a0 6b 1a de bd a1 10 e0 3d 5b 09 b1 3d 69 32 62 3d
       -0.108448826 0.10940672 0.086443625 0.055223856
0000b0 d4 66 d2 bd b1 9e d3 3d d8 b3 13 be 91 7e 00 3e
       -0.10273519 0.10333002 -0.14424074 0.12548281
0000c0 fa 9c ef bd 92 18 a7 3d c0 c1 b0 bd 49 bb 15 be
       -0.11699863 0.08158983 -0.08630705 -0.14622225
0000d0 0d db ca 3d d3 24 32 3c 2a 57 15 bd ed 2a 72 3d
       0.09905062 0.010873037 -0.03646008 0.05912297
0000e0 22 72 ab 3d 1d ec 86 bd 56 87 81 3d a7 c8 77 bb
       0.083713785 -0.06588004 0.063246414 -0.0037808807
0000f0 67 30 9e 3d e1 f9 9d bd 62 f2 81 bd 78 6e 8d bd
       0.07724076 -0.07713676 -0.06345059 -0.06905836
000100 40 80 33 3d ee 04 4d 3d 32 ef b7 bd 80 22 2e bd
       0.04382348 0.05005353 -0.0898117 -0.04251337
000110 c5 a7 36 3c 1e 55 ca 3d da 74 29 3e 80 e7 19 3e
       0.011148398 0.09879516 0.16548482 0.15029716
000120 cc bb 29 3c 15 bb f7 bd 19 8d 21 3e ca dc 54 3d
       0.010359716 -0.1209623 0.1577648 0.051968373
000130 b0 40 3a 3d a8 65 65 3c f8 79 06 bc a9 01 10 3d
       0.045471847 0.0140012875 -0.008207791 0.035157833
000140 81 0a 95 3d a8 7a 75 3c ff 9d 17 3e fc 99 43 bd
       0.07277394 0.014982857 0.14806364 -0.047754273
000150 9d 08 4e 3d cd cf d7 3c 11 88 b3 3d 5f de a4 bc
       0.050301183 0.026344204 0.08766187 -0.020125566
000160 6e 1b 5f 3c 30 7e ff bd 71 18 69 3d 1b e7 ab bd
       0.01361738 -0.1247524 0.056908075 -0.08393689
000170 0a 2b 00 bc 2f b9 9c bb 17 b4 f2 bd 22 29 5a 3d
       -0.007822761 -0.004782818 -0.11850756 0.053261884
000180 28 5c 24 3d 5f f6 20 3d 07 da 0a 3d ab 9e 3f bd
       0.04012695 0.039297458 0.033899333 -0.046782177
000190 77 24 93 bb 1d 14 1d be 60 6d 23 3e 8f 51 0d be
       -0.004490431 -0.15339704 0.15959692 -0.13800643
0001a0 01 b8 ab 3d b8 c8 3f bd 82 57 ad bd 99 75 17 bd
       0.08384705 -0.04682228 -0.084639564 -0.036977384
0001b0 99 e2 b4 3c 13 34 d3 3d c5 51 41 bc 61 15 12 be
       0.022080706 0.10312667 -0.0117992805 -0.14265968
0001c0 35 26 2a 3e d8 37 eb 3c 0b ce 9b 3d 5d dc 09 3d
       0.16616137 0.028713152 0.07607659 0.03365742
0001d0 dd f7 22 be 9b 74 71 3d 31 d2 fc 3d 8e f5 9b bd
       -0.15914865 0.058949094 0.12344778 -0.07615195
0001e0 4e e6 e1 3c d5 d8 08 bd 02 91 8f ba 8e 36 f7 3c
       0.027575638 -0.033409912 -0.001095325 0.03017738
0001f0 ba a0 2b be 8e 89 19 3e b0 f5 5c 3d 44 72 53 bd
       -0.16760531 0.14993879 0.053945243 -0.051622644
000200 c2 eb 05 be 9b ab 67 bd e8 eb f5 3d bb ee 0f 3d
       -0.13078216 -0.05656014 0.12007886 0.03513978
000210 6b 13 43 bc 20 d2 db 3c 25 b2 14 be 37 a6 e5 bb
       -0.011906485 0.026833594 -0.14521082 -0.0070083397
000220 b1 27 e1 bc c1 f9 94 3d 7d e2 79 3d 31 cb 8d 3d
       -0.027484747 0.07274199 0.06100701 0.06923521
000230 d3 00 68 bc d4 5a bd 3d 44 73 03 3e d7 a3 6c bb
       -0.014160353 0.0924584 0.12836939 -0.0036108398
000240 3a f4 10 bd f3 65 94 bd 48 d4 8c 3b 38 43 9e 3c
       -0.035389163 -0.07246008 0.004297767 0.019319162
000250 49 23 59 3c 02 d6 0a 3e 1d d9 71 bd d9 8a a5 3c
       0.013253042 0.135582 -0.059044946 0.02020781
000260 b8 33 cf 3d 30 df 26 3d 76 c9 ac bd 14 95 49 3c
       0.101172864 0.040740192 -0.08436863 0.012303609
000270 21 05 14 3d aa dc 12 bd b9 a2 a4 3d 8c 90 e7 bd
       0.036137704 -0.035854973 0.080388494 -0.11306867
000280 22 1a 24 bd 1d 30 dc 3c 5f 5e d0 bd 93 4b 8b 3d
       -0.040063985 0.026878411 -0.1017425 0.06801524
000290 d6 f4 c4 3d 30 5f 0f 3e ba b2 0a 3b a4 51 00 3e
       0.09617011 0.14001155 0.0021163658 0.12531143
0002a0 ae 2d e4 bd 8f dd 19 bd 7a 30 75 bd 6b 60 8e bd
       -0.11141525 -0.03756481 -0.059860684 -0.06951984
0002b0 c7 18 6d bb 3b 06 bb bd b7 f1 11 be 62 0c 16 bb
       -0.0036178099 -0.09132048 -0.14252363 -0.0022895564
0002c0 3e ca a2 bd d5 84 21 bd 5e e3 ce bb b2 94 ca bd
       -0.07948731 -0.03943332 -0.0063137254 -0.09891643
0002d0 98 4a 1f bd 91 ca bf bc 20 29 09 be 0c e3 34 bd
       -0.038889498 -0.02341202 -0.13394594 -0.04416184
0002e0 00 d9 12 be 08 a6 eb bc 88 49 5e 3d 5a 3f 0a be
       -0.14340591 -0.028765693 0.054269344 -0.13500729
0002f0 dc f4 14 3d cf 62 06 be 7a 94 af bd 00 44 f3 bd
       0.03636633 -0.1312363 -0.085732415 -0.11878204
000300 10 02 ce 3c 67 88 0a 3e e4 58 c0 bd 98 b9 2d 3d
       0.025147468 0.13528596 -0.093919545 0.042413324
000310 92 4c 21 bd 6e 69 8b 3d ed 21 48 3c a3 39 9b 3d
       -0.039379664 0.068072185 0.01221512 0.07579353
000320 be 99 83 3d d0 f5 0f ba 5c 21 58 3c 0c ce b8 bc
       0.06425808 -0.0005491646 0.013191547 -0.022559188
000330 7d 78 fb 3c 03 56 79 3d b8 52 68 3b 00 a2 91 bc
       0.030697102 0.060873043 0.0035449695 -0.017777443
000340 01 fa 17 3e 60 35 0a 3e f0 c6 57 bd 19 8f 96 3c
       0.14841463 0.13496923 -0.052679956 0.018378781
000350 ad 7c 39 3d 20 18 1f be 06 bd 1d 3e 7d 97 f3 bc
       0.045284916 -0.15536547 0.15404138 -0.029735321
000360 4e 3f e9 bd 83 ce 4d bd 44 03 c4 bd a5 73 5e 3d
       -0.113890275 -0.050245773 -0.09570935 0.054309506
000370 c3 47 78 bc b1 cb fe bd c8 9e 53 3d 4c ee e9 3d
       -0.015153828 -0.12441195 0.051665097 0.11422405
000380 a4 be 8b bd 7c 71 12 be 1b 64 5d bc 93 86 15 be
       -0.06823471 -0.14301103 -0.013512637 -0.14602117
000390 87 af a9 3c 4e 01 f9 bb 3b f2 86 3a ad 80 9f 3d
       0.02071358 -0.0075990325 0.0010295579 0.07788215
0003a0 76 32 56 bd 27 c0 2e bd 33 8f e2 3b d7 25 bc 3d
       -0.052294217 -0.04266372 0.0069140433 0.09186905
0003b0 e9 be cc bd 83 0d 14 3e ee b1 57 3d cc 9a 27 bd
       -0.09997351 0.1445828 0.05265992 -0.04091911
0003c0 7f 7d 3b 3d fa f7 c5 3d 45 ec 5a 3d 30 91 b9 bd
       0.04577398 0.096664384 0.05344798 -0.090608954
0003d0 d5 c0 16 3d 21 e6 0d 3d d9 14 a1 3c 98 d5 13 3e
       0.036804993 0.034643296 0.019663261 0.14436948
0003e0 32 2e 93 3c 52 c4 19 3c 56 13 1d be 33 27 f5 bc
       0.017966364 0.009385185 -0.15339407 -0.029925918
0003f0 fd e1 e6 bd 5a d8 59 3d 04 12 ce bc 01 f0 1b 3e
       -0.112735726 0.053184845 -0.025155075 0.15228273

fc3.bias f4 [32]
000000 ce ea 5c 3d 60 6e b3 bb c1 ce 91 bd 76 16 9e 3d
       0.053934865 -0.005475804 -0.07119513 0.07719128
000010 f9 8d ad 3d f5 dd 90 3d 10 ec de bb 71 1a 12 bd
       0.08474345 0.07073585 -0.006803043 -0.035669748
000020 14 60 22 bd 52 95 8e bd c8 d6 c0 bd a9 f3 cd 3d
       -0.03964241 -0.06962074 -0.09415966 0.1005624
000030 43 a2 e9 bd fe ef fb bb a8 c1 9f 3d e8 9e 04 3d
       -0.11407902 -0.0076885214 0.07800609 0.032378107
000040 0b 7f ef 3d f2 7d a4 bd 6b 03 13 3c 11 a1 09 3d
       0.116941534 -0.08031835 0.008972983 0.03360087
000050 ef 75 33 3d 76 f8 87 bd 95 d7 dc bd 72 89 70 3d
       0.043813642 -0.06639187 -0.107833065 0.058724828
000060 99 7a 57 3d 40 fc 06 3e 37 d1 56 bd 9b 7d 09 bc
       0.052607153 0.13182163 -0.052445617 -0.008391763
000070 0c 09 f8 3d 90 86 c6 3d a4 8b f1 bc 74 96 c5 bd
       0.121111006 0.096936345 -0.029485531 -0.09647837

fc4.weight f4 [5, 32]
000000 58 72 40 bd 70 47 de bd fd 09 23 3e 7d 2a 1b be
       -0.046984047 -0.10853469 0.15921779 -0.15152927
000010 63 ca ee 3c 8b 01 9e bd 98 79 4c be 20 f0 2f 3d
       0.02914924 -0.07715138 -0.1996826 0.04295361
000020 e3 c4 ed 3d 3e d5 03 bd 6c fd ae bd f0 ec c6 bc
       0.11609819 -0.032185785 -0.0854443 -0.024282902
000030 ba 2c 32 3e 29 d3 9e bd 54 16 ac 3d 26 40 1b be
       0.17399874 -0.07755119 0.08402696 -0.1516119
000040 23 6b 04 be 41 73 16 3e 22 02 a3 bd dc 68 4d 3e
       -0.12931494 0.14692403 -0.07959391 0.20059532
000050 b0 7f 3b 3e 31 4a 49 be 21 80 2b 3e 52 e9 f4 3d
       0.18310428 -0.19657208 0.16748096 0.11958565
000060 15 eb 2c 3e ba 8c 03 3e b6 f4 15 3e 2a 85 be bd
       0.16886552 0.12846652 0.14644131 -0.09302743
000070 0b f5 18 be b4 22 3d be d1 21 13 bb 47 68 52 bc
       -0.14937226 -0.1847027 -0.0022450576 -0.0128422445
000080 76 c0 8f bd 78 18 18 3e 19 45 02 be 0e 07 85 bc
       -0.07019131 0.14853084 -0.12721671 -0.016238715
000090 82 c2 7c bd 50 2e 56 3d 4c 4b 4d bc 81 6d 9e bc
       -0.061708935 0.05229026 -0.012530159 -0.019339325
0000a0 7e d4 6a bd e8 63 1a 3e bf f1 03 be 9b 75 d3 3d
       -0.057331555 0.15077174 -0.12885188 0.10325166
0000b0 a0 1b 14 3e 21 43 22 3e d7 d6 2a 3e 24 b6 46 be
       0.14463663 0.1584592 0.16683517 -0.19405419
0000c0 64 10 e6 3d 48 84 07 3c a8 a5 a2 3d fa b0 99 3d
       0.11233595 0.008271284 0.07941753 0.07504459
0000d0 6f 34 ac bc 15 48 06 be b8 df 61 bc d9 87 d1 3c
       -0.021021096 -0.13113435 -0.013786249 0.025577473
0000e0 b7 e3 fe 3d da 83 1c bd 12 b6 39 3d 18 ec ea bd
       0.12445777 -0.03821168 0.04533965 -0.114708126
0000f0 54 3a 06 be 46 ec ef 3d e1 9e e6 bd a3 78 ec 3d
       -0.13108188 0.117149875 -0.112607725 0.11546447
000100 65 bb c1 3d 6f 9c 98 bb 61 d8 98 3c 9a b2 25 3e
       0.09459571 -0.00465732 0.018657865 0.16181412
000110 d0 87 a5 bc 50 8e 37 be c6 64 bb bd d6 9b ec bc
       -0.020206362 -0.17925382 -0.091500804 -0.028882902
000120 62 d8 70 3b 4b 1d 21 3c 84 a6 6d 3d 57 0d c3 bd
       0.0036750068 0.009833644 0.05802013 -0.09524029
000130 da 08 e0 3d 65 27 dc bd cc 91 7b bd fa 58 d1 3d
       0.10939188 -0.107497014 -0.06141834 0.10222049
000140 0c 7a 42 3e 89 b0 e5 3d 82 4b 31 3e 87 e1 65 bd
       0.1899187 0.11215312 0.1731396 -0.056123283
000150 27 70 44 bd 0c 72 3e be 98 2d 27 bc 40 e2 b4 bc
       -0.04795852 -0.18598193 -0.0102037415 -0.02208054
000160 4a 12 7b bd c7 05 d9 3d bb ef d6 bd 91 cc 0d 3c
       -0.06129674 0.10596805 -0.10494944 0.008654729
000170 6b 4e 67 bc f7 fa 82 bd ec 24 39 be 91 c6 68 3d
       -0.014117817 -0.06395524 -0.18080491 0.056829993
000180 b3 0c 02 be ea 1c e4 3d 87 21 b4 3d b1 79 a0 bc
       -0.12700157 0.111383274 0.08795457 -0.019589277
000190 7d 94 0d be ed fb 10 bc 43 f5 d1 b7 82 89 3c bb
       -0.13826175 -0.008849126 -2.502895e-05 -0.0028768484
0001a0 0b 2c fc bd fa bd 57 be 5a 42 69 3d cb e6 33 3e
       -0.12313088 -0.21068564 0.056948043 0.1756851
0001b0 2b 47 7d bd 2d 22 ef 3d ad 1c 15 3e d6 3b 00 be
       -0.06183545 0.116764404 0.1456172 -0.12522826
0001c0 8a a9 0b be a4 da ee bd 57 95 05 be a0 8c 46 3e
       -0.13638893 -0.11662796 -0.1304525 0.19389582
0001d0 d0 f0 38 3e 3c 5b 35 be fa 6d 76 3d de e0 4b bd
       0.18060613 -0.17710584 0.060163476 -0.049774997
0001e0 d0 0c c7 bd 1e 4b 3f be d4 54 40 bd a6 b6 04 3e
       -0.09719241 -0.18680999 -0.0469559 0.129603
0001f0 66 f0 69 3d 20 4f 35 3c 6f d5 90 bc 3d eb 11 3e
       0.057114027 0.011066228 -0.017679898 0.14249893
000200 c6 3d cc bd 91 fc 27 3e 20 77 14 be d5 ec 60 3e
       -0.0997272 0.1640494 -0.14498568 0.21965344
000210 f0 b3 23 be eb 51 07 3e 45 40 2b 3d 07 48 03 be
       -0.1598661 0.13214843 0.04180934 -0.12820445
000220 cf 7d f7 bd 80 fa 1d 3e 09 23 64 3e 55 69 46 be
       -0.12084543 0.1542759 0.2227899 -0.19376118
000230 ea 57 1a be 02 79 45 be 2f a6 8d bd b5 92 49 3e
       -0.15072599 -0.19284442 -0.06916463 0.1968487
000240 bd 67 8d bd 3f d9 8f bd 43 b7 3c be 0a 4f 7e 3d
       -0.06904552 -0.07023858 -0.18429284 0.062087096
000250 a3 5e 0e be 24 c0 18 3e ac 6f 05 be 70 73 13 be
       -0.13903289 0.14917046 -0.1303088 -0.14399505
000260 83 2c 56 be 25 43 43 3e 98 3f 91 bc da 4c 46 be
       -0.20915417 0.19068582 -0.01773052 -0.19365254
000270 0d 4a 71 3d a1 35 88 bd 17 07 5b 3e 8a bb 44 be
       0.05890851 -0.06650854 0.21389423 -0.19212165

fc4.bias f4 [5]
000000 42 c1 0c 3e 7f e8 5c bd 11 65 91 bc 15 bb 3f 3d
       0.13745597 -0.053932663 -0.017748388 0.046809275
000010 5e b3 dc bd
       -0.10776399
