clean_code/trained_models/actor_652.pth (torch, 54872 bytes, 8 tensors)

fc1.weight f4 [128, 18]
000000 41 8d 20 3e c3 1b b1 3d 08 2b 22 be 48 82 43 3e
       0.15678884 0.08647873 -0.15836728 0.19092667
000010 87 38 fb 3d b8 d4 86 bd ae 57 f5 3c 3b 5e cd 3c
       0.12266641 -0.06583542 0.029949035 0.025069347
000020 7f 0b c1 3d a6 3e 93 bd f8 09 16 be 67 66 98 3b
       0.09426021 -0.071896836 -0.1465224 0.004650879
000030 97 a9 5e 3e e2 46 a9 3d d3 66 19 3e 15 f4 e9 3c
       0.21744381 0.08265473 0.1498063 0.02855877
000040 ef 73 6b be 70 c4 82 3e c0 40 0f 3e f6 82 28 3e
       -0.22993444 0.25540495 0.13989544 0.16456208
000050 c7 ff a1 3d 79 32 a3 bd 43 8c 8c 3d d8 bf 9b bc
       0.07910114 -0.07968611 0.0686269 -0.019012377
000060 c5 f6 14 3e d5 ce 51 3e 42 ec c6 3d bb 82 15 3d
       0.1454726 0.20489056 0.09713031 0.036501627
000070 39 90 16 3e 4a dc 13 3e 57 8f 2a be 24 32 0c be
       0.14703454 0.14439502 -0.16656242 -0.13691002
000080 cb db ba bd 63 aa 63 3d 68 f6 28 be a6 06 28 3d
       -0.091239534 0.055582415 -0.16500247 0.041021965
000090 54 71 1c 3e 45 ee b2 3d 44 60 19 be d7 23 7e 3d
       0.15277606 0.087368526 -0.14978129 0.0620459
0000a0 e7 5d 36 be 4b 63 07 3d bb 44 46 3e d5 a4 1d 3e
       -0.17809258 0.033053678 0.19362156 0.1539491
0000b0 9e 68 7d bd 69 02 36 be 96 40 d6 bd 06 a8 36 3e
       -0.06186735 -0.17774357 -0.104615375 0.17837533
0000c0 1c e1 85 3e 82 69 c5 3d 76 26 84 3d 1b fd df bd
       0.26148307 0.09639265 0.06452648 -0.10936948
0000d0 ab 65 4d 3e 57 05 65 3d af ed 02 3e 7b c6 1e bd
       0.20058315 0.055913296 0.12785982 -0.038763504
0000e0 ab 94 2d 3e fc 0c d6 3c 30 99 3b be 06 13 0a be
       0.16951244 0.026129238 -0.18320155 -0.1348382
0000f0 30 dd 44 be 9a f2 40 be 50 4a fe bd 6f 7d 2b 3e
       -0.19225001 -0.18842545 -0.12416518 0.16747068
000100 9c c1 c7 3d 4c ab d5 bd 50 79 55 3e 77 19 3e 3e
       0.09753725 -0.10433063 0.20847058 0.18564402
000110 ca 3d b4 bb 8d 99 3e be e6 3d 2b 3e 22 22 84 bd
       -0.00550053 -0.18613262 0.16722831 -0.06451823
000120 8f e1 9a bd 0b c1 6e 3e cf b4 17 bd 97 10 50 be
       -0.07562553 0.23315828 -0.037037667 -0.20318829
000130 27 0a 5a 3e e2 8d 22 3e c6 76 c5 bd 0b a0 85 3e
       0.21292935 0.15874436 -0.09641795 0.26098666
000140 59 66 e7 bc d8 d8 18 3d 08 30 86 3d ad ce ca 3d
       -0.028247045 0.037316173 0.0655213 0.099027015
000150 77 2c cb 3c f4 29 06 be b1 84 78 3e 68 59 2a 3e
       0.024801476 -0.13101941 0.24269368 0.16635668
000160 80 c2 0f be a9 64 59 3e f8 6f cc 3d 0a 55 6a bd
       -0.1403904 0.21229805 0.09982294 -0.057210006
000170 cf b2 01 3d d0 4c 3e 3e cd 15 71 3e 5e ea f6 bc
       0.031664666 0.18583989 0.23543473 -0.030141052
000180 ce 56 b0 bd 57 d4 10 bc b1 0c bc 3d 06 15 3c be
       -0.08610307 -0.008839688 0.09182108 -0.18367395
000190 cd e7 c0 bc 44 30 22 3e 36 73 36 be df ba 52 3e
       -0.023548031 0.15838724 -0.17817387 0.20579098
0001a0 8c 4b 24 be ee 62 4b 3e 48 ef 60 3d a7 09 54 3e
       -0.16044444 0.19861957 0.054915696 0.20706807
0001b0 0d 57 10 3e 68 57 7d be 2b e9 17 3e 0f f1 08 be
       0.14095707 -0.24740374 0.1483504 -0.13373207
0001c0 9c 1d c0 3d 41 f3 2f 3e d6 43 34 3e 81 7b a2 3d
       0.093806475 0.17182638 0.17604002 0.07933713
0001d0 92 50 36 be 5e a2 3e ba 5e d1 68 be 73 f1 cd bc
       -0.17804173 -0.00072721194 -0.22736117 -0.025139546
0001e0 a8 18 65 be 60 a7 1f bc 2c da 04 be 2d e0 5f 3d
       -0.22372687 -0.009744495 -0.12973851 0.05465715
0001f0 ee 5c 76 be 7e 7a 06 bc 89 40 f8 3c f2 29 1d 3e
       -0.24058887 -0.008207915 0.03030421 0.15348032
000200 69 ec 55 be 6f 39 56 be cc 4b 09 be be 0b b4 3d
       -0.20890965 -0.20920347 -0.1340782 0.08791302
000210 1e 2a 54 3e c9 d4 01 be dd 11 33 3e 4d d8 41 be
       0.20719191 -0.12678827 0.17487283 -0.18930168
000220 76 9b 30 3e 40 f0 36 3e ca d0 af bc c8 f3 c9 3c
       0.17246804 0.17865086 -0.021461863 0.024652377
000230 f6 ae 14 3e 0f 67 a9 3a 39 85 3e 3d d9 0d 19 be
       0.14519867 0.0012924391 0.04651377 -0.14946689
000240 f7 b5 e5 ba 39 bb ae bd 6b 2e 86 bd 54 51 2d 3e
       -0.0017525543 -0.08531804 -0.06551822 0.16925555
000250 d1 87 87 bd 03 38 70 be ae d9 d3 bd 2d 9f 41 be
       -0.06617702 -0.23458867 -0.103442535 -0.18908377
000260 2b 9d 0d 3c ea c3 59 be 3a 1b d1 bd dd 02 7e be
       0.008643429 -0.21266142 -0.10210271 -0.2480578
000270 80 aa 22 3e 97 ab 57 be 4b bf d8 bd 02 08 3d be
       0.15885353 -0.2106155 -0.10583361 -0.18460086
000280 fa 3b 2f 3d 81 ef 1e 3e 86 95 1c 3e 83 44 63 3e
       0.042781807 0.15521051 0.15291414 0.22194104
000290 07 e7 61 3e c8 2a 94 bd f5 9f f8 3d 78 ef 61 be
       0.22060786 -0.072347224 0.121398844 -0.22064006
0002a0 02 ed 65 3e c1 60 12 3e 78 c1 85 bd a0 0f 4d 3e
       0.22453693 0.14294721 -0.06531042 0.20025492
0002b0 de b5 cc 3d f8 0d 6d 3e 35 93 29 3e 4f ba f4 bd
       0.09995626 0.2314986 0.16560061 -0.11949598
0002c0 3d ee 88 bd ec f6 56 3e d3 9b 39 be ff 8e bf bd
       -0.06686065 0.2099263 -0.18125848 -0.09353446
0002d0 d8 3f f4 bd 57 fe 44 be 37 ea 18 be 45 04 44 be
       -0.1192624 -0.19237648 -0.14933096 -0.19142254
0002e0 3c de c7 3d 21 6e cb 3d eb a7 1e bc 80 4e dd 3d
       0.09759185 0.09933115 -0.009683589 0.10805988
0002f0 ee 76 73 3c b4 df d7 3c 9c 5a aa bc 0d 99 8d 3d
       0.014859898 0.026351787 -0.020795159 0.06913958
000300 f9 a7 39 be f0 c4 6e bd 51 59 64 be 7d 67 2f be
       -0.18130483 -0.058293283 -0.22299697 -0.17129321
000310 1c 01 03 3e 68 11 09 3d 37 07 51 bd 1f cb 48 3e
       0.12793392 0.033463866 -0.05103227 0.19608735
000320 93 69 f9 bc 4a c9 f9 bd 44 91 f0 bd d9 67 4e 3e
       -0.03044585 -0.12196596 -0.11746457 0.20156802
000330 1c f5 9d 3d bc ac 42 3e a1 9f 2a 3d 6a 78 9e bd
       0.077127665 0.19011205 0.04165614 -0.07737811
000340 98 f0 fb 3d a0 90 de 3d f2 bc 54 ba 68 11 09 bd
       0.12301749 0.10867429 -0.0008115313 -0.033463866
000350 03 c7 cb bd 93 18 f8 3d be 19 35 be 4d 30 6c 3e
       -0.09950068 0.12114062 -0.17685601 0.230653
000360 1d 92 d5 bd 0a c5 af bd 0c 4d 10 3e 57 6d e7 bd
       -0.104282595 -0.08582504 0.14091891 -0.11300152
000370 96 9a 57 be 63 6e 32 bd 6f 6f 5b be d9 1f 8f 3c
       -0.21055064 -0.043562304 -0.21429227 0.01747124
000380 cc 1b 42 be 92 c6 30 be 2b ac 24 bd d4 ba 3b 3e
       -0.18955916 -0.17263249 -0.040203255 0.18332988
000390 08 2b 12 be c0 57 4c bb f6 34 9a 3d e0 a1 de bd
       -0.14274228 -0.0031180233 0.07529633 -0.10870719
0003a0 af 58 13 3e 04 fe 17 3e 95 dd 88 3e f5 c9 b6 bd
       0.14389299 0.14842993 0.26731554 -0.08925239
0003b0 fd 5a 8f 3d 2a 82 5e bd 4b 32 a4 3c 84 f1 73 3d
       0.069997765 -0.054323353 0.020043513 0.0595565
0003c0 ba 3f 5a 3e 86 0f 60 3e 3e d3 30 3e b4 b3 75 3e
       0.21313372 0.21880922 0.17268082 0.23994333
0003d0 38 16 01 bd b8 65 79 3d 7e 1d 38 be 6f ac fc bd
       -0.03151533 0.060888022 -0.1798 -0.123375766
0003e0 1f e1 9d 3c 34 9d fa 3c 26 1c b9 bc 37 a2 a5 bd
       0.019272385 0.030592538 -0.02259643 -0.08087581
0003f0 36 96 62 3e 34 e1 66 bd df 46 84 39 66 6e fb 3c
       0.22127613 -0.056367114 0.00025229805 0.03069229

fc1.bias f4 [128]
000000 c6 23 1a 3e 64 31 22 3e 22 87 25 3e 4d 8e 3b 3e
       0.15052709 0.15839154 0.1616483 0.18316002
000010 3b ad b9 3c 56 b6 a1 3d 7c 14 30 3d b2 c5 c7 bd
       0.02266561 0.07896106 0.042988285 -0.09754504
000020 9a 6b db 3d 12 51 39 be ee b1 5c be 16 5c 73 3e
       0.10713883 -0.18097332 -0.2155225 0.23765597
000030 06 fa 20 3e d3 d4 77 bd 6f db b1 3d 29 1e 6c 3e
       0.15720376 -0.0605057 0.08684432 0.2305838
000040 97 3b 3a 3c 45 ec 56 3e eb c9 21 be c1 fa c7 3d
       0.011366746 0.20988567 -0.15799682 0.097646244
000050 28 81 36 3e 19 66 ab 3d b2 44 21 be 69 0d d7 3c
       0.17822707 0.08369083 -0.15748861 0.026251512
000060 20 35 54 be 48 d5 d9 3d e8 1a 95 3c e2 58 40 3e
       -0.2072339 0.10636383 0.018201306 0.18783906
000070 c8 78 b1 bd a1 d9 83 3d 0b ef b1 bb 8f 71 47 be
       -0.08665615 0.06437994 -0.0054301075 -0.19476913
000080 d6 4d 70 3d d8 7f 7d 3e 94 4e c0 3d 30 0f bb bd
       0.05866798 0.247558 0.093899876 -0.09133756
000090 f9 81 eb bd 26 17 48 3c b5 7c 89 3e 25 fa 1d be
       -0.114994 0.01221255 0.26852956 -0.15427454
0000a0 1b ff 96 3c 92 7b 41 3e 4b 44 2e be 78 3d 7f 3e
       0.01843219 0.18894795 -0.17018239 0.24925792
0000b0 1f ac a4 bd 69 48 50 3e 2b 15 86 3e 9e 53 2c 3e
       -0.08040642 0.20340122 0.26188025 0.16828772
0000c0 8b 86 83 3e 0f 0f 13 be 42 f5 db 3d 5b 85 54 bd
       0.25688586 -0.14361213 0.107401386 -0.05188499
0000d0 84 bf 1a be 26 25 87 be 8a 01 41 bd e8 21 88 3e
       -0.1511212 -0.2639553 -0.04712061 0.26588368
0000e0 5f f0 98 3c 1d 67 7b 3e e9 81 3f be 8f 1e 0d bc
       0.018669305 0.24551053 -0.187019 -0.008613243
0000f0 ce 9c 49 bd 8a 1d 80 3e 3f 97 a1 3c f6 97 1e be
       -0.049221806 0.25022537 0.01972544 -0.15487656
000100 d8 9e ea 3d b4 89 5e be 87 76 b1 3c 5c 4a ba 3d
       0.11456078 -0.21732217 0.021662964 0.09096214
000110 5e 34 90 bd 4f 32 29 3e be 03 82 3e 9c 02 a1 3d
       -0.07041238 0.16523097 0.2539348 0.07861826
000120 eb 6f 0d be 8b 23 5a 3d 54 9e 32 be 5a e5 17 3e
       -0.13812225 0.053256553 -0.1744321 0.14833584
000130 c9 ee 34 3e 16 73 4d bc 97 e5 60 3e 34 7d 14 3e
       0.17669214 -0.012539646 0.21962582 0.14500886
000140 eb be 53 3d b0 26 26 be c7 08 77 be 76 ab 28 be
       0.051695745 -0.16225696 -0.24124442 -0.16471657
000150 21 d7 c1 3d 6d b9 09 3e 10 00 bb bd e8 31 85 bd
       0.09464861 0.1344964 -0.09130871 -0.065036595
000160 62 0f de bd 50 03 1a 3b a9 3b 0a 3e 67 34 8f bc
       -0.10842778 0.002350051 0.13499321 -0.017481042
000170 12 99 ba 3c 43 83 68 3e 70 a4 4c 3e 28 de 88 be
       0.022778068 0.22706322 0.19984603 -0.26731992
000180 16 c3 ea 3d 48 b3 55 be 88 e5 4e be f3 82 43 3d
       0.11462991 -0.20869172 -0.20204747 0.047732305
000190 ab 8a 27 3e fb d5 4b be ad 00 22 3e e8 41 72 bd
       0.16361491 -0.19905846 0.1582057 -0.059144884
0001a0 7d eb 09 3e 79 ae 54 3e c6 e0 11 3d a6 53 25 be
       0.13468738 0.20769681 0.03561475 -0.1614519
0001b0 37 2b 27 3e 4e a7 0a 3e e2 13 c0 bd 19 d9 01 bd
       0.16325079 0.13540384 -0.09378792 -0.03170118
0001c0 be ad 15 bc 62 2e 5d 3e 77 48 2a be 0b 1b 81 3e
       -0.009135662 0.21599725 -0.16629206 0.25215945
0001d0 13 6f 12 be 0e 8e 2f be 64 3a 25 be 3d 5b 5b 3e
       -0.14300184 -0.17144033 -0.16135556 0.21421523
0001e0 3a 92 81 3d 0d 14 f6 3c d4 80 30 3e 57 f1 72 3d
       0.06326719 0.030038858 0.17236644 0.05931219
0001f0 9c 17 71 be ce 27 38 3e b8 74 ba 3d e5 57 15 be
       -0.23544163 0.17983934 0.091042936 -0.1458431

fc2.weight f4 [64, 128]
000000 0d 4f 93 3d 69 10 f6 bc 01 c0 b8 3c f7 57 98 bb
       0.07192812 -0.030037122 0.022552492 -0.004649158
000010 85 8a 65 3d 1d cf 5e 3d 50 4a 6f 3d 39 19 3b 3d
       0.056040306 0.054396737 0.05842048 0.04567835
000020 cb 6b f9 3b 28 5a d9 bc 0c 01 4b 3c 2c c9 98 3d
       0.007611727 -0.026532248 0.012390386 0.074602455
000030 25 dc f5 bc 22 97 66 3b e9 b1 16 3d d6 8f bb 3c
       -0.0300122 0.0035185297 0.036790762 0.022895735
000040 28 c1 02 3c a4 0d 06 3c ad 41 2e bd bc 7d 10 3d
       0.007980622 0.008181963 -0.042543102 0.03527616
000050 5d 7e 06 3d 5f 6a bd bd d3 9f 63 3d 73 a5 6e bd
       0.032835353 -0.09248804 0.055572342 -0.058263253
000060 ec c1 a2 3d 38 de d7 3c b8 78 71 bb 85 5c a9 3d
       0.07947144 0.02635108 -0.0036845636 0.082696
000070 17 bd ee bd f4 58 75 bc e4 c3 49 3d 75 78 41 3d
       -0.1165716 -0.014974821 0.04925908 0.047234017
000080 d4 e4 20 bd 01 e8 28 3d 06 a6 97 bd ca 48 b4 3d
       -0.039280728 0.04123688 -0.07404713 0.08802946
000090 51 48 82 bd 11 fb 2e bc 47 f5 2d bc be aa 8e 3d
       -0.063614495 -0.010679976 -0.010617561 0.0696616
0000a0 b3 34 ce 3d 79 25 1f 3d e0 0b 54 bd 9e bc e9 3a
       0.10068645 0.038854096 -0.051769137 0.0017832702
0000b0 7c 15 d1 bd 40 58 d1 3d 4d 41 e3 3c 6e 64 37 bc
       -0.10209176 0.102219105 0.027741099 -0.011193378
0000c0 47 90 5c 3d 58 73 92 3d 11 50 dc 3b 96 f6 88 bd
       0.05384853 0.07150906 0.006723412 -0.066876575
0000d0 6b bd eb 3c b2 73 65 bd 83 65 75 3d 09 17 f0 bc
       0.028776845 -0.05601854 0.059911262 -0.029307859
0000e0 50 d7 97 bc 56 e5 a8 bc 39 e4 93 bd 35 37 b7 3c
       -0.018535286 -0.020617168 -0.072212644 0.022365192
0000f0 e7 8f b5 3d 54 49 5a bd f5 26 67 bd 3c 05 29 3d
       0.08865338 -0.053292587 -0.056433637 0.041264758
000100 b1 71 12 3d 59 20 ea 3c 74 61 9e 3d e9 37 93 bd
       0.035752956 0.028579878 0.077334315 -0.071883984
000110 94 eb 77 bd 7a 47 75 bd 56 a5 a2 3a 64 49 84 3d
       -0.0605274 -0.05988262 0.0012408893 0.06459311
000120 17 da 45 bd 72 a7 94 bc 7f d1 63 3c 41 5c 3f 3c
       -0.04830369 -0.01814625 0.013904928 0.01167971
000130 e2 b5 79 3d 8d 65 0b bd 42 40 cb 3d 90 bb a1 3d
       0.060964473 -0.034032393 0.099243656 0.07897103
000140 e6 7a a5 bc a1 2c 2c bd 30 59 ba bd d4 73 80 bd
       -0.020200204 -0.04203475 -0.090990424 -0.062720925
000150 28 cb a6 3b 92 90 b1 bd 50 66 e2 bd 9f 24 4d 3d
       0.005090136 -0.08670153 -0.11054671 0.050083753
000160 81 43 a5 bd ac fb 32 3d d9 cc 32 3d 59 87 86 3d
       -0.08069516 0.043697044 0.04365239 0.06568784
000170 a9 f4 82 3c e4 3a e7 ba bc 7e 00 3e e8 5b 69 bd
       0.015985804 -0.0017641452 0.12548345 -0.056972414
000180 a4 35 8e bb d3 8e 14 ba 98 0e e5 bd e8 b2 31 3d
       -0.0043398906 -0.00056670344 -0.11184424 0.04338351
000190 54 5c 9c bc 5f ad 43 3c 6b 81 d9 3c bd 1d bc bc
       -0.019086994 0.01194319 0.02655097 -0.022963399
0001a0 01 35 04 3d d5 c7 f6 bc 8b d7 6d bc 3b 82 ad bd
       0.03227711 -0.030124584 -0.0145167215 -0.08472105
0001b0 36 f7 05 bd 09 8e 02 bd 90 c7 dd bd cd 03 5c bd
       -0.03270646 -0.031873737 -0.10829079 -0.053714562
0001c0 09 db 3c bd 73 c1 39 3d ad 52 76 bc 4e ca ac 3d
       -0.046107326 0.045350503 -0.01503436 0.08437024
0001d0 52 38 bc bd 98 6a 0a 3d 7e 48 ab bd e0 bb 83 3d
       -0.0919043 0.033793062 -0.08363436 0.06432319
0001e0 04 2c 94 3d ca 73 21 3d ec 86 e6 3c a1 8a 59 bd
       0.07234958 0.039417066 0.028140508 -0.053110722
0001f0 e2 93 16 3d 8f 82 c9 3d 0b 67 7c bc 9a 44 aa bc
       0.036762126 0.09839355 -0.015405427 -0.020784665
000200 b4 a6 d0 3d 6c 48 cd 3d a0 da e0 3d 6f 88 8e bd
       0.10188046 0.10023579 0.109791994 -0.069596164
000210 f5 82 99 3d 96 5a 3a 3c 8c af 99 bd 8a 24 c1 3d
       0.07495681 0.011374136 -0.07504186 0.094307974
000220 ac b3 66 bd 75 da 39 bc c0 0e b7 bd 00 c6 8b 3c
       -0.056323692 -0.011343588 -0.0893836 0.017062187
000230 66 6d fa bc 6d fd ce 3d 5e 79 51 3d 8f ea 8f 3d
       -0.030569743 0.10106931 0.051141135 0.070271604
000240 a8 b0 5f 3d e1 42 54 3d e2 50 89 3d 7b 99 22 3d
       0.054611832 0.051821593 0.0670488 0.03969715
000250 37 02 20 3d b2 98 92 bd d3 a5 f6 3c 94 f2 7a bd
       0.039064612 -0.071580306 0.030108368 -0.061266497
000260 21 51 d9 bb 86 26 6d bd e5 7b ba 3d 53 4a ca 3c
       -0.006631986 -0.057898067 0.09105662 0.024693644
000270 bd a2 e7 bd b8 26 c9 bd 71 c6 89 3d c2 5e 2c 3d
       -0.11310337 -0.09821838 0.06727303 0.042082556
000280 53 d9 ce 3d 5b 2c 05 3d 28 8c cc 3c 27 1e af 3c
       0.10100045 0.032513004 0.024969175 0.021376682
000290 46 d6 dd bd 29 ee 5c 3d eb 72 16 bd a2 12 9d 3c
       -0.10831885 0.053938065 -0.036730688 0.019173924
0002a0 99 03 71 bd ce c0 74 bb 9a 4e b5 3c 59 fc 21 bd
       -0.05884132 -0.0037346366 0.022132207 -0.039547298
0002b0 6b ff d1 3c b8 80 8c 3d e9 f6 e9 3c 12 d2 06 3d
       0.025634488 0.06860489 0.028560119 0.032915182
0002c0 87 65 8d 3d 91 78 93 bd 0c ff d8 3d b1 17 18 bd
       0.069041304 -0.072007306 0.10595521 -0.03713197
0002d0 43 df 55 3d 4b 3e a3 bd e2 64 9d bd 46 bd 86 3d
       0.052214872 -0.07970866 -0.076852575 0.0657907
0002e0 59 46 9e 3c c6 25 df 3d 16 b0 07 3d cd b6 61 bd
       0.019320654 0.108958766 0.033126913 -0.055105973
0002f0 02 f7 72 3d dd 01 a1 3d 88 df d9 3c d2 fa e3 bc
       0.059317596 0.078616835 0.026595846 -0.027829561
000300 de a9 e0 ba a4 98 8e bd 6d 1f 9d 3d 3c 28 01 3d
       -0.0017140468 -0.06962708 0.076720096 0.03153251
000310 94 ba 92 bc b0 da 8b 3d 48 d6 46 bd 5c 3c 88 3d
       -0.017911233 0.06828821 -0.0485442 0.06652138
000320 d1 bd 7c bb 82 45 7c bd 65 1d af bc 91 33 f7 b9
       -0.0038565288 -0.061589725 -0.021376321 -0.0004714993
000330 d7 19 91 bd 7f 71 04 bd e7 6d bf 3b 08 11 8d 3d
       -0.07085007 -0.0323348 0.005841959 0.06888014
000340 e7 f5 af bd 42 02 ff bc b2 bf 4f 3d 33 bc a1 bd
       -0.08591824 -0.031129006 0.050719924 -0.07897224
000350 62 99 e9 3b 2a d0 06 3d 32 c7 ee 3c 8a ba 34 bd
       0.0071288804 0.032913364 0.029147718 -0.04412321
000360 25 59 b4 ba 7c 83 15 bd b7 99 48 bc 1c 76 3f 3d
       -0.0013759477 -0.036502346 -0.01224368 0.046743497
000370 ba 62 0a 3c 0c 09 b3 3d ed d9 b2 3d cd ca 1e 3d
       0.00844639 0.0874196 0.08732972 0.038767625
000380 5b 0a 75 bd 88 26 02 bd 97 bd 43 bd 48 d7 cd 3c
       -0.05982433 -0.031775028 -0.04778823 0.025127068
000390 a4 96 03 3d 49 38 e0 bc 4e 59 85 3d 72 50 80 bd
       0.032126084 -0.027370589 0.06511174 -0.06265344
0003a0 50 94 7a bd f4 4c 36 bc 0a 6f 8d 3b 50 ce 4d bd
       -0.061176598 -0.0111267455 0.0043162154 -0.050245583
0003b0 99 d6 81 3c 1c 18 37 3d d8 b8 a3 bd 2c 26 c3 3d
       0.015849398 0.044700727 -0.079942405 0.09528765
0003c0 8e 98 ab 3c 33 ea 1a bd da d3 99 3d 9b dc fa 3c
       0.020946767 -0.037821006 0.075111106 0.030622771
0003d0 a7 13 ed bc df b1 c9 3d 70 55 e0 3c 12 07 84 3b
       -0.028940035 0.09848379 0.02738449 0.004029163
0003e0 19 63 61 3d bf 8d fe 3c aa c2 b5 bc 86 c8 8b bc
       0.055026148 0.03107345 -0.02218755 -0.01706339
0003f0 26 93 00 bd 75 3b 2d bd 55 2b ea 3c 48 29 f4 3b
       -0.03139033 -0.04229303 0.028585115 0.00745121

fc2.bias f4 [64]
000000 5f fd ff 3c 72 86 0a 3c 5f 2f 62 bd 54 7a 3a 3d
       0.031248746 0.008454906 -0.055220958 0.045526817
000010 7c 74 ba bd 9a 68 c6 bc 02 00 03 3d 37 a1 c2 3c
       -0.09104249 -0.0242198 0.03198243 0.023758514
000020 46 20 d2 3d bf 49 d5 bd f1 86 be 3c 70 27 51 bd
       0.10260062 -0.104144566 0.023257704 -0.051063
000030 01 48 4f bd 65 c6 8e bc 0b cf e4 3c f5 33 63 bd
       -0.050605778 -0.017428586 0.027930757 -0.055469472
000040 0b b3 db 3d a7 08 49 3c 4a 42 7f ba 31 20 25 3d
       0.10727509 0.012270129 -0.0009737356 0.040313903
000050 65 30 89 3c fd 80 89 bd 44 b0 81 3c 61 8d 61 bd
       0.01674671 -0.06714056 0.01583112 -0.05506647
000060 28 2b ad bd 82 9e 2b bd c7 5b ca bd 5f 72 a8 bd
       -0.08455497 -0.04189921 -0.098807864 -0.082249396
000070 78 57 f4 ba 5d 8a 81 3c a0 c7 4e 3b 21 3b 61 bd
       -0.001864179 0.015813047 0.0031552091 -0.05498803
000080 6c 75 af 3d 15 3f 9a bd 4e 37 94 bd cc d8 91 bd
       0.08567318 -0.07531563 -0.07237111 -0.07121429
000090 b1 f9 52 bd d2 d0 af bd 07 53 c1 3c b2 0c 82 bd
       -0.051507656 -0.08584751 0.02359916 -0.06350078
0000a0 5c 59 37 3c bf fb 41 3d dc be 20 3d 70 a2 82 bd
       0.0111907385 0.047359224 0.039244518 -0.06378639
0000b0 69 31 99 bc cd 2c cd 3c 11 aa df 3d df 60 aa 3c
       -0.018700318 0.025045777 0.109211095 0.020798145
0000c0 5e b1 3d 3d a1 3c b8 bd 9f 49 84 bd 26 13 01 3a
       0.04631173 -0.08995939 -0.064593546 0.0004923813
0000d0 55 f5 95 3c 29 59 97 3c 6e 89 6f bd 2d d8 03 3d
       0.01830546 0.018475132 -0.058480673 0.032188583
0000e0 84 4a 08 3d d0 a9 2d 3c ef 77 ce bd 32 1b cf 3d
       0.03327419 0.0105995685 -0.10081469 0.10112609
0000f0 bf cf 86 bc 4d 43 c8 3d 79 af 9c 3b ed 03 3d bc
       -0.016456483 0.097784616 0.00478166 -0.0115365805

fc3.weight f4 [32, 64]
000000 ca c5 07 be ba 21 1b bd 4b 55 90 bd 63 6d 10 3e
       -0.13259044 -0.03787396 -0.07047518 0.14104228
000010 92 f1 b5 bd d7 67 03 be 6a a7 44 3d ce bd 05 be
       -0.088839665 -0.1283258 0.04801122 -0.13060686
000020 6a a3 4e 3d 42 cb 1a bc 04 46 12 3e 55 c2 15 bb
       0.050448813 -0.0094478745 0.14284521 -0.0022851427
000030 c6 ec 4c bd 60 3e 99 bd 3b 97 e5 bc 83 8c c9 bd
       -0.050030492 -0.074826 -0.028026214 -0.098412536
000040 cb 06 3b bd 9d e6 a3 bd be c7 a3 bb 71 c8 00 3e
       -0.045660775 -0.0800297 -0.0049981764 0.12576462
000050 a2 56 10 bc 43 83 8f 3d 24 b7 54 bd f1 75 80 3d
       -0.008809717 0.07007458 -0.05193247 0.062724955
000060 1f cb a1 bd 1b af 20 bd 8e ba aa 3d 33 6e a6 3c
       -0.079000704 -0.039229494 0.08336364 0.020316219
000070 2c a3 7b 3d 3c ea c8 bd 9c 4a 08 be e4 19 06 3e
       0.06143491 -0.09810302 -0.13309711 0.13095814
000080 5f 2d 49 bd 2c ca 92 bd 13 fa b2 3d c3 1c ca 3d
       -0.049115535 -0.071674675 0.08739104 0.09868767
000090 92 9d f8 3d df ec a8 3d b4 ce ef 3c 4d 8b e0 3d
       0.12139429 0.082483046 0.029273368 0.109640695
0000a0 35 09 de bd 00 19 e0 3d 72 36 b1 3d 1a 89 62 3d
       -0.108416 0.10942268 0.08652963 0.05530653
0000b0 8b 48 d2 bd dc ae d3 3d fa eb 13 be 4a af 00 3e
       -0.10267743 0.10336086 -0.14445487 0.12566867
0000c0 13 f1 ef bd 8f 54 a7 3d ff 16 b1 bd 78 9c 15 be
       -0.11715903 0.08170425 -0.08646964 -0.1461047
0000d0 7a 10 cb 3d c0 6c 2f 3c 94 b7 16 bd 43 eb 71 3d
       0.09915252 0.01070708 -0.036796167 0.059062254
0000e0 d8 2e ab 3d 79 d5 86 bd 79 0f 82 3d 7e cd 80 bb
       0.08358544 -0.065836854 0.063506074 -0.0039307466
0000f0 f0 59 9e 3d ae 46 9e bd a6 ae 81 bd e5 41 8d bd
       0.07731998 -0.07728325 -0.0633214 -0.06897334
000100 21 20 31 3d 98 b4 49 3d 25 0e b7 bd 45 c1 2d bd
       0.04324353 0.049244493 -0.08938245 -0.042420644
000110 e7 eb 41 3c 57 b7 c6 3d d1 9b 28 3e 3e e2 18 3e
       0.011836029 0.09702938 0.16465689 0.14930055
000120 06 d5 19 3c d8 3e f6 bd 8e b0 1f 3e ea 4a 59 3d
       0.009389168 -0.12023705 0.15594694 0.05304996
000130 0e 53 33 3d 05 f6 5a 3c 9e 24 00 bc d6 bd 16 3d
       0.04378038 0.01336432 -0.00782123 0.036802135
000140 7b e6 93 3d 4d a7 58 3c eb df 15 3e 52 0c 40 bd
       0.07221695 0.013223481 0.14636199 -0.04688675
000150 53 a6 51 3d 48 c3 e4 3c 67 01 b1 3d 5c 2e 9c bc
       0.05118401 0.027925149 0.086428456 -0.019065075
000160 80 de 6a 3c 01 31 fc bd 1f 06 6a 3d 62 2b ab bd
       0.014335275 -0.12314034 0.057134744 -0.08357884
000170 74 8b 23 bc 5f 75 84 bb 1d 8a f0 bd 25 f4 54 3d
       -0.009981979 -0.004042312 -0.11745093 0.051990647
000180 38 50 22 3d 1d ae 22 3d 82 73 0d 3d 77 b3 39 bd
       0.039627284 0.03971683 0.034533985 -0.045337167
000190 67 7d 85 bb 7b 9c 1c be 95 64 22 3e 73 8b 0e be
       -0.004073787 -0.15294068 0.15858681 -0.13920383
0001a0 df 71 aa 3d 08 05 48 bd 09 16 ac bd 00 76 14 bd
       0.083225004 -0.048832923 -0.0840264 -0.036245346
0001b0 25 9a c0 3c 3d fd cc 3d 1d a1 51 bc b2 27 11 be
       0.023511002 0.10009239 -0.01279476 -0.14175299
0001c0 f6 9b 28 3e 39 48 f0 3c 78 d5 99 3d e2 e8 10 3d
       0.16465744 0.029331313 0.07511419 0.035378344
0001d0 ea c0 21 be b6 48 6a 3d 44 2a fb 3d 4a 88 9e bd
       -0.15796247 0.05719825 0.12263921 -0.07740839
0001e0 fe b4 d6 3c bc 72 02 bd eb 68 17 b9 64 ef e9 3c
       0.02620935 -0.0318477 -0.00014439567 0.028556533
0001f0 cb 55 2a be b9 64 17 3e bd 20 61 3d 40 28 5b bd
       -0.1663429 0.14784516 0.054962862 -0.053505182
000200 92 b6 05 be e4 cc 66 bd 5f ae f5 3d 82 33 0f 3d
       -0.13057926 -0.056347743 0.11996149 0.03496123
000210 70 a9 45 bc d9 86 e1 3c 7b 6b 14 be 0e 22 d6 bb
       -0.012064323 0.02753012 -0.14494126 -0.0065348214
000220 96 d1 de bc 67 af 94 3d 5f b2 7b 3d 2b 65 8d 3d
       -0.027199548 0.07260018 0.061449405 0.06904062
000230 d0 bd 5a bc 50 df bd 3d 3f 52 03 3e 80 42 82 bb
       -0.013350919 0.09271109 0.12824343 -0.0039752126
000240 bc f0 0f bd 15 ed 92 bd 9e e5 9d 3b 9a c1 9c 3c
       -0.03514169 -0.07174126 0.0048186323 0.019135285
000250 62 9c 55 3c 5b 75 0a 3e 42 28 70 bd 8e de a3 3c
       0.013037773 0.1352133 -0.058632143 0.020003583
000260 9e d6 ce 3d b4 fa 24 3d 59 00 ad bd c2 51 47 3c
       0.10099529 0.04027815 -0.08447332 0.012165489
000270 2e 69 16 3d 93 b6 13 bd b8 39 a4 3d 1d ed e6 bd
       0.0367214 -0.03606279 0.080188215 -0.112756945
000280 c7 7a 23 bd 6b 0d db 3c 2e 91 d0 bd 74 a9 8a 3d
       -0.03991201 0.026739797 -0.10183941 0.06770602
000290 5c bd c4 3d ec 3b 0f 3e 47 83 26 3b a7 75 00 3e
       0.0960643 0.13987702 0.0025407837 0.12544881
0002a0 6f e1 e3 bd 27 31 18 bd 44 0d 76 bd f5 b7 8e bd
       -0.111269824 -0.03715625 -0.060071245 -0.06968681
0002b0 63 7f 89 bb b2 7f b9 bd fc 9b 11 be 5c 27 28 bb
       -0.004196094 -0.09057559 -0.1421966 -0.0025658226
0002c0 cb e6 a1 bd f0 0d 22 bd 2b 60 c7 bb 76 22 cb bd
       -0.079053484 -0.039564073 -0.006084462 -0.09918682
0002d0 5b cb 20 bd c7 de ba bc c0 e8 08 be 31 db 33 bd
       -0.039256435 -0.022811307 -0.13370037 -0.04391021
0002e0 ba 85 12 be 6d 01 f1 bc e5 27 5d 3d e0 c0 09 be
       -0.14308825 -0.029419625 0.053993125 -0.13452482
0002f0 93 0d 14 3d 1c a5 05 be 26 5c b0 bd 73 85 f2 bd
       0.036145758 -0.13051265 -0.08611326 -0.1184186
000300 b6 07 c0 3c 0d fe 08 3e b0 80 be bd 8c 9a 37 3d
       0.023441177 0.13378163 -0.09301889 0.04482512
000310 f5 cb 1c bd 4d 7a 82 3d c2 3f 29 3c 92 82 91 3d
       -0.038280446 0.06370983 0.010330142 0.071049824
000320 2a 79 7f 3d 1a 63 d9 39 3a 23 31 3c 21 22 af bc
       0.06237141 0.00041463302 0.010811621 -0.021378579
000330 d4 cf bd 3c 33 3c 70 3d a3 ae 9d 3b d7 ee 81 bc
       0.02317039 0.05865116 0.004812078 -0.015860958
000340 82 a9 15 3e a6 50 05 3e 19 2b 65 bd 64 a0 a0 3c
       0.14615443 0.13019046 -0.055949304 0.01960773
000350 76 b7 3f 3d 2d 18 1d be 11 28 1b 3e d7 c7 e9 bc
       0.04680582 -0.15341254 0.15152003 -0.028537674
000360 d8 f1 e5 bd 92 0c 43 bd 2f 31 c2 bd 46 80 63 3d
       -0.11227769 -0.04761941 -0.09482037 0.055542253
000370 d0 32 96 bc f0 bd fb bd 40 e9 57 3d ce 0c e6 3d
       -0.018334776 -0.12292087 0.05271268 0.11232911
000380 48 3a 8e bd e1 4e 11 be ca cd 53 bc ca 2a 13 be
       -0.0694471 -0.14190246 -0.012927482 -0.14371791
000390 3c 2b b0 3c a0 92 d5 bb 10 f6 0c bb 35 21 9b 3d
       0.02150499 -0.006517723 -0.002150897 0.07574693
0003a0 8a fa 5a bd df 1c 38 bd b4 69 10 3c 38 96 be 3d
       -0.05346159 -0.04494941 0.008814264 0.09305996
0003b0 cc a9 c5 bd 9b 3c 0f 3e c2 0b 4e 3d 38 c8 1f bd
       -0.09651527 0.13987963 0.050304182 -0.039009303
0003c0 6a 1e 30 3d 97 0d c8 3d 3c 16 55 3d a1 91 b6 bd
       0.042997755 0.09768217 0.052023157 -0.08914495
0003d0 06 3a 20 3d 8a 21 ff 3c 26 04 92 3c ad 45 12 3e
       0.039117835 0.031143922 0.017824244 0.14284392
0003e0 59 22 83 3c 41 86 4e 3c cb b2 1a be 46 25 07 bd
       0.01600759 0.012605251 -0.15107267 -0.03299453
0003f0 26 43 e4 bd 10 69 43 3d 4c f1 b9 bc 34 8c 19 3e
       -0.1114562 0.047707617 -0.022698067 0.1499489

fc3.bias f4 [32]
000000 26 d0 5c 3d b0 c9 bf bb a0 a7 91 bd fc ed 9c 3d
       0.053909443 -0.0058529004 -0.0711205 0.076625794
000010 29 a7 ad 3d 1b a6 8f 3d ee ad e7 bb 62 3a 11 bd
       0.08479149 0.07014104 -0.0070702946 -0.03545607
000020 70 36 22 bd eb 96 91 bd db c4 c1 bd 46 65 ce 3d
       -0.039602697 -0.071088634 -0.09461375 0.1007791
000030 a5 84 e9 bd 6f 0f f2 bb fe 99 a0 3d d5 30 02 3d
       -0.11402253 -0.0073870937 0.07841872 0.03178485
000040 8d e1 ee 3d f0 91 a4 bd 20 3f 15 3c 81 4e 0a 3d
       0.11664114 -0.08035648 0.009109288 0.033766273
000050 50 f9 33 3d b1 44 89 bd 64 a7 dc bd 2e f2 70 3d
       0.043938935 -0.06702555 -0.10774115 0.05882471
000060 49 c7 57 3d 0e 93 05 3e 51 2f 57 bd 5f 3f 03 bc
       0.052680288 0.13044378 -0.05253536 -0.008010714
000070 0b fb f7 3d 45 c5 c7 3d bd 22 f6 bc ca 4d c5 bd
       0.121084295 0.09754423 -0.030045861 -0.09633978

fc4.weight f4 [5, 32]
000000 eb 1d 41 bd c0 38 dd bd ae f1 22 3e 2d e2 1a be
       -0.047147673 -0.1080184 0.15912506 -0.15125342
000010 df cb ed 3c 36 4c 9d bd d3 32 4c be 12 64 2f 3d
       0.029027877 -0.07680552 -0.19941263 0.042820044
000020 a9 8d ed 3d e6 54 02 bd 69 39 ae bd 28 14 c8 bc
       0.11599285 -0.031819247 -0.08507044 -0.024423674
000030 5c 11 32 3e 42 16 9f bd 8b ae ab 3d 43 0f 1b be
       0.17389435 -0.07767917 0.08382901 -0.1514254
000040 1c 88 04 be ad 38 16 3e ba 41 a3 bd df 4a 4d 3e
       -0.12942547 0.14670058 -0.07971521 0.20048092
000050 a2 65 3b 3e bf ef 48 be 79 63 2b 3e 07 5f f4 3d
       0.18300489 -0.19622706 0.16737165 0.119321875
000060 28 b3 2c 3e 00 da 03 3e 2a aa 15 3e f2 e3 be bd
       0.16865218 0.12876129 0.14615694 -0.09320821
000070 71 b2 18 be c2 06 3d be ee a8 ff ba bb de 53 bc
       -0.1491182 -0.18459609 -0.0019505301 -0.012931521
000080 37 4d 8f bd 4d 8e 17 3e ef 47 02 be 44 1f 88 bc
       -0.069971494 0.14800377 -0.12722753 -0.016616471
000090 f7 ab 7c bd 54 e5 53 3d 41 2b 53 bc 0c c9 9d bc
       -0.061687436 0.051732376 -0.0128887305 -0.019260906
0000a0 4a 87 6a bd e0 f7 19 3e 24 6c 04 be ce 8e d3 3d
       -0.057257928 0.15035963 -0.12931877 0.10329972
0000b0 48 21 14 3e 74 4d 22 3e c7 fd 2a 3e 00 fe 46 be
       0.14465821 0.15849859 0.16698371 -0.19432831
0000c0 11 8c e6 3d 8d 0c 09 3c 4d eb a2 3d 4f b8 99 3d
       0.11257184 0.008364809 0.07955036 0.07505857
0000d0 39 1d ac bc 40 c0 06 be f4 c0 61 bc 92 2f d2 3c
       -0.021010028 -0.13159275 -0.013778914 0.025657449
0000e0 d4 1f ff 3d 11 05 1e bd 1a 0d 3a 3d 5d ac ea bd
       0.124572426 -0.03857905 0.04542265 -0.11458657
0000f0 52 98 06 be 87 ba ef 3d 77 a6 e7 bd f8 7c ec 3d
       -0.13144043 0.11705499 -0.113110475 0.115472734
000100 03 2b c2 3d 39 62 8a bb a8 51 98 3c 4f dd 25 3e
       0.0948086 -0.004223135 0.018593624 0.16197704
000110 d5 11 a6 bc 38 20 37 be 3f 2f bb bd 11 4c ec bc
       -0.020272175 -0.17883384 -0.09139871 -0.028844865
000120 b0 fe 74 3b d4 2a 24 3c 57 51 6f 3d 42 28 c3 bd
       0.003738325 0.010019977 0.05842718 -0.09529163
000130 d1 e2 df 3d f4 7b dc bd 34 83 7b bd b7 86 d1 3d
       0.10931934 -0.1076583 -0.061404422 0.10230773
000140 b6 a1 42 3e c0 72 e5 3d ff 63 31 3e 5f 1e 66 bd
       0.19007 0.112035275 0.17323302 -0.056181308
000150 23 a2 44 bd 18 02 3e be a0 48 28 bc 58 63 b7 bc
       -0.048006188 -0.18555486 -0.010271221 -0.022386238
000160 ad 5c 7b bd bd f7 d9 3d a9 55 d7 bd 90 f9 07 3c
       -0.06136768 0.106429555 -0.10514385 0.008299246
000170 0d 30 65 bc ab 9e 83 bd 93 96 38 be 90 94 68 3d
       -0.013988507 -0.06426748 -0.1802619 0.056782305
000180 f7 0e 09 be 15 c4 fb 3d 3d f2 ac 3d 82 0a 38 bc
       -0.13384615 0.12293259 0.08444641 -0.011232974
000190 e2 59 12 be 11 18 f6 3a df 7e 04 3c 4f 63 0f bc
       -0.142921 0.0018775483 0.008086889 -0.008751704
0001a0 2b 14 03 be 50 68 4d be 79 f9 88 3d 94 cb 2e 3e
       -0.12800662 -0.20059323 0.06688208 0.17069846
0001b0 79 50 87 bd 9e 96 e6 3d 33 2b 0d 3e 89 20 f3 bd
       -0.06607146 0.11259197 0.1378601 -0.1187144
0001c0 63 44 0f be 42 21 00 be 18 1a 0b be 7e 13 42 3e
       -0.13990931 -0.12512687 -0.13584173 0.18952748
0001d0 8c df 34 3e d7 cf 2a be 92 ba 66 3d ee 4d 6f bd
       0.17663401 -0.16680847 0.05633027 -0.05842393
0001e0 e8 9a d6 bd 06 f4 35 be 12 cf 63 bd 56 b9 fb 3d
       -0.10478765 -0.17768869 -0.0556174 0.122912094
0001f0 a3 b8 84 3d 3d a8 89 3c 03 7b 06 bc 3b 7a 0e 3e
       0.06480529 0.016803855 -0.008208039 0.13913815
000200 79 a5 c8 bd 75 e8 21 3e df 38 13 be 71 1a 5d 3e
       -0.097971864 0.15811332 -0.14377163 0.21592118
000210 49 fe 21 be a0 e7 02 3e 65 24 1d 3d 5e 79 01 be
       -0.15819658 0.1278367 0.038364787 -0.12643954
000220 a4 b1 f4 bd 65 58 18 3e 73 20 5f 3e cb 41 44 be
       -0.11947945 0.1487747 0.21789722 -0.19165723
000230 c2 e8 18 be e4 a7 43 be 44 53 88 bd f4 0b 47 3e
       -0.1493254 -0.19107014 -0.06656507 0.19438154
000240 99 22 8b bd 02 4f 89 bd 58 2b 3b be 74 85 82 3d
       -0.06793708 -0.06704523 -0.18278253 0.063731104
000250 f9 fb 0c be 4d 27 14 3e 63 e9 03 be 4a b5 0f be
       -0.13767995 0.14468117 -0.12881999 -0.14034
000260 f7 5f 52 be 8c 0d 3f 3e c4 1c 61 bc 27 b0 43 be
       -0.2054442 0.18657511 -0.013739768 -0.19110166
000270 17 86 64 3d c5 0c 8b bd d4 0d 57 3e 1d 8a 43 be
       0.05579194 -0.06789545 0.21001369 -0.19095655

fc4.bias f4 [5]
000000 32 cc 0c 3e a0 d5 5c bd e8 4d 91 bc dd 9a 46 3d
       0.1374977 -0.053914666 -0.017737344 0.048487533
000010 d1 c2 dd bd
       -0.10828174
