clean_code/trained_models/actor_993.pth (torch, 54872 bytes, 8 tensors)

fc1.weight f4 [128, 18]
0	0x3e21bea6	0.15795383
1	0x3db4892f	0.08815228
2	0xbe1d8c7b	-0.1538562
3	0x3e44e6d1	0.19228674
4	0x3dfdfe30	0.12401998
5	0xbd840d7c	-0.064478844
6	0x3d003bcd	0.03130703
7	0x3cd65545	0.026163707
8	0x3dc48517	0.095956974
9	0xbd8c1841	-0.068405636
10	0xbe14a96d	-0.14517756
11	0x3bb18005	0.0054168724
12	0x3e5f2e6e	0.21795055
13	0x3da946e2	0.08265473
14	0x3e18b41d	0.14912458
15	0x3d048882	0.032356746
16	0xbe681c00	-0.22666931
17	0x3e82e4e9	0.2556527
18	0x3e1105d7	0.14162384
19	0x3e2b16b2	0.16707876
20	0x3db01e03	0.08599474
21	0xbd9ef80d	-0.07762156
22	0x3d90c37a	0.07068534
23	0xbc8ae3ff	-0.01695442
24	0x3e17161c	0.14754528
25	0x3e5373ab	0.20649593
26	0x3dcc21f0	0.099674106
27	0x3d28addf	0.04118144
28	0x3e18a70d	0.14907475
29	0x3e151a92	0.14560917
30	0xbe29cb1b	-0.16581385
31	0xbe0c3224	-0.13691002
32	0xbdbc0fe9	-0.09182722
33	0x3d6e6923	0.058205735
34	0xbe26f85c	-0.16305679
35	0x3d29a5b7	0.041417804
36	0x3e1d376a	0.1535317
37	0x3db51099	0.088410564
38	0xbe15d3ec	-0.14631623
39	0x3d80cca0	0.06289029
40	0xbe358192	-0.17725208
41	0x3d0ad650	0.03389579
42	0x3e47221b	0.19446604
43	0x3e1e5e54	0.15465671
44	0xbd7911b7	-0.06080791
45	0xbe3374fb	-0.17525093
46	0xbdd48b27	-0.10378104
47	0x3e372428	0.17884886
48	0x3e8607e9	0.2617791
49	0x3dc56982	0.09639265
50	0x3d835578	0.06412786
51	0xbdda1f7f	-0.10650539
52	0x3e508866	0.20364532
53	0x3d662076	0.0561833
54	0x3e02c56f	0.12770627
55	0xbd206b77	-0.039164986
56	0x3e2c5370	0.16828704
57	0x3cd31f73	0.025771832
58	0xbe3bf609	-0.18355574
59	0xbe0a7038	-0.1351937
60	0xbe453b05	-0.19260795
61	0xbe411855	-0.18856938
62	0xbdff28ba	-0.1245894
63	0x3e2abf78	0.16674602
64	0x3dc70898	0.09718436
65	0xbdd63251	-0.10458816
66	0x3e555325	0.20832498
67	0x3e3e1977	0.18564402
68	0xbbaff5e5	-0.005369889
69	0xbe3fd239	-0.18732537
70	0x3e2aa327	0.166638
71	0xbd843df1	-0.06457127
72	0xbd999c34	-0.075004965
73	0x3e6fa942	0.2340441
74	0xbd0c4d7f	-0.034253594
75	0xbe4f543f	-0.20246981
76	0x3e5ac56b	0.21364371
77	0x3e2349a2	0.15946057
78	0xbdc3fea6	-0.09570055
79	0x3e85ecd1	0.2615724
80	0xbce003fe	-0.027345654
81	0x3d219ec9	0.03945807
82	0x3d87a445	0.06623129
83	0x3dcb9a81	0.09941579
84	0x3ccd3aa0	0.025052369
85	0xbe0629f4	-0.13101941
86	0x3e7836f4	0.24239713
87	0x3e2c5b0c	0.16831607
88	0xbe0e0f8b	-0.13873117
89	0x3e598a2c	0.21244115
90	0x3dd2cd11	0.102930196
91	0xbd58da1f	-0.05294239
92	0x3d27c943	0.040963423
93	0x3e41d97e	0.18930623
94	0x3e74a0e1	0.23889495
95	0xbcda9c03	-0.02668572
96	0xbda93cd0	-0.08263552
97	0xbbc30bfb	-0.005952356
98	0x3dc4ddc2	0.096126094
99	0xbe353186	-0.17694673
100	0xbca4db50	-0.020124108
101	0x3e241a20	0.16025591
102	0xbe3505bb	-0.17677967
103	0x3e52badf	0.20579098
104	0xbe25355e	-0.16133639
105	0x3e4e1073	0.20123462
106	0x3d7576ec	0.059927866
107	0x3e5533f7	0.20820604
108	0x3e0fad64	0.14030987
109	0xbe7e16bb	-0.24813358
110	0x3e152145	0.14563473
111	0xbe098e5a	-0.13433209
112	0x3dbee3be	0.09320782
113	0x3e2f5618	0.17122686
114	0x3e33a63c	0.17543882
115	0x3da140fa	0.078737214
116	0xbe371118	-0.17877614
117	0xbb287f90	-0.0025710799
118	0xbe696ce4	-0.22795445
119	0xbcd0dc0e	-0.025495555
120	0xbe655576	-0.22395882
121	0xbc1fa760	-0.009744495
122	0xbe049559	-0.12947597
123	0x3d59222c	0.053011104
124	0xbe77fc91	-0.2421744
125	0xbc0cd5b1	-0.00859587
126	0x3d007962	0.03136576
127	0x3e1e9f73	0.15490513
128	0xbe529265	-0.20563658
129	0xbe550a8f	-0.20804809
130	0xbe081ed8	-0.13293016
131	0x3db66885	0.08906654
132	0x3e5557c3	0.2083426
133	0xbe00c662	-0.12575677
134	0x3e348d0e	0.17631933
135	0xbe3ee437	-0.18641745
136	0x3e31c70b	0.17361085
137	0x3e37901a	0.17926064
138	0xbcac6f0e	-0.021049049
139	0x3cc9f3c8	0.024652377
140	0x3e141cd1	0.14464118
141	0x3b83e80a	0.004025464
142	0x3d46ca1a	0.048532583
143	0xbe18f1f5	-0.1493605
144	0xbb448cf6	-0.0029991246
145	0xbdb28ced	-0.08718286
146	0xbd924488	-0.071419775
147	0x3e2be1f5	0.16785415
148	0xbd8a6275	-0.067570604
149	0xbe71a664	-0.23598629
150	0xbdd6b855	-0.10484377
151	0xbe42d14b	-0.19025151
152	0x3bdd529c	0.0067542326
153	0xbe5e5737	-0.21712957
154	0xbdd3f0a7	-0.10348635
155	0xbe7eabf9	-0.2487029
156	0x3e22425d	0.15845628
157	0xbe57ab97	-0.2106155
158	0xbdd6886e	-0.10475241
159	0xbe4252e1	-0.18976928
160	0x3d20cf35	0.039260108
161	0x3e1eb960	0.15500402
162	0x3e1e1c4f	0.15440486
163	0x3e65b25f	0.22431324
164	0x3e68d931	0.22739102
165	0xbd9010b1	-0.07034434
166	0x3dfcb542	0.1233926
167	0xbe5fe417	-0.21864353
168	0x3e67fc2d	0.22654791
169	0x3e13d113	0.14435224
170	0xbd80c40a	-0.062873915
171	0x3e51b7e7	0.2048031
172	0x3dd0c312	0.10193457
173	0x3e6e51ad	0.23273344
174	0x3e2a3794	0.16622764
175	0xbdf4ba4f	-0.11949598
176	0xbd8abe0b	-0.06774529
177	0x3e5bbd9a	0.21459046
178	0xbe35fe63	-0.17772822
179	0xbdbdef01	-0.09274102
180	0xbdf79992	-0.12089838
181	0xbe472973	-0.19449405
182	0xbe1e1b53	-0.15440111
183	0xbe45cd81	-0.19316675
184	0x3dc44f07	0.09585386
185	0x3dc7dda5	0.09759072
186	0xbc3b33be	-0.0114259105
187	0x3dda2a6e	0.10652624
188	0x3c5077bc	0.012723859
189	0x3cbb0e20	0.022833884
190	0xbcb87b03	-0.022519594
191	0x3d8b9c05	0.06816868
192	0xbe3a7a3c	-0.18210691
193	0xbd6ec4f0	-0.058293283
194	0xbe63601e	-0.22204635
195	0xbe334806	-0.17507944
196	0x3dfe924d	0.124302484
197	0x3d07381d	0.0330125
198	0xbd4c8c47	-0.049938466
199	0x3e4a5079	0.1975726
200	0xbcd40390	-0.025880605
201	0xbdf752ff	-0.12076377
202	0xbdee1dab	-0.116267525
203	0x3e4fa232	0.20276716
204	0x3da06b2e	0.07832943
205	0x3e43b8dc	0.19113487
206	0x3d30ca6b	0.04316179
207	0xbd979451	-0.07401336
208	0x3dfe5f81	0.1242056
209	0x3ddfe4e0	0.10932326
210	0xb9c5ab93	-0.000377026
211	0xbd091168	-0.033463866
212	0xbdccdf1c	-0.10003492
213	0x3dfe62f3	0.12421217
214	0xbe310e07	-0.17290507
215	0x3e6c900f	0.23101829
216	0xbdd5e80c	-0.1044465
217	0xbdb037e0	-0.08604407
218	0x3e0f619f	0.14002083
219	0xbde7c8f9	-0.11317629
220	0xbe57c844	-0.21072489
221	0xbd33254e	-0.04373675
222	0xbe5b9d59	-0.21446742
223	0x3c8ddf49	0.017318385
224	0xbe42565a	-0.18978253
225	0xbe316cb6	-0.17326626
226	0xbd256132	-0.040375896
227	0x3e3ba045	0.18322857
228	0xbe1238a5	-0.1427942
229	0xbb4c57c0	-0.0031180233
230	0x3d9a5f16	0.075376675
231	0xbddf91d7	-0.109164886
232	0x3e12aae1	0.14322998
233	0x3e17f3d8	0.14839113
234	0x3e89abaf	0.26888797
235	0xbdb26d82	-0.08712293
236	0x3d9d1f4b	0.07671984
237	0xbd5783fe	-0.052616112
238	0x3cb21f44	0.021743424
239	0x3d7aea9e	0.061258905
240	0x3e5bffb4	0.21484262
241	0x3e618db9	0.22026719
242	0x3e330972	0.17484072
243	0x3e7a993e	0.2447252
244	0xbcf45b68	-0.029828742
245	0x3d7d2336	0.061801158
246	0xbe3786a4	-0.17922455
247	0xbdfcac6f	-0.123375766
248	0x3c96863b	0.018374553
249	0x3d12e124	0.035859242
250	0xbc8be5fa	-0.017077435
251	0xbda464a6	-0.0802701
252	0x3e64015b	0.22266142
253	0xbd5fed96	-0.05466994
254	0x3bbb689b	0.005719257
255	0x3d034bb5	0.03205462

fc1.bias f4 [128]
0	0x3e1b8786	0.15188417
1	0x3e244d18	0.16045034
2	0x3e266409	0.16249098
3	0x3e3b3108	0.18280423
4	0x3cbf8c0c	0.02338221
5	0x3da8cb5e	0.08241914
6	0x3d2da005	0.042388935
7	0xbdc568dc	-0.09639141
8	0x3dd88eca	0.1057411
9	0xbe374592	-0.17897633
10	0xbe5e7a25	-0.21726282
11	0x3e749694	0.23885566
12	0x3e20cc37	0.15702902
13	0xbd70daba	-0.058802344
14	0x3db4a457	0.08820408
15	0x3e6cd9d1	0.23129965
16	0x3c4cb262	0.012493702
17	0x3e587925	0.21139963
18	0xbe225a76	-0.1585482
19	0x3dc950ea	0.09829886
20	0x3e3694ff	0.17830275
21	0x3da979de	0.082751974
22	0xbe20d725	-0.15707071
23	0x3cca8094	0.024719514
24	0xbe5138c7	-0.20431815
25	0x3ddb5c5f	0.10710978
26	0x3c9b7468	0.018976405
27	0x3e4160ba	0.18884555
28	0xbdb5a27f	-0.08868884
29	0x3d82bc2e	0.06383549
30	0xbbaa0aa0	-0.005189255
31	0xbe488b90	-0.19584489
32	0x3d769434	0.06019993
33	0x3e7f07da	0.24905339
34	0x3dbe3bdc	0.09288761
35	0xbdb9b89c	-0.090684146
36	0xbdee3d06	-0.11632733
37	0x3c2ea027	0.0106583005
38	0x3e8b356d	0.27189198
39	0xbe1d5788	-0.15365422
40	0x3ca857ad	0.02054962
41	0x3e3f5e39	0.18688287
42	0xbe31b5af	-0.17354463
43	0x3e81570b	0.2526172
44	0xbda643dc	-0.08118412
45	0x3e510b88	0.20414555
46	0x3e86efba	0.26354772
47	0x3e31e5f0	0.1737287
48	0x3e83e7cf	0.25762793
49	0xbe1383f0	-0.14405799
50	0x3ddfe696	0.10932653
51	0xbd516647	-0.05112293
52	0xbe19e1a5	-0.15027483
53	0xbe8782ae	-0.26466888
54	0xbd44a85b	-0.04801212
55	0x3e890de9	0.26768425
56	0x3c94297c	0.018086188
57	0x3e7c79a0	0.24655771
58	0xbe411ab0	-0.18857837
59	0xbc112f87	-0.008861429
60	0xbd46a92a	-0.04850117
61	0x3e80c1b1	0.25147775
62	0x3cb27da4	0.021788426
63	0xbe1f4b71	-0.15556122
64	0x3deb1163	0.11477926
65	0xbe61163a	-0.21981135
66	0x3cb84493	0.022493636
67	0x3db86c0a	0.09004982
68	0xbd8e32de	-0.06943296
69	0x3e2946d3	0.16530924
70	0x3e82a730	0.2551818
71	0x3da45d74	0.08025637
72	0xbe0e785d	-0.13913102
73	0x3d5d463b	0.054022055
74	0xbe34f055	-0.17669804
75	0x3e182990	0.14859605
76	0x3e33e327	0.1756712
77	0xbc5ec10b	-0.01359583
78	0x3e61e4a1	0.22059871
79	0x3e1477cb	0.14498822
80	0x3d4fc8a0	0.05072844
81	0xbe27a129	-0.16370071
82	0xbe77f763	-0.24215464
83	0xbe2a0a85	-0.16605575
84	0x3dbfc65b	0.09364005
85	0x3e09c0ba	0.13452426
86	0xbdbd0631	-0.092296965
87	0xbd88510e	-0.06656085
88	0xbddc869c	-0.10767862
89	0x3a5dacb3	0.0008456215
90	0x3e0c2bd1	0.1368859
91	0xbc86595f	-0.016400037
92	0x3cb83c19	0.022489594
93	0x3e6924ac	0.22767895
94	0x3e514dd1	0.20439841
95	0xbe896359	-0.2683361
96	0x3de857a3	0.113448404
97	0xbe572f26	-0.2101408
98	0xbe50fd12	-0.20409039
99	0x3d3d90d5	0.0462807
100	0x3e27babd	0.16379829
101	0xbe4cbcc3	-0.19993882
102	0x3e23de56	0.16002783
103	0xbd77dfe5	-0.060516257
104	0x3e083f4e	0.13305399
105	0x3e55e29c	0.20887226
106	0x3d11651b	0.035496812
107	0xbe25bd92	-0.16185597
108	0x3e263ce4	0.16234165
109	0x3e0bea85	0.13663681
110	0xbdc255c9	-0.094890185
111	0xbcfd3d24	-0.030912943
112	0xbc16e63b	-0.009210165
113	0x3e5e04aa	0.21681467
114	0xbe2a4dbf	-0.1663122
115	0x3e822220	0.2541666
116	0xbe12fc41	-0.1435404
117	0xbe2ecd12	-0.17070416
118	0xbe267881	-0.16256906
119	0x3e5c3fa0	0.21508646
120	0x3d83af67	0.0642994
121	0x3cfb48e4	0.030674405
122	0x3e321680	0.17391396
123	0x3d7a0ea2	0.06104911
124	0xbe71c410	-0.23609948
125	0x3e3a0148	0.18164551
126	0x3dbd2151	0.0923487
127	0xbe15f6ab	-0.14644878

fc2.weight f4 [64, 128]
0	0x3d93852b	0.07203134
1	0xbcf14660	-0.029452503
2	0x3cbc8387	0.023011936
3	0xbb9c8ba6	-0.0047773896
4	0x3d66b1ef	0.056322034
5	0x3d634dda	0.055494167
6	0x3d6b9643	0.057516348
7	0x3d3f0348	0.04663399
8	0x3bc1ae1d	0.0059106485
9	0xbcd6171d	-0.026134068
10	0x3c446766	0.011987543
11	0x3d99c359	0.07507963
12	0xbcf8bc16	-0.030363124
13	0x3ba9e6fe	0.005185007
14	0x3d19dc28	0.037563473
15	0x3cc1234b	0.0235764
16	0x3c0bb34f	0.008526637
17	0x3c11ac4f	0.008891179
18	0xbd305266	-0.04304733
19	0x3d11058b	0.035405677
20	0x3d046b1e	0.032328717
21	0xbdbf2f58	-0.09335202
22	0x3d666044	0.05624415
23	0xbd705802	-0.05867768
24	0x3da424a7	0.080148034
25	0x3cd7e0a4	0.026352234
26	0xbb6a962e	-0.003579508
27	0x3daac187	0.08337694
28	0xbdf00d51	-0.1172129
29	0xbc81a36f	-0.015825002
30	0x3d486512	0.048924513
31	0x3d3ebd8b	0.04656748
32	0xbd1c3909	-0.03814033
33	0x3d2b4c8c	0.041821048
34	0xbd9a83fb	-0.075447045
35	0x3db533f9	0.088478036
36	0xbd83beaf	-0.064328544
37	0xbc394cbd	-0.0113098
38	0xbc0b3c80	-0.008498311
39	0x3d8f9949	0.07011659
40	0x3dcebbed	0.10094438
41	0x3d1c9b4b	0.038234036
42	0xbd5835c2	-0.052785642
43	0x3b85c076	0.004081781
44	0xbdd25ec4	-0.10271981
45	0x3dd33cb1	0.1031431
46	0x3ceaeed0	0.028678328
47	0xbc066af2	-0.008204209
48	0x3d601321	0.054705743
49	0x3d90aac5	0.07063822
50	0x3bfa4b9c	0.007638408
51	0xbd885dcc	-0.06658515
52	0x3ceefabd	0.029172296
53	0xbd6895ba	-0.056783415
54	0x3d74302c	0.059616253
55	0xbcea69dd	-0.028614933
56	0xbc9dcea0	-0.019263566
57	0xbca42ef5	-0.020041922
58	0xbd95fb65	-0.0732334
59	0x3cb5f089	0.022209423
60	0x3db5cb1a	0.08876629
61	0xbd57a007	-0.05264285
62	0xbd6645d3	-0.056218933
63	0x3d268a4f	0.040659245
64	0x3d10b04e	0.035324387
65	0x3cdcd025	0.02695472
66	0x3d9f51d6	0.07779281
67	0xbd93c32a	-0.07214959
68	0xbd78a60e	-0.060705237
69	0xbd753a42	-0.059870012
70	0x3ac6be35	0.0015162887
71	0x3d84aea9	0.06478626
72	0xbd4bc0c1	-0.04974437
73	0xbc920097	-0.017822547
74	0x3c5c6744	0.013452355
75	0x3c4ebae1	0.012617798
76	0x3d74eb10	0.059794486
77	0xbd0c9a07	-0.03432658
78	0x3dccee3d	0.10006378
79	0x3da05895	0.07829396
80	0xbcb00e10	-0.02149108
81	0xbd2fe4da	-0.04294286
82	0xbdbb694b	-0.091509424
83	0xbd810d31	-0.06301344
84	0x3ba48413	0.0050206273
85	0xbdb0ab27	-0.08626395
86	0xbde33054	-0.11093202
87	0x3d48ef6a	0.049056448
88	0xbda15a3c	-0.07878539
89	0x3d31352b	0.043263596
90	0x3d3821fa	0.044954278
91	0x3d87de28	0.0663417
92	0x3c81c18d	0.015839363
93	0xbaa68755	-0.0012705127
94	0x3e02903a	0.1275033
95	0xbd6cae4d	-0.057783414
96	0xbba6b4ea	-0.0050874846
97	0xba92748e	-0.0011173652
98	0xbde6d195	-0.11270443
99	0x3d307b52	0.043086357
100	0xbca053c3	-0.01957119
101	0x3c36e343	0.011162582
102	0x3ce038a8	0.027370766
103	0xbcc0f6ce	-0.023555186
104	0x3d02a3b3	0.031894397
105	0xbcef0607	-0.029177679
106	0xbc65eabc	-0.014033016
107	0xbdad54a0	-0.084634066
108	0xbd094649	-0.033514295
109	0xbd010144	-0.031495348
110	0xbdddc2d6	-0.10828178
111	0xbd58c4d0	-0.05292207
112	0xbd3d9e22	-0.046293385
113	0x3d397a3b	0.045282584
114	0xbc6f2a00	-0.014597416
115	0x3daef25e	0.085423216
116	0xbdbe22c3	-0.09283974
117	0x3d0afad4	0.033930615
118	0xbdac92ce	-0.08426438
119	0x3d8531bb	0.06503626
120	0x3d9532cc	0.07285079
121	0x3d23dd81	0.040006164
122	0x3ce6ad17	0.028158708
123	0xbd538d5f	-0.051648494
124	0x3d1386a4	0.036017075
125	0x3dcc62c3	0.09979775
126	0xbc794e5e	-0.015216438
127	0xbca85e05	-0.020552645
128	0x3dd0ca0f	0.101947896
129	0x3dcec2d8	0.10095757
130	0x3de184ed	0.11011682
131	0xbd8f694c	-0.07002506
132	0x3d9a0519	0.075205036
133	0x3c4fc131	0.012680338
134	0xbd9ac5ab	-0.075572334
135	0x3dc17f9d	0.094481684
136	0xbd6de0b8	-0.058075637
137	0xbc2d50f9	-0.010578387
138	0xbdb7ce2c	-0.08974871
139	0x3c911ea2	0.017714802
140	0xbcfdd24b	-0.030984065
141	0x3dd3ed4a	0.10347994
142	0x3d55117c	0.052018628
143	0x3d90ef84	0.07076934
144	0x3d61b85a	0.055107452
145	0x3d578ba5	0.05262341
146	0x3d88197a	0.06645484
147	0x3d22c618	0.0397397
148	0x3d1bf518	0.038075536
149	0xbd944571	-0.072398074
150	0x3cf7cd1e	0.030249175
151	0xbd7c3b0c	-0.06157975
152	0xbbb07b52	-0.0053857947
153	0xbd6dca16	-0.058054052
154	0x3dba484b	0.0909582
155	0x3ccdf29e	0.025140103
156	0xbde99e3f	-0.11407136
157	0xbdca9689	-0.098919936
158	0x3d88259f	0.06647801
159	0x3d2a52aa	0.04158274
160	0x3dd08ad2	0.10182728
161	0x3d071594	0.032979563
162	0x3cc54699	0.024081515
163	0x3cb075d3	0.021540558
164	0xbddf84f6	-0.10914032
165	0x3d59377c	0.05303143
166	0xbd0dfc56	-0.034664474
167	0x3ca0ef78	0.019645438
168	0xbd6fadd0	-0.05851537
169	0xbb95fe86	-0.0045774607
170	0x3ca91e18	0.020644233
171	0xbd1e5fed	-0.0386657
172	0x3ccec794	0.02524165
173	0x3d8dd122	0.069246545
174	0x3cef4e60	0.029212177
175	0x3d19b0e3	0.037522208
176	0x3d8e990d	0.06962786
177	0xbd95f9cb	-0.07323035
178	0x3ddaacc8	0.10677487
179	0xbd175eab	-0.036955517
180	0x3d5a90d2	0.053360768
181	0xbda487ab	-0.08033689
182	0xbd9edceb	-0.077569805
183	0x3d87f764	0.06638983
184	0x3c953c4d	0.01821723
185	0x3de0120d	0.10940943
186	0x3d02c4f1	0.0319261
187	0xbd62373f	-0.055228468
188	0x3d72fa10	0.05932051
189	0x3da24eea	0.07925208
190	0x3cdb400f	0.026763944
191	0xbce8db98	-0.028425023
192	0xbb2dac05	-0.0026500237
193	0xbd92ec42	-0.07173969
194	0x3d9dcc49	0.0770498
195	0x3d0049dd	0.03132044
196	0xbc956bab	-0.018239817
197	0x3d8bcc39	0.06826062
198	0xbd45bf65	-0.04827823
199	0x3d888ffc	0.06668088
200	0xbba3caa2	-0.004998521
201	0xbd7bc10f	-0.061463412
202	0xbcba6941	-0.022755267
203	0x3aa371a1	0.0012469777
204	0xbd935515	-0.071939625
205	0xbd06eb15	-0.032939035
206	0x3bd701d3	0.0065614968
207	0x3d8a63c6	0.067573115
208	0xbdb3cf3c	-0.08779761
209	0xbd056314	-0.03256519
210	0x3d4de87d	0.050270546
211	0xbda23179	-0.079195924
212	0x3bea3b6d	0.0071481974
213	0x3d0a287e	0.033730023
214	0x3cebc358	0.02877967
215	0xbd39b22a	-0.045335926
216	0x3a81e45b	0.0009909974
217	0xbd1763b0	-0.036960304
218	0xbc2f49ff	-0.010698794
219	0x3d41a817	0.047279444
220	0x3c0e71aa	0.008694092
221	0x3db3b14b	0.0877405
222	0x3db7f3d6	0.08982055
223	0x3d1be566	0.03806057
224	0xbd796fb4	-0.060897544
225	0xbd040ca9	-0.032238636
226	0xbd480a52	-0.048837967
227	0x3ccc0743	0.024905806
228	0x3cff80b1	0.031189295
229	0xbce5b9cf	-0.028042702
230	0x3d870e88	0.065945685
231	0xbd819da5	-0.063288964
232	0xbd7c25ba	-0.061559416
233	0xbc25a767	-0.010110713
234	0x3ba3910f	0.0049916576
235	0xbd4c76a3	-0.04991783
236	0x3c79e155	0.015251477
237	0x3d382efd	0.044966687
238	0xbda3a37b	-0.07990166
239	0x3dc54cce	0.0963379
240	0x3ca9551a	0.020670462
241	0xbd1b5eac	-0.037932083
242	0x3d9b4005	0.0758057
243	0x3d06c66d	0.032904077
244	0xbcf2e806	-0.029651653
245	0x3dc9c302	0.09851648
246	0x3cdb24c2	0.026750926
247	0x3b95c106	0.0045701293
248	0x3d63111a	0.05543623
249	0x3d009c63	0.031399142
250	0xbcb6f8e0	-0.02233547
251	0xbc82e32d	-0.015977466
252	0xbd02dd9c	-0.031949624
253	0xbd29d35a	-0.041461326
254	0x3ceb524b	0.028725764
255	0x3c016462	0.007897468

fc2.bias f4 [64]
0	0x3d0204f2	0.031742997
1	0x3c10ced6	0.008838376
2	0xbd630d11	-0.055432383
3	0x3d393a82	0.045221813
4	0xbdbad2b4	-0.0912222
5	0xbcc0d67c	-0.023539774
6	0x3d053a43	0.032526266
7	0x3cca70d4	0.024712004
8	0x3dd2c45c	0.10291359
9	0xbdd58a97	-0.104268245
10	0x3cc239ae	0.023709144
11	0xbd526045	-0.05136134
12	0xbd43cb76	-0.047801457
13	0xbc86f76d	-0.016475404
14	0x3ce26802	0.027637485
15	0xbd646bf2	-0.055767007
16	0x3dde005f	0.108399145
17	0x3c5cee2f	0.013484522
18	0xb9ffdb6b	-0.0004880087
19	0x3d243e5e	0.04009854
20	0x3c835aa0	0.016034424
21	0xbd8a03e0	-0.0673902
22	0x3c872b9c	0.016500287
23	0xbd627f7a	-0.055297352
24	0xbdadc71f	-0.08485245
25	0xbd2c8d37	-0.04212686
26	0xbdcad9d5	-0.099048294
27	0xbdaabf50	-0.08337271
28	0xbab30052	-0.0013656712
29	0x3c806488	0.015672937
30	0x3b4449da	0.0029951246
31	0xbd5f0c6a	-0.0544552
32	0x3db0564b	0.08610209
33	0xbd9af58d	-0.07566366
34	0xbd94ce2d	-0.072658874
35	0xbd92afd0	-0.0716244
36	0xbd53ac12	-0.05167777
37	0xbdb06750	-0.08613455
38	0x3cc565db	0.02409642
39	0xbd80a190	-0.062808156
40	0x3c3b180c	0.011419307
41	0x3d42e418	0.04758081
42	0x3d1ea96b	0.03873579
43	0xbd82e17d	-0.06390665
44	0xbc9c4089	-0.019073742
45	0x3cdb0c16	0.026739161
46	0x3de0d06b	0.109772526
47	0x3ca7524f	0.02042499
48	0x3d4047fa	0.046943642
49	0xbdb897dc	-0.0901334
50	0xbd83c42a	-0.064339
51	0xb863009b	-5.412158e-05
52	0x3c92751a	0.017878104
53	0x3c9c03d0	0.019044787
54	0xbd6db98e	-0.058038287
55	0x3d0473d0	0.03233701
56	0x3d0a78f4	0.033806756
57	0x3c260bca	0.010134647
58	0xbdcf1342	-0.10111095
59	0x3dd126f1	0.102125056
60	0xbc8aaf51	-0.0169293
61	0x3dcd8e8a	0.10036953
62	0x3b9077f3	0.0044088303
63	0xbc3446fc	-0.011003252

fc3.weight f4 [32, 64]
0	0xbe0884dd	-0.13331933
1	0xbd1e5412	-0.038654394
2	0xbd8f48a0	-0.06996274
3	0x3e10a878	0.14126766
4	0xbdb4aa9c	-0.08821604
5	0xbe04d5d2	-0.12972191
6	0x3d40b43f	0.047046896
7	0xbe0670c4	-0.13128954
8	0x3d4b93e8	0.0497016
9	0xbc116818	-0.008874916
10	0x3e1164a3	0.14198546
11	0xbace814b	-0.0015755085
12	0xbd51708d	-0.051132727
13	0xbd9ada79	-0.075612016
14	0xbce1a57f	-0.027544735
15	0xbdc802a0	-0.09766126
16	0xbd3dc69b	-0.046331983
17	0xbda68ef8	-0.08132738
18	0xbbc38957	-0.0059673
19	0x3e018512	0.12648419
20	0xbc04357d	-0.008069393
21	0x3d9108e0	0.07081771
22	0xbd5958ed	-0.05306332
23	0x3d81b665	0.06333617
24	0xbda0aaaa	-0.078450516
25	0xbd1d0b1c	-0.038340673
26	0x3dac079b	0.08399888
27	0x3caac886	0.02084757
28	0x3d75e581	0.060033325
29	0xbdc77e44	-0.0974088
30	0xbe07e84a	-0.13272205
31	0x3e05154a	0.12996402
32	0xbd4bcefb	-0.04975794
33	0xbd91d595	-0.07120816
34	0x3db3a02d	0.087707855
35	0x3dcb7280	0.099339485
36	0x3df9af80	0.12191677
37	0x3daa1d7e	0.083064064
38	0x3ce812a6	0.028329205
39	0x3de04b49	0.109518595
40	0xbdde9b01	-0.108694084
41	0x3dde7ab8	0.108632505
42	0x3db2504c	0.08706722
43	0x3d64db8c	0.05587344
44	0xbdd10320	-0.10205674
45	0x3dd241d1	0.1026646
46	0xbe14d490	-0.14534211
47	0x3e0193eb	0.12654082
48	0xbdf233a9	-0.1182626
49	0x3da8bb41	0.08238841
50	0xbdb29f94	-0.08721843
51	0xbe1511e0	-0.145576
52	0x3dcd7cd3	0.10033574
53	0x3c1cb75b	0.0095652
54	0xbd1adf1d	-0.037810434
55	0x3d6f0cb9	0.058361743
56	0x3da8cc3f	0.08242082
57	0xbd854fca	-0.06509359
58	0x3d83c0fd	0.06433294
59	0xbbab769b	-0.0052326447
60	0x3d9fab39	0.0779633
61	0xbda18d35	-0.07888261
62	0xbd804021	-0.062622316
63	0xbd8f29ac	-0.0699037
64	0x3d3576a4	0.044302598
65	0x3d4e8635	0.05042096
66	0xbdb87dd2	-0.09008373
67	0xbd30162b	-0.04298989
68	0x3c32e4a3	0.010918769
69	0x3dcbae7b	0.09945389
70	0x3e29fe49	0.16600908
71	0x3e1a7e10	0.15087152
72	0x3c32023e	0.010864792
73	0xbdf8369f	-0.12119793
74	0x3e221861	0.15829612
75	0x3d535665	0.051596064
76	0x3d3d3793	0.046195578
77	0x3c6e0e73	0.014529812
78	0xbc0da034	-0.008644152
79	0x3d0e903f	0.034805533
80	0x3d962e2f	0.073330276
81	0x3c8059f4	0.015667893
82	0x3e17eb93	0.14835958
83	0xbd44c34c	-0.048037812
84	0x3d4cd927	0.05001178
85	0x3cd4d5b4	0.025980808
86	0x3db4b49a	0.088235095
87	0xbca77b3f	-0.02044451
88	0x3c55881b	0.013032938
89	0xbe001cbe	-0.12510964
90	0x3d66cf93	0.056350302
91	0xbdaca3d6	-0.08429687
92	0xbbf18f10	-0.0073717907
93	0xbba808fa	-0.005128023
94	0xbdf34235	-0.11877862
95	0x3d5c1d4f	0.05373889
96	0x3d25e28b	0.04049925
97	0x3d1f9def	0.038968977
98	0x3d0a12a1	0.033709172
99	0xbd4076fb	-0.04698847
100	0xbb9b7b7a	-0.004744944
101	0xbe1d67f3	-0.15371685
102	0x3e24151e	0.1602368
103	0xbe0de3b6	-0.13856396
104	0x3dabe127	0.08392554
105	0xbd3e9db4	-0.046537116
106	0xbdadf7bf	-0.084945194
107	0xbd1890da	-0.037247516
108	0x3cb1c40e	0.021699931
109	0x3dd37e93	0.103268765
110	0xbc39d35e	-0.011341898
111	0xbe129176	-0.14313301
112	0x3e2a9e64	0.16661984
113	0x3ce8c079	0.02841209
114	0x3d9ca429	0.076484986
115	0x3d071bd7	0.032985535
116	0xbe236d1a	-0.15959588
117	0x3d738107	0.059449222
118	0x3dfe1397	0.1240608
119	0xbd9b4c7e	-0.07582949
120	0x3ce5e443	0.028062945
121	0xbd0a7d2e	-0.033810787
122	0xbae1443c	-0.0017186473
123	0x3cfb6b3f	0.030690787
124	0xbe2c02ab	-0.16797893
125	0x3e1a2b51	0.15055586
126	0x3d5b3b35	0.05352326
127	0xbd52de2a	-0.051481403
128	0xbe05d494	-0.13069373
129	0xbd67497d	-0.05646657
130	0x3df5d0cd	0.12002716
131	0x3d0fa48f	0.035069045
132	0xbc443a32	-0.0119767655
133	0x3cde4853	0.027134096
134	0xbe1492f3	-0.14509182
135	0xbbded6fe	-0.0068005314
136	0xbce01ccc	-0.027357481
137	0x3d94d828	0.07267791
138	0x3d7ab020	0.061203122
139	0x3d8d9c0a	0.06914528
140	0xbc62218f	-0.013801946
141	0x3dbd9557	0.09257
142	0x3e036442	0.12831214
143	0xbb77612b	-0.0037747126
144	0xbd10841b	-0.035282236
145	0xbd93bcd4	-0.072137505
146	0x3b94119a	0.0045187
147	0x3c9d960e	0.01923659
148	0x3c5792bc	0.013157543
149	0x3e0aa9b5	0.135413
150	0xbd711550	-0.058858216
151	0x3ca4c924	0.020115443
152	0x3dcf079b	0.101088725
153	0x3d2602ac	0.04052989
154	0xbdace28d	-0.08441649
155	0x3c4897ca	0.012243221
156	0x3d151ae8	0.036402613
157	0xbd133c61	-0.035946254
158	0x3da472af	0.08029687
159	0xbde74695	-0.11292759
160	0xbd23d28c	-0.039995715
161	0x3cdbaf99	0.02681713
162	0xbdd0766f	-0.101788394
163	0x3d8b04cb	0.067880236
164	0x3dc4dbf4	0.09612265
165	0x3e0f4ef5	0.13994963
166	0x3b171934	0.0023055794
167	0x3e00648d	0.12538357
168	0xbde41277	-0.111363344
169	0xbd191c34	-0.037380412
170	0xbd75934c	-0.059954926
171	0xbd8e86d8	-0.06959313
172	0xbb7e8c55	-0.0038840969
173	0xbdba5263	-0.09097745
174	0xbe11cbcb	-0.14237897
175	0xbb1e18c2	-0.0024123644
176	0xbda26814	-0.079300076
177	0xbd21c442	-0.039493807
178	0xbbcb9c05	-0.0062136673
179	0xbdcad911	-0.099046834
180	0xbd1ff888	-0.039055377
181	0xbcbda463	-0.023149675
182	0xbe090ac2	-0.1338301
183	0xbd346cef	-0.0440492
184	0xbe12b210	-0.14325738
185	0xbcee1070	-0.029060572
186	0x3d5dc3f9	0.054141972
187	0xbe0a06e0	-0.13479185
188	0x3d148b9b	0.03626595
189	0xbe060dde	-0.13091227
190	0xbdafed53	-0.08590188
191	0xbdf2ef8b	-0.118620954
192	0x3cc6591f	0.024212418
193	0x3e09b1c0	0.13446712
194	0xbdbf55c8	-0.09342533
195	0x3d331682	0.043722637
196	0xbd1ec3a5	-0.0387608
197	0x3d86ee75	0.06588451
198	0x3c378034	0.0112
199	0x3d95fd81	0.07323743
200	0x3d81884a	0.06324823
201	0xb71b543d	-9.258333e-06
202	0x3c431b6c	0.011908393
203	0xbcb35077	-0.021888955
204	0x3cdda977	0.027058346
205	0x3d74521c	0.059648618
206	0x3b8bd415	0.0042672255
207	0xbc88fdbc	-0.016722552
208	0x3e16b8d3	0.14718942
209	0x3e079e8a	0.13244072
210	0xbd5e953f	-0.05434155
211	0x3c9c3ada	0.019071031
212	0x3d3cf177	0.046128716
213	0xbe1dfb1f	-0.15427826
214	0x3e1c4ed8	0.15264452
215	0xbcee20ef	-0.029068438
216	0xbde75b99	-0.11296768
217	0xbd47e4cc	-0.048802182
218	0xbdc2f928	-0.09520179
219	0x3d613a28	0.054987103
220	0xbc8ad03f	-0.016945003
221	0xbdfd230f	-0.123602025
222	0x3d55f964	0.05223979
223	0x3de7c5c6	0.11317019
224	0xbd8d202a	-0.068909004
225	0xbe11d2f8	-0.14240634
226	0xbc581fc7	-0.01319117
227	0xbe144355	-0.1447881
228	0x3cad5751	0.0211598
229	0xbbe4e3a2	-0.0069851438
230	0xba3a1e12	-0.0007099818
231	0x3d9c9177	0.07644933
232	0xbd5852c9	-0.052813325
233	0xbd33f04e	-0.043930344
234	0x3c02e64a	0.0079894755
235	0x3dbd772a	0.09251244
236	0xbdc8d286	-0.09805779
237	0x3e1170c5	0.14203174
238	0x3d527f31	0.05139083
239	0xbd234e5d	-0.039869655
240	0x3d358818	0.044319242
241	0x3dc72690	0.09724152
242	0x3d57ca7e	0.052683346
243	0xbdb7ca7c	-0.08974168
244	0x3d1c1f6a	0.038115896
245	0x3d0667bf	0.032813784
246	0x3c98677d	0.018604035
247	0x3e12fc2b	0.14354007
248	0x3c89f56f	0.016840665
249	0x3c36f95f	0.011167853
250	0xbe1bc174	-0.15210515
251	0xbd017925	-0.031609673
252	0xbde56dda	-0.11202593
253	0x3d4de2ef	0.05026525
254	0xbcc2f31e	-0.023797568
255	0x3e1aa34c	0.15101355

fc3.bias f4 [32]
0	0x3d5b43c3	0.05353142
1	0xbbaeb6bf	-0.0053318436
2	0xbd91bce8	-0.07116109
3	0x3d9d6c3f	0.07686662
4	0x3dad8333	0.0847229
5	0x3d90ee8b	0.070767485
6	0xbbdbce73	-0.0067079603
7	0xbd11bc8c	-0.035580203
8	0xbd2296fe	-0.03969478
9	0xbd90378f	-0.07041847
10	0xbdc12594	-0.094309956
11	0x3dce362f	0.100689285
12	0xbde9a4b2	-0.11408366
13	0xbbf6450c	-0.0075155552
14	0x3da04c84	0.07827094
15	0x3d034388	0.032046825
16	0x3dee17e2	0.11625649
17	0xbda4cd4f	-0.08046972
18	0x3c11fcda	0.008910382
19	0x3d0a6857	0.033790912
20	0x3d33c551	0.043889347
21	0xbd8866a4	-0.06660202
22	0xbddcc09d	-0.107789256
23	0x3d70a052	0.058746643
24	0x3d57902a	0.05262772
25	0x3e0624d4	0.13099986
26	0xbd5694a8	-0.052387863
27	0xbc0698d4	-0.008215148
28	0x3df8529b	0.12125131
29	0x3dc755d1	0.09733165
30	0xbcf20d8a	-0.029547472
31	0xbdc57570	-0.0964154

fc4.weight f4 [5, 32]
0	0xbd409336	-0.04701539
1	0xbdde1a74	-0.10844889
2	0x3e2303a7	0.15919362
3	0xbe1b1c9c	-0.15147632
4	0x3cee89f2	0.029118512
5	0xbd9dde60	-0.0770843
6	0xbe4c6a7a	-0.19962493
7	0x3d2fcccf	0.04291993
8	0x3dedb799	0.11607284
9	0xbd038788	-0.032111675
10	0xbdaedb0b	-0.08537873
11	0xbcc735ef	-0.02431771
12	0x3e32260a	0.17397323
13	0xbd9ee396	-0.07758252
14	0x3dabfbb7	0.0839762
15	0xbe1b36a1	-0.15157558
16	0xbe046d0a	-0.1293222
17	0x3e16654d	0.1468708
18	0xbda31137	-0.07962268
19	0x3e4d615c	0.20056671
20	0x3e3b7915	0.18307908
21	0xbe493830	-0.1965034
22	0x3e2b78fa	0.16745368
23	0x3df4c87d	0.119523026
24	0x3e2cde49	0.1688167
25	0x3e039f6a	0.1285378
26	0x3e15e388	0.14637578
27	0xbdbe9a43	-0.09306767
28	0xbe18e857	-0.1493238
29	0xbe3d1f1a	-0.18468896
30	0xbb0f7831	-0.0021891708
31	0xbc52c404	-0.012864117
32	0xbd8f35b9	-0.06992669
33	0x3e176ae2	0.14786866
34	0xbe0237a6	-0.1271654
35	0xbc87fd6c	-0.016600333
36	0xbd7c536b	-0.06160299
37	0x3d53ae27	0.051679756
38	0xbc54b840	-0.012983382
39	0xbc9ca250	-0.019120365
40	0xbd6a0ae0	-0.057139277
41	0x3e19edbe	0.15032098
42	0xbe047a82	-0.12937358
43	0x3dd3b4c2	0.10337211
44	0x3e143355	0.14472707
45	0x3e224bcd	0.15849228
46	0x3e2afe95	0.16698678
47	0xbe4705da	-0.19435826
48	0x3de64d8e	0.11245261
49	0x3c0be497	0.008538387
50	0x3da331a3	0.07968452
51	0x3d99de61	0.075131185
52	0xbcab9aff	-0.020947931
53	0xbe06cfd3	-0.13165216
54	0xbc60d9d6	-0.013723811
55	0x3cd2b530	0.025721163
56	0x3dff62d7	0.12470024
57	0xbd1d80b0	-0.038452804
58	0x3d3a5392	0.045489855
59	0xbdea750f	-0.114481084
60	0xbe06a785	-0.13149841
61	0x3def4031	0.116821654
62	0xbde78a23	-0.11305644
63	0x3dec99df	0.11552786
64	0x3dc381fe	0.095462784
65	0xbbecaaa7	-0.007222492
66	0x3ca3e13a	0.020004857
67	0x3e239d50	0.15977979
68	0xbc98e987	-0.018666042
69	0xbe3a360d	-0.18184681
70	0xbdbffb1b	-0.093740664
71	0xbcdf0127	-0.02722223
72	0x3ba5be8c	0.0050581153
73	0x3bf5bf82	0.007499636
74	0x3d64af07	0.05583098
75	0xbdbfe5a7	-0.093699746
76	0x3de2f86a	0.110825375
77	0xbdd99d3b	-0.106256925
78	0xbd759573	-0.05995698
79	0x3dcd6947	0.10029846
80	0x3e431717	0.19051777
81	0x3de949b0	0.11391008
82	0x3e32bcb9	0.17454804
83	0xbd6046bd	-0.05475496
84	0xbd3ed4d1	-0.046589676
85	0xbe410016	-0.18847689
86	0xbc11a4e3	-0.00888941
87	0xbca5419e	-0.02017289
88	0xbd749d69	-0.05972043
89	0x3dd3ec94	0.10347858
90	0xbdd4557d	-0.10367868
91	0x3c316173	0.010826456
92	0xbc83ed70	-0.01610443
93	0xbd858644	-0.0651975
94	0xbe3badca	-0.18328014
95	0x3d6e52c8	0.058184415
96	0xbe067276	-0.13129601
97	0x3df1531f	0.11783432
98	0x3daf60dc	0.08563396
99	0xbc6dc84f	-0.014513089
100	0xbe10b4d0	-0.14131474
101	0xbb2e2787	-0.0026573853
102	0x3ba36b78	0.0049871765
103	0xbbdc5491	-0.0067239483
104	0xbe015b6c	-0.12632531
105	0xbe518859	-0.20462169
106	0x3d80645a	0.062691405
107	0x3e3092a2	0.17243436
108	0xbd844ec7	-0.06460338
109	0x3de99f28	0.1140731
110	0x3e101697	0.14071117
111	0xbdf81af9	-0.121145196
112	0xbe0dc156	-0.13843283
113	0xbdf9967d	-0.121869065
114	0xbe092e44	-0.13396555
115	0x3e439f71	0.19103791
116	0x3e364458	0.17799509
117	0xbe2f2e91	-0.17107607
118	0x3d6c20f8	0.05764863
119	0xbd618745	-0.055060644
120	0xbdd0c50d	-0.101938345
121	0xbe39883b	-0.18118374
122	0xbd55d500	-0.052205086
123	0x3e005c37	0.12535177
124	0x3d7d139f	0.06178629
125	0x3c726659	0.014794909
126	0xbc460423	-0.012085947
127	0x3e0fa624	0.14028221
128	0xbdcb3b6c	-0.09923443
129	0x3e265967	0.16245042
130	0xbe140b99	-0.14457549
131	0x3e5fb4b9	0.21846284
132	0xbe232293	-0.15931158
133	0x3e05fe5c	0.13085312
134	0x3d26fe01	0.04076958
135	0xbe02b1bf	-0.12763117
136	0xbdf69b41	-0.12041331
137	0x3e1c3919	0.15256156
138	0x3e62a46b	0.22133033
139	0xbe45b137	-0.19305883
140	0xbe19dd43	-0.15025811
141	0xbe44d457	-0.19221626
142	0xbd8bd8dc	-0.06828472
143	0x3e48c2fa	0.19605628
144	0xbd8cd9b5	-0.06877462
145	0xbd8dc935	-0.06923143
146	0xbe3c3829	-0.18380798
147	0x3d80489d	0.0626385
148	0xbe0de77c	-0.13857836
149	0x3e1759e8	0.1478039
150	0xbe04ebe0	-0.12980604
151	0xbe123ca9	-0.14280953
152	0xbe54f9e7	-0.20798455
153	0x3e41cfbb	0.18926899
154	0xbc8672b6	-0.01641212
155	0xbe456e14	-0.19280273
156	0x3d6d7bc7	0.05797937
157	0xbd88f102	-0.066865936
158	0x3e59c916	0.21268114
159	0xbe44553f	-0.19173144

fc4.bias f4 [5]
0	0x3e0cc451	0.13746764
1	0xbd5cf228	-0.053941876
2	0xbc976cb6	-0.018484455
3	0x3d445a05	0.04793741
4	0xbddd1005	-0.10794071
