clean_code/trained_models/actor_872.pth (torch, 54872 bytes, 8 tensors)

fc1.weight f4 [128, 18]
0	0x3e21dd46	0.15807065
1	0x3db48b46	0.08815627
2	0xbe1ec17f	-0.155035
3	0x3e44f8e4	0.19235569
4	0x3dfe23f4	0.12409201
5	0xbd83e865	-0.0644081
6	0x3d00829d	0.031374563
7	0x3cd7a732	0.026324842
8	0x3dc48612	0.095958844
9	0xbd8cf97f	-0.06883525
10	0xbe149506	-0.14509973
11	0x3bafae3b	0.005361346
12	0x3e5fbb7f	0.21848868
13	0x3da946e2	0.08265473
14	0x3e1940d0	0.1496613
15	0x3d01ad5c	0.03165947
16	0xbe68b72f	-0.22726129
17	0x3e8304d2	0.25589615
18	0x3e113a54	0.14182407
19	0x3e2b1799	0.1670822
20	0x3dac8727	0.08424216
21	0xbd9ec151	-0.07751716
22	0x3d90fcfb	0.07079502
23	0xbc8a02e8	-0.016847089
24	0x3e17310f	0.14764808
25	0x3e53b885	0.20675857
26	0x3dcc2078	0.099671304
27	0x3d265433	0.040607642
28	0x3e18c628	0.1491934
29	0x3e1500a0	0.1455102
30	0xbe28f364	-0.16499096
31	0xbe0c3224	-0.13691002
32	0xbdbb2286	-0.09137444
33	0x3d6c702c	0.057724163
34	0xbe2758a9	-0.16342415
35	0x3d2b71e7	0.041856673
36	0x3e1d4c14	0.15361053
37	0x3db515da	0.088420585
38	0xbe16bd4f	-0.14720653
39	0x3d80e86c	0.06294331
40	0xbe357327	-0.17719708
41	0x3d0b0f13	0.033949923
42	0x3e472fc5	0.19451816
43	0x3e1e7a55	0.15476353
44	0xbd790921	-0.06079972
45	0xbe33bbbe	-0.17552087
46	0xbdd46c4e	-0.1037222
47	0x3e371c52	0.17881897
48	0x3e863332	0.26210934
49	0x3dc56982	0.09639265
50	0x3d83fe7c	0.064450234
51	0xbddb25be	-0.10700558
52	0x3e4ff8c9	0.20309748
53	0x3d673758	0.056449264
54	0x3e02baee	0.1276662
55	0xbd20317e	-0.0391097
56	0x3e2cd02b	0.16876285
57	0x3cd36cd1	0.025808724
58	0xbe3becc2	-0.18352035
59	0xbe0a66c5	-0.13515766
60	0xbe453145	-0.19257076
61	0xbe4123ae	-0.18861267
62	0xbdff070c	-0.12452516
63	0x3e2af1e3	0.16693835
64	0x3dc71a76	0.09721844
65	0xbdd60376	-0.10449879
66	0x3e553f23	0.20824866
67	0x3e3e1977	0.18564402
68	0xbbb1b7bf	-0.0054235156
69	0xbe3f9a6a	-0.18711248
70	0x3e2acf1e	0.16680571
71	0xbd84b9ed	-0.06480775
72	0xbd997a47	-0.07494026
73	0x3e6faa2c	0.23404759
74	0xbd0f45b8	-0.0349786
75	0xbe4f4947	-0.20242797
76	0x3e5ad0d5	0.21368726
77	0x3e2354de	0.15950343
78	0xbdc3e91d	-0.09565947
79	0x3e85f85f	0.26166055
80	0xbcdfffbf	-0.027343629
81	0x3d20908b	0.039200347
82	0x3d87bca3	0.066277765
83	0x3dcb8ef7	0.09939378
84	0x3ccf6872	0.025318358
85	0xbe0629f4	-0.13101941
86	0x3e787707	0.24264155
87	0x3e2bfdfd	0.16796108
88	0xbe0e5d16	-0.13902697
89	0x3e59ae13	0.2125781
90	0x3dd3511d	0.103182055
91	0xbd58756b	-0.052846354
92	0x3d1dc610	0.038518965
93	0x3e4219c9	0.18955149
94	0x3e74e358	0.2391485
95	0xbcd890c3	-0.026436215
96	0xbda8bdc4	-0.0823932
97	0xbbb6a447	-0.0055737826
98	0x3dc50f01	0.096220024
99	0xbe3626d3	-0.17788248
100	0xbca2a477	-0.019853814
101	0x3e2410bc	0.16022009
102	0xbe335c07	-0.17515574
103	0x3e52badf	0.20579098
104	0xbe2482ba	-0.16065493
105	0x3e4d7e80	0.20067787
106	0x3d718a15	0.058969576
107	0x3e5663ba	0.2093648
108	0x3e0fad9c	0.1403107
109	0xbe7e17c6	-0.24813756
110	0x3e15dd4e	0.14635202
111	0xbe0993e6	-0.13435325
112	0x3dbed81c	0.09318563
113	0x3e2f5074	0.17120534
114	0x3e33a0d2	0.17541817
115	0x3da1330f	0.07871067
116	0xbe3713bb	-0.1787862
117	0xbb1f67af	-0.0024323275
118	0xbe697384	-0.22797972
119	0xbcd08374	-0.025453307
120	0xbe658bc1	-0.22416593
121	0xbc1fa760	-0.009744495
122	0xbe04d6a3	-0.12972502
123	0x3d5a9bd3	0.05337126
124	0xbe77a92a	-0.24185625
125	0xbc0fb5c0	-0.00877136
126	0x3d00be48	0.031431466
127	0x3e1ea44b	0.1549236
128	0xbe5376f1	-0.20650841
129	0xbe54f716	-0.20797381
130	0xbe080ac6	-0.1328536
131	0x3db6901f	0.08914208
132	0x3e556adc	0.20841545
133	0xbe00a8cc	-0.12564391
134	0x3e349287	0.17634021
135	0xbe3f44e6	-0.18678626
136	0x3e31dc8b	0.17369287
137	0x3e378e15	0.17925294
138	0xbca8c9d0	-0.020604044
139	0x3cc9f3c8	0.024652377
140	0x3e1497ba	0.14511004
141	0x3b64f5a5	0.0034936455
142	0x3d455431	0.048175994
143	0xbe18db1b	-0.14927332
144	0xbb520a46	-0.003204958
145	0xbdb2c1d0	-0.08728373
146	0xbd8efef0	-0.06982219
147	0x3e2ba939	0.16763772
148	0xbd8ad59a	-0.067790225
149	0xbe71df93	-0.23620443
150	0xbdd728b0	-0.105058074
151	0xbe43148d	-0.19050808
152	0x3bda1121	0.006654874
153	0xbe5da146	-0.21643552
154	0xbdd467a4	-0.103713304
155	0xbe7ec562	-0.24879983
156	0x3e21841d	0.15773053
157	0xbe57ab97	-0.2106155
158	0xbdd82a72	-0.10554971
159	0xbe415896	-0.18881449
160	0x3d23399c	0.039849862
161	0x3e1e2f23	0.15447669
162	0x3e1e3da7	0.15453206
163	0x3e65a171	0.22424866
164	0x3e66cfc7	0.22540198
165	0xbd90054a	-0.07032259
166	0x3dfcc37e	0.12341975
167	0xbe5fdd7c	-0.21861833
168	0x3e680180	0.22656822
169	0x3e140074	0.14453298
170	0xbd80ec70	-0.06295097
171	0x3e50f710	0.20406747
172	0x3dd0d630	0.10197103
173	0x3e6e238b	0.23255746
174	0x3e2acf54	0.16680652
175	0xbdf4ba4f	-0.11949598
176	0xbd897a66	-0.06712799
177	0x3e5acb93	0.2136672
178	0xbe36c7cd	-0.17849655
179	0xbdbc34ca	-0.09189756
180	0xbdf77958	-0.12083691
181	0xbe470a1a	-0.19437447
182	0xbe1c9079	-0.15289487
183	0xbe45bf11	-0.19311167
184	0x3dc469ec	0.095905155
185	0x3dc7f952	0.09764351
186	0xbc3a49d3	-0.01137014
187	0x3dda2dbb	0.10653254
188	0x3c525d7f	0.012839674
189	0x3cbf0ff9	0.023323046
190	0xbcb82054	-0.022476353
191	0x3d8be618	0.06830996
192	0xbe3af8db	-0.18258993
193	0xbd6ec4f0	-0.058293283
194	0xbe642257	-0.22278725
195	0xbe32638e	-0.1742079
196	0x3e001421	0.12507679
197	0x3d067d96	0.03283461
198	0xbd4c3772	-0.049857564
199	0x3e4a51ce	0.19757769
200	0xbcddf3b4	-0.027093746
201	0xbdf73234	-0.12070122
202	0xbdedfb7d	-0.11620233
203	0x3e4fb2ff	0.20283125
204	0x3da08b5c	0.07839081
205	0x3e43d935	0.19125827
206	0x3d30cf01	0.043166164
207	0xbd98743e	-0.074440464
208	0x3dfe8499	0.12427635
209	0x3ddfd2fb	0.10928913
210	0x389690a6	7.1795e-05
211	0xbd091168	-0.033463866
212	0xbdcbfba2	-0.099601045
213	0x3dfd2ba3	0.12361839
214	0xbe31ca5f	-0.17362355
215	0x3e6ce31c	0.2313351
216	0xbdd5ea8a	-0.104451254
217	0xbdb03417	-0.08603685
218	0x3e0fb355	0.14033253
219	0xbde7caa7	-0.1131795
220	0xbe57c938	-0.21072853
221	0xbd3328d6	-0.043740116
222	0xbe5b9e17	-0.21447025
223	0x3c8dc65b	0.017306497
224	0xbe425474	-0.18977529
225	0xbe3149c9	-0.17313303
226	0xbd2565f3	-0.04038043
227	0x3e3ba3dd	0.18324228
228	0xbe12493f	-0.14285754
229	0xbb4c57c0	-0.0031180233
230	0x3d9a3ec9	0.075315066
231	0xbddf54b9	-0.109048314
232	0x3e12d2c5	0.14338215
233	0x3e17e873	0.14834766
234	0x3e89c064	0.26904595
235	0xbdb25799	-0.08708114
236	0x3d99a25f	0.07501673
237	0xbd56fd65	-0.05248775
238	0x3cb334ce	0.021875765
239	0x3d7b7384	0.06138946
240	0x3e5c20f8	0.21496952
241	0x3e61c6e8	0.22048533
242	0x3e33140b	0.17488115
243	0x3e7a04fc	0.24415964
244	0xbcf33515	-0.029688397
245	0x3d7d095c	0.061776504
246	0xbe36ce48	-0.17852128
247	0xbdfcac6f	-0.123375766
248	0x3c9c7662	0.019099418
249	0x3d0ee888	0.034889728
250	0xbc93c050	-0.018036038
251	0xbda32254	-0.07965532
252	0x3e640cd2	0.22270516
253	0xbd5fcecc	-0.054640576
254	0x3b8a6a4f	0.0042240988
255	0x3d03a470	0.03213924

fc1.bias f4 [128]
0	0x3e1b99cb	0.15195386
1	0x3e2468df	0.1605563
2	0x3e267208	0.16254437
3	0x3e3b3a8f	0.18284057
4	0x3cbfe4a6	0.023424458
5	0x3da94d0a	0.08266647
6	0x3d2d899b	0.04236756
7	0xbdc541a8	-0.096316636
8	0x3dd81cf2	0.10552396
9	0xbe373f64	-0.17895275
10	0xbe5e6c16	-0.21720919
11	0x3e74a724	0.23891884
12	0x3e20cb61	0.15702583
13	0xbd70531a	-0.058673
14	0x3db4d10f	0.08828937
15	0x3e6ce758	0.23135126
16	0x3c4df663	0.01257095
17	0x3e589218	0.2114948
18	0xbe22637b	-0.15858261
19	0x3dc964a6	0.0983365
20	0x3e368e77	0.17827784
21	0x3da91a36	0.082569525
22	0xbe20cc12	-0.15702847
23	0x3cca7a3a	0.024716485
24	0xbe510eab	-0.20415752
25	0x3ddb8803	0.107193016
26	0x3c9be3b1	0.01902947
27	0x3e41776c	0.18893212
28	0xbdb61269	-0.0889023
29	0x3d82739d	0.06369708
30	0xbba8d265	-0.005152034
31	0xbe48a0ed	-0.19592638
32	0x3d771b70	0.0603289
33	0x3e7f25d4	0.24916774
34	0x3dbe0106	0.09277539
35	0xbdb9a389	-0.09064395
36	0xbdee5466	-0.116371915
37	0x3c2bfeb7	0.0104977405
38	0x3e8b4fa1	0.2720919
39	0xbe1d552b	-0.1536452
40	0x3ca96d1e	0.020681914
41	0x3e3f5f90	0.18688798
42	0xbe31d5b9	-0.17366685
43	0x3e816d17	0.2527854
44	0xbda65378	-0.08121389
45	0x3e511b8b	0.20420663
46	0x3e86fc2e	0.26364273
47	0x3e32344b	0.1740276
48	0x3e83ee8d	0.25767937
49	0xbe13c1a0	-0.14429331
50	0x3de04fb7	0.109527044
51	0xbd512344	-0.051059023
52	0xbe19b226	-0.15009364
53	0xbe879a59	-0.26484945
54	0xbd45bb39	-0.048274253
55	0x3e891f69	0.26781777
56	0x3c93a8ca	0.01802482
57	0x3e7c9197	0.24664913
58	0xbe418328	-0.18897688
59	0xbc1322ea	-0.008980492
60	0xbd467953	-0.048455548
61	0x3e80cc3c	0.25155818
62	0x3cb3a76f	0.021930424
63	0xbe1f6d82	-0.15569118
64	0x3deb1e0f	0.114803426
65	0xbe61a0f2	-0.22034052
66	0x3cb892d6	0.022530954
67	0x3db86939	0.09004445
68	0xbd8dfcab	-0.06932958
69	0x3e2945e9	0.16530575
70	0x3e829aa4	0.25508606
71	0x3da4723d	0.08029602
72	0xbe0e9480	-0.13923836
73	0x3d5d914b	0.05409364
74	0xbe353a60	-0.1769805
75	0x3e18473c	0.14870924
76	0x3e33a9ae	0.17545196
77	0xbc5de153	-0.013542491
78	0x3e61f9ca	0.22067943
79	0x3e146966	0.14493331
80	0x3d4f47c2	0.050605543
81	0xbe27e34d	-0.16395302
82	0xbe7800d4	-0.24219066
83	0xbe29f2d4	-0.16596538
84	0x3dbfec02	0.09371187
85	0x3e09c86b	0.1345536
86	0xbdbcf7f8	-0.09226984
87	0xbd895e37	-0.06707423
88	0xbddc4931	-0.10756148
89	0x3a6beb6f	0.0008999621
90	0x3e0c55e7	0.13704644
91	0xbc85f8b0	-0.016353935
92	0x3cb8150b	0.022470972
93	0x3e693244	0.22773081
94	0x3e517b91	0.20457293
95	0xbe89787c	-0.26849735
96	0x3de82b7a	0.113364175
97	0xbe573ce3	-0.2101932
98	0xbe51403c	-0.2043466
99	0x3d3d8985	0.046273727
100	0x3e27c1df	0.1638255
101	0xbe4ce7aa	-0.20010248
102	0x3e240284	0.16016585
103	0xbd785561	-0.0606283
104	0x3e08380c	0.1330263
105	0x3e5603ab	0.20899837
106	0x3d116e12	0.03550536
107	0xbe259fac	-0.16174191
108	0x3e262c85	0.1622792
109	0x3e0bff92	0.13671711
110	0xbdc25690	-0.09489167
111	0xbcfcb1e7	-0.03084655
112	0xbc169af8	-0.009192221
113	0x3e5e12f1	0.21686913
114	0xbe2a4b63	-0.1663032
115	0x3e8244eb	0.25443205
116	0xbe130d39	-0.14360513
117	0xbe2ec4c8	-0.17067254
118	0xbe2695a7	-0.16268025
119	0x3e5c5123	0.21515326
120	0x3d83d352	0.064367905
121	0x3cfbb069	0.030723767
122	0x3e321e4c	0.1739437
123	0x3d7aa479	0.06119201
124	0xbe71cff3	-0.23614483
125	0x3e3a3d37	0.18187414
126	0x3dbd44e5	0.09241656
127	0xbe15f7fe	-0.14645383

fc2.weight f4 [64, 128]
0	0x3d93c043	0.072144054
1	0xbcf1470b	-0.029452821
2	0x3cbdbd12	0.023161445
3	0xbb970471	-0.0046086838
4	0x3d66f576	0.056386434
5	0x3d62b65a	0.055349685
6	0x3d6b5bac	0.057460472
7	0x3d3e235a	0.046420433
8	0x3bc5a4e0	0.0060316175
9	0xbcd5201d	-0.02601629
10	0x3c432829	0.01191143
11	0x3d99db87	0.07512575
12	0xbcf95eed	-0.030440772
13	0x3ba9b905	0.0051795267
14	0x3d1a6ee3	0.037703406
15	0x3cc13836	0.023586374
16	0x3c0cb8bc	0.008588966
17	0x3c144a48	0.009050913
18	0xbd30aa63	-0.043131243
19	0x3d117fef	0.035522398
20	0x3d047779	0.0323405
21	0xbdbf48a9	-0.09340031
22	0x3d660fe9	0.056167517
23	0xbd70abef	-0.05875772
24	0x3da3ff1c	0.080076426
25	0x3cd8fb4e	0.026487019
26	0xbb6ab118	-0.0035811123
27	0x3daaf2e7	0.08347111
28	0xbdf00ce0	-0.11721206
29	0xbc81d674	-0.01584933
30	0x3d48e796	0.049048983
31	0x3d3e9888	0.046532184
32	0xbd1c39fb	-0.038141232
33	0x3d2b7fe2	0.041870005
34	0xbd9a33e3	-0.07529428
35	0x3db52824	0.08845547
36	0xbd83ef40	-0.06442118
37	0xbc38dbd2	-0.011282878
38	0xbc0ab861	-0.008466811
39	0x3d8f4ae6	0.069967076
40	0x3dcf055e	0.101084456
41	0x3d1abcfc	0.037777886
42	0xbd594b83	-0.05305053
43	0x3b74d144	0.0037356177
44	0xbdd26acd	-0.10274277
45	0x3dd359a3	0.10319831
46	0x3cec238e	0.028825548
47	0xbc02b7e4	-0.007978413
48	0x3d601add	0.05471312
49	0x3d90b512	0.070657864
50	0x3bfcd951	0.007716336
51	0xbd880c81	-0.0664301
52	0x3cf0185e	0.029308494
53	0xbd68a61d	-0.056799043
54	0x3d73fdf6	0.059568368
55	0xbce99639	-0.028514015
56	0xbc9e4c4c	-0.01932349
57	0xbca40511	-0.020021947
58	0xbd960756	-0.07325618
59	0x3cb51c03	0.022108084
60	0x3db611bc	0.08890101
61	0xbd576282	-0.05258418
62	0xbd65e163	-0.05612315
63	0x3d265052	0.040603943
64	0x3d10b78b	0.03533129
65	0x3cdc2844	0.026874669
66	0x3d9f6d00	0.07784462
67	0xbd9424b9	-0.07233567
68	0xbd7823bb	-0.06058095
69	0xbd74af4a	-0.05973748
70	0x3ab0ffac	0.001350393
71	0x3d8505bf	0.064952366
72	0xbd4b9d99	-0.049710844
73	0xbc90285f	-0.017597375
74	0x3c59016b	0.013244967
75	0x3c4a2ab3	0.012339282
76	0x3d75b07c	0.05998276
77	0xbd0c831b	-0.03430472
78	0x3dccfedb	0.10009547
79	0x3da0a3db	0.07843753
80	0xbcaf5608	-0.021403328
81	0xbd306649	-0.043066297
82	0xbdbb9811	-0.09159864
83	0xbd814790	-0.063124776
84	0x3ba12358	0.0049175434
85	0xbdb0fdf6	-0.08642189
86	0xbde351bc	-0.11099574
87	0x3d49071d	0.04907905
88	0xbda20a35	-0.07912103
89	0x3d30b844	0.04314448
90	0x3d381b47	0.04494789
91	0x3d8808fc	0.06642339
92	0x3c8316ec	0.016002141
93	0xbaa2bd25	-0.0012415989
94	0x3e02dfa4	0.12780625
95	0xbd6cde30	-0.057829082
96	0xbba7f421	-0.005125538
97	0xba9d4d38	-0.0012001162
98	0xbde6cad9	-0.11269159
99	0x3d3015a2	0.04298938
100	0xbc9feeba	-0.019523013
101	0x3c363ab3	0.011122393
102	0x3ce0ee55	0.027457396
103	0xbcc17afa	-0.02361821
104	0x3d023ba4	0.03179516
105	0xbceefc2a	-0.029172976
106	0xbc68d226	-0.01421026
107	0xbdad7853	-0.08470216
108	0xbd09bb18	-0.033625692
109	0xbd00b45f	-0.031422015
110	0xbddde9cc	-0.10835609
111	0xbd590045	-0.052978773
112	0xbd3d596c	-0.046227857
113	0x3d3a3326	0.045458935
114	0xbc702231	-0.014656589
115	0x3daebcb8	0.08532089
116	0xbdbe2854	-0.09285036
117	0x3d0b59ba	0.034021117
118	0xbdaca90e	-0.08430682
119	0x3d854fe0	0.065093756
120	0x3d95844a	0.07300623
121	0x3d2411d3	0.04005606
122	0x3ce708ea	0.028202493
123	0xbd539504	-0.051655784
124	0x3d130c95	0.03590067
125	0x3dccb019	0.099945255
126	0xbc77aa2e	-0.015116258
127	0xbca9643f	-0.020677684
128	0x3dd12617	0.10212343
129	0x3dcec079	0.10095305
130	0x3de1c07d	0.11023042
131	0xbd8e8da3	-0.06960609
132	0x3d9a3d13	0.0753118
133	0x3c4b8d18	0.012423776
134	0xbd9b0bda	-0.0757062
135	0x3dc1d95f	0.09465288
136	0xbd6d6caa	-0.05796496
137	0xbc2ce4da	-0.010552609
138	0xbdb804bc	-0.08985278
139	0x3c918a90	0.017766267
140	0xbcfe515b	-0.031044653
141	0x3dd39deb	0.10332855
142	0x3d554d33	0.052075576
143	0x3d90ff50	0.07079947
144	0x3d623426	0.055225514
145	0x3d57c78d	0.05268054
146	0x3d87e32b	0.06635126
147	0x3d236bf7	0.039897885
148	0x3d1ce6f8	0.038306206
149	0xbd944f25	-0.07241658
150	0x3cf8dca1	0.030378642
151	0xbd7cc8c9	-0.06171492
152	0xbbb8cfd4	-0.0056400094
153	0xbd6cc4b8	-0.057804793
154	0x3dba97b7	0.091109686
155	0x3ccee545	0.025255809
156	0xbde99f44	-0.11407331
157	0xbdca9c4d	-0.09893093
158	0x3d88c7b7	0.066787176
159	0x3d2a1f53	0.04153378
160	0x3dd0a920	0.10188508
161	0x3d074df3	0.033033323
162	0x3cc54b62	0.024083797
163	0x3cb1565e	0.021647628
164	0xbddfc446	-0.10926108
165	0x3d5948f7	0.0530481
166	0xbd0de477	-0.03464171
167	0x3ca044a6	0.019563984
168	0xbd6f0632	-0.058355518
169	0xbbaab9e1	-0.005210147
170	0x3ca79ac0	0.020459533
171	0xbd1e2958	-0.038613647
172	0x3cce3543	0.025171882
173	0x3d8df4fd	0.069314934
174	0x3cf04a5d	0.029332334
175	0x3d1b2a66	0.03788223
176	0x3d8eb8a6	0.06968813
177	0xbd95c667	-0.07313233
178	0x3ddac05c	0.10681221
179	0xbd16c8f5	-0.03681274
180	0x3d5a6435	0.05331822
181	0xbda492b6	-0.080357954
182	0xbd9eafc6	-0.0774837
183	0x3d882a2a	0.06648667
184	0x3c962362	0.018327419
185	0x3de040dd	0.10949872
186	0x3d02f436	0.03197118
187	0xbd62a5b1	-0.055333797
188	0x3d73db83	0.059535515
189	0x3da25bb6	0.07927649
190	0x3cdc82d4	0.026917852
191	0xbce90a33	-0.028447246
192	0xbb1d4a58	-0.002400061
193	0xbd92e1ab	-0.07171949
194	0x3d9e0084	0.07714942
195	0x3cff4d5a	0.031164814
196	0xbc934d91	-0.017981322
197	0x3d8c27a2	0.06843497
198	0xbd4666a1	-0.04843772
199	0x3d89122a	0.06692918
200	0xbba4f6c2	-0.0050342986
201	0xbd7afe9c	-0.06127797
202	0xbcbb6ed6	-0.02288
203	0x3a638bd5	0.00086801994
204	0xbd932f18	-0.07186717
205	0xbd06c93d	-0.03290676
206	0x3bd7517c	0.006570993
207	0x3d8b1a7d	0.067921616
208	0xbdb37574	-0.08762637
209	0xbd053b00	-0.03252697
210	0x3d4d9e80	0.050199986
211	0xbda27a5d	-0.07933495
212	0x3be3f75d	0.0069569782
213	0x3d08bef6	0.03338524
214	0x3ceb08c9	0.028690713
215	0xbd394c52	-0.0452388
216	0x3a3527b9	0.0006910521
217	0xbd18374c	-0.03716211
218	0xbc30aa7b	-0.010782833
219	0x3d41f1bf	0.047349688
220	0x3c0bacbe	0.008525072
221	0x3db3d510	0.08780873
222	0x3db87e24	0.090084344
223	0x3d1bc331	0.038027946
224	0xbd7922d4	-0.06082423
225	0xbd045be7	-0.032314207
226	0xbd4806e5	-0.0488347
227	0x3ccaf2f4	0.024774052
228	0x3d00b872	0.0314259
229	0xbce5efac	-0.028068386
230	0x3d871ed4	0.06597677
231	0xbd81bd39	-0.063349195
232	0xbd7c85be	-0.061650984
233	0xbc26b3c9	-0.0101747
234	0x3b9a04c7	0.0047002765
235	0xbd4d6ae9	-0.050150786
236	0x3c78e3b0	0.015191004
237	0x3d38af80	0.045089245
238	0xbda3fbdd	-0.080070235
239	0x3dc51e12	0.09624876
240	0x3caa8f42	0.020820264
241	0xbd1a6ac9	-0.037699495
242	0x3d9ab963	0.07554891
243	0x3d05c5bf	0.03265929
244	0xbcf3205e	-0.02967852
245	0x3dca0aa9	0.098653145
246	0x3cdafe18	0.02673249
247	0x3b977a67	0.004622746
248	0x3d637a61	0.05553663
249	0x3d00f078	0.03147933
250	0xbcb5791d	-0.022152478
251	0xbc8220d5	-0.015884796
252	0xbd034803	-0.032051098
253	0xbd293314	-0.041308478
254	0x3cec8fdf	0.028877197
255	0x3bfaa4f7	0.00764906

fc2.bias f4 [64]
0	0x3d0220bf	0.03176951
1	0x3c118653	0.008882123
2	0xbd630683	-0.055426132
3	0x3d396d38	0.045270175
4	0xbdbada95	-0.091237225
5	0xbcc09b36	-0.02351151
6	0x3d053dbd	0.03252958
7	0x3cca90df	0.024727283
8	0x3dd2fc42	0.103020206
9	0xbdd59429	-0.1042865
10	0x3cc2f11c	0.02379661
11	0xbd527f2b	-0.051390808
12	0xbd441212	-0.047868796
13	0xbc86b195	-0.0164421
14	0x3ce26c92	0.027639661
15	0xbd64b736	-0.055838786
16	0x3dde10cb	0.10843047
17	0x3c5f2b60	0.013621181
18	0xb9f11f0a	-0.00045990228
19	0x3d242dc7	0.04008272
20	0x3c8354be	0.01603162
21	0xbd8a188b	-0.067429624
22	0x3c879554	0.016550697
23	0xbd62a3ec	-0.05533211
24	0xbdadde2c	-0.084896415
25	0xbd2cb4df	-0.04216468
26	0xbdcad4ae	-0.09903847
27	0xbdaa7d50	-0.08324683
28	0xbaaf9b09	-0.0013397645
29	0x3c803e3d	0.015654678
30	0x3b4347ac	0.0029797358
31	0xbd5ee909	-0.05442146
32	0x3db05e12	0.086116925
33	0xbd9aff5c	-0.07568237
34	0xbd950609	-0.07276542
35	0xbd92c1e4	-0.07165888
36	0xbd53a78f	-0.05167347
37	0xbdb0647d	-0.086129166
38	0x3cc5ac6f	0.024130074
39	0xbd80af9d	-0.062834956
40	0x3c3a1884	0.011358384
41	0x3d4328e8	0.047646433
42	0x3d1eb6d9	0.038748596
43	0xbd830056	-0.063965484
44	0xbc9cbf3c	-0.019134156
45	0x3cdc79c8	0.026913539
46	0x3de0de14	0.10979858
47	0x3ca73cb5	0.02041469
48	0x3d406aef	0.04697698
49	0xbdb8986c	-0.09013447
50	0xbd83b9aa	-0.06431897
51	0xb8e8776f	-0.00011084868
52	0x3c926057	0.017868204
53	0x3c9c6de4	0.019095369
54	0xbd6dab39	-0.05802462
55	0x3d04ce1b	0.03242312
56	0x3d0a9514	0.03383358
57	0x3c24f6b4	0.010068584
58	0xbdcf19c7	-0.101123385
59	0x3dd14152	0.10217537
60	0xbc8b34a8	-0.016992882
61	0x3dcdac99	0.10042686
62	0x3b8fd2c9	0.004389141
63	0xbc339af1	-0.010962234

fc3.weight f4 [32, 64]
0	0xbe085d73	-0.13316898
1	0xbd1d9e92	-0.038481303
2	0xbd8f83dc	-0.07007572
3	0x3e109fa1	0.14123394
4	0xbdb4f0c5	-0.08834986
5	0xbe048a53	-0.12943392
6	0x3d419a77	0.04726645
7	0xbe065043	-0.13116555
8	0x3d4c4685	0.04987194
9	0xbc13981a	-0.009008432
10	0x3e119986	0.14218721
11	0xbae57c93	-0.001750844
12	0xbd508f47	-0.05091789
13	0xbd9a85ce	-0.075450525
14	0xbce2b169	-0.027672486
15	0xbdc8613d	-0.09784172
16	0xbd3d3586	-0.046193622
17	0xbda5f5d0	-0.08103526
18	0xbbbd653c	-0.0057798903
19	0x3e015875	0.126314
20	0xbc06d341	-0.008229078
21	0x3d90ad2d	0.07064281
22	0xbd58600b	-0.05282597
23	0x3d816ac2	0.063191906
24	0xbda0f86c	-0.07859883
25	0xbd1df253	-0.038561177
26	0x3dabb47c	0.08384034
27	0x3ca9ee55	0.020743528
28	0x3d7735f9	0.060354207
29	0xbdc7cddf	-0.09756064
30	0xbe080065	-0.132814
31	0x3e0556b0	0.1302135
32	0xbd4b322a	-0.049608387
33	0xbd92089f	-0.071305506
34	0x3db3744f	0.087624185
35	0x3dcb290b	0.09919938
36	0x3df9711b	0.12179776
37	0x3da9d71a	0.082929805
38	0x3ce9be4e	0.028533127
39	0x3de06645	0.10957006
40	0xbdde7a65	-0.10863189
41	0x3ddee0d3	0.108827256
42	0x3db214e5	0.086953916
43	0x3d646121	0.05575669
44	0xbdd151b3	-0.10220661
45	0x3dd29ade	0.10283445
46	0xbe14a486	-0.14515886
47	0x3e015f7a	0.12634078
48	0xbdf1bb35	-0.11803285
49	0x3da85f8e	0.082213506
50	0xbdb2492f	-0.08705365
51	0xbe153b84	-0.14573485
52	0x3dccf22f	0.1000713
53	0x3c20a2c1	0.009804429
54	0xbd19c578	-0.037541837
55	0x3d6fb5b9	0.058522914
56	0x3da96a4d	0.082722284
57	0xbd85a60e	-0.06525813
58	0x3d835594	0.06412807
59	0xbba28afd	-0.0049604164
60	0x3d9f5514	0.07779899
61	0xbda0e14e	-0.078554735
62	0xbd8088da	-0.06276102
63	0xbd8ec6fb	-0.06971546
64	0x3d361942	0.04445768
65	0x3d4ef1cd	0.050523568
66	0xbdb8a646	-0.09016089
67	0xbd30be2a	-0.043150105
68	0x3c31f6d1	0.010862068
69	0x3dcc1d6e	0.09966551
70	0x3e2a2573	0.16615848
71	0x3e1ab377	0.15107523
72	0x3c3496ab	0.01102225
73	0xbdf85369	-0.12125284
74	0x3e2238bc	0.15841955
75	0x3d52f122	0.051499493
76	0x3d3e38cf	0.046440896
77	0x3c70d964	0.014700267
78	0xbc0f43ae	-0.008744163
79	0x3d0e591a	0.034752943
80	0x3d9687ff	0.07350158
81	0x3c81f52b	0.015863976
82	0x3e17f799	0.14840545
83	0xbd44ffe6	-0.048095606
84	0x3d4c8d2f	0.04993933
85	0x3cd418ea	0.025890786
86	0x3db51a96	0.088429615
87	0xbca816da	-0.020518709
88	0x3c52a166	0.012855863
89	0xbe002a46	-0.12516126
90	0x3d661a97	0.0561777
91	0xbdace330	-0.0844177
92	0xbbeebd8d	-0.00728578
93	0xbbab2554	-0.0052229557
94	0xbdf36886	-0.11885171
95	0x3d5c8535	0.053837974
96	0x3d265530	0.040608585
97	0x3d1f3202	0.03886605
98	0x3d09bb06	0.033625625
99	0xbd408bf8	-0.047008485
100	0xbb9dd833	-0.0048170327
101	0xbe1d8458	-0.15382516
102	0x3e244733	0.16042785
103	0xbe0e3087	-0.13885699
104	0x3dabd08b	0.08389386
105	0xbd3e99c7	-0.046533372
106	0xbdae262b	-0.08503374
107	0xbd18ed63	-0.037335765
108	0x3cb10730	0.021609873
109	0x3dd35f46	0.10320906
110	0xbc37619e	-0.011192707
111	0xbe12b1dd	-0.14325662
112	0x3e2ab9a9	0.16672386
113	0x3ce828f4	0.02833984
114	0x3d9cdc9e	0.07659267
115	0x3d06a51c	0.032872304
116	0xbe238b1d	-0.15971036
117	0x3d740c63	0.059582125
118	0x3dfe70bc	0.12423846
119	0xbd9b2000	-0.07574463
120	0x3ce6ca0b	0.028172513
121	0xbd0ae1b0	-0.03390664
122	0xbaf9cff2	-0.0019059165
123	0x3cfc9bc7	0.030836
124	0xbe2c137a	-0.16804305
125	0x3e1a57ff	0.1507263
126	0x3d5ab067	0.053390887
127	0xbd52d2ec	-0.051470682
128	0xbe05d8ff	-0.13071059
129	0xbd675387	-0.056476142
130	0x3df5d4e0	0.12003493
131	0x3d0fc186	0.035096668
132	0xbc442335	-0.011971285
133	0x3cde1d82	0.02711368
134	0xbe1496d6	-0.14510664
135	0xbbdfbce2	-0.0068279365
136	0xbce04105	-0.027374754
137	0x3d94db2a	0.07268365
138	0x3d7aa1b6	0.061189376
139	0x3d8da1f4	0.06915656
140	0xbc6290c7	-0.013828463
141	0x3dbd8b45	0.09255079
142	0x3e0367e6	0.12832603
143	0xbb76ed79	-0.0037678166
144	0xbd10996f	-0.035302576
145	0xbd93ce4e	-0.07217084
146	0x3b947ca1	0.0045314585
147	0x3c9da4d7	0.01924364
148	0x3c57afff	0.013164519
149	0x3e0aace6	0.13542518
150	0xbd712df1	-0.058881704
151	0x3ca4d94e	0.02012315
152	0x3dcf131e	0.10111068
153	0x3d260dd9	0.04054055
154	0xbdacd88c	-0.084397405
155	0x3c48ccf4	0.012255896
156	0x3d150cc0	0.036389112
157	0xbd13319a	-0.035935976
158	0x3da476ab	0.080304466
159	0xbde74d20	-0.11294007
160	0xbd23df95	-0.040008146
161	0x3cdbc4cf	0.026827244
162	0xbdd07284	-0.10178092
163	0x3d8b0306	0.06787686
164	0x3dc4e040	0.09613085
165	0x3e0f5279	0.13996305
166	0x3b1538ac	0.0022769375
167	0x3e006cae	0.12541458
168	0xbde40ba5	-0.111350335
169	0xbd191e34	-0.03738232
170	0xbd7586ad	-0.05994289
171	0xbd8e8330	-0.06958616
172	0xbb7d0abf	-0.0038611141
173	0xbdba4b9b	-0.09096452
174	0xbe11cf92	-0.14239338
175	0xbb1d0847	-0.0023961233
176	0xbda269e8	-0.07930356
177	0xbd21baac	-0.039484665
178	0xbbcbe0aa	-0.0062218504
179	0xbdcacd42	-0.09902431
180	0xbd1fe59e	-0.03903734
181	0xbcbdb8af	-0.023159353
182	0xbe091174	-0.13385564
183	0xbd347533	-0.044057082
184	0xbe12b6c9	-0.1432754
185	0xbcedea41	-0.029042365
186	0x3d5ddeec	0.054167673
187	0xbe0a0a92	-0.13480595
188	0x3d14931d	0.03627311
189	0xbe0612ab	-0.13093059
190	0xbdafe48c	-0.08588514
191	0xbdf2ebc3	-0.11861374
192	0x3cc82677	0.024432404
193	0x3e09d79b	0.13461153
194	0xbdbf891c	-0.093523234
195	0x3d313987	0.043267753
196	0xbd1f22da	-0.038851596
197	0x3d87b262	0.06625821
198	0x3c3adb08	0.01140476
199	0x3d96fbdd	0.07372258
200	0x3d81fa15	0.063465275
201	0xb8c02605	-9.162355e-05
202	0x3c468765	0.0121172415
203	0xbcb44ca0	-0.022009194
204	0x3ce2f4ca	0.027704615
205	0x3d757409	0.059925113
206	0x3b86089f	0.004090383
207	0xbc8a1a79	-0.016858326
208	0x3e170633	0.14748459
209	0x3e081bea	0.13291898
210	0xbd5e2621	-0.05423558
211	0x3c9b5e1c	0.018965773
212	0x3d3c731e	0.04600822
213	0xbe1e24b7	-0.15443693
214	0x3e1c998b	0.15292947
215	0xbceefa67	-0.029172136
216	0xbde7e358	-0.11322659
217	0xbd48ac8c	-0.04899268
218	0xbdc35b35	-0.09538881
219	0x3d6091fd	0.054826725
220	0xbc88be9f	-0.016692458
221	0xbdfd6f35	-0.12374727
222	0x3d5598a5	0.052147526
223	0x3de823a8	0.11334926
224	0xbd8cd0b5	-0.06875745
225	0xbe11f6c0	-0.14254284
226	0xbc598ae9	-0.013277748
227	0xbe145d95	-0.14488824
228	0x3cac8efd	0.021064276
229	0xbbe9e3a1	-0.007137731
230	0xb9ad9390	-0.00033107074
231	0x3d9bd889	0.0760966
232	0xbd588ba6	-0.052867554
233	0xbd335d9e	-0.043790452
234	0x3bffb5e3	0.007803665
235	0x3dbd3cc5	0.092401065
236	0xbdc973e0	-0.098365545
237	0x3e11a2dc	0.14222282
238	0x3d535e49	0.05160359
239	0xbd241dca	-0.04006747
240	0x3d364872	0.044502683
241	0x3dc6ed53	0.09713235
242	0x3d585903	0.052819263
243	0xbdb82c8a	-0.0899287
244	0x3d1b3ad6	0.037897907
245	0x3d077149	0.03306702
246	0x3c9a9ad8	0.018872663
247	0x3e131ed0	0.14367223
248	0x3c8ba457	0.017046137
249	0x3c330aa2	0.010927828
250	0xbe1c1153	-0.15240984
251	0xbd006bd5	-0.031352837
252	0xbde5a726	-0.11213522
253	0x3d4faa69	0.050699625
254	0xbcc4d3c0	-0.024026752
255	0x3e1ab823	0.15109305

fc3.bias f4 [32]
0	0x3d5ba10c	0.053620383
1	0xbbada4c0	-0.0052991807
2	0xbd91bf11	-0.07116521
3	0x3d9d87c6	0.07691912
4	0x3dad83bc	0.08472392
5	0x3d90e43c	0.07074782
6	0xbbda9fea	-0.0066718953
7	0xbd11bddf	-0.035581466
8	0xbd229a5b	-0.039697986
9	0xbd902f7d	-0.07040308
10	0xbdc10f0a	-0.094266966
11	0x3dce326a	0.100682095
12	0xbde9a4c2	-0.11408378
13	0xbbf6f4fe	-0.0075365296
14	0x3da03ee4	0.078244954
15	0x3d03711a	0.032090284
16	0x3dee5038	0.11636394
17	0xbda4c8bf	-0.08046102
18	0x3c12647b	0.008935089
19	0x3d0a44fe	0.033757202
20	0x3d33bcb0	0.04388112
21	0xbd885f4b	-0.06658801
22	0xbddcc4cd	-0.10779724
23	0x3d709487	0.058735397
24	0x3d57888b	0.052620452
25	0x3e062bda	0.13102666
26	0xbd56ced5	-0.052443344
27	0xbc06a1fd	-0.008217332
28	0x3df87500	0.12131691
29	0x3dc75844	0.09733632
30	0xbcf217e6	-0.029552411
31	0xbdc575e3	-0.09641626

fc4.weight f4 [5, 32]
0	0xbd3fb1c2	-0.046800382
1	0xbddf6dcd	-0.10909615
2	0x3e23224d	0.15931053
3	0xbe1b734d	-0.15180703
4	0x3cefcef7	0.029273493
5	0xbd9ec0cb	-0.07751616
6	0xbe4cc718	-0.19997823
7	0x3d3086d7	0.043097343
8	0x3dee013c	0.11621329
9	0xbd057b78	-0.032588452
10	0xbdafbee5	-0.08581332
11	0xbcc5bf63	-0.024139112
12	0x3e324880	0.17410469
13	0xbd9e9554	-0.07743326
14	0x3dac804d	0.08422909
15	0xbe1b72cf	-0.15180515
16	0xbe044ffe	-0.1292114
17	0x3e16afce	0.14715502
18	0xbda2c036	-0.079468176
19	0x3e4d8716	0.20071062
20	0x3e3b99f1	0.18320443
21	0xbe49a632	-0.19692305
22	0x3e2b9ce3	0.16759066
23	0x3df56f12	0.119840756
24	0x3e2d2477	0.16908441
25	0x3e034211	0.12818171
26	0x3e1639a6	0.14670429
27	0xbdbe2478	-0.092842996
28	0xbe193a15	-0.14963563
29	0xbe3d534a	-0.18488804
30	0xbb2689ab	-0.0025411646
31	0xbc50e8f6	-0.012750855
32	0xbd8eb1df	-0.0696752
33	0x3e168f44	0.14703089
34	0xbe020eab	-0.12700908
35	0xbc8c8b8e	-0.017156389
36	0xbd7b6a59	-0.061380718
37	0x3d502780	0.05081892
38	0xbc5d0559	-0.0134900445
39	0xbc9a0108	-0.01879932
40	0xbd690f86	-0.05689957
41	0x3e192cb5	0.1495846
42	0xbe0538e1	-0.13009979
43	0x3dd43d5c	0.10363266
44	0x3e146a85	0.14493759
45	0x3e2284f1	0.15871026
46	0x3e2b56f2	0.16732386
47	0xbe477266	-0.19477233
48	0x3de6a2d7	0.11261528
49	0x3c12d97e	0.008962987
50	0x3da3e919	0.08003444
51	0x3d9a4c54	0.0753409
52	0xbcaa2210	-0.020768195
53	0xbe079e9b	-0.13244097
54	0xbc5e0c80	-0.013552785
55	0x3cd59f9f	0.02607709
56	0x3e001d4d	0.12511177
57	0xbd20379f	-0.039115544
58	0x3d3c0989	0.04590753
59	0xbde98d6a	-0.11403926
60	0xbe071f55	-0.13195546
61	0x3deed865	0.11662368
62	0xbde910fb	-0.11380192
63	0x3deceb7c	0.115683526
64	0x3dc3592c	0.095384926
65	0xbbdd29c7	-0.006749365
66	0x3ca1c844	0.019748814
67	0x3e2400a7	0.16015874
68	0xbc9b4915	-0.018955747
69	0xbe39ba6a	-0.18137518
70	0xbdbf244b	-0.09333094
71	0xbce15e63	-0.027510827
72	0x3b9e43d3	0.0048298626
73	0x3c02a348	0.0079735
74	0x3d6678be	0.056267492
75	0xbdc07ce5	-0.09398822
76	0x3de26c0f	0.11055767
77	0xbdda29aa	-0.10652478
78	0xbd76bde8	-0.060239702
79	0x3dce1c1e	0.10063957
80	0x3e43103a	0.19049159
81	0x3de89e8b	0.11358365
82	0x3e3282dd	0.17432733
83	0xbd6155dc	-0.055013523
84	0xbd3fe048	-0.04684475
85	0xbe408127	-0.18799268
86	0xbc15c8b2	-0.009142088
87	0xbca883e7	-0.020570708
88	0xbd75d884	-0.06002094
89	0x3dd50824	0.10401943
90	0xbdd4e9e0	-0.103961706
91	0x3c29ed49	0.010371515
92	0xbc80fad4	-0.015744604
93	0xbd854926	-0.065080926
94	0xbe3b2e02	-0.1827927
95	0x3d6d49b1	0.057931606
96	0xbe066271	-0.1312349
97	0x3df168fb	0.117876016
98	0x3daf69f6	0.08565132
99	0xbc6cc919	-0.014452242
100	0xbe10acfe	-0.14128491
101	0xbb2c03cd	-0.0026247383
102	0x3ba091a1	0.004900173
103	0xbbd97518	-0.006636273
104	0xbe014b28	-0.12626326
105	0xbe517cfe	-0.20457837
106	0x3d80a4a0	0.062814
107	0x3e309781	0.17245294
108	0xbd844990	-0.064593434
109	0x3de9876a	0.11402781
110	0x3e1020ae	0.14074966
111	0xbdf8102d	-0.1211246
112	0xbe0de2fc	-0.13856119
113	0xbdf97c15	-0.1218187
114	0xbe091e4a	-0.1339046
115	0x3e43a30c	0.19105166
116	0x3e3648af	0.17801164
117	0xbe2f2403	-0.17103581
118	0x3d6c290f	0.057656344
119	0xbd619969	-0.055077944
120	0xbdd0ba0e	-0.10191737
121	0xbe39730e	-0.18110296
122	0xbd561f72	-0.052276082
123	0x3e005b2a	0.12534776
124	0x3d7d0be9	0.061778937
125	0x3c6f81a5	0.014618312
126	0xbc4461b5	-0.011986186
127	0x3e0fa95a	0.14029446
128	0xbdcb75d8	-0.09934586
129	0x3e268d92	0.16264942
130	0xbe141317	-0.14460407
131	0x3e5fcf89	0.21856512
132	0xbe232e8b	-0.15935723
133	0x3e06294e	0.13101694
134	0x3d279da4	0.040921822
135	0xbe02c3e3	-0.12770037
136	0xbdf6b75d	-0.120466925
137	0x3e1c5ba2	0.1526933
138	0x3e62bf13	0.22143202
139	0xbe45bfd0	-0.19311452
140	0xbe19e61e	-0.15029189
141	0xbe44d847	-0.19223128
142	0xbd8c006f	-0.0683602
143	0x3e48d7b2	0.19613531
144	0xbd8cf375	-0.06882373
145	0xbd8df7e1	-0.06932045
146	0xbe3c4803	-0.18386845
147	0x3d80345e	0.06259988
148	0xbe0df056	-0.13861212
149	0x3e177de5	0.14794119
150	0xbe04f456	-0.12983832
151	0xbe124e12	-0.14287594
152	0xbe551133	-0.20807342
153	0x3e41e5d6	0.18935332
154	0xbc86ae1d	-0.016440446
155	0xbe457d46	-0.1928607
156	0x3d6df143	0.058091413
157	0xbd88b16d	-0.06674466
158	0x3e59e5c3	0.21279053
159	0xbe445cb5	-0.1917599

fc4.bias f4 [5]
0	0x3e0cb648	0.1374141
1	0xbd5d2c29	-0.053997193
2	0xbc964d62	-0.018347446
3	0x3d444c93	0.04792459
4	0xbddd09e2	-0.107929006
