clean_code/trained_models/actor_874.pth (torch, 54872 bytes, 8 tensors)

fc1.weight f4 [128, 18]
00000000: b9e0 213e a79b b43d 9c83 1ebe 8702 453e
00000010: 4137 fe3d 1cd5 83bd 54a9 003d 28b7 d73c
00000020: e994 c43d 888c 8cbd 668b 14be 6f32 b13b
00000030: adbd 5f3e e246 a93d b23d 193e 820d 023d
00000040: 27a3 68be 3c06 833e eb3f 113e 8a24 2b3e
00000050: 754b ad3d b7a2 9ebd b41b 913d 6d88 89bc
00000060: 8340 173e abbb 533e c637 cc3d 4187 273d
00000070: 6fd5 183e a014 153e cdef 28be 2432 0cbe
00000080: ed27 bbbd 5cb6 6c3d fc4b 27be 6d86 2b3d
00000090: 124e 1d3e a91f b53d 708d 16be 01f4 803d
000000a0: 596d 35be 4126 0b3d 9a35 473e 647b 1e3e
000000b0: 51f7 78bd 9493 33be be60 d4bd 7a23 373e
000000c0: c733 863e 8269 c53d b5fa 833d ea01 dbbd
000000d0: 030b 503e e042 673d 1db8 023e 7f45 20bd
000000e0: f6a6 2c3e 2240 d33c 54f2 3bbe 566c 0abe
000000f0: df36 45be 9b25 41be 2b10 ffbd 5ad1 2a3e
00000100: 500f c73d 6012 d6bd 043d 553e 7719 3e3e
00000110: d99d b1bb 48aa 3fbe 5dc7 2a3e 73c5 84bd
00000120: c476 99bd 5eae 6f3e daac 0ebd 5344 4fbe
00000130: cad5 5a3e d359 233e 29df c3bd dcf8 853e
00000140: 56e1 dfbc af19 213d 87c6 873d e99a cb3d
00000150: 9670 cf3c f429 06be 9a75 783e 670a 2c3e
00000160: fa52 0ebe 9aaf 593e 9560 d33d ce21 58bd
00000170: c786 1f3d 3132 423e e0fb 743e 50cd d7bc
00000180: 9c8c a8bd fa16 b6bb 5935 c53d 9ec9 35be
00000190: 76e1 a1bc ef2f 243e 7755 33be dfba 523e
000001a0: 0286 24be a08e 4d3e 2803 723d b070 563e
000001b0: 05ad 0f3e 411a 7ebe bbc1 153e c796 09be
000001c0: 53d2 be3d 8f4d 2f3e ea9d 333e a732 a13d
000001d0: 0916 37be e2cf 24bb 6376 69be 6f9e d0bc
000001e0: 128c 65be 60a7 1fbc 8ed5 04be 497d 5a3d
000001f0: f7af 77be 1dd6 0fbc e2c6 003d 3caa 1e3e
00000200: f950 53be 07f0 54be b603 08be 479e b63d
00000210: f471 553e 8ea7 00be fd97 343e 781e 3fbe
00000220: 9ae3 313e b396 373e 70bf a8bc c8f3 c93c
00000230: 4595 143e e5cd 683b 0e80 453d 34da 18be
00000240: e3ad 52bb b6d2 b2bd 848b 8fbd b69f 2b3e
00000250: abe8 8abd 1ae9 71be d93b d7bd b115 43be
00000260: 0019 d93b e9df 5dbe a97a d4bd 1dd1 7ebe
00000270: 3882 213e 97ab 57be 0f23 d8bd 8574 41be
00000280: 2dea 223d ce2b 1e3e 7044 1e3e dbb0 653e
00000290: 3e3f 673e 93e1 8fbd 43e7 fc3d a4cb 5fbe
000002a0: 8013 683e c504 143e 2dd0 80bd 7c50 513e
000002b0: d6f9 d03d b83b 6e3e d0d3 2a3e 4fba f4bd
000002c0: 0c82 89bd 72ee 5a3e 80ad 36be 651a bcbd
000002d0: 0382 f7bd c714 47be 0fd3 1cbe eaca 45be
000002e0: 2e52 c43d 99e1 c73d 4008 3bbc ff27 da3d
000002f0: 1ac1 513c 7e48 bd3c f17e b8bc 1cc9 8b3d
00000300: 43fc 3abe f0c4 6ebd ad1e 64be 3b7a 32be
00000310: 8ffd ff3d c96d 063d 042c 4cbd dd58 4a3e
00000320: 771c dcbc c121 f7bd 01eb edbd 38bb 4f3e
00000330: e89b a03d dbda 433e cbe8 303d 680f 98bd
00000340: 0495 fe3d 0de7 df3d 5dfa a438 6811 09bd
00000350: 5a00 ccbd 5951 fd3d 1eb3 31be dae6 6c3e
00000360: 1bec d5bd f336 b0bd d3a5 0f3e eecd e7bd
00000370: dcca 57be 652f 33bd bc9f 5bbe 06c2 8d3c
00000380: bf55 42be d654 31be 7c6c 25bd d2a1 3b3e
00000390: ac49 12be c057 4cbb 6a3f 9a3d 9d5b dfbd
000003a0: a5cd 123e c2e7 173e 45c2 893e 4144 b2bd
000003b0: ed4b 9a3d c9cf 56bd 4b90 b33c 30a1 7b3d
000003c0: 772c 5c3e ddc8 613e d81c 333e 534a 7a3e
000003d0: 05da f2bc ca40 7d3d 18cc 36be 6fac fcbd
000003e0: 5957 9c3c 1964 0f3d d5c5 92bc df15 a3bd
000003f0: 890f 643e d2b0 5fbd 78e0 913b cfc6 033d
0.15808381 0.08818751 -0.15479892 0.19239245 0.124128826 -0.06437132 0.031411484 0.026332453
0.09598715 -0.06862742 -0.14506301 0.0054076235 0.218497 0.08265473 0.14964941 0.031751163
-0.22718488 0.25590694 0.14184539 0.16713157 0.08461658 -0.07745879 0.07085362 -0.016788686
0.14770703 0.20677058 0.099715754 0.040900473 0.14925168 0.14558649 -0.16497727 -0.13691002
-0.091384746 0.0577911 -0.1633758 0.041876245 0.15361813 0.08843929 -0.14702392 0.0629654
-0.17717494 0.03397203 0.19454041 0.15476757 -0.060782734 -0.17536765 -0.103700146 0.17884627
0.26211378 0.09639265 0.06444303 -0.106937245 0.203167 0.05646026 0.12765546 -0.039128777
0.16860566 0.025787417 -0.1835416 -0.1351789 -0.19259213 -0.18862002 -0.12454256 0.16681424
0.097197175 -0.104527235 0.20824057 0.18564402 -0.0054204282 -0.18717301 0.16677614 -0.06482973
-0.07493356 0.2340636 -0.034832813 -0.20240907 0.21370617 0.15952234 -0.09564049 0.26166427
-0.027329128 0.039331134 0.06629663 0.09941656 0.02532224 -0.13101941 0.24263611 0.16800843
-0.1389884 0.21258393 0.10321156 -0.052766614 0.038946893 0.18964459 0.23924208 -0.026343018
-0.08229944 -0.0055569382 0.09629316 -0.17752692 -0.019760828 0.1603391 -0.17513071 0.20579098
-0.16066745 0.20073938 0.05908504 0.20941424 0.14030845 -0.24814703 0.14624684 -0.13436423
0.0931746 0.1711943 0.17540708 0.07870989 -0.178795 -0.0025148322 -0.22799067 -0.025466172
-0.22416714 -0.009744495 -0.1297209 0.053342137 -0.24188219 -0.008779076 0.03143967 0.15494627
-0.20636357 -0.20794688 -0.13282666 0.08916908 0.20844251 -0.12563917 0.17636104 -0.18663967
0.1737198 0.17928581 -0.020599097 0.024652377 0.14510067 0.0035523113 0.048217826 -0.14926988
-0.0032147102 -0.08731596 -0.07009032 0.16760144 -0.06782659 -0.23624077 -0.10509462 -0.19051243
0.0066252947 -0.21667446 -0.10374958 -0.24884458 0.15772331 -0.2106155 -0.10553562 -0.18892105
0.03977411 0.15446398 0.15455794 0.22430746 0.22582719 -0.07025447 0.12348797 -0.21855026
0.22663689 0.14454944 -0.062897064 0.20440859 0.102039024 0.23264968 0.16682363 -0.11949598
-0.067142576 0.21380022 -0.17839622 -0.09184722 -0.12085345 -0.1944152 -0.15314887 -0.19315687
0.09585987 0.09759826 -0.011415541 0.1065216 0.012802387 0.023105856 -0.022521468 0.06825468
-0.18260293 -0.058293283 -0.22277327 -0.1742944 0.12499534 0.032819543 -0.049846664 0.19760461
-0.026869042 -0.12066985 -0.11617089 0.20286262 0.07842237 0.19126455 0.04319076 -0.074248135
0.12430766 0.10932741 7.866763e-05 -0.033463866 -0.099610046 0.123690315 -0.17353484 0.23134938
-0.10445424 -0.08604231 0.140281 -0.11318575 -0.21073478 -0.04374637 -0.21447653 0.017304432
-0.18978022 -0.17317519 -0.040386662 0.18323448 -0.14285916 -0.0031180233 0.075316265 -0.10906146
0.1433626 0.14834502 0.26906028 -0.08704425 0.07534013 -0.052444253 0.02191939 0.061433017
0.21501337 0.2204928 0.17491472 0.24442415 -0.029644975 0.061829366 -0.17851293 -0.123375766
0.01908462 0.03500757 -0.0179166 -0.07963156 0.22271551 -0.05461199 0.0044518076 0.03217202

fc1.bias f4 [128]
00000000: 75a3 1b3e 3978 243e d877 263e fa34 3b3e
00000010: 6a0c c03c 087e a93d 057e 2d3d 7833 c5bd
00000020: d709 d83d 812d 37be f777 5ebe 66af 743e
00000030: bdc9 203e 5025 70bd 54e2 b43d d4eb 6c3e
00000040: 4f6b 4e3c 779d 583e 1e67 22be 316c c93d
00000050: 268f 363e 0d0f a93d d6c9 20be c91d ca3c
00000060: 6ffe 50be 6f8c db3d 3a10 9c3c 467d 413e
00000070: c134 b6bd 716d 823d 95ae a8bb 4ca8 48be
00000080: 7d45 773d 712e 7f3e 6ff4 bd3d ae9a b9bd
00000090: 3268 eebd f557 2b3c d15a 8b3e fc4f 1dbe
000000a0: 31f8 a93c 264f 3f3e 23f0 31be fd78 813e
000000b0: c75d a6bd 1720 513e b901 873e c552 323e
000000c0: d9f0 833e 5bc5 13be 0565 e03d d911 51bd
000000d0: 79b0 19be c59c 87be 89c3 45bd b625 893e
000000e0: 0a7e 933c e797 7c3e fb8e 41be 5df6 12bc
000000f0: 1f66 46bd 34d0 803e 3911 b43c 7472 1fbe
00000100: 9022 eb3d 2ab0 61be f9c2 b83c 7b5f b83d
00000110: c9f3 8dbd 6147 293e f9a0 823e 6f8c a43d
00000120: 109c 0ebe aaa1 5d3d da46 35be 8c46 183e
00000130: 8ea3 333e 04b1 5ebc 7eff 613e 9f69 143e
00000140: f829 4f3d e0ed 27be 9807 78be 5bfc 29be
00000150: 68df bf3d 23c7 093e ca05 bdbd 3276 89bd
00000160: 1943 dcbd f311 603a 0561 0c3e 25b3 85bc
00000170: aa0a b83c 9435 693e 479a 513e fe7b 89be
00000180: 6618 e83d 3e48 57be 764b 51be 2b61 3d3d
00000190: c1c3 273e 59ee 4cbe c60e 243e 207f 78bd
000001a0: 8d2c 083e 7c0b 563e 896a 113d 2ba8 25be
000001b0: e826 263e 9407 0c3e 5f68 c2bd e67f fcbc
000001c0: 889b 16bc 5617 5e3e b34b 2abe 734a 823e
000001d0: 4310 13be d8bf 2ebe 2b9e 26be 3c56 5c3e
000001e0: 64e1 833d 83cd fb3c 272c 323e 4bcd 7a3d
000001f0: bed3 71be 2948 3a3e 9857 bd3d 45fb 15be
0.15199073 0.16061486 0.16256654 0.18281928 0.02344342 0.08275992 0.04235651 -0.096289575
0.10548752 -0.17888452 -0.2172545 0.23895034 0.15701957 -0.058629334 0.08832231 0.23136836
0.012598827 0.21153818 -0.15859649 0.09835089 0.17828044 0.08254824 -0.15701994 0.024672406
-0.20409559 0.10720145 0.019050706 0.18895444 -0.08896781 0.063685305 -0.005147765 -0.1959545
0.060369004 0.2492006 0.09275138 -0.09062706 -0.116409674 0.010457982 0.27217725 -0.15362543
0.02074823 0.18682536 -0.17376761 0.2528762 -0.08123355 0.20422398 0.26368502 0.17414387
0.2576969 -0.14430754 0.10956768 -0.05104241 -0.15008725 -0.26486793 -0.04828218 0.26786584
0.018004436 0.24667321 -0.18902199 -0.00896987 -0.048437234 0.25158846 0.021980869 -0.15571004
0.11481202 -0.22039858 0.022553908 0.090025865 -0.06931264 0.16531135 0.25513437 0.08034598
-0.1392672 0.054109253 -0.17702809 0.14870661 0.1754286 -0.0135920085 0.22070119 0.14493416
0.050577134 -0.16399336 -0.24221647 -0.16600172 0.09368783 0.13454871 -0.0922962 -0.06711997
-0.10754985 0.00085475965 0.13708885 -0.016320774 0.022466023 0.22774345 0.20469008 -0.2685241
0.11332779 -0.21023652 -0.20438942 0.046235245 0.16383268 -0.20012797 0.1602126 -0.06066811
0.13298245 0.20902818 0.03550199 -0.16177432 0.16225779 0.13674766 -0.094925635 -0.030822705
-0.009192355 0.2168859 -0.1663044 0.25447425 -0.14361672 -0.1706537 -0.16271274 0.21517271
0.06439474 0.030737644 0.17399655 0.06123094 -0.2361593 0.1819159 0.09245223 -0.14646633

fc2.weight f4 [64, 128]
00000000: e4be 933d 622b f1bc c1c0 bd3c f1bf 96bb
00000010: 02f9 663d 1ad3 623d 045a 6b3d d6ff 3d3d
00000020: 2002 c43b dffd d4bc 0408 433c b3df 993d
00000030: b867 f9bc a84f ab3b 8281 1a3d e458 c13c
00000040: 12e8 0c3c 7983 143c a0ab 30bd f57c 113d
00000050: 6b64 043d 6e53 bfbd 9b21 663d a4ab 70bd
00000060: f207 a43d 6efc d83c 14c9 6abb 60f7 aa3d
00000070: e413 f0bd ddfe 81bc f1dd 483d 698b 3e3d
00000080: cf20 1cbd 158a 2b3d 3744 9abd 0d2a b53d
00000090: c0f6 83bd 6e1f 39bc 17ab 09bc f154 8f3d
000000a0: 1708 cf3d c5c1 1a3d 1461 59bd e986 773b
000000b0: 306f d2bd ef61 d33d f52d ec3c af1e 02bc
000000c0: 9a2e 603d 63ab 903d a66e fd3b 5a0b 88bd
000000d0: e92e f03c b0b6 68bd 1ef3 733d 8d7c e9bc
000000e0: a669 9ebc 66ee a3bc 3014 96bd 3118 b53c
000000f0: c00d b63d 5153 57bd 86e0 65bd 4346 263d
00000100: 42ac 103d 07cb db3c 6470 9f3d c127 94bd
00000110: 503d 78bd 36b3 74bd 9c39 b23a ea05 853d
00000120: e5b4 4bbd fe26 90bc edd2 583c 7d61 4a3c
00000130: b59a 753d 6d83 0cbd b208 cd3d 3f9c a03d
00000140: 1097 afbc 847c 30bd bf9b bbbd d649 81bd
00000150: 130a a13b 00f5 b0bd 2d55 e3bd e2ec 483d
00000160: 57ef a1bd 70ba 303d 4037 383d a90b 883d
00000170: 154e 833c b176 a1ba 72ea 023e cdef 6cbd
00000180: f880 a8bb 1e78 9eba 20d8 e6bd 9012 303d
00000190: 77ff 9fbc b801 363c 6f13 e13c 368d c1bc
000001a0: a733 023d dbb5 eebc 7a7c 68bc f672 adbd
000001b0: ddce 09bd 46aa 00bd dee8 ddbd 8af3 58bd
000001c0: 5a65 3dbd b02f 3a3d 3cb5 6fbc 07ca ae3d
000001d0: b633 bebd f358 0b3d 8eb1 acbd 6456 853d
000001e0: e18b 953d 9c12 243d 6714 e73c 3a81 53bd
000001f0: c2fb 123d b1c5 cc3d 86aa 77bc d551 a9bc
00000200: 2f25 d13d 93c7 ce3d fdc1 e13d dc84 8ebd
00000210: 153f 9a3d 41fa 4b3c 2f0f 9bbd d3d5 c13d
00000220: 5a9a 6dbd b395 2cbc bd08 b8bd 13a1 913c
00000230: e75b febc 98b6 d33d c15d 553d ff04 913d
00000240: c641 623d 6dd4 573d 4bdf 873d 586a 233d
00000250: 85cf 1c3d 5d58 94bd a5f1 f83c 13c9 7cbd
00000260: c417 b8bb 63c5 6cbd f296 ba3d 4bf6 ce3c
00000270: 8ea8 e9bd 15a4 cabd 59bd 883d b414 2a3d
00000280: 9eb3 d03d 4656 073d a91d c53c 295e b13c
00000290: 98cc dfbd 0634 593d 63ac 0dbd c974 a03c
000002a0: 5600 6fbd 1bb2 aabb 7366 a73c 7612 1ebd
000002b0: 4327 ce3c 28fc 8d3d 9358 f03c 4669 1b3d
000002c0: 96c0 8e3d f0d1 95bd 64c8 da3d 84c6 16bd
000002d0: 1e78 5a3d 6899 a4bd 87b8 9ebd d12f 883d
000002e0: 6c06 963c 1046 e03d d7d9 023d 96a6 62bd
000002f0: bfd7 733d 2a62 a23d 2186 dc3c 3b1e e9bc
00000300: dd2a 1ebb befa 92bd c203 9e3d 9243 ff3c
00000310: 5d72 93bc 3b26 8c3d 2460 46bd b113 893d
00000320: 239e a5bb 4cfd 7abd 419a bbbc 7102 6d3a
00000330: af3a 93bd bfc9 06bd dcd0 d73b 2d0f 8b3d
00000340: de88 b3bd 0b55 05bd 6997 4d3d 7f7c a2bd
00000350: a1d8 e33b b5d5 083d bff9 ea3c 4065 39bd
00000360: b821 453a 583a 18bd 6a34 30bc 63f6 413d
00000370: d7e0 0b3c a7d8 b33d f897 b83d 78b4 1b3d
00000380: 1439 79bd 5764 04bd 3524 48bd eeec ca3c
00000390: 34ac 003d 1507 e6bc 5027 873d 2dc2 81bd
000003a0: d58c 7cbd f537 26bc 0eb0 9a3b e55f 4dbd
000003b0: 84b0 783c bfb7 383d 8cf6 a3bd 8b27 c53d
000003c0: 0180 aa3c 0170 1abd 63c3 9a3d 03fa 053d
000003d0: 2444 f3bc 380a ca3d 0cdf da3c 75cd 973b
000003e0: 2d84 633d c6f1 003d 536e b5bc 4cfa 81bc
000003f0: 2055 03bd fd19 29bd cb91 ec3c 01fb fa3b
0.07214144 -0.029439632 0.023163201 -0.004600518 0.056389816 0.055377103 0.057458892 0.046386562
0.0059816986 -0.025999961 0.011903767 0.0751337 -0.030444965 0.0052280016 0.037721165 0.023601957
0.008600252 0.009064549 -0.043132424 0.03551956 0.03232233 -0.09342085 0.056184392 -0.05875744
0.08009328 0.026487555 -0.0035825418 0.08347964 -0.11722544 -0.015868599 0.049039785 0.04651967
-0.038117226 0.041879732 -0.07532542 0.08845911 -0.06443548 -0.011298997 -0.008402607 0.06998623
0.10108965 0.03778245 -0.053071097 0.0037769622 -0.102751136 0.10321414 0.028830508 -0.007941886
0.054731943 0.070639394 0.0077341376 -0.0664279 0.029319244 -0.05681485 0.059558026 -0.028501773
-0.019337486 -0.020011138 -0.07328069 0.022106262 0.08889341 -0.05256969 -0.056122325 0.04059435
0.035320528 0.02683021 0.07785109 -0.07234145 -0.060605347 -0.05974122 0.0013597491 0.06495269
-0.04973306 -0.017596718 0.013233882 0.012352345 0.059961993 -0.034305025 0.10011424 0.078423016
-0.021434337 -0.043087497 -0.091605656 -0.06312911 0.004914531 -0.0864048 -0.1110023 0.049054034
-0.079069786 0.04314655 0.044974566 0.06642849 0.016028443 -0.0012318698 0.12784746 -0.05784588
-0.0051423274 -0.0012090241 -0.11271691 0.042986453 -0.019530995 0.011108808 0.027475087 -0.023626905
0.03178754 -0.02913945 -0.014189834 -0.08469193 -0.033644546 -0.031412385 -0.108354315 -0.052966632
-0.046239235 0.045455635 -0.014630612 0.085346274 -0.09287207 0.034020375 -0.08432303 0.06510618
0.073020704 0.04005681 0.02820797 -0.051636912 0.035884626 0.09998644 -0.01511634 -0.020668903
0.1021217 0.100966595 0.110233285 -0.06958935 0.07531563 0.012449802 -0.075712554 0.09464612
-0.05800853 -0.010533738 -0.08986042 0.017777001 -0.031049682 0.10337561 0.052091364 0.07081031
0.055238508 0.05269282 0.06634387 0.03989634 0.038283844 -0.072434165 0.030388663 -0.061715197
-0.0056180675 -0.05780543 0.09110822 0.025263926 -0.114091024 -0.098945774 0.0667674 0.04152365
0.10190509 0.03304126 0.024061995 0.021651344 -0.10927695 0.05302813 -0.03458823 0.019586938
-0.05834993 -0.00520922 0.020434594 -0.038591824 0.025165206 0.069328606 0.02933911 0.037942193
0.069703266 -0.07315433 0.10682753 -0.036810413 0.05333721 -0.080370724 -0.077500395 0.06649745
0.018313609 0.10950863 0.03194603 -0.05533465 0.059531923 0.079288796 0.026919426 -0.028456798
-0.0024134435 -0.071767315 0.077155605 0.03116015 -0.017998869 0.068432294 -0.04843153 0.06693209
-0.0050542518 -0.06127672 -0.022900702 0.00090411963 -0.071889274 -0.032907244 0.0065861773 0.06790004
-0.0876634 -0.032551806 0.050193224 -0.07933902 0.0069533144 0.033406932 0.028683541 -0.045262575
0.0007519978 -0.037165016 -0.010754684 0.047354113 0.008537493 0.087815575 0.09013361 0.038013905
-0.06084545 -0.032322254 -0.048862655 0.02477118 0.031414226 -0.028079549 0.06599295 -0.06335864
-0.061657745 -0.010145177 0.0047206944 -0.05014028 0.015178803 0.04509711 -0.080060095 0.09626683
0.02081299 -0.03770447 0.07556798 0.032709133 -0.029695578 0.0986523 0.026717685 0.0046326467
0.055545975 0.031480573 -0.022147333 -0.015866421 -0.032063603 -0.04128455 0.028878113 0.0076593165

fc2.bias f4 [64]
00000000: 072b 023d 11a8 113c 4d0e 63bd d35d 393d
00000010: 9bdc babd 6f73 c0bc 1552 053d 4dcd ca3c
00000020: 45fa d23d 4896 d5bd 10fd c23c 7d83 52bd
00000030: 44a3 43bd 7f79 86bc a15c e23c 1dbb 64bd
00000040: 3227 de3d 2795 5f3c 1a3b ebb9 3127 243d
00000050: c027 833c 3519 8abd 78b9 873c 57a9 62bd
00000060: c7dd adbd bcb8 2cbd c7d7 cabd 5e97 aabd
00000070: b4c0 adba d839 803c fd27 433b c7dd 5ebd
00000080: ec63 b03d 6402 9bbd b206 95bd 63c8 92bd
00000090: 29ad 53bd 0f68 b0bd 4bc6 c53c 32ab 80bd
000000a0: eb97 3a3c c727 433d 4ca7 1e3d f8fd 82bd
000000b0: cbc8 9cbc 37c0 dc3c 68e7 e03d a123 a73c
000000c0: 6d7c 403d 759a b8bd 75b7 83bd 86dc fab8
000000d0: 8943 923c 2a8c 9c3c b79c 6dbd c2c4 043d
000000e0: 1aa2 0a3d 4dc8 243c 471d cfbd 7051 d13d
000000f0: 5849 8bbc 27d5 cd3d 6992 8f3b 4376 33bc
0.031779315 0.008890168 -0.05543356 0.045255493 -0.091241084 -0.023492543 0.032548983 0.024756098
0.103016414 -0.104290545 0.02380231 -0.05139493 -0.047763124 -0.016415356 0.02763206 -0.055842508
0.1084732 0.0136464005 -0.00044866727 0.04007644 0.016010165 -0.06743089 0.01656793 -0.055337276
-0.08489566 -0.042168364 -0.099044375 -0.08329652 -0.0013256283 0.015652582 0.0029778474 -0.054410722
0.086128086 -0.07568815 -0.07276668 -0.07167127 -0.05167881 -0.086135976 0.024142405 -0.06282653
0.011388759 0.047645357 0.038733765 -0.06396097 -0.019138714 0.026947124 0.10981637 0.020402731
0.04699366 -0.09013835 -0.06431476 -0.00011962005 0.017854469 0.019109804 -0.058010783 0.032414205
0.033846 0.010057521 -0.10113006 0.10220611 -0.017002746 0.10050421 0.004381467 -0.010953489

fc3.weight f4 [32, 64]
00000000: ef69 08be 83d3 1dbd f472 8fbd 98a3 103e
00000010: 10dc b4bd b1a4 04be aa53 413d 795b 06be
00000020: 0e12 4c3d a4ff 12bc 8c8a 113e 7cd8 dfba
00000030: a4e4 50bd eba0 9abd 5d71 e2bc e546 c8bd
00000040: 4166 3dbd 1a23 a6bd b7f7 bfbb 5a64 013e
00000050: 7f0c 06bc a8c5 903d e2ad 58bd 3a7f 813d
00000060: 33e8 a0bd d1b2 1dbd 54c8 ab3d 9e34 aa3c
00000070: 61d8 763d beb6 c7bd 60fa 07be 5245 053e
00000080: bd5d 4bbd 55f8 91bd 5a7d b33d df40 cb3d
00000090: b881 f93d 1be9 a93d 6e35 e93c 5061 e03d
000000a0: ca87 debd 56c5 de3d 6726 b23d 7585 643d
000000b0: 313d d1bd a481 d23d cfb3 14be 1d6e 013e
000000c0: a3e6 f1bd f275 a83d ca63 b2bd 7633 15be
000000d0: 4018 cd3d 9652 1f3c fd07 1abd 0b86 6f3d
000000e0: de43 a93d 088d 85bd 3171 833d 535b a5bb
000000f0: 626c 9f3d 9b19 a1bd 6371 80bd 84e8 8ebd
00000100: 3d4c 363d 5e27 4f3d 62b6 b8bd badb 30bd
00000110: c74b 313c 2754 cc3d df35 2a3e 92c4 1a3e
00000120: 40ae 353c e469 f8bd e852 223e fdae 523d
00000130: 0fac 3e3d e2b4 713c 24e7 0fbc 16fb 0d3d
00000140: cda3 963d 1fd4 823c 4410 183e 0736 45bd
00000150: 1957 4c3d 6e6b d33c f844 b53d e196 a8bc
00000160: c1ba 513c 2242 00be 38f4 653d e6f3 acbd
00000170: 5016 ebbb b3b3 acbb 0085 f3bd f2d6 5c3d
00000180: 907f 263d 7c0d 1f3d d599 093d 81d8 40bd
00000190: 1ed2 9ebb 508d 1dbe f85b 243e 4c29 0ebe
000001a0: b2e0 ab3d 1131 3ebd 853b aebd 8018 19bd
000001b0: 7762 b03c dea4 d33d 505f 36bc f7c1 12be
000001c0: cfd1 2a3e aed0 e73c 95fc 9c3d be3a 063d
000001d0: ba9d 23be 2073 743d 1e93 fe3d 43fc 9abd
000001e0: 6478 e73c ab3a 0bbd a097 01bb 195e fd3c
000001f0: b727 2cbe bd76 1a3e 206f 5a3d 2879 52bd
00000200: 15da 05be ac57 67bd 0fd6 f53d e6c5 0f3d
00000210: 5416 44bc 2103 de3c 3398 14be 6c06 e0bb
00000220: 6d4c e0bc 9bdc 943d 1d99 7a3d eba3 8d3d
00000230: 7bd0 62bc b288 bd3d 9c68 033e 1278 76bb
00000240: c89e 10bd 79d5 93bd 1f2c 943b 6cac 9d3c
00000250: 34c1 573c afae 0a3e 4636 71bd 82e1 a43c
00000260: f314 cf3d 5a17 263d 53d7 acbd 46d8 483c
00000270: 1101 153d 752d 13bd 8578 a43d 4550 e7bd
00000280: cae2 23bd 88ca db3c a871 d0bd f905 8b3d
00000290: 5ae1 c43d 2a53 0f3e 4fa5 143b 1d6c 003e
000002a0: ea0c e4bd 3826 19bd 5a82 75bd a081 8ebd
000002b0: ac52 7cbb 6652 babd 1bd1 11be 92ad 1cbb
000002c0: 3e6e a2bd ebb7 21bd c604 ccbb 69ca cabd
000002d0: 23de 1fbd 9ecf bdbc c512 09be 167a 34bd
000002e0: 70b8 12be 6dd0 edbc c8e4 5d3d ee0c 0abe
000002f0: b997 143d 3a16 06be d0e0 afbd 16ef f2bd
00000300: f620 c83c 1ad7 093e 7188 bfbd a540 313d
00000310: 3a22 1fbd 91ae 873d abce 3a3c 85f7 963d
00000320: c8f8 813d 08fa beb8 a37b 463c d04a b4bc
00000330: 67dd e23c 956f 753d 6b1c 863b f218 8abc
00000340: 1805 173e 341a 083e d327 5ebd 7a5f 9b3c
00000350: 3174 3c3d 6224 1ebe cc98 1c3e e0f8 eebc
00000360: d4e1 e7bd 92ab 48bd f359 c3bd 6c94 603d
00000370: b9c2 88bc 586e fdbd 9699 553d 8d22 e83d
00000380: 97d1 8cbd 56f6 11be 5788 59bc 645d 14be
00000390: e990 ac3c 95d7 e9bb c4aa afb9 99dc 9b3d
000003a0: 4c8d 58bd 805e 33bd a9c5 ff3b 763d bd3d
000003b0: ac72 c9bd 67a2 113e 795a 533d 651b 24bd
000003c0: 1246 363d c9ed c63d 3557 583d c42b b8bd
000003d0: ee3c 1b3d 556d 073d 0d95 9a3c 841e 133e
000003e0: e9a0 8b3c 6213 333c 7610 1cbe 126f 00bd
000003f0: cea6 e5bd 3ba4 4f3d 39ce c4bc f5b7 1a3e
-0.1332166 -0.03853179 -0.070043474 0.14124906 -0.08831036 -0.1295345 0.04719893 -0.13120832
0.049821906 -0.008972082 0.14213008 -0.0017078067 -0.0509993 -0.07550224 -0.027641946 -0.09779147
-0.046240095 -0.08112164 -0.0058583873 0.12635937 -0.00818169 0.0706895 -0.052900203 0.06323095
-0.078567885 -0.03850061 0.08387819 0.020777043 0.06026495 -0.09751652 -0.13279104 0.13014725
-0.049649943 -0.07127444 0.08764143 0.099244826 0.12182945 0.082964145 0.02846786 0.10956061
-0.108657435 0.108774826 0.08698731 0.055791337 -0.102167495 0.10278633 -0.14521717 0.12639661
-0.118115686 0.08225621 -0.087104395 -0.14570412 0.10014391 0.00972428 -0.037605274 0.058477443
0.08264898 -0.0652104 0.06418074 -0.005046287 0.07784344 -0.07866212 -0.06271627 -0.069779426
0.0445063 0.050574653 -0.09019162 -0.043178298 0.010821289 0.09976988 0.16622113 0.15114048
0.011088908 -0.12129572 0.15851939 0.051436413 0.046550807 0.0147525985 -0.008783136 0.034663282
0.07355461 0.015970288 0.14849955 -0.048147228 0.04988775 0.025808062 0.08851045 -0.020579757
0.012800873 -0.12525228 0.05614111 -0.084449574 -0.0071742907 -0.0052704453 -0.11890602 0.053915925
0.040648997 0.03883122 0.03359397 -0.047081474 -0.0048468253 -0.15385938 0.16050708 -0.13882941
0.083924666 -0.046433512 -0.08507446 -0.03737688 0.021531327 0.1033418 -0.011131123 -0.14331804
0.16681598 0.028297748 0.07665364 0.032770865 -0.15978137 0.059680104 0.12430404 -0.07567646
0.028255649 -0.033991497 -0.0019774213 0.030928658 -0.16812025 0.15084358 0.053328633 -0.051385075
-0.13071473 -0.056480095 0.12003719 0.03510084 -0.011968214 0.027101101 -0.14511184 -0.006836703
-0.027380193 0.0726864 0.061181176 0.069160305 -0.013843651 0.09254588 0.12832874 -0.0037608189
-0.035307676 -0.07218451 0.004521861 0.019247256 0.013168622 0.13543199 -0.05888965 0.020127062
0.101114176 0.040549614 -0.08439507 0.012258595 0.03637797 -0.035932023 0.080308 -0.11294607
-0.040011205 0.026829973 -0.10177928 0.067882486 0.09613295 0.13996568 0.002268154 0.12541242
-0.11135276 -0.037389964 -0.059938766 -0.06958318 -0.0038501425 -0.090977475 -0.14239924 -0.0023907167
-0.07931183 -0.03948204 -0.006226155 -0.09901888 -0.039030205 -0.023170289 -0.13386066 -0.044061743
-0.1432817 -0.02903005 0.05417326 -0.13481495 0.036277507 -0.13094416 -0.085878015 -0.11862008
0.02442978 0.13460961 -0.09352196 0.04327454 -0.038851 0.06625093 0.011401813 0.07371429
0.063462794 -9.106478e-05 0.012114438 -0.02200833 0.027693463 0.059920866 0.004092743 -0.016857598
0.14748037 0.13291246 -0.054237198 0.018966425 0.046009246 -0.15443566 0.15292662 -0.029171407
-0.1132237 -0.048991747 -0.09538641 0.054829046 -0.016694413 -0.12374562 0.052148424 0.11334715
-0.068759136 -0.14254126 -0.013277135 -0.1448875 0.021065192 -0.007136295 -0.0003350583 0.07610435
-0.052869126 -0.043791294 0.0078055453 0.09240238 -0.09836325 0.14222108 0.051599953 -0.040065188
0.044500418 0.09713323 0.052817542 -0.08992723 0.037899904 0.03306325 0.018869901 0.1436711
0.017044501 0.010929914 -0.15240654 -0.031355925 -0.11213456 0.05069373 -0.024024116 0.15109237

fc3.bias f4 [32]
00000000: c688 5b3d 02df acbb dcbf 91bd a187 9d3d
00000010: 7d82 ad3d daf2 903d 6f2f dabb cdc0 11bd
00000020: fd9d 22bd 3725 90bd a70d c1bd db31 ce3d
00000030: 8fa5 e9bd 2ef9 f6bb c53f a03d 0371 033d
00000040: a945 ee3d 7acb a4bd 4442 123c cb48 0a3d
00000050: 95bb 333d 1459 88bd 67c5 dcbd 0d93 703d
00000060: 2f88 573d c62d 063e 99c1 56bd f0be 06bc
00000070: bc73 f83d 555b c73d 48f5 f1bc ed76 c5bd
0.053597234 -0.005275608 -0.071166724 0.07691885 0.08472154 0.0707757 -0.0066584866 -0.03558426
-0.03970145 -0.07038348 -0.09426432 0.10068103 -0.11408531 -0.0075370288 0.07824663 0.0320902
0.1163438 -0.080466226 0.008926932 0.033760827 0.043880064 -0.06657615 -0.10779839 0.05873399
0.05262011 0.13103399 -0.052430723 -0.008224234 0.121314496 0.09734217 -0.029535905 -0.09641824

fc4.weight f4 [5, 32]
00000000: 65bb 3fbd 575e dfbd f320 233e 426f 1bbe
00000010: afc0 ef3c 7fb6 9ebd 09c3 4cbe de7e 303d
00000020: 11fe ed3d 8964 05bd 13b4 afbd f2cf c5bc
00000030: f846 323e 0399 9ebd 7d7a ac3d 0f70 1bbe
00000040: 5951 04be 86ac 163e bac3 a2bd 6985 4d3e
00000050: 7b98 3b3e 25a1 49be 4a9b 2b3e 7a67 f53d
00000060: 5221 2d3e 6e46 033e 9d35 163e c729 bebd
00000070: 5f36 19be 3f51 3dbe 3277 25bb f8fd 50bc
00000080: 85d3 8ebd 9db9 163e 731a 02be cca4 8bbc
00000090: 3eaa 7bbd ead3 503d 022f 5bbc c2b7 9abc
000000a0: 4454 69bd 1253 193e 1614 05be 331a d43d
000000b0: a75b 143e a277 223e 7343 2b3e 8f5b 47be
000000c0: d091 e63d fa10 113c 7db8 a33d a02e 9a3d
000000d0: bf89 aabc 6675 07be 8ace 5ebc afe5 d43c
000000e0: dc02 003e 56ac 1fbd c7a2 3b3d 99c5 e9bd
000000f0: e105 07be 70f8 ee3d 76c6 e8bd 03d5 ec3d
00000100: 8e73 c33d 2329 e4bb 2494 a23c 48d7 233e
00000110: ec60 9abc c9f1 39be 807a bfbd 0771 e0bc
00000120: a74d a13b 8629 ff3b 26b7 653d 9642 c0bd
00000130: e9a2 e23d 95f6 d9bd b850 76bd 5dd0 cd3d
00000140: 3a1b 433e 89e2 e83d 3b9b 323e 2cee 60bd
00000150: a379 3fbd aab6 40be 4236 14bc 7a47 a7bc
00000160: b95f 75bd e59a d43d e3b4 d4bd becb 2c3c
00000170: 1d36 82bc 786e 85bd 6365 3bbe 1cb0 6d3d
00000180: e458 06be e444 f13d 8074 af3d 3392 6dbc
00000190: f0a5 10be e232 30bb da00 9f3b 1a54 d8bb
000001a0: db43 01be ab8c 51be 5c86 803d 059f 303e
000001b0: e53c 84bd f293 e93d 2e2d 103e 2c23 f8bd
000001c0: cbde 0dbe db60 f9bd 4616 09be 9ea9 433e
000001d0: a04e 363e 2534 2fbe 0940 6c3d e661 61bd
000001e0: 33a2 d0bd 4581 39be 58e7 55bd 4d65 003e
000001f0: 8cdd 7c3d 3bfe 6e3c 074a 45bc 57ae 0f3e
00000200: cc85 cbbd 23a7 263e 5e18 14be 39df 5f3e
00000210: cd35 23be e33b 063e 13d9 273d b3cb 02be
00000220: 75c3 f6bd 5e73 1c3e b0d3 623e ecc8 45be
00000230: 38ec 19be c0df 44be 8817 8cbd 40e2 483e
00000240: acfe 8cbd ee13 8ebd 984e 3cbe 2426 803d
00000250: 2df6 0dbe 2b91 173e c7fa 04be b85d 12be
00000260: 3621 55be 6cf7 413e cc34 87bc 6088 45be
00000270: e726 6e3d 5ea4 88bd 8cf6 593e c961 44be
-0.046809573 -0.10906666 0.15930538 -0.1517916 0.029266683 -0.07749652 -0.19996275 0.04308974
0.11620725 -0.03256658 -0.08579268 -0.024147008 0.17409885 -0.077440284 0.084218 -0.15179466
-0.12921657 0.1471425 -0.07947488 0.20070423 0.18319885 -0.19690378 0.16758457 0.11982627
0.16907242 0.12819836 0.1466889 -0.09285312 -0.14962147 -0.18488024 -0.0025248048 -0.012755863
-0.06973938 0.14719243 -0.12705402 -0.017046355 -0.061441652 0.050983347 -0.013377907 -0.01888645
-0.056965128 0.14973095 -0.12995943 0.103565596 0.14488088 0.15865949 0.16724949 -0.1946852
0.1125828 0.008854145 0.07994173 0.07528424 -0.020817636 -0.13228378 -0.013599047 0.025988428
0.12501091 -0.03898271 0.045809533 -0.11414642 -0.13185836 0.116684794 -0.113659784 0.11564066
0.09543525 -0.0069629117 0.01984603 0.16000092 -0.018845044 -0.1815864 -0.09349537 -0.027397646
0.004922587 0.0077869324 0.056082867 -0.093877 0.11066229 -0.10642735 -0.060135573 0.10049508
0.19053355 0.11371333 0.17442028 -0.05491464 -0.04674686 -0.18819681 -0.009046139 -0.020419825
-0.05990574 0.10381106 -0.10386064 0.010546623 -0.015894944 -0.06515211 -0.18300395 0.05802928
-0.13119847 0.11780718 0.085671425 -0.014500189 -0.141258 -0.0026885797 0.0048523964 -0.0066018226
-0.12623541 -0.20463817 0.06275627 0.17248161 -0.06456927 0.114051715 0.14079735 -0.121160835
-0.1385452 -0.12176677 -0.13387403 0.19107673 0.1780343 -0.17109735 0.057678256 -0.055025004
-0.10187187 -0.18115719 -0.05222258 0.12538643 0.06173472 0.01458698 -0.012041575 0.14031349
-0.09937629 0.16274695 -0.1446242 0.21862496 -0.15938492 0.13108782 0.040978502 -0.12773018
-0.12048999 0.15278384 0.22151065 -0.19314927 -0.15031517 -0.19225979 -0.06840426 0.19617558
-0.06884512 -0.06937395 -0.18389356 0.06257275 -0.1386344 0.14801471 -0.12986289 -0.14293563
-0.2081345 0.1894204 -0.016504668 -0.19290304 0.05814257 -0.066719756 0.21285456 -0.19177927

fc4.bias f4 [5]
00000000: e3b6 0c3e 031a 5dbd eab8 96bc 7642 443d
00000010: 5905 ddbd
0.13741641 -0.053979885 -0.01839872 0.047914945 -0.107920356
