clean_code/trained_models/actor_532.pth (torch, 54872 bytes, 8 tensors)

fc1.weight f4 [128, 18]
0	0x3e1ebc47	0.1550151
1	0x3dadcb18	0.08486003
2	0xbe2341b0	-0.15943027
3	0x3e41c77b	0.18923752
4	0x3df7c58c	0.12098226
5	0xbd8a47bd	-0.06751964
6	0x3ce7957f	0.028269527
7	0x3cbf1f3c	0.023330323
8	0x3dbdae11	0.09261716
9	0xbd93cf6c	-0.07217297
10	0xbe17c285	-0.14820297
11	0x3b76df86	0.0037669851
12	0x3e5d3696	0.21602854
13	0x3da946e2	0.08265473
14	0x3e193410	0.14961267
15	0x3cd017d1	0.025401982
16	0xbe6dff5b	-0.23241942
17	0x3e8259fe	0.25459284
18	0x3e0c7ba8	0.13719046
19	0x3e2606b4	0.16213495
20	0x3d9e51b4	0.077304274
21	0xbda86e88	-0.08224207
22	0x3d8750bc	0.06607196
23	0xbcb09f0a	-0.02156021
24	0x3e1258a3	0.14291625
25	0x3e4f20e9	0.20227398
26	0x3dc1e704	0.09467891
27	0x3d13de33	0.036100578
28	0x3e13f5a3	0.14449172
29	0x3e1274ff	0.14302443
30	0xbe2cb858	-0.16867197
31	0xbe0c3224	-0.13691002
32	0xbdbb2b95	-0.09139172
33	0x3d5b1241	0.053484205
34	0xbe2a68fa	-0.16641608
35	0x3d225c38	0.039638728
36	0x3e1b4a47	0.15165053
37	0x3db0ebbf	0.08638715
38	0xbe1a2d34	-0.15056306
39	0x3d79f0e8	0.06102076
40	0xbe3769e7	-0.17911492
41	0x3d03337b	0.032031517
42	0x3e453901	0.19260027
43	0x3e1c847c	0.15284914
44	0xbd80bf3a	-0.062864736
45	0xbe362f15	-0.17791398
46	0xbdd8573f	-0.10563516
47	0x3e361d44	0.17784601
48	0x3e857549	0.26066044
49	0x3dc56982	0.09639265
50	0x3d83e67a	0.06440444
51	0xbde4bdf5	-0.11169044
52	0x3e4b0c9a	0.19829026
53	0x3d618703	0.055060398
54	0x3e03755e	0.12837741
55	0xbd1ccdf8	-0.038282365
56	0x3e2e1eb0	0.17003894
57	0x3cda5e23	0.026656216
58	0xbe3b0f6b	-0.182676
59	0xbe09894b	-0.1343128
60	0xbe445346	-0.19172391
61	0xbe407049	-0.18792833
62	0xbdfd4655	-0.123669304
63	0x3e2ba170	0.16760802
64	0x3dc8d447	0.09806114
65	0xbdd5139d	-0.104041316
66	0x3e55e381	0.20887567
67	0x3e3e1977	0.18564402
68	0xbbb37954	-0.00547711
69	0xbe3d4aa0	-0.18485498
70	0x3e2bba13	0.167702
71	0xbd826027	-0.06365996
72	0xbd9cd1cd	-0.07657204
73	0x3e6de2a9	0.23230995
74	0xbd1a62d6	-0.037691914
75	0xbe50fa1f	-0.20407914
76	0x3e592178	0.21204174
77	0x3e21a50c	0.15785617
78	0xbdc7476a	-0.09730418
79	0x3e8525c8	0.26005387
80	0xbcee7980	-0.02911067
81	0x3d183740	0.037162066
82	0x3d845f73	0.06463518
83	0x3dc9e120	0.09857392
84	0x3cc57b7c	0.024106734
85	0xbe0629f4	-0.13101941
86	0x3e786ad4	0.24259502
87	0x3e28b5e8	0.16475642
88	0xbe110ce2	-0.1416507
89	0x3e58ec6a	0.21183935
90	0x3dc38f8e	0.09548865
91	0xbd7b0a49	-0.061289106
92	0x3cf0cfc6	0.02939595
93	0x3e39eca6	0.1815668
94	0x3e6cb4ce	0.23115847
95	0xbd0ce64a	-0.03439931
96	0xbdb90f71	-0.09036148
97	0xbc559f3e	-0.013038455
98	0x3db3975b	0.08769103
99	0xbe3cabac	-0.18424863
100	0xbce3bc2e	-0.027799692
101	0x3e1fe442	0.15614417
102	0xbe3a83c4	-0.18214327
103	0x3e52badf	0.20579098
104	0xbe247737	-0.16061102
105	0x3e49842e	0.19679329
106	0x3d527565	0.051381487
107	0x3e5057b9	0.20345964
108	0x3e11177f	0.1416912
109	0xbe7cb49b	-0.2467827
110	0x3e185766	0.1487709
111	0xbe0849f6	-0.13309464
112	0x3dc16b2d	0.0944427
113	0x3e3099d7	0.17246185
114	0x3e34ea6e	0.17667553
115	0x3da3f32c	0.08005366
116	0xbe35abd4	-0.17741328
117	0xba36033e	-0.0006943232
118	0xbe682b2e	-0.22672722
119	0xbccb4eab	-0.024817785
120	0xbe649040	-0.22320652
121	0xbc1fa760	-0.009744495
122	0xbe04c3c8	-0.1296531
123	0x3d64a16f	0.055818018
124	0xbe75440b	-0.23951738
125	0xbbf56721	-0.0074891006
126	0x3cecd06c	0.028907977
127	0x3e1bd669	0.1521851
128	0xbe569c54	-0.20958072
129	0xbe579da9	-0.21056236
130	0xbe0aae12	-0.13542965
131	0x3db1451f	0.08655762
132	0x3e52c8e7	0.2058445
133	0xbe0349e8	-0.12821162
134	0x3e31b777	0.17355143
135	0xbe420944	-0.18948847
136	0x3e2f38d9	0.1711153
137	0x3e3634d7	0.17793594
138	0xbcb8cf0f	-0.02255967
139	0x3cc9f3c8	0.024652377
140	0x3e1483af	0.14503358
141	0xba4d72fa	-0.0007837262
142	0x3d3880f4	0.045044854
143	0xbe19599c	-0.1497559
144	0x39a4ad2e	0.00031409547
145	0xbdaac1b4	-0.08337727
146	0xbd82fa88	-0.06395441
147	0x3e2f5d4a	0.1712543
148	0xbd8372d4	-0.06418386
149	0xbe6e2d98	-0.2325958
150	0xbdcfc616	-0.10145204
151	0xbe3f8b65	-0.18705519
152	0x3c2df303	0.010617021
153	0xbe5933c9	-0.2121116
154	0xbdcd0800	-0.100112915
155	0xbe7cf574	-0.24703008
156	0x3e245597	0.16048275
157	0xbe57ab97	-0.2106155
158	0xbdd84aa1	-0.10561109
159	0xbe389af8	-0.18027866
160	0x3d3abfd9	0.045593116
161	0x3e204df4	0.15654737
162	0x3e1a1e0e	0.15050527
163	0x3e60e6f9	0.21963109
164	0x3e5ff848	0.21872056
165	0xbd993e69	-0.07482607
166	0x3df38e91	0.11892427
167	0xbe647756	-0.22311148
168	0x3e6362fa	0.22205725
169	0x3e0ff8cb	0.1405975
170	0xbd8a999f	-0.06767582
171	0x3e4c9c01	0.19981386
172	0x3dc7a94d	0.097490884
173	0x3e6ba27a	0.23011199
174	0x3e27db43	0.16392235
175	0xbdf4ba4f	-0.11949598
176	0xbd894595	-0.06702725
177	0x3e52fb21	0.2060361
178	0xbe3c3099	-0.18377914
179	0xbdc5a794	-0.096511036
180	0xbdf024aa	-0.11725743
181	0xbe43116b	-0.19049613
182	0xbe17d9f5	-0.14829238
183	0xbe420859	-0.18948497
184	0x3dcbd417	0.09952562
185	0x3dcf6367	0.10126381
186	0xbbfe18ce	-0.007754422
187	0x3de1493c	0.110002965
188	0x3c8955c6	0.016764533
189	0x3cd87cd0	0.026426703
190	0xbc9a8f4a	-0.018867154
191	0x3d8fb89b	0.070176326
192	0xbe37ee04	-0.1796189
193	0xbd6ec4f0	-0.058293283
194	0xbe6416af	-0.22274278
195	0xbe2c7ce7	-0.16844521
196	0x3e05ae03	0.13054661
197	0x3d0cdf76	0.034392796
198	0xbd576556	-0.052586876
199	0x3e475e0e	0.19469473
200	0xbd00e356	-0.031466804
201	0xbdfcc293	-0.123417996
202	0xbdf388b1	-0.11891306
203	0x3e4cec57	0.20012031
204	0x3d9aff0e	0.07568179
205	0x3e411e70	0.18859267
206	0x3d24d32b	0.040240448
207	0xbd9eee89	-0.07760341
208	0x3df8fb1c	0.1215727
209	0x3ddd073d	0.10792396
210	0xbb0182e0	-0.0019761845
211	0xbd091168	-0.033463866
212	0xbdcc18af	-0.099656455
213	0x3df320d0	0.11871493
214	0xbe3828dc	-0.17984337
215	0x3e6b15e7	0.22957574
216	0xbdd52b8e	-0.10408698
217	0xbdaf6b0f	-0.08565342
218	0x3e1075c1	0.1410742
219	0xbde70e8f	-0.11282074
220	0xbe576b46	-0.21037015
221	0xbd31b14f	-0.043381985
222	0xbe5b403a	-0.21411219
223	0x3c90afed	0.017662013
224	0xbe41edc5	-0.18938358
225	0xbe30c03d	-0.17260833
226	0xbd23ef99	-0.04002342
227	0x3e3bd3f2	0.1834257
228	0xbe1206ff	-0.14260481
229	0xbb4c57c0	-0.0031180233
230	0x3d9a3d47	0.07531219
231	0xbdde10a6	-0.10843019
232	0x3e13c239	0.14429559
233	0x3e181d86	0.14855012
234	0x3e87b8a8	0.2650807
235	0xbdbad040	-0.09121752
236	0x3d8c2a67	0.06844025
237	0xbd66e3ac	-0.05636947
238	0x3c93787b	0.018001786
239	0x3d6b967c	0.05751656
240	0x3e5828c4	0.21109301
241	0x3e5dd7de	0.21664378
242	0x3e2ec7d5	0.17068417
243	0x3e755a98	0.2396034
244	0xbd096cc6	-0.033551
245	0x3d75221d	0.059846986
246	0xbe39caad	-0.18143721
247	0xbdfcac6f	-0.123375766
248	0x3c9bec37	0.019033534
249	0x3cd80ebf	0.026374219
250	0xbcdb7ddd	-0.026793415
251	0xbda97f9e	-0.08276294
252	0x3e60d3c9	0.2195579
253	0xbd6d2255	-0.05789407
254	0xba59f6a6	-0.00083146465
255	0x3cee7937	0.029110534

fc1.bias f4 [128]
0	0x3e186a26	0.14884242
1	0x3e1f9515	0.15584214
2	0x3e247b0f	0.16062568
3	0x3e3c181e	0.18368575
4	0x3cb265c6	0.021777045
5	0x3d98fbc2	0.07469894
6	0x3d32af2a	0.04362408
7	0xbdca8c74	-0.098900706
8	0x3ddf8113	0.10913291
9	0xbe3bd927	-0.18344556
10	0xbe5ab738	-0.21358955
11	0x3e71e05f	0.23620747
12	0x3e212953	0.1573842
13	0xbd801873	-0.06254663
14	0x3daea032	0.085266486
15	0x3e6b3e8b	0.22973077
16	0x3c248ff8	0.01004409
17	0x3e550096	0.20801005
18	0xbe212b1b	-0.157391
19	0x3dc6690e	0.09688006
20	0x3e36546a	0.17805639
21	0x3dae29fb	0.08504101
22	0xbe21c151	-0.157964
23	0x3ce47bc5	0.02789105
24	0xbe578e2f	-0.21050332
25	0x3dd8106e	0.10550009
26	0x3c8d6cc9	0.017263787
27	0x3e3f2136	0.18665013
28	0xbdab6b26	-0.08370046
29	0x3d857214	0.06515899
30	0xbbbd35a9	-0.005774219
31	0xbe4611f7	-0.1934279
32	0x3d6914cf	0.05690461
33	0x3e7bb067	0.24579011
34	0x3dc306d6	0.09522788
35	0xbdbca5e4	-0.092113286
36	0xbde81718	-0.1133253
37	0x3c6a4d89	0.014300712
38	0x3e875802	0.26434332
39	0xbe1ed6db	-0.15511648
40	0x3c8119f0	0.015759438
41	0x3e43c925	0.191197
42	0xbe2a151f	-0.1660962
43	0x3e7aec64	0.24504238
44	0xbda2dbe3	-0.07952096
45	0x3e4f5e0a	0.20250717
46	0x3e851498	0.25992274
47	0x3e24f8e7	0.16110574
48	0x3e831409	0.25601223
49	0xbe123703	-0.14278798
50	0x3dd77684	0.10520652
51	0xbd582182	-0.05276633
52	0xbe1b7de6	-0.15184745
53	0xbe8692de	-0.26283926
54	0xbd3d08b1	-0.046150867
55	0x3e87044d	0.2637047
56	0x3c9ed9ea	0.019391019
57	0x3e7a279c	0.24429172
58	0xbe3cb54d	-0.18428536
59	0xbc0a4e0f	-0.008441462
60	0xbd4d322e	-0.050096683
61	0x3e7eb802	0.24874881
62	0x3c8d5ec2	0.017257098
63	0xbe1dc1b6	-0.15405926
64	0x3de9e987	0.11421495
65	0xbe5add5a	-0.21373501
66	0x3ca92516	0.020647567
67	0x3dbc4dae	0.09194504
68	0xbd923578	-0.071391046
69	0x3e291791	0.16512896
70	0x3e812527	0.25223657
71	0x3d9cdc44	0.076592
72	0xbe0c13b6	-0.13679394
73	0x3d569861	0.052391414
74	0xbe2fd398	-0.1717056
75	0x3e17bac6	0.14817342
76	0x3e365faa	0.1780993
77	0xbc36cfd8	-0.011157952
78	0x3e5fb1d9	0.21845187
79	0x3e147f8a	0.14501777
80	0x3d59758f	0.05309063
81	0xbe2423df	-0.16029309
82	0xbe7603bc	-0.24024862
83	0xbe27391c	-0.16330379
84	0x3dc417d5	0.09574858
85	0x3e09d904	0.13461691
86	0xbdb8b145	-0.090181865
87	0xbd7fe8a6	-0.06247773
88	0xbddfc363	-0.10925939
89	0x3b818b30	0.00395336
90	0x3e07f9d0	0.1327889
91	0xbc9a02a7	-0.018800093
92	0x3cbd3408	0.0230961
93	0x3e67c8f8	0.22635257
94	0x3e46b422	0.19404653
95	0xbe88249f	-0.2659044
96	0x3dee2e20	0.116298914
97	0xbe53f64e	-0.20699427
98	0xbe4bf8c4	-0.19919115
99	0x3d4a05ff	0.049322125
100	0x3e2737eb	0.16329925
101	0xbe4aac2e	-0.19792244
102	0x3e1fb8b2	0.155978
103	0xbd6b6fc6	-0.057479642
104	0x3e0bb8b0	0.13644671
105	0x3e53697c	0.20645708
106	0x3d129aa0	0.035791993
107	0xbe24974a	-0.16073337
108	0x3e2851d6	0.16437468
109	0x3e093cda	0.1340212
110	0xbdbd68fd	-0.092485406
111	0xbd0563b9	-0.032565806
112	0xbc13e877	-0.009027592
113	0x3e5c2ebb	0.21502201
114	0xbe2a3d6c	-0.16624993
115	0x3e7fe139	0.2498826
116	0xbe11b269	-0.14228214
117	0xbe307261	-0.17231132
118	0xbe238d83	-0.15971951
119	0x3e5a4b8d	0.21317883
120	0x3d7de2b4	0.06198378
121	0x3cf03413	0.029321706
122	0x3e2e5e2d	0.17028113
123	0x3d6b3cf3	0.057431173
124	0xbe7041bd	-0.23462577
125	0x3e36042d	0.1777503
126	0x3db72ff9	0.08944697
127	0xbe149cef	-0.1451299

fc2.weight f4 [64, 128]
0	0x3d92892a	0.07155068
1	0xbcfc2b51	-0.030782374
2	0x3cb11086	0.021614324
3	0xbb927308	-0.004469279
4	0x3d638c09	0.05555347
5	0x3d59fa69	0.053217325
6	0x3d7373a5	0.05943646
7	0x3d368afa	0.044566132
8	0x3c199396	0.009373566
9	0xbcde5504	-0.027140148
10	0x3c54fe9b	0.013000156
11	0x3d974e43	0.07387974
12	0xbcf15ecd	-0.02946415
13	0x3acdf6b2	0.001571378
14	0x3d11fae3	0.035639655
15	0x3cb4ed0b	0.022085687
16	0x3becd48c	0.007227486
17	0x3be4648c	0.006969994
18	0xbd2b2310	-0.041781485
19	0x3d0ec074	0.034851506
20	0x3d084b81	0.03327513
21	0xbdbb1b57	-0.09136074
22	0x3d631b66	0.05544605
23	0xbd6bd060	-0.05757177
24	0x3da15f94	0.07879558
25	0x3cd5d126	0.026100706
26	0xbb773945	-0.0037723344
27	0x3da75fcd	0.081725694
28	0xbded25ff	-0.11579513
29	0xbc6388b0	-0.013887569
30	0x3d4a5894	0.04940088
31	0x3d450088	0.04809621
32	0xbd2634c1	-0.040577654
33	0x3d255b0c	0.040370032
34	0xbd94c615	-0.07264344
35	0x3db3893b	0.08766409
36	0xbd804cb4	-0.0626463
37	0xbc230a03	-0.009951117
38	0xbc5a0c4f	-0.013308599
39	0x3d8e713a	0.0695519
40	0x3dcd0d84	0.100123435
41	0x3d2539b0	0.04033822
42	0xbd4c4f86	-0.049880527
43	0xb9bed93b	-0.00036401473
44	0xbdcf67ec	-0.101272434
45	0x3dcefa79	0.101063676
46	0x3cd7781e	0.026302394
47	0xbc804ec1	-0.015662553
48	0x3d58bccd	0.05291443
49	0x3d9495b5	0.07255117
50	0x3bb2a6fa	0.005452034
51	0xbd8a531a	-0.067541316
52	0x3ce54e04	0.027991302
53	0xbd6185ee	-0.055059366
54	0x3d771808	0.060325652
55	0xbcf8f01d	-0.030387932
56	0xbc8eb3d2	-0.01741973
57	0xbcaf3b41	-0.02139056
58	0xbd916f65	-0.07101325
59	0x3cba9a37	0.022778613
60	0x3db496e0	0.088178396
61	0xbd5e14cc	-0.054219052
62	0xbd6922f6	-0.056918107
63	0x3d2ccd50	0.04218799
64	0x3d14b4cf	0.036305245
65	0x3cfb353b	0.03066503
66	0x3d9d0ede	0.07668851
67	0xbd91db9f	-0.071219675
68	0xbd78d174	-0.060746625
69	0xbd7670fc	-0.060166344
70	0x3a7c3505	0.00096209376
71	0x3d833d47	0.06408172
72	0xbd3f4df2	-0.046705194
73	0xbc9b2e2c	-0.018942915
74	0x3c713875	0.014722933
75	0x3c364f1c	0.01112726
76	0x3d7dfcea	0.062008776
77	0xbd09b2bc	-0.03361772
78	0x3dc93578	0.098246515
79	0x3da2e896	0.079545185
80	0xbc9b5707	-0.018962396
81	0xbd267525	-0.04063906
82	0xbdb86afe	-0.09004782
83	0xbd7ec7cf	-0.06220227
84	0x3babd407	0.0052437815
85	0xbdb213fc	-0.08695218
86	0xbde13d10	-0.10997975
87	0x3d52592e	0.05135458
88	0xbda7a232	-0.08185233
89	0x3d3617b5	0.044456203
90	0x3d2c46de	0.04205977
91	0x3d848294	0.06470218
92	0x3c819b3b	0.01582109
93	0xbb21fef2	-0.002471861
94	0x3dfa8ab7	0.12233489
95	0xbd6502f7	-0.05591103
96	0xbb6ac469	-0.0035822636
97	0x39947afc	0.0002832039
98	0xbde30fd7	-0.110870056
99	0x3d341546	0.0439656
100	0xbc97ccd7	-0.018530292
101	0x3c559949	0.013037034
102	0x3cd00568	0.025393203
103	0xbcb4e031	-0.022079559
104	0x3d06d7f2	0.032920785
105	0xbcff6ac8	-0.031178847
106	0xbc713ecf	-0.014724447
107	0xbdad7d0c	-0.084711164
108	0xbd01360d	-0.031545687
109	0xbd04b0b2	-0.032395072
110	0xbddd3910	-0.108018994
111	0xbd5f5293	-0.05452211
112	0xbd3c9fe1	-0.04605091
113	0x3d38941a	0.045063116
114	0xbc7d4acb	-0.015459727
115	0x3daac793	0.08338847
116	0xbdb9fa89	-0.09080989
117	0x3d08f01a	0.033432104
118	0xbda9a677	-0.08283704
119	0x3d81d5fa	0.06339641
120	0x3d925f9e	0.07147144
121	0x3d1da442	0.038486727
122	0x3ce547cf	0.027988343
123	0xbd60a6d0	-0.054846585
124	0x3d1aaa98	0.037760347
125	0x3dc58b09	0.096456595
126	0xbc81dede	-0.015853342
127	0xbcaa95e5	-0.020823428
128	0x3dcfe13a	0.101503804
129	0x3dcbc504	0.09949687
130	0x3ddfb02c	0.10922274
131	0xbd8dabcb	-0.069175325
132	0x3d98a08b	0.07452496
133	0x3c29f007	0.010372168
134	0xbd985d7a	-0.07439704
135	0x3dc01990	0.09379876
136	0xbd607ef8	-0.054808587
137	0xbc45517d	-0.012043354
138	0xbdb5fd35	-0.08886186
139	0x3c8551f6	0.016274434
140	0xbcf65998	-0.030072019
141	0x3dcaa3a2	0.09894492
142	0x3d4d8fa3	0.05018581
143	0x3d8ed220	0.06973672
144	0x3d5cf1e3	0.05394162
145	0x3d505a3c	0.050867304
146	0x3d8ae0f6	0.06781189
147	0x3d213ece	0.039366536
148	0x3d221f02	0.039580353
149	0xbd90d4c7	-0.07071834
150	0x3cf5bfbc	0.029998653
151	0xbd78b2c8	-0.060717374
152	0xbbf4b203	-0.0074675097
153	0xbd6e29d7	-0.05814537
154	0x3dba4e7c	0.09097001
155	0x3cc52b75	0.024068573
156	0xbde5a47b	-0.11213013
157	0xbdc79f09	-0.097471304
158	0x3d8a6112	0.06756796
159	0x3d2ec2ce	0.04266625
160	0x3dcd0337	0.10010379
161	0x3d02b5ad	0.03191154
162	0x3cd3c7cc	0.025852107
163	0x3cad285c	0.021137409
164	0xbddbe43d	-0.10736892
165	0x3d6088ad	0.054817844
166	0xbd1f4fa4	-0.03889431
167	0x3c9bf492	0.019037519
168	0xbd735988	-0.059411556
169	0xbb0461b2	-0.0020199833
170	0x3cc5c868	0.024143413
171	0xbd25c760	-0.040473342
172	0x3cd63ca2	0.026151959
173	0x3d8b0163	0.06787374
174	0x3ce2d305	0.027688513
175	0x3cdc32f0	0.026879758
176	0x3d8c1fd9	0.06842012
177	0xbd912718	-0.07087535
178	0x3dd71f1a	0.10503979
179	0xbd19d344	-0.037554994
180	0x3d50b7cb	0.05095653
181	0xbda1da1a	-0.07902928
182	0xbd9c268b	-0.07624539
183	0x3d851522	0.064981714
184	0x3ca70a22	0.020390574
185	0x3ddddb1f	0.1083281
186	0x3d0c219f	0.03421175
187	0xbd6067ef	-0.05478662
188	0x3d715dbf	0.058927294
189	0x3d9f8d12	0.07790579
190	0x3cd63f94	0.026153363
191	0xbcde3e3e	-0.027129289
192	0xba8e2515	-0.0010844792
193	0xbd8a45a1	-0.06751562
194	0x3d9c1e27	0.076229386
195	0x3d030b24	0.031993046
196	0xbc942c68	-0.01808758
197	0x3d8b4aaa	0.068013504
198	0xbd47698c	-0.04868464
199	0x3d872a40	0.065998554
200	0xbb31f86b	-0.0027156125
201	0xbd7e0317	-0.062014665
202	0xbca30656	-0.019900482
203	0xbac83a54	-0.0015276172
204	0xbd8f21b9	-0.06988854
205	0xbd01b381	-0.03166533
206	0x3ba80e3c	0.00512865
207	0x3d8eaa11	0.06966031
208	0xbdad224a	-0.08453806
209	0xbcf2b876	-0.029628973
210	0x3d5277d3	0.051383805
211	0xbda0e236	-0.07855646
212	0x3beed40c	0.0072884616
213	0x3d058200	0.03259468
214	0x3cf2e3f1	0.029649707
215	0xbd301a91	-0.042994086
216	0xbb34fde5	-0.0027617153
217	0xbd124b12	-0.035716124
218	0xbc60ed89	-0.013728508
219	0x3d3cba15	0.0460759
220	0x3c099846	0.008398121
221	0x3db21508	0.08695418
222	0x3dac7db5	0.08422414
223	0x3d21f2f2	0.03953833
224	0xbd71fb82	-0.059077747
225	0xbcff4c78	-0.031164393
226	0xbd3f9401	-0.046772007
227	0x3cd19519	0.02558379
228	0x3d063aa7	0.03277078
229	0xbcd9d463	-0.026590532
230	0x3d837fe0	0.064208746
231	0xbd7d7572	-0.061879583
232	0xbd7863e4	-0.060642138
233	0xbc450cac	-0.012026947
234	0x3b86ffa2	0.0041198293
235	0xbd4dc971	-0.050240938
236	0x3c87a2ae	0.016557064
237	0x3d356faa	0.044295944
238	0xbda2da72	-0.079518214
239	0x3dc15ba0	0.09441304
240	0x3cabd2dd	0.02097457
241	0xbd1c24bf	-0.03812098
242	0x3d992d70	0.0747937
243	0x3cebe793	0.028796947
244	0xbce6fe30	-0.028197378
245	0x3dc928aa	0.09822209
246	0x3ce592db	0.028024128
247	0x3b5fec2b	0.0034167867
248	0x3d5efe68	0.05444184
249	0x3cfa4c51	0.030553969
250	0xbcb75eb4	-0.022384025
251	0xbc9603ae	-0.018312301
252	0xbcfba401	-0.030717852
253	0xbd31bea0	-0.043394685
254	0x3ce6d8ba	0.028179515
255	0x3bf26831	0.0073976745

fc2.bias f4 [64]
0	0x3cfa7b74	0.030576445
1	0x3c02a429	0.007973709
2	0xbd611f48	-0.054961473
3	0x3d3c3a57	0.045954075
4	0xbdb9f556	-0.09079997
5	0xbccda653	-0.025103724
6	0x3d002132	0.031281658
7	0x3cb83fcc	0.022491358
8	0x3dd1990a	0.10234268
9	0xbdd4ef2d	-0.10397182
10	0x3cb9d2a8	0.022683457
11	0xbd4fc5d5	-0.050725777
12	0xbd5d573c	-0.05403827
13	0xbc98a108	-0.018631473
14	0x3ce7a20b	0.02827551
15	0xbd61825d	-0.055055965
16	0x3dd88d7d	0.10573862
17	0x3c32365f	0.010877221
18	0xbad0454c	-0.0015889793
19	0x3d266796	0.04062613
20	0x3c915ab3	0.017743444
21	0xbd88f07c	-0.06686494
22	0x3c768a7c	0.015047666
23	0xbd604cb0	-0.054760635
24	0xbdaca4ab	-0.084298454
25	0xbd2a6230	-0.041597545
26	0xbdc9cd5b	-0.098536216
27	0xbda59d30	-0.08086622
28	0xbb23def1	-0.002500471
29	0x3c82f496	0.015985768
30	0x3b5b9a89	0.0033508858
31	0xbd63cd11	-0.05561549
32	0x3dae4c53	0.085106514
33	0xbd998309	-0.07495696
34	0xbd9393a2	-0.07205893
35	0xbd908160	-0.07055926
36	0xbd521b2e	-0.05129545
37	0xbdaf2373	-0.08551683
38	0x3cbc4920	0.022984087
39	0xbd833a56	-0.06407611
40	0x3c2ece34	0.01066928
41	0x3d40fe10	0.047117293
42	0x3d23639f	0.039889928
43	0xbd827f5e	-0.063719496
44	0xbc95b84b	-0.018276354
45	0x3cbea0f0	0.0232701
46	0x3dde3f5c	0.108519286
47	0x3cadfd4d	0.021238947
48	0x3d3a637b	0.04550503
49	0xbdb7bf9e	-0.08972095
50	0xbd84dd32	-0.06487502
51	0x3a826056	0.0009946923
52	0x3c9a8f54	0.018867172
53	0x3c9195bf	0.0177716
54	0xbd71b301	-0.059008602
55	0x3d034677	0.032049622
56	0x3d05ba52	0.032648392
57	0x3c37a2a9	0.011208215
58	0xbdcdc815	-0.10047928
59	0x3dcc93fb	0.099891625
60	0xbc81aff4	-0.015830971
61	0x3dc1b297	0.094578914
62	0x3bab4047	0.0052261683
63	0xbc47638e	-0.012169732

fc3.weight f4 [32, 64]
0	0xbe068200	-0.13135529
1	0xbd15caca	-0.036570348
2	0xbd9224a1	-0.07135893
3	0x3e0ffc91	0.1406119
4	0xbdb7fd41	-0.08983851
5	0xbe00d444	-0.12580973
6	0x3d4b642a	0.04965607
7	0xbe0490ec	-0.12945908
8	0x3d53dda0	0.05172503
9	0xbc29c21d	-0.010361222
10	0x3e13b3db	0.14424078
11	0xbb5d0e53	-0.0033730462
12	0xbd45389d	-0.048149694
13	0xbd96759a	-0.073466495
14	0xbcebffe2	-0.028808538
15	0xbdcbefc1	-0.09957839
16	0xbd3633dc	-0.04448305
17	0xbd9f88ac	-0.0778974
18	0xbb598ac1	-0.0033194276
19	0x3dff4b87	0.124655776
20	0xbc243feb	-0.010025005
21	0x3d8d1e59	0.06890554
22	0xbd4d293b	-0.05008815
23	0x3d7cf63e	0.061758272
24	0xbda383c9	-0.079841204
25	0xbd263fad	-0.04058807
26	0x3da88d11	0.08230031
27	0x3c9e87be	0.019351836
28	0x3d8210b8	0.06350845
29	0xbdcb55ae	-0.099284515
30	0xbe08e95e	-0.13370273
31	0x3e07ab87	0.13249026
32	0xbd44ddf1	-0.048063222
33	0xbd947a72	-0.07249917
34	0x3db209fd	0.08693311
35	0x3dc7f4ef	0.09763514
36	0x3df6ddd4	0.12054029
37	0x3da70879	0.08155913
38	0x3cfc9934	0.030834772
39	0x3de08204	0.109622985
40	0xbddcfd4f	-0.10790502
41	0x3de27ef1	0.110593684
42	0x3daf67a1	0.085646875
43	0x3d5e8ff7	0.054336514
44	0xbdd438d8	-0.103624046
45	0x3dd5c52f	0.104380004
46	0xbe124f91	-0.14288165
47	0x3dfe5cfb	0.12420078
48	0xbdec182d	-0.11528049
49	0x3da5225b	0.080631934
50	0xbdae8708	-0.08521849
51	0xbe165697	-0.14681469
52	0x3dc72d3a	0.09725423
53	0x3c4f88ef	0.012666925
54	0xbd1066d9	-0.035254333
55	0x3d767f33	0.0601799
56	0x3daeabed	0.08528886
57	0xbd8942d9	-0.06702203
58	0x3d7e93bf	0.06215262
59	0xbaebdf2b	-0.0017995586
60	0x3d9c5b25	0.07634572
61	0xbd98fa32	-0.07469596
62	0xbd8419ff	-0.06450271
63	0xbd8a359e	-0.06748508
64	0x3d2abf28	0.041686207
65	0x3d430084	0.047607914
66	0xbdb4e8fe	-0.08833502
67	0xbd29c3f5	-0.041446645
68	0x3c5629f3	0.013071525
69	0x3dbfbcd4	0.09362188
70	0x3e26a53b	0.16273968
71	0x3e16a6e0	0.14712095
72	0x3bec7cde	0.0072170338
73	0xbdf38eb9	-0.118924566
74	0x3e1c6a66	0.15274963
75	0x3d616e8c	0.055037066
76	0x3d260042	0.04052759
77	0x3c3eb4af	0.011639758
78	0xbbd72a84	-0.0065663476
79	0x3d2166dc	0.039404735
80	0x3d9076e0	0.070539236
81	0x3c214863	0.0098439185
82	0x3e1358a6	0.14389285
83	0xbd39d4da	-0.045369007
84	0x3d583851	0.052788083
85	0x3cfa46bf	0.030551312
86	0x3dabdfed	0.0839232
87	0xbc8cd94a	-0.017193455
88	0x3c8562ec	0.016282521
89	0xbdf6f981	-0.12059308
90	0x3d6f7432	0.05846042
91	0xbda8d2ef	-0.082433574
92	0xbc583fce	-0.013198806
93	0xbb21cfe2	-0.0024690558
94	0xbdecc44a	-0.11560877
95	0x3d4baca5	0.049725194
96	0x3d1d1f6e	0.03836005
97	0x3d2768cc	0.040871426
98	0x3d12019c	0.035646066
99	0xbd31408f	-0.04327446
100	0xbb4a9296	-0.0030910126
101	0xbe1b71c7	-0.15180121
102	0x3e1ff92e	0.15622398
103	0xbe0e884b	-0.13919179
104	0x3da8f315	0.08249489
105	0xbd5380ac	-0.051636383
106	0xbda96c48	-0.08272606
107	0xbd0e9429	-0.034809265
108	0x3cd44190	0.025910169
109	0x3dc56506	0.09638409
110	0xbc742174	-0.014900554
111	0xbe0f17be	-0.139739
112	0x3e25f4bb	0.16206639
113	0x3cfaf147	0.030632628
114	0x3d95fbbd	0.07323406
115	0x3d1dc3c0	0.03851676
116	0xbe1f71d5	-0.15570767
117	0x3d5dcc35	0.054149825
118	0x3df70da4	0.120631486
119	0xbda2d76a	-0.07951243
120	0x3cc31628	0.023814276
121	0xbcef685b	-0.029224565
122	0x3b11870f	0.0022205745
123	0x3cd29090	0.025703698
124	0xbe282a11	-0.16422297
125	0x3e13c8fc	0.14432138
126	0x3d6979b0	0.057000816
127	0xbd652390	-0.05594212
128	0xbe05872b	-0.13039844
129	0xbd6614b7	-0.0561721
130	0x3df5760d	0.11985407
131	0x3d0e6a3a	0.034769274
132	0xbc47ce7f	-0.012195229
133	0x3ce5e2f5	0.028062323
134	0xbe1431b0	-0.1447208
135	0xbbc9c02f	-0.0061569433
136	0xbcdccb7d	-0.0269525
137	0x3d9470e7	0.07248097
138	0x3d7d243f	0.061802145
139	0x3d8d0f01	0.068876274
140	0xbc515abc	-0.01277798
141	0x3dbe5256	0.09293048
142	0x3e0331be	0.12811944
143	0xbb8b8a5d	-0.0042584375
144	0xbd0f079e	-0.034919374
145	0xbd91c35e	-0.071173415
146	0x3ba93b1b	0.0051645166
147	0x3c9b85c1	0.018984677
148	0x3c52b384	0.012860183
149	0x3e0a2824	0.13491875
150	0xbd6ecaf3	-0.058299016
151	0x3ca27cdc	0.019834928
152	0x3dce7de0	0.100826025
153	0x3d238671	0.039923135
154	0xbdad3e22	-0.084591165
155	0x3c4527e9	0.012033441
156	0x3d18267b	0.037146073
157	0xbd147649	-0.036245618
158	0x3da3e28f	0.08002197
159	0xbde66f1b	-0.112516604
160	0xbd22ed97	-0.039777365
161	0x3cda0019	0.026611375
162	0xbdd0bbc4	-0.101920635
163	0x3d8a34ea	0.06748374
164	0x3dc48a01	0.09596635
165	0x3e0f1bcc	0.13975447
166	0x3b3e2021	0.002901085
167	0x3e007753	0.12545519
168	0xbde3b982	-0.11119367
169	0xbd16f961	-0.03685892
170	0xbd76cb67	-0.060252573
171	0xbd8f0381	-0.0698309
172	0xbb98a721	-0.004658595
173	0xbdb885a8	-0.09009868
174	0xbe11555a	-0.14192715
175	0xbb3839b7	-0.0028110573
176	0xbda13dd8	-0.07873124
177	0xbd228697	-0.039679136
178	0xbbc14271	-0.005897813
179	0xbdcb9a0e	-0.09941493
180	0xbd221023	-0.03956617
181	0xbcb72570	-0.022356719
182	0xbe08b12c	-0.13348836
183	0xbd33089f	-0.043709394
184	0xbe12446f	-0.14283918
185	0xbcf53788	-0.029933706
186	0x3d5c1f69	0.053740893
187	0xbe095fdd	-0.13415475
188	0x3d1358bb	0.03597329
189	0xbe051c3c	-0.12999052
190	0xbdb1037d	-0.086432435
191	0xbdf2049b	-0.11817285
192	0x3cb9ea58	0.022694752
193	0x3e085639	0.13314141
194	0xbdbda999	-0.09260864
195	0x3d3c3b2c	0.04595487
196	0xbd1aedbb	-0.037824374
197	0x3d7d532f	0.06184691
198	0x3c1c35ad	0.009534282
199	0x3d8d802d	0.06909213
200	0x3d7beb11	0.061503474
201	0x3a57c723	0.0008231273
202	0x3c205779	0.00978648
203	0xbcaaf92b	-0.020870766
204	0x3ca3776a	0.019954402
205	0x3d6c4645	0.0576842
206	0x3bb0fe81	0.005401433
207	0xbc771abc	-0.015082058
208	0x3e14a281	0.14515115
209	0x3e032cb4	0.12810022
210	0xbd69dc93	-0.05709512
211	0x3ca4c2f6	0.020112496
212	0x3d424e4d	0.047437955
213	0xbe1c40ff	-0.15259169
214	0x3e1a0f67	0.15044938
215	0xbce599b2	-0.02802739
216	0xbde456ba	-0.11149354
217	0xbd3ebb4b	-0.046565335
218	0xbdc13771	-0.09434403
219	0x3d65d3e2	0.05611027
220	0xbca0289d	-0.019550616
221	0xbdfa5f04	-0.12225154
222	0x3d59d775	0.05318399
223	0x3de47da7	0.11156779
224	0xbd8f5076	-0.069977686
225	0xbe10c5bc	-0.1413793
226	0xbc4ef62b	-0.012631933
227	0xbe1244fe	-0.14284131
228	0x3cb32382	0.021867517
229	0xbbc57526	-0.006025928
230	0xbb67b829	-0.003535757
231	0x3d9ae271	0.075627215
232	0xbd5c1df3	-0.0537395
233	0xbd3bc3d7	-0.045841064
234	0x3c1d6baa	0.009608189
235	0x3dbfb1f0	0.09360111
236	0xbdc29c84	-0.09502509
237	0x3e0d74b0	0.13814044
238	0x3d49f465	0.04930534
239	0xbd1c4659	-0.038153026
240	0x3d2ba319	0.04190359
241	0x3dc8f53f	0.09812402
242	0x3d528fed	0.05140679
243	0xbdb5411d	-0.0885031
244	0x3d244047	0.040100362
245	0x3cf35a11	0.029706033
246	0x3c8b8538	0.017031297
247	0x3e119ae8	0.14219248
248	0x3c7987c3	0.015230122
249	0x3c63ef41	0.013912023
250	0xbe199a85	-0.15000351
251	0xbd0c3a82	-0.034235485
252	0xbde33253	-0.11093583
253	0x3d3a7e52	0.045530625
254	0xbcb13ba3	-0.021634882
255	0x3e18b058	0.1491102

fc3.bias f4 [32]
0	0x3d5f40d6	0.05450519
1	0xbbd7a35f	-0.0065807546
2	0xbd9184e3	-0.07105424
3	0x3d9c6e30	0.07638204
4	0x3daddd44	0.08489469
5	0x3d8dd68c	0.06925687
6	0xbbf86f2a	-0.007581611
7	0xbd109899	-0.03530178
8	0xbd21a944	-0.039468065
9	0xbd931233	-0.071812056
10	0xbdc28b65	-0.09499244
11	0x3dcea10b	0.1008931
12	0xbde95437	-0.11393016
13	0xbbeca642	-0.007221968
14	0x3da0e370	0.0785588
15	0x3d010d15	0.031506617
16	0x3df05c71	0.11736382
17	0xbda43261	-0.080174215
18	0x3c1a491d	0.009416846
19	0x3d0a1144	0.033707872
20	0x3d3440b6	0.044007026
21	0xbd8a5f33	-0.06756439
22	0xbddc81b3	-0.10766926
23	0x3d716843	0.058937322
24	0x3d5812a7	0.052752163
25	0x3e04ff27	0.12987958
26	0xbd58554f	-0.05281573
27	0xbbfc825c	-0.0077059697
28	0x3df77804	0.12083438
29	0x3dc83b66	0.09776954
30	0xbcfbc474	-0.030733325
31	0xbdc512d8	-0.09622735

fc4.weight f4 [5, 32]
0	0xbd418977	-0.047250237
1	0xbddc8b57	-0.107687645
2	0x3e22e122	0.15906194
3	0xbe1ab465	-0.15107878
4	0x3ced1bd3	0.028943932
5	0xbd9cdf0c	-0.0765973
6	0xbe4c0287	-0.19922839
7	0x3d2f0100	0.042725563
8	0x3ded6550	0.115915895
9	0xbd0162dd	-0.031588424
10	0xbdadc155	-0.08484141
11	0xbcc8db82	-0.024518732
12	0x3e31fed0	0.1738236
13	0xbd9f3f06	-0.07775693
14	0x3dab6e06	0.08370595
15	0xbe1aef0f	-0.15130256
16	0xbe048eae	-0.12945053
17	0x3e1610da	0.14654866
18	0xbda36c2d	-0.07979617
19	0x3e4d3649	0.2004024
20	0x3e3b53cf	0.18293689
21	0xbe48b95a	-0.19601956
22	0x3e2b4ffb	0.16729729
23	0x3df406ea	0.11915381
24	0x3e2c8ced	0.16850634
25	0x3e04036e	0.12891933
26	0x3e1579d7	0.1459726
27	0xbdbf210c	-0.09332475
28	0xbe18862d	-0.14894934
29	0xbe3ce58e	-0.18446943
30	0xbae93a23	-0.0017793815
31	0xbc54e021	-0.01299289
32	0xbd8f8799	-0.07008285
33	0x3e182f70	0.14861846
34	0xbe026971	-0.12735535
35	0xbc84d0fd	-0.016212935
36	0xbd7d6eb0	-0.061873138
37	0x3d564b50	0.052317917
38	0xbc4c7089	-0.012478002
39	0xbc9fee91	-0.019522937
40	0xbd6b5efa	-0.057463624
41	0x3e1a836f	0.150892
42	0xbe03dd55	-0.128774
43	0x3dd320e3	0.10309007
44	0x3e13f62e	0.14449379
45	0x3e2223d9	0.15833987
46	0x3e2ac01d	0.16674848
47	0xbe46acfe	-0.19401929
48	0x3de6ac3f	0.11263322
49	0x3c039224	0.008030448
50	0x3da26188	0.07928759
51	0x3d995d38	0.07488483
52	0xbcad53d0	-0.021158129
53	0xbe06313e	-0.13104722
54	0xbc640c67	-0.013918973
55	0x3cd00328	0.02539213
56	0x3dfe6c29	0.12422974
57	0xbd1c7c00	-0.038204193
58	0x3d38a791	0.04508168
59	0xbdeb53c8	-0.114905894
60	0xbe0639ec	-0.13108033
61	0x3df035c0	0.11729002
62	0xbde6b567	-0.112650685
63	0x3dec3b50	0.115347505
64	0x3dbfa3ed	0.09357438
65	0x3acfd7d9	0.0015857174
66	0x3c842b48	0.01613392
67	0x3e29dbe3	0.16587786
68	0xbcbd3a38	-0.02309905
69	0xbe314c78	-0.17314327
70	0xbdb278ee	-0.08714472
71	0xbd01f104	-0.03172399
72	0x3ab2736b	0.001361472
73	0x3c6b35e6	0.014356112
74	0x3d815270	0.06314552
75	0xbdc8d1f8	-0.09805673
76	0x3dda7821	0.10667444
77	0xbde12e4d	-0.10995159
78	0xbd8275cd	-0.06370125
79	0x3dd8eb1b	0.10591718
80	0x3e41ef91	0.18939044
81	0x3dde8fb9	0.10867257
82	0x3e2f00dc	0.17090172
83	0xbd705790	-0.058677256
84	0xbd4ecd03	-0.050488483
85	0xbe387a3f	-0.18015383
86	0xbc4f8a20	-0.012667209
87	0xbcd7682b	-0.026294788
88	0xbd839530	-0.0642494
89	0x3de41ea6	0.11138658
90	0xbddc62f8	-0.10761064
91	0x3b772c75	0.0037715707
92	0xbc268951	-0.010164575
93	0xbd7e5afc	-0.06209849
94	0xbe32e89a	-0.17471543
95	0x3d5e89f8	0.054330796
96	0xbe0b0066	-0.1357437
97	0x3e027457	0.12739693
98	0x3daadbe2	0.083427206
99	0xbc0e3440	-0.00867945
100	0xbe13c662	-0.14431146
101	0x3bb70b5d	0.0055860714
102	0x3c2f33f2	0.010693537
103	0xbc2cf9fa	-0.010557646
104	0xbe0499dd	-0.12949319
105	0xbe4a2f19	-0.19744529
106	0x3d8fc232	0.07019462
107	0x3e2d4cfc	0.16923898
108	0xbd89d802	-0.06730653
109	0x3de4363c	0.11143157
110	0x3e0abbf2	0.13548258
111	0xbdef4139	-0.11682362
112	0xbe0fb447	-0.14033614
113	0xbe032e97	-0.12810741
114	0xbe0cb46b	-0.13740699
115	0x3e40c0af	0.18823503
116	0x3e33aedb	0.17547171
117	0xbe273dbb	-0.16332142
118	0x3d62294e	0.055215172
119	0xbd7b6316	-0.061373793
120	0xbddbb742	-0.10728313
121	0xbe335a03	-0.17514805
122	0xbd702fa8	-0.0586392
123	0x3df7b4f6	0.120950624
124	0x3d89b40f	0.067237966
125	0x3c9b7500	0.018976688
126	0xbbac5612	-0.005259284
127	0x3e0d7d13	0.13817243
128	0xbdc57945	-0.09642271
129	0x3e1c4070	0.15258956
130	0xbe122db8	-0.14275253
131	0x3e59f71a	0.21285668
132	0xbe208a65	-0.15677793
133	0x3dfe6372	0.124213114
134	0x3d10d710	0.03536135
135	0xbdffd06a	-0.12490924
136	0xbdf23697	-0.118268184
137	0x3e13b64f	0.14425014
138	0x3e5ae32e	0.21375725
139	0xbe4275a5	-0.1899019
140	0xbe17b56a	-0.14815298
141	0xbe4241fa	-0.1897048
142	0xbd8425db	-0.06452533
143	0x3e44f6f1	0.19234826
144	0xbd89e1e1	-0.06732536
145	0xbd83910f	-0.06424152
146	0xbe39dabb	-0.18149845
147	0x3d855b69	0.06511576
148	0xbe0bd161	-0.1365409
149	0x3e104b02	0.14091113
150	0xbe02a445	-0.12757976
151	0xbe0c8ac7	-0.13724814
152	0xbe4f0d6e	-0.20219967
153	0x3e3bf535	0.18355258
154	0xbc2a36d6	-0.0103890505
155	0xbe41949b	-0.18904345
156	0x3d598ac0	0.053110838
157	0xbd8e681b	-0.0695345
158	0x3e53dafb	0.20689003
159	0xbe428a26	-0.18998012

fc4.bias f4 [5]
0	0x3e0cd3c3	0.13752656
1	0xbd5ca4e9	-0.053868208
2	0xbc86ccd0	-0.016455084
3	0x3d489994	0.04897459
4	0xbddea8c4	-0.10872033
