clean_code/trained_models/actor_968.pth (torch, 54872 bytes, 8 tensors)

fc1.weight f4 [128, 18]
0.1579438 0.08814964 -0.15385574 0.19230759 0.1240423 -0.064457245 0.03132742 0.02615643
0.095968984 -0.0683262 -0.14515565 0.0055320784 0.2181195 0.08265473 0.14921111 0.032267846
-0.22678372 0.2557651 0.14160623 0.16708462 0.08600555 -0.07758017 0.0707292 -0.016911818
0.1475862 0.20648184 0.09970033 0.041303966 0.14911795 0.14578314 -0.1655457 -0.13691002
-0.09175006 0.05814669 -0.16312772 0.04162492 0.15351734 0.08840256 -0.1463152 0.062896416
-0.17724505 0.033902396 0.19447188 0.15464418 -0.060806323 -0.17518812 -0.10377428 0.17891482
0.26187715 0.09639265 0.064177796 -0.1065851 0.20352621 0.05629789 0.1277155 -0.039191872
0.16824408 0.02573392 -0.1835944 -0.13523206 -0.19264577 -0.18855862 -0.124614105 0.16663988
0.09714562 -0.104607806 0.20825832 0.18564402 -0.0053977813 -0.18735872 0.1666502 -0.06476293
-0.075014025 0.234036 -0.034257945 -0.20246392 0.21365045 0.15946697 -0.09569486 0.26156488
-0.027345706 0.03950589 0.06623767 0.09946988 0.025132919 -0.13101941 0.2424354 0.16826053
-0.13879597 0.21250162 0.10294185 -0.052873682 0.040918134 0.18942426 0.23901647 -0.02656631
-0.0825188 -0.005933842 0.09623017 -0.17685999 -0.020003345 0.16064933 -0.17626344 0.20579098
-0.16122021 0.20118085 0.05979108 0.20875046 0.14032574 -0.24811313 0.14564553 -0.13431227
0.09322747 0.1712467 0.17545904 0.07875018 -0.17876534 -0.0025817552 -0.22793455 -0.025545264
-0.22399946 -0.009744495 -0.12950665 0.05310056 -0.24210191 -0.008647376 0.03135866 0.15488467
-0.20566316 -0.20804767 -0.13292879 0.089067265 0.2083425 -0.12576014 0.17631403 -0.18639673
0.17361175 0.17937204 -0.020929882 0.024652377 0.14470464 0.0039389348 0.048454825 -0.14932513
-0.0030031053 -0.087213084 -0.07137118 0.16778313 -0.0676431 -0.23605807 -0.10491397 -0.19025822
0.006707182 -0.21718642 -0.10355871 -0.24886644 0.15821679 -0.2106155 -0.10491157 -0.18964797
0.03937937 0.15477006 0.15438518 0.22436598 0.22741531 -0.070257336 0.123481974 -0.2185554
0.22663447 0.14433281 -0.06280769 0.20497714 0.10202372 0.2329222 0.16646548 -0.11949598
-0.067623146 0.21454644 -0.17782962 -0.09225885 -0.120857045 -0.19447127 -0.1543923 -0.1931647
0.09585443 0.09759205 -0.011423536 0.10656415 0.012729477 0.022727948 -0.02251874 0.068011686
-0.18225761 -0.058293283 -0.22214806 -0.17497124 0.12442531 0.03291658 -0.049950477 0.19756669
-0.02589547 -0.12074914 -0.1162517 0.20278224 0.07834358 0.19112585 0.04316956 -0.073952585
0.12422103 0.10943114 -0.0002409707 -0.033463866 -0.09996776 0.12413174 -0.17304091 0.23116213
-0.104443386 -0.08604418 0.14002413 -0.11318041 -0.21072926 -0.04374098 -0.21447147 0.017321134
-0.1897845 -0.17327863 -0.040380187 0.18321075 -0.14281534 -0.0031180233 0.075367615 -0.10915431
0.14324978 0.14836878 0.2688726 -0.08712944 0.076702565 -0.05259456 0.021766793 0.061281312
0.21486357 0.22025631 0.17485486 0.24480648 -0.029805955 0.06195551 -0.17901841 -0.123375766
0.018487409 0.035721555 -0.017264457 -0.08000629 0.22265618 -0.054666348 0.005675393 0.032076564
00000000: 05bc 213e cc87 b43d 5c8c 1dbe 48ec 443e
00000010: e409 fe3d 2902 84bd 2e51 003d 0246 d63c
00000020: 638b c43d 9bee 8bbd afa3 14be 7046 b53b
00000030: b85a 5f3e e246 a93d ccca 183e 4a2b 043d
00000040: fe39 68be a5f3 823e 3901 113e 3b18 2b3e
00000050: ae23 b03d 5ae2 9ebd 79da 903d a78a 8abc
00000060: d620 173e fa6f 533e b02f cc3d 592e 293d
00000070: 60b2 183e 2d48 153e d084 29be 2432 0cbe
00000080: 75e7 bbbd 392b 6e3d f40a 27be e47e 2a3d
00000090: a633 1d3e 670c b53d a7d3 15be d6cf 803d
000000a0: ba7f 35be 3ddd 0a3d a323 473e 0b5b 1e3e
000000b0: 0d10 79bd 8464 33be 9c87 d4bd 7235 373e
000000c0: c314 863e 8269 c53d a66f 833d 4a49 dabd
000000d0: 2d69 503e 9e98 663d dac7 023e a887 20bd
000000e0: 2d48 2c3e f1cf d23c 2c00 3cbe 467a 0abe
000000f0: ef44 45be 8315 41be ae35 ffbd a5a3 2a3e
00000100: 48f4 c63d 9e3c d6bd ab41 553e 7719 3e3e
00000110: dfdf b0bb f7da 3fbe 5aa6 2a3e 6da2 84bd
00000120: f4a0 99bd 22a7 6f3e 0f52 0cbd b452 4fbe
00000130: 2fc7 5a3e 4f4b 233e abfb c3bd d5eb 853e
00000140: 1a04 e0bc eed0 213d 9ea7 873d ddb6 cb3d
00000150: 8de3 cd3c f429 06be fc40 783e 7d4c 2c3e
00000160: 8820 0ebe 069a 593e 2dd3 d23d 1392 58bd
00000170: c699 273d 6ff8 413e bcc0 743e 97a1 d9bc
00000180: 9eff a8bd ad70 c2bb 5314 c53d c91a 35be
00000190: 0ede a3bc 4281 243e 677e 34be dfba 523e
000001a0: e916 25be 5a02 4e3e 7ee7 743d aec2 553e
000001b0: 8db1 0f3e 5e11 7ebe 1a24 153e 2889 09be
000001c0: 0bee be3d 4c5b 2f3e 89ab 333e c647 a13d
000001d0: 430e 37be aa32 29bb ad67 69be 4d44 d1bc
000001e0: 1d60 65be 60a7 1fbc 649d 04be f97f 593d
000001f0: 90e9 77be b9ad 0dbc f071 003d 169a 1e3e
00000200: 5d99 52be 730a 55be 7c1e 08be e668 b63d
00000210: bc57 553e 44c7 00be aa8b 343e c9de 3ebe
00000220: 47c7 313e 4ead 373e 2575 abbc c8f3 c93c
00000230: 742d 143e 2e12 813b 9178 463d b0e8 18be
00000240: bfcf 44bb c69c b2bd 0e2b 92bd 57cf 2b3e
00000250: 7788 8abd 35b9 71be 23dd d6bd 0dd3 42be
00000260: ecc7 db3b 1e66 5ebe 9716 d4bd d8d6 7ebe
00000270: 9503 223e 97ab 57be e1db d6bd 1433 42be
00000280: 434c 213d 0b7c 1e3e 2617 1e3e 32c0 653e
00000290: 8fdf 683e 14e3 8fbd 1ee4 fc3d fdcc 5fbe
000002a0: de12 683e fbcb 133e 51a1 80bd 87e5 513e
000002b0: d0f1 d03d 2883 6e3e ed75 2a3e 4fba f4bd
000002c0: 017e 8abd 10b2 5b3e f818 36be 35f2 bcbd
000002d0: e683 f7bd 7a23 47be 0419 1ebe f8cc 45be
000002e0: 544f c43d 57de c73d c829 3bbc 4e3e da3d
000002f0: 4c8f 503c f62f ba3c 3879 b8bc b649 8b3d
00000300: bda1 3abe f0c4 6ebd c87a 63be a92b 33be
00000310: b2d2 fe3d 89d3 063d df98 4cbd ec4e 4a3e
00000320: bd22 d4bc 534b f7bd 5f15 eebd 26a6 4f3e
00000330: 9972 a03d 7fb6 433e 91d2 303d 7474 97bd
00000340: 9867 fe3d 6f1d e03d 14ad 7cb9 6811 09bd
00000350: e6bb ccbd c838 fe3d a331 31be c4b5 6c3e
00000360: 6ae6 d5bd ee37 b0bd 7c62 0f3e 21cb e7bd
00000370: 69c9 57be be29 33bd 699e 5bbe 0de5 8d3c
00000380: de56 42be f46f 31be b265 25bd 999b 3b3e
00000390: 2f3e 12be c057 4cbb 565a 9a3d 4b8c dfbd
000003a0: 12b0 123e fced 173e aba9 893e eb70 b2bd
000003b0: 3c16 9d3d 656d 57bd 4650 b23c 1d02 7b3d
000003c0: 3205 5c3e df8a 613e 270d 333e 8dae 7a3e
000003d0: 9e2b f4bc 10c5 7d3d 9a50 37be 6fac fcbd
000003e0: e872 973c c450 123d 316e 8dbc 56da a3bd
000003f0: fbff 633e d2e9 5fbd a6f8 b93b b762 033d

fc1.bias f4 [128]
0.15190585 0.16049312 0.16249755 0.18276584 0.023388544 0.082538836 0.042408727 -0.09639063
0.1056694 -0.17888817 -0.21726157 0.23887086 0.15702482 -0.05877981 0.088226475 0.2313141
0.012513176 0.2114382 -0.1585443 0.098296866 0.17829248 0.082757674 -0.15706545 0.024698175
-0.204317 0.10705314 0.019000715 0.18884055 -0.08874631 0.06383076 -0.0051816325 -0.19588242
0.06024985 0.24905585 0.09287946 -0.09067289 -0.116345935 0.010623547 0.27193663 -0.1536828
0.020647934 0.18685094 -0.17361972 0.25267717 -0.08118679 0.204155 0.26359156 0.1737801
0.25763252 -0.14409761 0.10934648 -0.05111238 -0.15031865 -0.2646928 -0.047989465 0.2677228
0.018059252 0.24657464 -0.18861297 -0.008791065 -0.04849766 0.25148916 0.02178096 -0.15556124
0.11479729 -0.2198967 0.022504602 0.09008353 -0.06937841 0.16532518 0.2551972 0.08033079
-0.13915776 0.05402183 -0.1766512 0.14856988 0.17562222 -0.01363364 0.22059838 0.14499612
0.050699264 -0.16372181 -0.2421626 -0.16605544 0.093656264 0.13452584 -0.09229177 -0.06667578
-0.10769597 0.0008591071 0.13690089 -0.016383298 0.022492578 0.2276736 0.20448609 -0.26833606
0.113407396 -0.21014646 -0.20409508 0.046280086 0.16381145 -0.19997327 0.16004342 -0.060536057
0.13303477 0.20892684 0.035498597 -0.16188458 0.16235447 0.13667573 -0.09488496 -0.030876445
-0.009171644 0.21679816 -0.16632162 0.25412846 -0.14353874 -0.17068687 -0.16258761 0.21508984
0.0643051 0.030674377 0.17394234 0.06108322 -0.23608713 0.18166251 0.092373274 -0.14641282
00000000: 358d 1b3e 4f58 243e c265 263e f826 3b3e
00000010: 5599 bf3c 1f0a a93d c6b4 2d3d 7368 c5bd
00000020: 3369 d83d 762e 37be d179 5ebe 909a 743e
00000030: 1dcb 203e 19c3 70bd 15b0 b43d 9add 6c3e
00000040: 1004 4d3c 4183 583e 7059 22be de4f c93d
00000050: 4e92 363e db7c a93d c4d5 20be d453 ca3c
00000060: 7a38 51be ad3e db3d 63a7 9b3c 6b5f 413e
00000070: a0c0 b5bd b4b9 823d afca a9bb 6795 48be
00000080: 8cc8 763d 7f08 7f3e 9637 be3d b5b2 b9bd
00000090: c746 eebd 630e 2e3c 473b 8b3e 065f 1dbe
000000a0: db25 a93c da55 3f3e 5ec9 31be e75e 813e
000000b0: 4245 a6bd 020e 513e 79f5 863e 69f3 313e
000000c0: 69e8 833e 538e 13be 0cf1 df3d 375b 51bd
000000d0: 22ed 19be d185 87be 9a90 44bd f612 893e
000000e0: fff0 933c 107e 7c3e c223 41be 6608 10bc
000000f0: 7ba5 46bd 30c3 803e fc6d b23c 724b 1fbe
00000100: d71a eb3d 9a2c 61be 925b b83c b77d b83d
00000110: 4516 8ebd 014b 293e 35a9 823e 7884 a43d
00000120: 5f7f 0ebe ff45 5d3d 0de4 34be b422 183e
00000130: 50d6 333e a15f 5fbc 8be4 613e dd79 143e
00000140: 08aa 4f3d b1a6 27be 79f9 77be 700a 2abe
00000150: dbce bf3d 24c1 093e 7803 bdbd 508d 88bd
00000160: b48f dcbd b435 613a bf2f 0c3e 4436 86bc
00000170: 5b42 b83c 4523 693e cd64 513e 5863 89be
00000180: 2342 e83d a230 57be 4dfe 50be 3090 3d3d
00000190: 30be 273e cbc5 4cbe 6ce2 233e a8f4 77bd
000001a0: 443a 083e ebf0 553e fa66 113d 12c5 25be
000001b0: 4040 263e b9f4 0b3e 0c53 c2bd 99f0 fcbc
000001c0: aa44 16bc 5600 5e3e 3750 2abe 201d 823e
000001d0: d2fb 12be 8ac8 2ebe 5e7d 26be 8340 5c3e
000001e0: 64b2 833d d548 fb3c f11d 323e 6632 7a3d
000001f0: d3c0 71be bd05 3a3e 332e bd3d 3eed 15be

fc2.weight f4 [64, 128]
0.07202778 -0.02952475 0.022974936 -0.004681118 0.05629303 0.055342257 0.05759938 0.046380058
0.006109023 -0.02613325 0.012022797 0.07502562 -0.030333824 0.005008345 0.037512705 0.023504589
0.008480036 0.008842007 -0.042983364 0.03539466 0.03235506 -0.09327127 0.056194358 -0.058619145
0.080062725 0.02636361 -0.0036073602 0.08331404 -0.117135115 -0.015737921 0.0489835 0.046635438
-0.03825212 0.041751705 -0.0752543 0.088432215 -0.06425813 -0.011227404 -0.008698015 0.070053756
0.10094165 0.038284305 -0.0527066 0.0037257147 -0.102640994 0.103059344 0.028577236 -0.008521338
0.054626115 0.07073654 0.0075539867 -0.066595115 0.029163074 -0.056699306 0.05962658 -0.028690398
-0.01916295 -0.020118002 -0.0731418 0.022222018 0.088764586 -0.052706342 -0.056238458 0.04072508
0.035357896 0.027088184 0.07774015 -0.07216293 -0.060710456 -0.0598565 0.0014337421 0.06479952
-0.049572825 -0.017833315 0.013451906 0.012450544 0.05996547 -0.0342705 0.099994846 0.078390785
-0.021372478 -0.0428672 -0.09144993 -0.062993675 0.004995353 -0.086320505 -0.11089619 0.049180422
-0.079001315 0.043313064 0.04481019 0.066271976 0.01592441 -0.0013344373 0.12733789 -0.05770615
-0.0050365874 -0.0010708045 -0.1126141 0.04310902 -0.019508142 0.011255377 0.027305895 -0.023490444
0.03192078 -0.029256133 -0.0140841 -0.08463385 -0.033448454 -0.031515777 -0.10826867 -0.053007554
-0.04627602 0.045316923 -0.014631242 0.08528368 -0.09275082 0.03392393 -0.08421321 0.064968236
0.07282462 0.039916422 0.028153652 -0.05185936 0.036066268 0.09965886 -0.015232019 -0.020589676
0.10197574 0.10093975 0.110132255 -0.06987328 0.07521736 0.012616948 -0.07559858 0.094495684
-0.05802858 -0.010555436 -0.08976081 0.017713724 -0.030985085 0.10338161 0.05201953 0.070765324
0.05513491 0.05262429 0.06645051 0.039759893 0.038112886 -0.07239487 0.030278783 -0.0615762
-0.005449728 -0.058015753 0.0909698 0.025155751 -0.11404281 -0.09891341 0.06655142 0.041580435
0.10183745 0.03297732 0.024100037 0.021561481 -0.1091483 0.053053804 -0.034668893 0.019635502
-0.058486424 -0.0046252883 0.020636607 -0.038680416 0.025241151 0.0692598 0.029214762 0.037486423
0.06964221 -0.07318602 0.106773406 -0.03693156 0.05335081 -0.080329634 -0.0775589 0.066390306
0.018286778 0.10940897 0.03193793 -0.055236448 0.059366073 0.07924704 0.026785793 -0.028420178
-0.0025958973 -0.07172792 0.07705502 0.0312818 -0.01821199 0.06829288 -0.048311576 0.06673907
-0.0049807057 -0.06143666 -0.022764578 0.0011389387 -0.07190228 -0.03289027 0.0065629124 0.0676622
-0.08776996 -0.032536466 0.05026596 -0.07921324 0.0070966184 0.03367303 0.028770301 -0.045294
0.00090324885 -0.036982536 -0.01074607 0.047273062 0.008676112 0.08774221 0.08985279 0.038062394
-0.06089346 -0.032248594 -0.048830975 0.024887005 0.03125166 -0.028026821 0.06594971 -0.06328557
-0.061567605 -0.010123392 0.00495689 -0.049946897 0.015251061 0.044994146 -0.07988139 0.0963222
0.02069852 -0.037888724 0.07576403 0.032795314 -0.029655956 0.098535426 0.026744818 0.0045712152
0.055445977 0.031388495 -0.022305857 -0.016011104 -0.03196426 -0.041460507 0.028747091 0.00785455
00000000: 4d83 933d e3dd f1bc ef35 bc3c 1064 99bb
00000010: 8593 663d 90ae 623d 54ed 6b3d 04f9 3d3d
00000020: 332e c83b 6615 d6bc 44fb 443c 08a7 993d
00000030: a47e f8bc 0b1d a43b eca6 193d b28c c03c
00000040: d9ef 0a3c 11de 103c 530f 30bd fef9 103d
00000050: bd86 043d 0205 bfbd 0e2c 663d a11a 70bd
00000060: edf7 a33d 7ff8 d73c 7669 6cbb 8da0 aa3d
00000070: 89e4 efbd d0ec 80bc eca2 483d cd04 3f3d
00000080: 41ae 1cbd d603 2b3d ed1e 9abd f31b b53d
00000090: c499 83bd 25f3 37bc 1e82 0ebc 5878 8f3d
000000a0: 7fba ce3d 01d0 1c3d e0e2 57bd 1f2b 743b
000000b0: 7135 d2bd c710 d33d cf1a ea3c 159d 0bbc
000000c0: a2bf 5f3d 52de 903d 6f87 f73b 0563 88bd
000000d0: 66e7 ee3c 883d 68bd 003b 743d 2008 ebbc
000000e0: 9efb 9cbc 82ce a4bc 5ecb 95bd f30a b63c
000000f0: 35ca b53d 9be2 57bd 4c5a 66bd 57cf 263d
00000100: 71d3 103d 0ae8 dd3c 3a36 9f3d 29ca 93bd
00000110: 87ab 78bd 172c 75bd 67ec bb3a 9cb5 843d
00000120: e00c 4bbd 2c17 92bc 6265 5c3c 5efd 4b3c
00000130: 5a9e 753d 395f 0cbd 19ca cc3d 598b a03d
00000140: 5615 afbc 8495 2fbd 1a4a bbbd d402 81bd
00000150: 0fb0 a33b cec8 b0bd 8b1d e3bd 6971 493d
00000160: 71cb a1bd 0a69 313d e48a 373d 9ab9 873d
00000170: e973 823c 49e8 aeba dd64 023e 495d 6cbd
00000180: f509 a5bb 3d5a 8cba 39a2 e6bd 1593 303d
00000190: 8acf 9fbc 7968 383c 9db0 df3c 086f c0bc
000001a0: 5dbf 023d 8faa efbc ffc0 66bc 8354 adbd
000001b0: 3f01 09bd b016 01bd f7bb ddbd 731e 59bd
000001c0: ed8b 3dbd 3d9e 393d e0b7 6fbc 36a9 ae3d
000001d0: 24f4 bdbd d2f3 0a3d fa77 acbd 110e 853d
000001e0: 1325 953d 677f 233d 7da2 e63c 7b6a 54bd
000001f0: 39ba 133d f219 cc3d b88f 79bc aeab a8bc
00000200: a8d8 d03d 80b9 ce3d 058d e13d b919 8fbd
00000210: 8f0b 9a3d 51b7 4e3c 6ed3 9abd f486 c13d
00000220: 60af 6dbd b5f0 2cbc 84d4 b7bd 5f1c 913c
00000230: 6fd4 fdbc bdb9 d33d 6e12 553d 69ed 903d
00000240: 25d5 613d 918c 573d 3417 883d 45db 223d
00000250: 421c 1c3d c343 94bd 360b f83c 5337 7cbd
00000260: a293 b2bb eda1 6dbd 604e ba3d 6f13 ce3c
00000270: 478f e9bd 1d93 cabd 1c4c 883d 3f50 2a3d
00000280: 2790 d03d 3a13 073d 716d c53c b4a1 b03c
00000290: 2589 dfbd f24e 593d f800 0ebd a2da a03c
000002a0: 768f 6fbd bb8f 97bb 1a0e a93c 5b6f 1ebd
000002b0: 88c6 ce3c 15d8 8d3d cc53 ef3c 5d8b 193d
000002c0: 93a0 8e3d 8de2 95bd 04ac da3d 8c45 17bd
000002d0: 6186 5a3d dd83 a4bd 33d7 9ebd a4f7 873d
000002e0: 27ce 953c cf11 e03d 59d1 023d 9d3f 62bd
000002f0: d729 733d 464c a23d e16d db3c 6fd1 e8bc
00000300: ee1f 2abb 16e6 92bd 06cf 9d3d 5821 003d
00000310: 5031 95bc 23dd 8b3d 5ce2 45bd 7eae 883d
00000320: 3035 a3bb 02a5 7bbd c87c babc 7148 953a
00000330: 8141 93bd f3b7 06bd b30d d73b 7b92 8a3d
00000340: bdc0 b3bd f544 05bd aee3 4d3d 8d3a a2bd
00000350: c08a e83b bbec 093d b2af eb3c 3486 39bd
00000360: 01c8 6c3a 007b 17bd 4910 30bc 66a1 413d
00000370: 4026 0e3c 30b2 b33d bd04 b83d 50e7 1b3d
00000380: 6c6b 79bd 1a17 04bd fd02 48bd d5df cb3c
00000390: be01 003d 8198 e5bc a410 873d dd9b 81bd
000003a0: 502e 7cbd 95dc 25bc 686d a23b 1e95 4cbd
000003b0: 96df 793c c84b 383d db98 a3bd 9344 c53d
000003c0: f18f a93c 3531 1bbd 2c2a 9b3d 6154 063d
000003d0: 0cf1 f2bc f1cc c93d f317 db3c 22ca 953b
000003e0: 521b 633d 3991 003d c6ba b6bc b829 83bc
000003f0: f5ec 02bd 7ed2 29bd 057f eb3c 5fb0 003c

fc2.bias f4 [64]
0.031686757 0.00883745 -0.05544501 0.045228254 -0.09121669 -0.023550028 0.032572653 0.024692453
0.102894984 -0.104281135 0.023666648 -0.051351823 -0.04757643 -0.016460981 0.027634142 -0.055755835
0.10846073 0.013506616 -0.00049823837 0.040093597 0.016050804 -0.06736942 0.016534545 -0.055299085
-0.08481808 -0.042128637 -0.099040106 -0.083432876 -0.0013595287 0.01568792 0.0030160728 -0.05445267
0.086095646 -0.07567087 -0.07260951 -0.07163104 -0.0516776 -0.086136244 0.024095587 -0.06276799
0.011466932 0.04755091 0.038736336 -0.06384249 -0.019066421 0.02682721 0.109811835 0.020404201
0.046945 -0.09012235 -0.06433342 -7.37365e-05 0.017858664 0.019058501 -0.0579983 0.03226125
0.033821434 0.010118061 -0.10111363 0.102175504 -0.016958155 0.10047434 0.0044144974 -0.011016926
00000000: f9c9 013d f4ca 103c 4f1a 63bd 4341 393d
00000010: d1cf babd fdeb c0bc e76a 053d d447 ca3c
00000020: 9bba d23d 5991 d5bd 8fe0 c13c 4a56 52bd
00000030: 81df 42bd 2ed9 86bc ff60 e23c 3b60 64bd
00000040: a920 de3d da4a 5d3c 369c 02ba 2f39 243d
00000050: fa7c 833c faf8 89bd 7473 873c 4b81 62bd
00000060: 1ab5 adbd 148f 2cbd 8ad5 cabd dbde aabd
00000070: 3732 b2ba f483 803c 4ea9 453b c309 5fbd
00000080: ea52 b03d 54f9 9abd 4bb4 94bd 4bb3 92bd
00000090: e4ab 53bd 3368 b0bd 1c64 c53c 818c 80bd
000000a0: ccdf 3b3c bec4 423d fea9 1e3d dabf 82bd
000000b0: 2f31 9cbc bdc4 db3c 07e5 e03d b626 a73c
000000c0: 6649 403d 1192 b8bd 3dc1 83bd fba2 9ab8
000000d0: 554c 923c 9320 9c3c a08f 6dbd 5f24 043d
000000e0: 5888 0a3d 39c6 253c aa14 cfbd 6441 d13d
000000f0: d4eb 8abc 7ec5 cd3d 7da7 903b 5680 34bc

fc3.weight f4 [32, 64]
-0.13336572 -0.038682964 -0.06994141 0.14129265 -0.08818327 -0.12975235 0.04701195 -0.1313307
0.049670827 -0.008851176 0.14196469 -0.0015460938 -0.051185388 -0.07565186 -0.027528374 -0.09763457
-0.046370335 -0.08137652 -0.0059973947 0.12651671 -0.008037169 0.07084266 -0.053132944 0.06336059
-0.07842764 -0.038312152 0.0840372 0.020877749 0.05997177 -0.09738083 -0.13271347 0.12993564
-0.04979027 -0.07118176 0.087720156 0.0993578 0.12194363 0.08309759 0.028273638 0.10953074
-0.10867087 0.108611576 0.087096766 0.055897675 -0.10203248 0.10265645 -0.14536922 0.12657486
-0.118304215 0.08241306 -0.08724802 -0.14556013 0.10038961 0.009529942 -0.037857726 0.05833599
0.082376674 -0.06506315 0.06436823 -0.005290233 0.07798748 -0.07895499 -0.06258491 -0.06993233
0.04446402 0.05056001 -0.090173766 -0.04311496 0.010804178 0.09968716 0.16617669 0.15108873
0.011049026 -0.12131091 0.158525 0.05141523 0.0464803 0.014693941 -0.0087599065 0.034600917
0.07349522 0.01594569 0.14852922 -0.04817816 0.0498767 0.02577504 0.088486545 -0.020603148
0.012835475 -0.12530911 0.056203548 -0.08440385 -0.0070872824 -0.0052574733 -0.11891417 0.05393206
0.040624756 0.038861636 0.033601623 -0.047130883 -0.004839026 -0.15383768 0.16046754 -0.13859741
0.08393228 -0.046327367 -0.08506971 -0.037365217 0.021493435 0.10349733 -0.011179393 -0.14330116
0.16682014 0.028296221 0.07664517 0.03268924 -0.1597959 0.05967054 0.12427461 -0.07565808
0.028289225 -0.034026455 -0.0019339797 0.03093327 -0.16816291 0.15085596 0.053341582 -0.051309202
-0.13071367 -0.056483578 0.12003749 0.035093583 -0.011963837 0.027085086 -0.14511457 -0.0068422183
-0.027381338 0.0726894 0.061170314 0.06916214 -0.013863692 0.09254643 0.12832595 -0.0037483985
-0.035306655 -0.072195984 0.0044902083 0.019251864 0.0131742535 0.13544057 -0.05889429 0.020131586
0.10110813 0.040563785 -0.08440228 0.012256652 0.036357976 -0.035929296 0.080311544 -0.112952635
-0.04001028 0.026829796 -0.101780415 0.06789851 0.0961328 0.13996312 0.0022660294 0.12538432
-0.11136732 -0.037407987 -0.059936162 -0.069580436 -0.0038379251 -0.091018796 -0.1424042 -0.0023883933
-0.07932961 -0.03948194 -0.006231536 -0.09901956 -0.039023943 -0.0231907 -0.13385576 -0.04406779
-0.14328517 -0.029010907 0.054169066 -0.13482866 0.036283277 -0.1309673 -0.0858707 -0.118641384
0.024201287 0.13445757 -0.09341734 0.043729864 -0.038747866 0.06586766 0.011195852 0.07318693
0.06323918 2.5097777e-06 0.011895123 -0.021877302 0.026999993 0.059636336 0.004271833 -0.016699811
0.14718242 0.13241313 -0.05437743 0.019083742 0.04614782 -0.15425465 0.15262923 -0.029055689
-0.11296567 -0.048768945 -0.095204055 0.055000205 -0.016975168 -0.1235876 0.05224916 0.11316502
-0.068917364 -0.14239872 -0.013191353 -0.14475699 0.021166595 -0.006976902 -0.0007319336 0.076420255
-0.0528233 -0.043950755 0.008014324 0.09252538 -0.0980224 0.14198275 0.051371858 -0.039853614
0.044296745 0.09725282 0.052679155 -0.08974053 0.038141813 0.032786876 0.018599952 0.14352784
0.016826717 0.011208025 -0.15208876 -0.031638246 -0.112015076 0.05021365 -0.02377205 0.15098277
00000000: 0691 08be 0772 1ebd 713d 8fbd 05af 103e
00000010: 6e99 b4bd cddd 04be 9a8f 403d 8e7b 06be
00000020: a373 4b3d 8604 11bc 315f 113e 4da6 caba
00000030: c5a7 51bd 5def 9abd 2f83 e1bc a2f4 c7bd
00000040: d2ee 3dbd bca8 a6bd cb85 c4bb 998d 013e
00000050: 55ae 03bc f515 913d eea1 59bd 32c3 813d
00000060: ac9e a0bd 34ed 1cbd b21b ac3d d007 ab3c
00000070: f5a4 753d 9a6f c7bd 0ae6 07be d90d 053e
00000080: e2f0 4bbd bec7 91bd a0a6 b33d 1a7c cb3d
00000090: 95bd f93d 122f aa3d 1e9e e73c a751 e03d
000000a0: d58e debd bf6f de3d ca5f b23d f6f4 643d
000000b0: 68f6 d0bd 8b3d d23d abdb 14be d79c 013e
000000c0: 7b49 f2bd 2ec8 a83d 17af b2bd b70d 15be
000000d0: 1199 cd3d 7923 1c3c b410 1bbd b8f1 6e3d
000000e0: 1ab5 a83d d43f 85bd 7ed3 833d b159 adbb
000000f0: e6b7 9f3d 27b3 a1bd 842c 80bd ae38 8fbd
00000100: e71f 363d 0318 4f3d 06ad b8bd 5099 30bd
00000110: 0204 313c c828 cc3d 392a 2a3e 01b7 1a3e
00000120: f906 353c db71 f8bd 6154 223e c798 523d
00000130: 2162 3e3d dbbe 703c b685 0fbc b1b9 0d3d
00000140: a984 963d 89a0 823c 0b18 183e 7656 45bd
00000150: 834b 4c3d 2d26 d33c 6f38 b53d efc7 a8bc
00000160: e24b 523c 0851 00be b135 663d eddb acbd
00000170: 6f3c e8bb e246 acbb 4689 f3bd dde7 5c3d
00000180: 2566 263d 612d 1f3d dba1 093d 500c 41bd
00000190: b190 9ebb a087 1dbe 9a51 243e 7bec 0dbe
000001a0: b0e4 ab3d c4c1 3dbd 0739 aebd 450c 19bd
000001b0: 0013 b03c 68f6 d33d c629 37bc 8abd 12be
000001c0: e6d2 2a3e 7acd e73c 25f8 9c3d 27e5 053d
000001d0: 89a1 23be 1969 743d b083 fe3d a0f2 9abd
000001e0: cebe e73c 535f 0bbd 977d fdba c567 fd3c
000001f0: e632 2cbe fc79 1a3e b47c 5a3d 9929 52bd
00000200: ced9 05be 535b 67bd 37d6 f53d 4abe 0f3d
00000210: f803 44bc 8be1 dd3c ea98 14be b034 e0bb
00000220: d44e e0bc 2ede 943d b98d 7a3d e1a4 8d3d
00000230: 8a24 63bc fc88 bd3d e167 033e b1a7 75bb
00000240: b69d 10bd 7ddb 93bd 9922 933b 16b6 9d3c
00000250: d3d8 573c efb0 0a3e 243b 71bd ffea a43c
00000260: c711 cf3d 3626 263d 1adb acbd 20d0 483c
00000270: 1aec 143d 992a 13bd 617a a43d b653 e7bd
00000280: d2e1 23bd 29ca db3c 4072 d0bd 600e 8b3d
00000290: 46e1 c43d 7e52 0f3e aa81 143b bf64 003e
000002a0: 8d14 e4bd 1e39 19bd 9f7f 75bd 3080 8ebd
000002b0: b385 7bbb 1068 babd 68d2 11be 9786 1cbb
000002c0: 9077 a2bd d1b7 21bd ea31 ccbb c4ca cabd
000002d0: 92d7 1fbd 6cfa bdbc 7c11 09be 6d80 34bd
000002e0: 59b9 12be 48a8 edbc 62e0 5d3d 8610 0abe
000002f0: c69d 143d 4b1c 06be fadc afbd 41fa f2bd
00000300: c741 c63c 3faf 093e 9751 bfbd 161e 333d
00000310: 15b6 1ebd a0e5 863d cf6e 373c 07e3 953d
00000320: 8b83 813d a76d 2836 c3e3 423c 0738 b3bc
00000330: 172f dd3c 3b45 743d bcfa 8b3b 0bce 88bc
00000340: fdb6 163e 4f97 073e deba 5ebd 8255 9c3c
00000350: 7f05 3d3d eef4 1dbe d64a 1c3e 3206 eebc
00000360: 8c5a e7bd f2c1 47bd 58fa c2bd e547 613d
00000370: 820f 8bbc 7f1b fdbd 3703 563d 10c3 e73d
00000380: 8c24 8dbd f8d0 11be 8b20 58bc 2d3b 14be
00000390: 9165 ad3c 7f9e e4bb 3bdf 3fba 3982 9c3d
000003a0: 3f5d 58bd b505 34bd 834e 033c f27d bd3d
000003b0: f8bf c8bd ed63 113e 4c6b 523d 8b3d 23bd
000003c0: 8170 353d 7d2c c73d 19c6 573d e2c9 b7bd
000003d0: 973a 1c3d 884b 063d ed5e 983c f6f8 123e
000003e0: 2fd8 893c dda1 373c 28bd 1bbe 1b97 01bd
000003f0: 2968 e5bd d4ac 4d3d 9abd c2bc 3a9b 1a3e

fc3.bias f4 [32]
0.053513743 -0.005265586 -0.07116772 0.07685848 0.084723756 0.070824444 -0.0066829063 -0.035580873
-0.03969555 -0.07032504 -0.09434257 0.10069265 -0.11407908 -0.007502818 0.07828818 0.032027565
0.11630374 -0.08046963 0.008917535 0.033791002 0.04388522 -0.066587485 -0.10779224 0.058750227
0.052636754 0.1310096 -0.0523409 -0.008236721 0.1211861 0.09742098 -0.029544478 -0.096414775
00000000: 3a31 5b3d f08a acbb 62c0 91bd fb67 9d3d
00000010: a683 ad3d 680c 913d 48fc dabb 40bd 11bd
00000020: cd97 22bd 9306 90bd ad36 c1bd f337 ce3d
00000030: 4ba2 e9bd 33da f5bb 8e55 a03d 562f 033d
00000040: a830 ee3d 43cd a4bd da1a 123c 6f68 0a3d
00000050: fdc0 333d 055f 88bd 2ec2 dcbd 14a4 703d
00000060: a399 573d 6127 063e 6963 56bd 50f3 06bc
00000070: 6b30 f83d a784 c73d 4307 f2bc 1c75 c5bd

fc4.weight f4 [5, 32]
-0.046995856 -0.10851032 0.15920678 -0.15151069 0.029135969 -0.07712634 -0.19966345 0.042939924
0.11608861 -0.032161567 -0.08542058 -0.024297483 0.17398778 -0.077566 0.08400855 -0.15159987
-0.12931778 0.14690141 -0.07960613 0.20058277 0.18309297 -0.19654475 0.16746908 0.11955695
0.16884585 0.12850007 0.14641213 -0.09304413 -0.1493562 -0.18470907 -0.0022236095 -0.012851552
-0.070520565 0.14906581 -0.12758356 -0.01574721 -0.062158216 0.052906744 -0.012077539 -0.019899793
-0.057736788 0.15141994 -0.1283196 0.102774836 0.14421135 0.15805328 0.16636984 -0.19365059
0.112184346 0.007586222 0.07886175 0.07461679 -0.021401178 -0.13046454 -0.014145769 0.024950847
0.12383933 -0.037420332 0.0446681 -0.11538632 -0.13072036 0.117413536 -0.11198075 0.11513495
0.095567025 -0.007548532 0.020170825 0.15954284 -0.018476987 -0.18218008 -0.09400591 -0.027021004
0.0052244696 0.0072332504 0.05556814 -0.09351236 0.11100283 -0.10611042 -0.059782818 0.10007137
0.19059749 0.114131 0.17471522 -0.05458855 -0.046423834 -0.18878944 -0.008729264 -0.019933995
-0.059533533 0.1031723 -0.10352908 0.011098465 -0.016337462 -0.06535411 -0.18360123 0.05834969
-0.1309635 0.11731599 0.08579311 -0.014878216 -0.14110096 -0.0031445464 0.0045956173 -0.0064398297
-0.12609495 -0.20507456 0.062269166 0.17265967 -0.06441336 0.114245534 0.14104782 -0.12143125
-0.13827081 -0.12147444 -0.13370925 0.1912343 0.17817461 -0.17154126 0.05781962 -0.054673303
-0.10159067 -0.1815804 -0.05183542 0.12565506 0.0614367 0.014466584 -0.012500323 0.14043334
-0.09927081 0.16254549 -0.14458887 0.21851556 -0.1593317 0.13092531 0.040829036 -0.1276577
-0.120433204 0.15263781 0.22138971 -0.19308487 -0.1502742 -0.1922306 -0.06832228 0.19609217
-0.06880227 -0.06927094 -0.18382998 0.06262009 -0.13859345 0.14787093 -0.12982209 -0.14284799
-0.20802903 0.18932098 -0.016443789 -0.19283319 0.05802641 -0.066826075 0.21273968 -0.19174476
00000000: ba7e 40bd a93a debd 1a07 233e 9e25 1bbe
00000010: 8eae ee3c 6af4 9dbd 9374 4cbe c6e1 2f3d
00000020: ddbf ed3d d9bb 03bd fcf0 aebd 840b c7bc
00000030: da29 323e ecda 9ebd ad0c ac3d ff3c 1bbe
00000040: e16b 04be 536d 163e 8a08 a3bd 9265 4d3e
00000050: b97c 3b3e 0743 49be 047d 2b3e 46da f43d
00000060: ede5 2c3e 8695 033e 10ed 153e ec8d bebd
00000070: d5f0 18be 6024 3dbe fab9 11bb 518f 52bc
00000080: 166d 90bd b5a4 183e 44a5 02be 4b00 81bc
00000090: 9d99 7ebd beb4 583d dfe0 45bc e404 a3bc
000000a0: 697d 6cbd d40d 1b3e 3766 03be 9d7b d23d
000000b0: 24ac 133e b8d8 213e db5c 2a3e 574c 46be
000000c0: e8c0 e53d d895 f83b 4582 a13d b0d0 983d
000000d0: 8651 afbc 7f98 05be a8c3 67bc b865 cc3c
000000e0: 7a9f fd3d 1046 19bd e6f5 363d aa4f ecbd
000000f0: 8fdb 05be 8276 f03d 2a56 e5bd dfcb eb3d
00000100: a5b8 c33d ad59 f7bb 493d a53c 335f 233e
00000110: 0d5d 97bc 6a8d 3abe 2c86 c0bd 275b ddbc
00000120: 0732 ab3b e704 ed3b 6b9b 633d 6883 bfbd
00000130: 7455 e33d 6b50 d9bd d4de 74bd 38f2 cc3d
00000140: fd2b 433e 84bd e93d 8ce8 323e 3e98 5fbd
00000150: eb26 3ebd 0552 41be 3005 0fbc 9e4c a3bc
00000160: 6fd9 73bd 004c d33d 0e07 d4bd 56d6 353c
00000170: 24d6 85bc 60d8 85bd f601 3cbe 1600 6f3d
00000180: 4c1b 06be 5e43 f03d 4cb4 af3d c3c3 73bc
00000190: c57c 10be bc14 4ebb d596 963b 3505 d3bb
000001a0: 091f 01be 11ff 51be f40d 7f3d b2cd 303e
000001b0: 27eb 83bd 90f9 e93d d76e 103e f2b0 f8bd
000001c0: dd96 0dbe 97c7 f8bd 14eb 08be edd2 433e
000001d0: 6873 363e 83a8 2fbe 44d4 6c3d 1df1 5fbd
000001e0: c50e d0bd 36f0 39be 6151 54bd b8ab 003e
000001f0: 0da5 7b3d 4005 6d3c 28ce 4cbc c2cd 0f3e
00000200: 7f4e cbbd 5372 263e 1b0f 14be 8bc2 5f3e
00000210: d927 23be 4911 063e 593c 273d b3b8 02be
00000220: afa5 f6bd 164d 1c3e fcb3 623e 0ab8 45be
00000230: 7be1 19be 19d8 44be 8dec 8bbd 63cc 483e
00000240: 34e8 8cbd ecdd 8dbd ed3d 3cbe f63e 803d
00000250: 71eb 0dbe 7a6b 173e 15f0 04be be46 12be
00000260: 9005 55be 5cdd 413e 20b5 86bc 1076 45be
00000270: 1aad 6d3d 1cdc 88bd 6ed8 593e bd58 44be

fc4.bias f4 [5]
0.13746135 -0.05377537 -0.01857503 0.047860634 -0.1079353
00000000: abc2 0c3e 9043 5cbd a92a 98bc 8309 443d
00000010: 2f0d ddbd
