clean_code/trained_models/actor_832.pth (torch, 54872 bytes, 8 tensors)

fc1.weight f4 [128, 18]
0.15788524 0.08776374 -0.15583226 0.19209763 0.1238368 -0.06466451 0.031118548 0.026110502
0.09557106 -0.0693957 -0.14535736 0.0053849635 0.2184442 0.08265473 0.1498359 0.030875057
-0.22766729 0.25584957 0.1415706 0.16649951 0.08306554 -0.07790251 0.070413284 -0.0172297
0.14726382 0.20646371 0.0990987 0.039876107 0.14880878 0.14554267 -0.16504717 -0.13691002
-0.09121736 0.057170622 -0.16366646 0.04178333 0.15348983 0.08816717 -0.14783984 0.062776186
-0.17736258 0.033783834 0.19435209 0.1546236 -0.061051067 -0.17594786 -0.10388907 0.17883295
0.2620786 0.09639265 0.0645548 -0.10761813 0.20271435 0.056393463 0.1276127 -0.039078355
0.16881712 0.025826687 -0.18350358 -0.13514039 -0.19255339 -0.18865886 -0.12449561 0.16694355
0.0972361 -0.10451336 0.20821503 0.18564402 -0.0055038827 -0.18688719 0.16683626 -0.06486367
-0.075039946 0.23383842 -0.03547556 -0.20256555 0.2135512 0.15936668 -0.09579607 0.2615447
-0.02755094 0.038847234 0.06614041 0.099407874 0.025295258 -0.13101941 0.24271983 0.167549
-0.1392292 0.21255042 0.102585025 -0.053998105 0.036765005 0.18877056 0.23837262 -0.027212443
-0.08317021 -0.006240865 0.09508242 -0.1790319 -0.02063417 0.16018684 -0.17538999 0.20579098
-0.16047254 0.20008776 0.058219243 0.20905162 0.14046668 -0.24791035 0.14697291 -0.13419348
0.093344584 0.17136468 0.17557766 0.078879386 -0.17855865 -0.0019951167 -0.22782007 -0.025442585
-0.22409877 -0.009744495 -0.12975155 0.053737525 -0.24160326 -0.008646768 0.031218432 0.15454865
-0.207148 -0.20822595 -0.133103 0.08889108 0.20816572 -0.12588963 0.17596596 -0.18729818
0.17344068 0.17926627 -0.02067175 0.024652377 0.14522687 0.0029068163 0.047896024 -0.14929983
-0.002998503 -0.08680907 -0.06878151 0.16793717 -0.06749436 -0.23590706 -0.104760766 -0.19026953
0.00712386 -0.21573028 -0.10341397 -0.24882595 0.15776174 -0.2106155 -0.105808355 -0.18767601
0.04032439 0.15453418 0.15436698 0.2237157 0.22431937 -0.070686705 0.12305991 -0.21897975
0.2262051 0.14432712 -0.063479945 0.2034233 0.1016076 0.23256333 0.16677204 -0.11949598
-0.066870205 0.2126732 -0.17893976 -0.092021674 -0.12055322 -0.19386514 -0.15197955 -0.19276509
0.09624908 0.09798835 -0.011025605 0.10684655 0.013344269 0.023911282 -0.022130229 0.06831337
-0.18247117 -0.058293283 -0.222987 -0.17344816 0.12555782 0.03292973 -0.05005117 0.19720583
-0.027938705 -0.12094857 -0.116447315 0.20258535 0.07814497 0.19103925 0.0427975 -0.07501254
0.12402932 0.10929929 1.585535e-05 -0.033463866 -0.09947398 0.12296212 -0.17414422 0.2312534
-0.104423925 -0.08598557 0.14049411 -0.11314665 -0.21069603 -0.04370755 -0.21443757 0.01733779
-0.18972458 -0.1730311 -0.04034769 0.18323943 -0.14285356 -0.0031180233 0.07529789 -0.108958475
0.1434642 0.14835544 0.26876435 -0.08762533 0.073768154 -0.052845757 0.02152109 0.06103363
0.2146132 0.2201673 0.1743416 0.24333854 -0.030045949 0.061793562 -0.17859727 -0.123375766
0.019307073 0.03376991 -0.018760042 -0.07979681 0.22240858 -0.055122122 0.003124848 0.031814247
00000000: abac 213e 7abd b33d 7e92 1fbe 3eb5 443e
00000010: 269e fd3d d46e 84bd 53ec fe3c b1e5 d53c
00000020: c3ba c33d 551f 8ebd 8fd8 14be 5974 b03b
00000030: d6af 5f3e e246 a93d 956e 193e b0ed fc3c
00000040: 9d21 69be b7fe 823e e2f7 103e d97e 2a3e
00000050: 441e aa3d 5a8b 9fbd d734 903d 4d25 8dbc
00000060: 54cc 163e 396b 533e 42f4 ca3d 2155 233d
00000070: 5461 183e 2309 153e 2002 29be 2432 0cbe
00000080: 2bd0 babd be2b 6a3d 2e98 27be ff24 2b3d
00000090: 702c 1d3e fd90 b43d 5463 17be cd90 803d
000000a0: 899e 35be eb60 0a3d 3c04 473e a655 1e3e
000000b0: af10 7abd ad2b 34be cbc3 d4bd fc1f 373e
000000c0: 2b2f 863e 8269 c53d 4f35 843d e566 dcbd
000000d0: 5a94 4f3e d5fc 663d e7ac 023e a010 20bd
000000e0: 65de 2c3e 7d92 d33c 5de8 3bbe 3e62 0abe
000000f0: b72c 45be ca2f 41be 8ef7 febd 40f3 2a3e
00000100: b823 c73d 1a0b d6bd 5236 553e 7719 3e3e
00000110: ea59 b4bb 5b5f 3fbe 20d7 2a3e 3ed7 84bd
00000120: 8bae 99bd 5773 6f3e d24e 11bd 586d 4fbe
00000130: 2aad 5a3e 0531 233e bb30 c4bd 30e9 853e
00000140: 82b2 e1bc 471e 1f3d a074 873d 5b96 cb3d
00000150: 0038 cf3c f429 06be 8c8b 783e f791 2b3e
00000160: 1992 0ebe d1a6 593e 1918 d23d 1e2d 5dbd
00000170: e796 163d 124d 413e f417 743e a1ec debc
00000180: 2555 aabd 2c80 ccbb 92ba c23d 2354 37be
00000190: fe08 a9bc 0508 243e 6f99 33be dfba 523e
000001a0: ea52 24be cee3 4c3e 4d77 6e3d a111 563e
000001b0: 7fd6 0f3e 36dc 7dbe 1180 163e 046a 09be
000001c0: 722b bf3d 397a 2f3e a1ca 333e 848b a13d
000001d0: 14d8 36be 81c0 02bb aa49 69be f86c d0bc
000001e0: 267a 65be 60a7 1fbc 97dd 04be e11b 5c3d
000001f0: d866 77be 2cab 0dbc ccbd ff3c 0042 1e3e
00000200: 9b1e 54be 2f39 55be 274c 08be 870c b63d
00000210: 6529 553e 36e9 00be 6c30 343e 18cb 3fbe
00000220: 6f9a 313e 9491 373e cd57 a9bc c8f3 c93c
00000230: 5ab6 143e 4980 3e3b 9f2e 443d 0ee2 18be
00000240: 8882 44bb f4c8 b1bd 52dd 8cbd b9f7 2b3e
00000250: 7c3a 8abd 9f91 71be d08c d6bd 04d6 42be
00000260: 456f e93b 66e8 5cbe b4ca d3bd 3bcc 7ebe
00000270: 4b8c 213e 97ab 57be 0db2 d8bd 242e 40be
00000280: 302b 253d 353e 1e3e 6112 1e3e ba15 653e
00000290: fab3 653e 31c4 90bd d606 fc3d 3a3c 60be
000002a0: 4fa2 673e 7dca 133e c601 82bd 334e 503e
000002b0: a517 d03d 1525 6e3e 4ac6 2a3e 4fba f4bd
000002c0: 3ff3 88bd 01c7 593e fc3b 37be dc75 bcbd
000002d0: 9be4 f6bd 9584 46be 87a0 1bbe 3664 45be
000002e0: 3d1e c53d 1eae c83d bda4 34bc 5dd2 da3d
000002f0: eca1 5a3c 98e1 c33c 744a b5bc e1e7 8b3d
00000300: b9d9 3abe f0c4 6ebd b456 64be 659c 31be
00000310: 3b92 003e 53e1 063d 7502 4dbd 53f0 493e
00000320: b6df e4bc e2b3 f7bd ee7b eebd 8972 4f3e
00000330: 780a a03d cb9f 433e 6e4c 2f3d 2da0 99bd
00000340: 1603 fe3d 4ed8 df3d 1b01 8537 6811 09bd
00000350: 04b9 cbbd 90d3 fb3d dd52 32be b1cd 6c3e
00000360: 36dc d5bd 3419 b0bd b0dd 0f3e 6eb9 e7bd
00000370: b3c0 57be b006 33bd 8695 5bbe fb07 8e3c
00000380: 2947 42be 112f 31be 9f43 25bd 1ea3 3b3e
00000390: 3448 12be c057 4cbb c835 9a3d 9f25 dfbd
000003a0: 47e8 123e 7dea 173e 7b9b 893e e974 b3bd
000003b0: c213 973d cb74 58bd ff4c b03c 66fe 793d
000003c0: 90c3 5b3e 8973 613e 9b86 323e bd2d 793e
000003d0: ec22 f6bc 3f1b 7d3d 34e2 36be 6fac fcbd
000003e0: de29 9e3c 5152 0a3d a9ae 99bc 836c a3bd
000003f0: 13bf 633e bcc7 61bd 40ca 4c3b a84f 023d

fc1.bias f4 [128]
0.1516976 0.16017385 0.16237842 0.18285774 0.023287768 0.08189013 0.04252672 -0.09656744
0.10582124 -0.17931387 -0.21686457 0.23867294 0.15705852 -0.059028786 0.08796606 0.23118499
0.0123157 0.21119337 -0.15846865 0.09818718 0.178315 0.082772374 -0.15713905 0.025019322
-0.20488513 0.10702604 0.018859908 0.1887054 -0.088690385 0.063857526 -0.005210041 -0.19563045
0.059966482 0.24882779 0.09298418 -0.09077698 -0.11612201 0.010805012 0.2714206 -0.15370826
0.020269055 0.18727618 -0.17303413 0.2521719 -0.08103981 0.20403387 0.26325792 0.17293185
0.25751126 -0.14416586 0.10906006 -0.051244862 -0.15036134 -0.26468462 -0.04794884 0.26745507
0.018120484 0.24639955 -0.18872485 -0.008870928 -0.04859482 0.251281 0.021553617 -0.15553035
0.11477242 -0.21970157 0.022371426 0.09026551 -0.06963002 0.16530876 0.2549547 0.079974495
-0.13903861 0.053915836 -0.17641129 0.14858556 0.17575465 -0.013497399 0.22046752 0.14496459
0.050777487 -0.16365264 -0.24198347 -0.165704 0.09390684 0.13447803 -0.09208633 -0.06673035
-0.10776692 0.0011652883 0.13660452 -0.016545061 0.022540111 0.22758694 0.20370772 -0.26827484
0.11354259 -0.20987105 -0.2039676 0.046574038 0.16379945 -0.199896 0.15981026 -0.06034619
0.13337798 0.2086482 0.03552304 -0.16180171 0.16250451 0.13641323 -0.09475353 -0.031025518
-0.009218405 0.21670489 -0.16630031 0.25401726 -0.14346988 -0.17083628 -0.16243733 0.21495385
0.06416847 0.030568073 0.17374058 0.06071851 -0.23600362 0.18148117 0.09216158 -0.14635956
00000000: 9e56 1b3e 9d04 243e 8746 263e 0f3f 3b3e
00000010: fdc5 be3c 03b6 a73d 7f30 2e3d 26c5 c5bd
00000020: ceb8 d83d 0e9e 37be bf11 5ebe ae66 743e
00000030: f3d3 203e 2bc8 71bd 8d27 b43d c2bb 6c3e
00000040: cac7 493c 1343 583e 9b45 22be 5c16 c93d
00000050: 3598 363e 9084 a93d 0fe9 20be 52f5 cc3c
00000060: 68cd 51be 7830 db3d 1880 9a3c fd3b 413e
00000070: 4ea3 b5bd bcc7 823d feb8 aabb 5953 48be
00000080: 6a9f 753d b6cc 7e3e 7d6e be3d 48e9 b9bd
00000090: 60d1 edbd 8107 313c a4f7 8a3e b365 1dbe
000000a0: 4a0b a63c 54c5 3f3e dc2f 31be ad1c 813e
000000b0: 33f8 a5bd 41ee 503e bec9 863e 0c15 313e
000000c0: 84d8 833e 37a0 13be e15a df3d 22e6 51bd
000000d0: 53f8 19be be84 87be 0166 44bd dfef 883e
000000e0: 6971 943c 2a50 7c3e 1641 41be 5e57 11bc
000000f0: 5d0b 47bd e7a7 803e 3691 b03c 5943 1fbe
00000100: cd0d eb3d 73f9 60be 4844 b73c 20dd b83d
00000110: 2f9a 8ebd b346 293e 6c89 823e abc9 a33d
00000120: 2360 0ebe dad6 5c3d 29a5 34be d026 183e
00000130: 07f9 333e 3224 5dbc 3dc2 613e 9971 143e
00000140: 0efc 4f3d 8f94 27be 84ca 77be 4fae 29be
00000150: 3b52 c03d 9cb4 093e c297 bcbd eca9 88bd
00000160: e7b4 dcbd 96bc 983a 0ee2 0b3e 8289 87bc
00000170: 0aa6 b83c 8d0c 693e c298 503e 525b 89be
00000180: 0489 e83d 70e8 56be e2dc 50be 6bc4 3e3d
00000190: 0bbb 273e 89b1 4cbe 4da5 233e 912d 77bd
000001a0: 3d94 083e e0a7 553e 9b80 113d 59af 25be
000001b0: 9567 263e e9af 0b3e 240e c2bd 3a29 febc
000001c0: cb08 17bc e3e7 5d3e a14a 2abe 8d0e 823e
000001d0: c5e9 12be b5ef 2ebe f955 26be dd1c 5c3e
000001e0: c26a 833d e569 fa3c 0de9 313e f9b3 783d
000001f0: efaa 71be 33d6 393e 36bf bc3d 48df 15be

fc2.weight f4 [64, 128]
0.07213469 -0.029539559 0.023198713 -0.004491137 0.0563594 0.055235878 0.05741567 0.046549533
0.006185657 -0.026067397 0.011949054 0.07505942 -0.030374095 0.0049621654 0.037625525 0.02354392
0.008573295 0.008992759 -0.043059338 0.03552458 0.032411285 -0.093340725 0.056247763 -0.058693092
0.08001896 0.026488796 -0.0036204625 0.08345909 -0.11709294 -0.01581729 0.04907258 0.04657163
-0.03809834 0.041836403 -0.07521091 0.08847603 -0.06434715 -0.011202728 -0.008517184 0.06989005
0.101059414 0.03787812 -0.052940186 0.0036877675 -0.10271293 0.103192136 0.02879301 -0.008198713
0.054694355 0.07073381 0.0076875174 -0.06639074 0.029331133 -0.056739714 0.059565958 -0.028570514
-0.019159874 -0.020072358 -0.073147155 0.022107944 0.08896109 -0.052637916 -0.05613412 0.040648095
0.035397194 0.026953503 0.077797905 -0.07241272 -0.06051107 -0.05974707 0.0011969622 0.0649572
-0.04956917 -0.017532773 0.013257178 0.012262871 0.060021125 -0.034192126 0.10005627 0.078508824
-0.021259319 -0.042981345 -0.091590226 -0.06310089 0.0049103987 -0.08644838 -0.11095414 0.0491995
-0.079305395 0.0431934 0.04483657 0.06635635 0.015948884 -0.0012488732 0.12770882 -0.057774335
-0.0049622543 -0.0011786387 -0.11260101 0.042981837 -0.01944395 0.011203684 0.027407965 -0.023558943
0.031834923 -0.029180875 -0.014260458 -0.084670335 -0.03362939 -0.031409767 -0.108285666 -0.05300195
-0.0461596 0.045468587 -0.01472402 0.0852259 -0.092850335 0.0340323 -0.08426838 0.065052986
0.07298586 0.040024124 0.028197289 -0.051749423 0.035951912 0.09987993 -0.0151325 -0.020705318
0.1020922 0.10077244 0.1101902 -0.06926335 0.07524613 0.012160242 -0.075628474 0.09463464
-0.057605114 -0.0107322885 -0.089766964 0.017598901 -0.030930862 0.10281452 0.051891062 0.07070369
0.0551256 0.052518237 0.066511996 0.03988603 0.038501937 -0.072258614 0.030380044 -0.06162258
-0.0058752117 -0.05778153 0.09108655 0.025175055 -0.113813505 -0.098809145 0.066918015 0.04163152
0.10177839 0.03294255 0.024253147 0.021617468 -0.10907318 0.053264543 -0.03497824 0.019418793
-0.058437612 -0.0049521904 0.020777337 -0.038770508 0.025247071 0.06920598 0.029210458 0.036993776
0.06958087 -0.07289306 0.10667049 -0.036828935 0.05318961 -0.08023213 -0.077391244 0.06636426
0.01860643 0.10940007 0.03222468 -0.055315673 0.05954959 0.079147995 0.02687233 -0.02832499
-0.0022083125 -0.071347244 0.07706883 0.031168867 -0.017912365 0.068421274 -0.048552837 0.066883184
-0.0047782515 -0.06127782 -0.022655763 0.00052023196 -0.071683995 -0.032662433 0.0064379745 0.06818434
-0.08719456 -0.0322418 0.050279196 -0.07927864 0.0069705565 0.033259705 0.028779536 -0.044977494
0.00020406167 -0.03703215 -0.011084423 0.047226857 0.008479483 0.08775544 0.08962219 0.038167167
-0.060521517 -0.032225277 -0.04860427 0.024812505 0.031634238 -0.027924104 0.06581366 -0.06320652
-0.061564207 -0.010319899 0.0045711426 -0.050150916 0.015276478 0.045047257 -0.0799751 0.09606112
0.020885648 -0.03768631 0.07541802 0.032224532 -0.029568842 0.09864909 0.02685721 0.004518847
0.05546798 0.03141777 -0.022137316 -0.016092774 -0.031939097 -0.041445848 0.028834624 0.0075716227
00000000: 5abb 933d f2fc f1bc 3a0b be3c 632a 93bb
00000010: 1dd9 663d 043f 623d b22c 6b3d b9aa 3e3d
00000020: 0db1 ca3b 4b8b d5bc f7c5 433c c1b8 993d
00000030: 18d3 f8bc a999 a23b 391d 1a3d 2edf c03c
00000040: 0177 0c3c 5d56 133c fd5e 30bd 3982 113d
00000050: b2c1 043d 6c29 bfbd 0e64 663d 2b68 70bd
00000060: fbe0 a33d 08ff d83c 4845 6dbb 99ec aa3d
00000070: 6cce efbd 4393 81bc 5400 493d e5c1 3e3d
00000080: 010d 1cbd a65c 2b3d 2d08 9abd ec32 b53d
00000090: 70c8 83bd a68b 37bc a98b 0bbc 8422 8f3d
000000a0: 3df8 ce3d 1626 1b3d cfd7 58bd 79ae 713b
000000b0: 285b d2bd 6656 d33d 52df eb3c e553 06bc
000000c0: 3007 603d e3dc 903d 92e7 fb3b def7 87bd
000000d0: d847 f03c e767 68bd 6ffb 733d b60c eabc
000000e0: 2bf5 9cbc c96e a4bc 2dce 95bd b81b b53c
000000f0: 3b31 b63d db9a 57bd e4ec 65bd 9e7e 263d
00000100: a6fc 103d 98cd dc3c 8254 9f3d 1f4d 94bd
00000110: 75da 77bd 58b9 74bd 63e3 9c3a 4808 853d
00000120: 0b09 4bbd e4a0 8fbc a234 593c 35ea 483c
00000130: b6d8 753d 0b0d 0cbd 4dea cc3d 3cc9 a03d
00000140: 0628 aebc 350d 30bd a893 bbbd 0a3b 81bd
00000150: 69e7 a03b d90b b1bd ed3b e3bd 6a85 493d
00000160: de6a a2bd 90eb 303d 8da6 373d d7e5 873d
00000170: 3ca7 823c 3bb1 a3ba 1ac6 023e c8a4 6cbd
00000180: 689a a2bb 8d7c 9aba 5c9b e6bd b90d 303d
00000190: eb48 9fbc a88f 373c ab86 e03c affe c0bc
000001a0: 5665 023d bb0c efbc b2a4 69bc a467 adbd
000001b0: f9be 09bd 87a7 00bd e0c4 ddbd 9318 59bd
000001c0: d911 3dbd 453d 3a3d 043d 71bc eb8a ae3d
000001d0: 5128 bebd 7465 0b3d e794 acbd 803a 853d
000001e0: 9c79 953d 56f0 233d 00fe e63c 34f7 53bd
000001f0: 5042 133d d98d cc3d 4eee 77bc 339e a9bc
00000200: b715 d13d c861 ce3d 66ab e13d f1d9 8dbd
00000210: a51a 9a3d c03b 473c 1ae3 9abd cecf c13d
00000220: 57f3 6bbd 7bd6 2fbc bed7 b7bd 922b 903c
00000230: b862 fdbc 6b90 d23d b98b 543d 19cd 903d
00000240: 62cb 613d 5d1d 573d 7137 883d 895f 233d
00000250: 35b4 1d3d 53fc 93bd 92df f83c f567 7cbd
00000260: d984 c0bb 53ac 6cbd 968b ba3d eb3b ce3c
00000270: 0e17 e9bd 735c cabd 500c 893d d085 2a3d
00000280: 3071 d03d c4ee 063d 89ae c63c 1e17 b13c
00000290: c261 dfbd ec2b 5a3d 5845 0fbd 2914 9f3c
000002a0: 475c 6fbd fc45 a2bb 3c35 aa3c d3cd 1ebd
000002b0: f2d2 ce3c ddbb 8d3d c54a ef3c c986 173d
000002c0: 6a80 8e3d f548 95bd 0f76 da3d f0d9 16bd
000002d0: 59dd 593d be50 a4bd 4d7f 9ebd fce9 873d
000002e0: 836c 983c 250d e03d 07fe 033d b092 62bd
000002f0: 45ea 733d 5818 a23d 5c23 dc3c cf09 e8bc
00000300: 56b9 10bb 811e 92bd 43d6 9d3d da55 ff3c
00000310: f4bc 92bc 7420 8c3d 57df 46bd 0dfa 883d
00000320: e192 9cbb 74fe 7abd 9498 b9bc 2d60 083a
00000330: 0fcf 92bd 0bc9 05bd a5f5 d23b 3ba4 8b3d
00000340: 1093 b2bd fa0f 04bd 8ff1 4d3d d75c a2bd
00000350: 4469 e43b 543b 083d 10c3 eb3c 523a 38bd
00000360: 63f9 5539 06af 17bd 719b 35bc f370 413d
00000370: 88ed 0a3c 20b9 b33d d78b b73d 2d55 1c3d
00000380: 69e5 77bd a7fe 03bd 4515 47bd 9843 cb3c
00000390: e792 013d 17c1 e4bc 50c9 863d 6c72 81bd
000003a0: c02a 7cbd cb14 29bc 86c9 953b 0c6b 4dbd
000003b0: 314a 7a3c 7983 383d fcc9 a3bd b1bb c43d
000003c0: 6118 ab3c f65c 1abd c374 9a3d dffd 033d
000003d0: 5b3a f2bc 8908 ca3d a703 dc3c d612 943b
000003e0: 6532 633d ebaf 003d 5159 b5bc fed4 83bc
000003f0: 92d2 02bd 1fc3 29bd 9736 ec3c 601b f83b

fc2.bias f4 [64]
0.031731438 0.008803943 -0.055377934 0.04526198 -0.09119461 -0.02360868 0.03241359 0.024608174
0.102892675 -0.10425404 0.023726542 -0.05130756 -0.048416 -0.016614182 0.027703706 -0.055746205
0.10829389 0.013331511 -0.0005515243 0.040124886 0.016122995 -0.067353055 0.016383752 -0.055271085
-0.084807895 -0.04209885 -0.09899284 -0.08310516 -0.0014311286 0.015674954 0.0030169326 -0.054550618
0.08604541 -0.07556978 -0.072686866 -0.07159769 -0.05164236 -0.08606199 0.02403684 -0.063136354
0.01150409 0.047581255 0.038829986 -0.06395443 -0.019018741 0.026388075 0.10967993 0.020500673
0.046869174 -0.090105064 -0.06439559 6.7009365e-05 0.017953739 0.018974474 -0.058137547 0.032387253
0.033704128 0.010193929 -0.10105477 0.10197064 -0.016830757 0.09991713 0.0044793445 -0.011089532
00000000: d3f8 013d 6a3e 103c f9d3 62bd a064 393d
00000010: 3dc4 babd fe66 c1bc 1dc4 043d 1597 c93c
00000020: 65b9 d23d 2483 d5bd 2a5e c23c e027 52bd
00000030: db4f 46bd 771a 88bc e2f2 e23c 2256 64bd
00000040: 30c9 dd3d 696c 5a3c 2b94 10ba fe59 243d
00000050: 5f14 843c 66f0 89bd 3837 863c ef63 62bd
00000060: c3af adbd d86f 2cbd c2bc cabd 0a33 aabd
00000070: b594 bbba c368 803c bbb7 453b 7870 5fbd
00000080: 9338 b03d 54c4 9abd dadc 94bd cfa1 92bd
00000090: f086 53bd 4541 b0bd e8e8 c43c a24d 81bd
000000a0: a77b 3c3c 90e4 423d 310c 1f3d 8afa 82bd
000000b0: 31cd 9bbc ce2b d83c df9f e03d 07f1 a73c
000000c0: e4f9 3f3d 0189 b8bd d6e1 83bd 6187 8c38
000000d0: b813 933c 5b70 9b3c a321 6ebd 7fa8 043d
000000e0: 570d 0a3d 7004 273c cef5 cebd fcd5 d03d
000000f0: a8e0 89bc 5aa1 cc3d 77c7 923b deb0 35bc

fc3.weight f4 [32, 64]
-0.13325685 -0.038579024 -0.07001503 0.14125559 -0.088306464 -0.12967178 0.04710513 -0.13121924
0.04975043 -0.008959438 0.14206624 -0.0016780595 -0.05105044 -0.07555427 -0.02760928 -0.09776987
-0.046287637 -0.08120259 -0.0058858776 0.12637143 -0.008172527 0.070716575 -0.052976083 0.06325409
-0.07850731 -0.03847991 0.08395214 0.020802021 0.060244437 -0.09748449 -0.13275872 0.13007553
-0.049689855 -0.071236625 0.08769872 0.099251404 0.12184994 0.08299748 0.028420523 0.10958584
-0.1086568 0.10875141 0.086989544 0.055822182 -0.10214362 0.10276396 -0.14527026 0.12644209
-0.11817626 0.08228223 -0.087167084 -0.14565894 0.10016023 0.009654428 -0.037692916 0.05843599
0.08260308 -0.06520371 0.06424134 -0.0050958344 0.07787907 -0.07869671 -0.06269278 -0.06978442
0.044366315 0.050420053 -0.090103224 -0.043086775 0.010966402 0.09949424 0.16606872 0.15088326
0.010939583 -0.121155016 0.15825051 0.051629208 0.04618238 0.0146074435 -0.008691028 0.034946747
0.07341655 0.015658814 0.14817291 -0.047970977 0.050069287 0.026068518 0.08828766 -0.0203925
0.012901609 -0.12496748 0.056194287 -0.084355764 -0.0075804777 -0.0051274644 -0.118771315 0.053696763
0.04053941 0.038909633 0.033619326 -0.04681676 -0.0047567147 -0.15376112 0.16029267 -0.13899295
0.08376655 -0.046765793 -0.08492676 -0.037250444 0.02177373 0.10287422 -0.01132355 -0.14314471
0.16654626 0.028420404 0.0764933 0.03300173 -0.1595342 0.059383254 0.12414639 -0.07587628
0.027995808 -0.033682145 -0.0018040867 0.030626483 -0.16791213 0.15042228 0.05353034 -0.051722575
-0.1306776 -0.056443408 0.12001668 0.035060726 -0.01199548 0.027219618 -0.14506553 -0.0067471713
-0.027333157 0.07266237 0.061253317 0.06912772 -0.013695818 0.09259121 0.12830605 -0.003820759
-0.035262264 -0.072060585 0.0046108123 0.0192156 0.013131255 0.13537166 -0.05881995 0.020093212
0.10108504 0.040473416 -0.084413715 0.012233038 0.03647724 -0.03596787 0.08027718 -0.112894006
-0.03998427 0.026806647 -0.101792306 0.06783079 0.09611437 0.13994186 0.002342819 0.12542713
-0.111322254 -0.037323926 -0.059976898 -0.06961108 -0.0039446815 -0.0908601 -0.14234225 -0.002438252
-0.07923875 -0.039504513 -0.0061881887 -0.0990613 -0.039094362 -0.023069235 -0.1338179 -0.04402077
-0.14322743 -0.029143069 0.054125737 -0.13473253 0.036241937 -0.13081641 -0.08594334 -0.118560225
0.02414162 0.13436827 -0.09337815 0.043756746 -0.03869121 0.06549845 0.011085875 0.07290686
0.06315384 5.072788e-05 0.011751351 -0.021832788 0.026315179 0.05954729 0.0042957645 -0.016578352
0.14709155 0.13212772 -0.054761168 0.01914703 0.046238206 -0.15414836 0.15252812 -0.028995093
-0.11296694 -0.0486058 -0.09523407 0.05504074 -0.017156899 -0.12350947 0.052300934 0.1130576
-0.06895869 -0.1423628 -0.013190026 -0.1445455 0.021188604 -0.0069582155 -0.00085217215 0.0760636
-0.053102866 -0.04411085 0.008100391 0.092587344 -0.09785806 0.1415549 0.05121222 -0.039766047
0.04406138 0.09728929 0.052593973 -0.0897244 0.03824425 0.032502156 0.018569179 0.14344117
0.016747953 0.011414359 -0.15202975 -0.031829618 -0.11194754 0.049814265 -0.023649238 0.15075973
00000000: 7c74 08be 0a05 1ebd 0a64 8fbd 4ea5 103e
00000010: 05da b4bd aec8 04be 4ff1 403d 565e 06be
00000020: 1bc7 4b3d 9bca 12bc d079 113e 55f2 dbba
00000030: 441a 51bd 32bc 9abd db2c e2bc 923b c8bd
00000040: 1b98 3dbd 8b4d a6bd 52de c0bb 8367 013e
00000050: 10e6 05bc dad3 903d 73fd 58bd 5c8b 813d
00000060: 71c8 a0bd 1c9d 1dbd 19ef ab3d 0069 aa3c
00000070: dfc2 763d f3a5 c7bd e7f1 07be 8532 053e
00000080: 9787 4bbd 82e4 91bd 639b b33d 5244 cb3d
00000090: 768c f93d 95fa a93d 28d2 e83c 8a6e e03d
000000a0: 7587 debd 0fb9 de3d 9327 b23d cda5 643d
000000b0: ad30 d1bd e975 d23d bac1 14be 097a 013e
000000c0: 6506 f2bd 9683 a83d a884 b2bd 9e27 15be
000000d0: cf20 cd3d 9b2d 1e3c e363 1abd 945a 6f3d
000000e0: ce2b a93d 8689 85bd f790 833d f5fa a6bb
000000f0: 107f 9f3d be2b a1bd 1265 80bd 22eb 8ebd
00000100: 74b9 353d 4285 4e3d 0a88 b8bd c27b 30bd
00000110: 6cac 333c a3c3 cb3d eb0d 2a3e 2481 1a3e
00000120: f03b 333c 1f20 f8bd 6c0c 223e 2679 533d
00000130: bc29 3d3d 0f54 6f3c d064 0ebc 5224 0f3d
00000140: 6b5b 963d ea46 803c a4ba 173e 377d 44bd
00000150: 7415 4d3d a58d d53c 29d0 b43d 2c0e a7bc
00000160: 4561 533c f3ee ffbd fb2b 663d b7c2 acbd
00000170: a865 f8bb 4a04 a8bb 603e f3bd 23f1 5b3d
00000180: a70c 263d b55f 1f3d 6bb4 093d eec2 3fbd
00000190: 37de 9bbb 8e73 1dbe c323 243e 2b54 0ebe
000001a0: cc8d ab3d 7d8d 3fbd 15ee adbd ec93 18bd
000001b0: d25e b23c b8af d23d 6986 39bc 8794 12be
000001c0: 1a8b 2a3e e8d1 e83c 85a8 9c3d d22c 073d
000001d0: ef5c 23be db3b 733d 7640 fe3d 0665 9bbd
000001e0: 7757 e53c 4af6 09bd 1b77 ecba 64e4 fa3c
000001f0: 28f1 2bbe 4c08 1a3e a142 5b3d 0ddb 53bd
00000200: 59d0 05be 3431 67bd 4ecb f53d d69b 0f3d
00000210: b188 44bc adfb de3c 0f8c 14be 6017 ddbb
00000220: c9e9 dfbc 02d0 943d c2e4 7a3d d692 8d3d
00000230: 6d64 60bc 76a0 bd3d a962 033e b365 7abb
00000240: 2a6f 10bd 8094 93bd 4c16 973b 096a 9d3c
00000250: 7a24 573c de9e 0a3e 30ed 70bd 859a a43c
00000260: ac05 cf3d 74c7 253d 19e1 acbd 156d 483c
00000270: 2969 153d 0c53 13bd 5d68 a43d f934 e7bd
00000280: 8cc6 23bd 9d99 db3c 7c78 d0bd dfea 8a3d
00000290: 9cd7 c43d eb4c 0f3e fb89 193b f86f 003e
000002a0: ecfc e3bd f9e0 18bd 56aa 75bd 4190 8ebd
000002b0: 6342 81bb dc14 babd 2bc2 11be 15cb 1fbb
000002c0: ed47 a2bd 7ccf 21bd 4ac6 cabb a7e0 cabd
000002d0: 6921 20bd b1fb bcbc 8f07 09be 1f4f 34bd
000002e0: 36aa 12be 72bd eebc f3b2 5d3d 53f7 09be
000002f0: 6d72 143d bdf4 05be 1003 b0bd b4cf f2bd
00000300: a6c4 c53c d697 093e 0b3d bfbd 463a 333d
00000310: ad7a 1ebd 0d24 863d 88a1 353c 3150 953d
00000320: cd56 813d a5c4 5438 bd88 403c adda b2bc
00000330: ee92 d73c dce7 733d 7cc3 8c3b 53cf 87bc
00000340: 2b9f 163e 7d4c 073e 3f4d 60bd 3bda 9c3c
00000350: 4664 3d3d 11d9 1dbe 5530 1c3e 1e87 edbc
00000360: 365b e7bd e016 47bd 150a c3bd 6672 613d
00000370: a08c 8cbc 88f2 fcbd 8139 563d be8a e73d
00000380: 373a 8dbd 8ec7 11be fb1a 58bc bc03 14be
00000390: b993 ad3c be01 e4bb 4e64 5fba 3cc7 9b3d
000003a0: 6482 59bd 94ad 34bd 81b7 043c 6f9e bd3d
000003b0: ce69 c8bd c5f3 103e e8c3 513d b9e1 22bd
000003c0: b579 343d 9b3f c73d c76c 573d 6dc1 b7bd
000003d0: 01a6 1c3d fb20 053d 641e 983c 3ee2 123e
000003e0: 0133 893c 4b03 3b3c b0ad 1bbe c65f 02bd
000003f0: c044 e5bd 0b0a 4c3d 0cbc c1bc c260 1a3e

fc3.bias f4 [32]
0.05359867 -0.005358424 -0.071153685 0.07683718 0.08473094 0.070669904 -0.006710168 -0.035554316
-0.039692134 -0.07062829 -0.0943208 0.10070994 -0.11407824 -0.0074940296 0.078301325 0.03200941
0.116278574 -0.080467865 0.008941985 0.03377738 0.043898508 -0.06667363 -0.1077835 0.058748003
0.052628133 0.1308329 -0.052459937 -0.008162978 0.12132879 0.09739523 -0.029617552 -0.09639929
00000000: 478a 5b3d b895 afbb 06b9 91bd d05c 9d3d
00000010: 6a87 ad3d 62bb 903d f8e0 dbbb 67a1 11bd
00000020: 3894 22bd 91a5 90bd 432b c1bd 0341 ce3d
00000030: daa1 e9bd 7a90 f5bb 725c a03d 4d1c 033d
00000040: 7623 ee3d 56cc a4bd 6781 123c 265a 0a3d
00000050: ecce 333d 2f8c 88bd 98bd dcbd bfa1 703d
00000060: 9990 573d 0ff9 053e 3be0 56bd 03be 05bc
00000070: 3b7b f83d 2677 c73d 82a0 f2bc fe6c c5bd

fc4.weight f4 [5, 32]
-0.046867147 -0.10888441 0.15927523 -0.15169947 0.029227372 -0.07737682 -0.1998726 0.043045893
0.11617289 -0.032435443 -0.08566699 -0.024193123 0.17406437 -0.07748134 0.08415373 -0.15173256
-0.12926032 0.14706837 -0.07951499 0.20066708 0.18316673 -0.19678546 0.16754891 0.11973943
0.16900225 0.12829868 0.14659671 -0.09291479 -0.1495394 -0.18483396 -0.0024241374 -0.012785169
-0.06961487 0.14675526 -0.12691519 -0.017376082 -0.061256282 0.05051283 -0.0136900805 -0.018634778
-0.056783646 0.14930052 -0.13036686 0.10377101 0.14505358 0.15883805 0.16749218 -0.19493198
0.11265301 0.00917649 0.08019372 0.07545917 -0.02066658 -0.13274856 -0.013454805 0.026270788
0.12532158 -0.039408877 0.046147898 -0.11382287 -0.13212624 0.11656751 -0.11409527 0.11577074
0.09543996 -0.0070599783 0.019812105 0.15995179 -0.018868307 -0.18166211 -0.09357252 -0.027407464
0.004918711 0.007727593 0.05602953 -0.09389228 0.11063344 -0.10646122 -0.060136218 0.10045452
0.19053315 0.11368499 0.17441513 -0.05493867 -0.04677166 -0.18824568 -0.009071752 -0.020456139
-0.059913877 0.10380834 -0.10389125 0.0105298245 -0.015961058 -0.0651908 -0.18304633 0.058004376
-0.13245723 0.12010079 0.08509928 -0.012997787 -0.14203262 -0.0006141489 0.0063474607 -0.0076088705
-0.12706187 -0.20277232 0.064621344 0.17165159 -0.06526896 0.11337825 0.13945508 -0.12002639
-0.13919635 -0.12330325 -0.13480097 0.1903564 0.17738144 -0.16914123 0.05705128 -0.05657344
-0.10320975 -0.17954065 -0.053755324 0.124234065 0.063140325 0.01565722 -0.010288336 0.13976483
-0.09905623 0.16180003 -0.14444159 0.21806194 -0.15913394 0.13039817 0.040443204 -0.1274575
-0.120277986 0.15194851 0.2207576 -0.19283505 -0.15010329 -0.19200698 -0.06802835 0.19579905
-0.06861914 -0.068879485 -0.1836532 0.06281806 -0.13843128 0.14730854 -0.12964168 -0.14238538
-0.20757823 0.18880014 -0.015929004 -0.19251476 0.0576615 -0.066967405 0.2122504 -0.19160402
00000000: c4f7 3fbd cafe debd 0c19 233e 1b57 1bbe
00000010: 3e6e ef3c bd77 9ebd 67ab 4cbe e450 303d
00000020: 0dec ed3d 07db 04bd 2d72 afbd a830 c6bc
00000030: ee3d 323e 89ae 9ebd ca58 ac3d c85f 1bbe
00000040: d15c 04be 1799 163e c1d8 a2bd ac7b 4d3e
00000050: 0f90 3b3e 2182 49be f191 2b3e f239 f53d
00000060: ed0e 2d3e bb60 033e 731d 163e 1c4a bebd
00000070: db20 19be 1d45 3dbe 47de 1ebb e378 51bc
00000080: 3e92 8ebd 0347 163e 0ef6 01be 4958 8ebc
00000090: dee7 7abd 8be6 4e3d 5c4c 60bc f6a7 98bc
000000a0: f895 68bd 3ce2 183e e47e 05be e585 d43d
000000b0: ed88 143e 71a6 223e 1283 2b3e 409c 47be
000000c0: 9fb6 e63d fd58 163c 9b3c a43d 568a 9a3d
000000d0: f64c a9bc 3def 07be 8b71 5cbc d635 d73c
000000e0: 4d54 003e 346b 21bd 9405 3d3d f71b e9bd
000000f0: 1a4c 07be f2ba ee3d c8aa e9bd 3619 ed3d
00000100: 0776 c33d 6457 e7bb ff4c a23c 67ca 233e
00000110: b591 9abc a205 3abe f3a2 bfbd 9e85 e0bc
00000120: 232d a13b c037 fd3b 387f 653d 984a c0bd
00000130: c993 e23d 5708 dabd 6551 76bd 19bb cd3d
00000140: 1f1b 433e add3 e83d e199 323e 5f07 61bd
00000150: a493 3fbd 7ac3 40be b0a1 14bc a293 a7bc
00000160: 4168 75bd 7899 d43d f0c4 d4bd 4985 2c3c
00000170: c4c0 82bc c182 85bd 7f70 3bbe ff95 6d3d
00000180: dea2 07be 67f7 f53d 8848 ae3d acf4 54bc
00000190: 0071 11be d6fe 20ba 5cfe cf3b d553 f9bb
000001a0: 821c 02be 8ca3 4fbe 3258 843d 6fc5 2f3e
000001b0: bcab 85bd db32 e83d 50cd 0e3e 65d0 f5bd
000001c0: 7d89 0ebe 6a86 fcbd 4409 0abe caec 423e
000001d0: 7ba3 353e 5c33 2dbe 9aae 693d 8db9 67bd
000001e0: a25f d3bd 81d9 37be 8b2e 5cbd 6e6e fe3d
000001f0: b74f 813d 9243 803c 6990 28bc 831e 0f3e
00000200: fedd cabd e8ae 253e 7fe8 13be a14b 5f3e
00000210: 02f4 22be 1987 053e c6a7 253d 3884 02be
00000220: 4e54 f6bd 6498 1b3e 480e 623e 8d76 45be
00000230: adb4 19be 7a9d 44be 7352 8bbd 8c7f 483e
00000240: 3188 8cbd b010 8dbd 960f 3cbe c1a6 803d
00000250: eec0 0dbe 0dd8 163e cac0 04be 79cd 11be
00000260: 638f 54be d354 413e 8b7d 82bc 9722 45be
00000270: 772e 6c3d 3526 89bd 2b58 593e d833 44be

fc4.bias f4 [5]
0.13742983 -0.054034673 -0.018372018 0.048182573 -0.10799787
00000000: 68ba 0c3e 7653 5dbd ea80 96bc 175b 453d
00000010: fd2d ddbd
