clean_code/trained_models/actor_445.pth (torch, 54872 bytes, 8 tensors)

fc1.weight f4 [128, 18]
0.15306683 0.08331739 -0.16081038 0.18764319 0.11939291 -0.06911026 0.02668105 0.021415863
0.09108664 -0.07328489 -0.14979121 0.0028298942 0.21472956 0.08265473 0.14924121 0.022703346
-0.2346969 0.25390112 0.1342813 0.15984382 0.0748719 -0.08462132 0.06369376 -0.023933562
0.14053138 0.19944891 0.09241389 0.034460053 0.14212115 0.14157747 -0.17060071 -0.13691002
-0.09169038 0.051749595 -0.16766965 0.038485866 0.15042177 0.08545573 -0.15155287 0.060052015
-0.18008077 0.031065002 0.19163328 0.15164505 -0.06378901 -0.17867883 -0.106600046 0.17727761
0.25990686 0.09639265 0.064169765 -0.113656715 0.1961751 0.054329325 0.12896767 -0.037798688
0.1708912 0.027158288 -0.1821752 -0.13381182 -0.19122113 -0.18735015 -0.1231746 0.16815093
0.098561786 -0.10372713 0.20930773 0.18564402 -0.005399299 -0.18376037 0.16813423 -0.06294804
-0.0776478 0.23147394 -0.038539752 -0.20494847 0.21117555 0.1569889 -0.098170854 0.25898954
-0.029942762 0.036488052 0.06376923 0.098073535 0.023443094 -0.13101941 0.24240673 0.16335814
-0.14283592 0.21143374 0.09110031 -0.06488739 0.026515184 0.17782727 0.22741547 -0.038128667
-0.09409641 -0.017270382 0.08413348 -0.18639532 -0.03152451 0.15402156 -0.18547949 0.20579098
-0.16092378 0.19541574 0.048455488 0.20060152 0.14251435 -0.24619341 0.1492693 -0.13247576
0.09506055 0.17307957 0.1772938 0.08085255 -0.17683369 -0.00031909754 -0.22611094 -0.024462076
-0.22274823 -0.009744495 -0.12950057 0.056833737 -0.23848462 -0.0068391403 0.027418215 0.15101886
-0.21030693 -0.21179022 -0.1366508 0.085332386 0.20462468 -0.1297296 0.17239276 -0.19014376
0.16989204 0.17722666 -0.023496786 0.024652377 0.14474316 -0.0024621096 0.04376017 -0.14999354
0.0025123768 -0.081596725 -0.062149554 0.17307648 -0.062366962 -0.23077786 -0.09963369 -0.18489863
0.012387498 -0.21065827 -0.098297544 -0.24602275 0.1619353 -0.2106155 -0.10515416 -0.17676887
0.048031565 0.15764956 0.14797635 0.21752623 0.21607868 -0.0770457 0.11670869 -0.22532651
0.21983099 0.13812093 -0.06979251 0.1980481 0.09527956 0.22872308 0.16240473 -0.11949598
-0.067397796 0.20289175 -0.18595462 -0.09891867 -0.115038425 -0.18875374 -0.1469602 -0.18768044
0.10132619 0.103064574 -0.005954611 0.112148836 0.018487321 0.027360013 -0.017069548 0.07125247
-0.17812446 -0.058293283 -0.22230287 -0.16600284 0.1329774 0.03518926 -0.054304708 0.19337265
-0.032769017 -0.12478976 -0.12028131 0.19875157 0.0743129 0.18691239 0.038928036 -0.07859774
0.12020633 0.10713294 -0.0030393715 -0.033463866 -0.09994796 0.11665524 -0.18260188 0.22865109
-0.10390631 -0.08551586 0.14122938 -0.11267679 -0.21022666 -0.043238416 -0.21396855 0.017838461
-0.18924591 -0.17249584 -0.039880116 0.18351479 -0.14249721 -0.0031180233 0.07533706 -0.10823401
0.14460227 0.14863625 0.26270673 -0.09303625 0.066497944 -0.058253303 0.016122103 0.055637065
0.20921041 0.21434176 0.16887984 0.2381633 -0.03542739 0.058766305 -0.18288837 -0.123375766
0.018586598 0.022848872 -0.030592432 -0.084339686 0.21769296 -0.05929186 -0.0021360463 0.027655354
00000000: 8dbd 1c3e 4fa2 aa3d 7aab 24be 8925 403e
00000010: 4584 f43d ae89 8dbd 3892 da3c 5270 af3c
00000020: a28b ba3d 6316 96bd de62 19be bf75 393b
00000030: 11e2 5b3e e246 a93d b0d2 183e 5efc b93c
00000040: 6254 70be 54ff 813e 0981 093e 19ae 233e
00000050: 7056 993d f14d adbd e071 823d 5110 c4bc
00000060: 75e7 0f3e 563c 4c3e 7e43 bd3d fc25 0d3d
00000070: 3588 113e aff9 103e f4b1 2ebe 2432 0cbe
00000080: 2ac8 bbbd 62f7 533d 98b1 2bbe 5ba3 1d3d
00000090: 2a08 1a3e 6a03 af3d ad30 1bbe 1af9 753d
000000a0: 1867 38be 087c fe3c 843b 443e d748 1b3e
000000b0: d0a3 82bd 95f7 36be 2051 dabd 4388 353e
000000c0: 8312 853e 8269 c53d 706b 833d dac4 e8bd
000000d0: 20e2 483e 6d88 5e3d 1a10 043e ccd2 1abd
000000e0: 1afe 2e3e 0f7b de3c 238c 3abe f705 09be
000000f0: 79cf 43be b8d8 3fbe f742 fcbd c22f 2c3e
00000100: c3da c93d e46e d4bd c454 563e 7719 3e3e
00000110: 9aec b0bb ae2b 3cbe 612b 2c3e e7ea 80bd
00000120: cf05 9fbd 8107 6d3e dcdb 1dbd 03de 51be
00000130: 673e 583e b3c1 203e cd0d c9bd 479a 843e
00000140: 864a f5bc 7f74 153d 7199 823d c7da c83d
00000150: bb0b c03c f429 06be 7839 783e 5b47 273e
00000160: 9443 12be 1682 583e cd92 ba3d aee3 84bd
00000170: 5f36 d93c 5a18 363e 9adf 683e ce2c 1cbd
00000180: 9eb5 c0bd 9e7a 8dbc 2d4e ac3d 6ade 3ebe
00000190: d81f 01bd d4b7 1d3e 56ee 3dbe dfba 523e
000001a0: 34c9 24be 101b 483e 4379 463d 7c6a 4d3e
000001b0: 48ef 113e 201a 7cbe 0dda 183e baa7 07be
000001c0: 1baf c23d c53b 313e 828c 353e 0696 a53d
000001d0: e413 35be 8c4c a7b9 a089 67be b164 c8bc
000001e0: 1d18 64be 60a7 1fbc cc9b 04be 7eca 683d
000001f0: 5035 74be de1a e0bb 2a9c e03c b0a4 1a3e
00000200: b35a 57be 89df 58be 30ee 0bbe bfc2 ae3d
00000210: 2289 513e d6d7 04be ba87 303e 0cb5 42be
00000220: 2ef8 2d3e e87a 353e 557c c0bc c8f3 c93c
00000230: 8d37 143e 585b 21bb dd3d 333d e897 19be
00000240: b0a6 243b 2f1c a7bd 8890 7ebd f63a 313e
00000250: 8074 7fbd 0851 6cbe c00c ccbd 1156 3dbe
00000260: eff4 4a3c cdb6 57be 3950 c9bd 63ed 7bbe
00000270: 5ed2 253e 97ab 57be 105b d7bd e602 35be
00000280: bfbc 443d e36e 213e 1d87 173e 32bf 5e3e
00000290: bb43 5d3e 23ca 9dbd f704 ef3d febb 66be
000002a0: 601b 613e 936f 0d3e 60ef 8ebd 1fcd 4a3e
000002b0: ee21 c33d 6236 6a3e 6d4d 263e 4fba f4bd
000002c0: db07 8abd dbc2 4f3e e36a 3ebe df95 cabd
000002d0: 4499 ebbd a948 41be bc7c 16be 4d2f 40be
000002e0: 1b84 cf3d 8513 d33d e61e c3bb 4aae e53d
000002f0: b972 973c 1b22 e03c 70d5 8bbc d1ec 913d
00000300: 4266 36be f0c4 6ebd 5da3 63be a6fc 29be
00000310: 3a2b 083e 9d22 103d 9d6e 5ebd 7b03 463e
00000320: ce38 06bd c691 ffbd 0c56 f6bd 8885 4b3e
00000330: 5d31 983d f665 3f3e 0173 1f3d daf7 a0bd
00000340: bd2e f63d 8468 db3d 3130 47bb 6811 09bd
00000350: 84b1 ccbd f1e8 ee3d fdfb 3abe 8323 6a3e
00000360: d5cc d4bd f022 afbd 6f9e 103e 17c3 e6bd
00000370: a845 57be c41a 31bd 921a 5bbe f721 923c
00000380: aec9 41be c0a2 30be 5559 23bd 4deb 3b3e
00000390: caea 11be c057 4cbb 514a 9a3d cba9 ddbd
000003a0: 9e12 143e 1a34 183e 7f81 863e ca89 bebd
000003b0: 1330 883d 049b 6ebd 8012 843c b1e3 633d
000003c0: 413b 563e 687c 5b3e d6ee 2c3e 15e1 733e
000003d0: 501c 11bd f0b4 703d 1747 3bbe 6fac fcbd
000003e0: ec42 983c 8f2d bb3c fb9c fabc 49ba acbd
000003f0: e7ea 5e3e 05dc 72bd e9fc 0bbb 7b8d e23c

fc1.bias f4 [128]
0.1472517 0.15346806 0.1596589 0.18418701 0.020909557 0.07096705 0.044241726 -0.100126
0.11095136 -0.18566082 -0.21178886 0.23483863 0.15752788 -0.064426474 0.08381426 0.22892722
0.008803758 0.20627491 -0.15682432 0.09615059 0.17783575 0.086362846 -0.1584195 0.029354664
-0.21332861 0.104642265 0.0163851 0.18553393 -0.08082682 0.06590656 -0.0061348826 -0.19218661
0.055346195 0.24414052 0.096470416 -0.092858545 -0.11175837 0.01619823 0.26050305 -0.1559186
0.013290152 0.19318618 -0.16222778 0.2412599 -0.078692555 0.20167074 0.25814813 0.1541388
0.25518414 -0.14200933 0.10317481 -0.053593814 -0.152524 -0.26175225 -0.04529449 0.26165628
0.020029971 0.24315262 -0.18154812 -0.008286548 -0.050945472 0.24737975 0.014901357 -0.15328495
0.11386041 -0.21040504 0.019682575 0.092853695 -0.07223231 0.16503805 0.25066316 0.07472946
-0.13554281 0.05156401 -0.16926198 0.14808053 0.17936468 -0.009832264 0.21733831 0.1449878
0.054400507 -0.15844838 -0.23931025 -0.16200547 0.09678682 0.13480972 -0.089090995 -0.06011949
-0.110004485 0.005546864 0.13076769 -0.020047333 0.023418013 0.22567037 0.18860127 -0.26452726
0.11790951 -0.20542881 -0.1964486 0.05079404 0.16296752 -0.19688687 0.15387356 -0.055934124
0.13800006 0.20548542 0.035984635 -0.16000147 0.16538586 0.13277547 -0.09123417 -0.033297475
-0.008885574 0.21405981 -0.16616836 0.24785064 -0.14158277 -0.1731332 -0.15820378 0.21219932
0.060766462 0.028666178 0.16829017 0.05584405 -0.2338273 0.17582028 0.08794107 -0.14441557
00000000: 26c9 163e bb26 1d3e 9f7d 233e 859b 3c3e
00000010: 854a ab3c 2c57 913d d036 353d dc0e cdbd
00000020: 773a e33d df1d 3ebe 2edf 58be 8a79 703e
00000030: fd4e 213e 07f2 83bd d0a6 ab3d e66b 6a3e
00000040: a33d 103c bb39 533e 8e96 20be 9aea c43d
00000050: 931a 363e 01df b03d b938 22be 3179 f03c
00000060: d172 5abe af4e d63d 0c3a 863c 9bfc 3d3e
00000070: 8888 a5bd 05fa 863d 2007 c9bb 91cc 44be
00000080: b1b2 623d f9ff 793e 4892 c53d 9f2c bebd
00000090: 93e1 e4bd 27b2 843c a860 853e 20a9 1fbe
000000a0: f0be 593c 99d2 453e 0a1f 26be d60c 773e
000000b0: 9029 a1bd c682 4e3e fe2b 843e 90d6 1d3e
000000c0: 7fa7 823e e56a 11be 514d d33d 3085 5bbd
000000d0: 402f 1cbe 6404 86be b786 39bd d0f7 853e
000000e0: e515 a43c 00fd 783e c0e7 39be 4dc4 07bc
000000f0: 33ac 50bd 1e51 7d3e d224 743c bbf6 1cbe
00000100: a62f e93d 6b74 57be 5a3d a13c 142a be3d
00000110: 89ee 93bd bcff 283e ec56 803e c20b 993d
00000120: bccb 0abe c934 533d 0353 2dbe 6ca2 173e
00000130: 60ab 373e 8117 21bc ef8d 5e3e af77 143e
00000140: 11d3 5e3d 4b40 22be bf0d 75be c3e4 25be
00000150: 2b38 c63d 8f0b 0a3e 5775 b6bd db3f 76bd
00000160: 084a e1bd 78c2 b53b f7e7 053e 4e3a a4bc
00000170: 22d7 bf3c 2216 673e b120 413e 1e70 87be
00000180: 8b7a f13d ee5b 52be d229 49be 690d 503d
00000190: f5e0 263e b69c 49be 0891 1d3e 2e1b 65bd
000001a0: e34f 0d3e c56a 523e a064 133d 6dd7 23be
000001b0: e95a 293e 4bf6 073e fbd8 babd ef62 08bd
000001c0: cc94 11bc 7f32 5b3e 0a28 2abe 8fcc 7d3e
000001d0: 13fb 10be d449 31be 2c00 22be c74a 593e
000001e0: 41e6 783d 55d5 ea3c 4254 2c3e bbbc 643d
000001f0: 6c70 6fbe 3b0a 343e 731a b43d ade1 13be

fc2.weight f4 [64, 128]
0.07113566 -0.03162397 0.020557534 -0.0042928285 0.05499377 0.052095793 0.06045935 0.04349257
0.011384295 -0.027825156 0.013642479 0.07311094 -0.028878927 -0.0008690197 0.03436705 0.021160237
0.0064996486 0.005645132 -0.04118038 0.03437494 0.03364388 -0.09016527 0.055329178 -0.056756403
0.07806214 0.025833316 -0.0038768824 0.080754735 -0.11495858 -0.0127196405 0.04948299 0.04900613
-0.041903246 0.039400883 -0.07113001 0.08720816 -0.06162113 -0.009127511 -0.016200632 0.06945225
0.09947994 0.041866694 -0.047922052 -0.0025464506 -0.10036599 0.09994512 0.024820304 -0.020360872
0.051985063 0.07366518 0.004086197 -0.06831617 0.0271782 -0.054044034 0.06068541 -0.031531498
-0.01619332 -0.022198688 -0.06981719 0.023314038 0.08767095 -0.055228893 -0.05746696 0.043168023
0.036874246 0.032860942 0.07600877 -0.07039921 -0.061145935 -0.06041436 0.00084224687 0.06360111
-0.04505127 -0.01988447 0.015604711 0.010826624 0.0631047 -0.033176336 0.09718258 0.08015606
-0.017579129 -0.039155744 -0.08901562 -0.0616183 0.005418056 -0.087171465 -0.10938373 0.052732166
-0.083050594 0.04515236 0.040400196 0.06354395 0.0155410515 -0.0033163412 0.119193874 -0.054786596
-0.0030004433 0.0012112963 -0.109850176 0.044654775 -0.017983612 0.014231415 0.02416712 -0.021110324
0.033645246 -0.032263502 -0.01482629 -0.084764235 -0.030212596 -0.033012163 -0.1075898 -0.055312775
-0.04605137 0.044696327 -0.015934672 0.08240614 -0.089673385 0.03295291 -0.082013145 0.062402852
0.07046129 0.0373843 0.02777504 -0.056505628 0.038782857 0.09441771 -0.016335575 -0.020843307
0.101108514 0.09871403 0.10862255 -0.06890963 0.07405366 0.009492052 -0.073775254 0.09333089
-0.053173643 -0.012770171 -0.08833368 0.01549176 -0.029571185 0.09643692 0.049193308 0.06915338
0.05331727 0.049899697 0.06839716 0.03900641 0.039983686 -0.069852866 0.029858103 -0.0601067
-0.008292728 -0.05842868 0.09084979 0.02346524 -0.11113797 -0.09670937 0.0677471 0.04325471
0.09922573 0.031276103 0.026766168 0.020852033 -0.10640046 0.05576096 -0.041098483 0.01889301
-0.060027413 -0.00033902974 0.026103664 -0.04138123 0.026700918 0.067195974 0.026842698 0.02078278
0.067823075 -0.069740705 0.104117215 -0.038023006 0.049746443 -0.0783427 -0.07574907 0.064161584
0.021483548 0.10768519 0.035236586 -0.054386638 0.058532853 0.07717432 0.02567713 -0.026436323
-0.0005148025 -0.065412045 0.07572948 0.032529276 -0.018373016 0.06777806 -0.04870969 0.06553428
-0.001595447 -0.06249621 -0.018423526 -0.0021677818 -0.068915606 -0.03101019 0.004408707 0.07040971
-0.08312071 -0.02814632 0.052065153 -0.078105375 0.007468015 0.032339375 0.030156821 -0.04184711
-0.004183152 -0.03502774 -0.015180261 0.045346424 0.008306035 0.08642363 0.08130598 0.040312234
-0.058545947 -0.03053847 -0.04575755 0.0260953 0.033336308 -0.025788115 0.06331641 -0.061082836
-0.060072254 -0.012911032 0.0040389593 -0.050295193 0.017325118 0.043832526 -0.07885614 0.09361921
0.02095762 -0.03848823 0.0744762 0.027027262 -0.027462224 0.0978886 0.02864823 0.0027914585
0.05379698 0.02997188 -0.022684185 -0.019476384 -0.030052677 -0.044533737 0.027759336 0.007377993
00000000: 93af 913d 2388 01bd 4668 a83c dbaa 8cbb
00000010: 2641 613d 6662 553d 39a4 773d 4425 323d
00000020: 3285 3a3c 95f1 e3bc b484 5f3c 30bb 953d
00000030: 8093 ecbc edce 63ba 77c4 0c3d 3c58 ad3c
00000040: 01fb d43b cdfa b83b c2ac 28bd bdcc 0c3d
00000050: 2ace 093d 92a8 b8bd d9a0 623d 6779 68bd
00000060: 0bdf 9f3d 64a0 d33c 4b13 7ebb bd62 a53d
00000070: 676f ebbd 0a66 50bc adae 4a3d a7ba 483d
00000080: bda2 2bbd d262 213d 9cac 91bd 319a b23d
00000090: 7066 7cbd 8e8b 15bc 30b7 84bc fb3c 8e3d
000000a0: 24bc cb3d 697c 2b3d ea49 44bd 5ae2 26bb
000000b0: af8c cdbd 07b0 cc3d f353 cb3c d8cb a6bc
000000c0: 4aee 543d c5dd 963d 81e5 853b 59e9 8bbd
000000d0: d1a4 de3c 475d 5dbd 4491 783d 2c27 01bd
000000e0: daa7 84bc 06da b5bc 51fc 8ebd 15fd be3c
000000f0: d48c b33d b137 62bd 7a62 6bbd f4d0 303d
00000100: 7309 173d 3299 063d 7caa 9b3d 762d 90bd
00000110: 2974 7abd 0c75 77bd 3bca 5c3a 4c41 823d
00000120: ae87 38bd c2e4 a2bc e7aa 7f3c 2762 313c
00000130: 093d 813d e9e3 07bd a907 c73d dc28 a43d
00000140: 1b02 90bc c661 20bd d24d b6bd 7863 7cbd
00000150: f389 b13b f486 b2bd 9404 e0bd affd 573d
00000160: 6e16 aabd aef1 383d ad7a 253d 5523 823d
00000170: e59f 7e3c f956 59bb eb1b f43d e967 60bd
00000180: 16a3 44bb 5cc4 9e3a 21f9 e0bd ede7 363d
00000190: 5e52 93bc e22a 693c 20fa c53c 8fef acbc
000001a0: 99cf 093d bc26 04bd f8e9 72bc df98 adbd
000001b0: 6880 f7bc c337 07bd 0b58 dcbd a68f 62bd
000001c0: 5da0 3cbd 7f13 373d 6e89 82bc 8dc4 a83d
000001d0: aea6 b7bd a1f9 063d 82f6 a7bd 229a 7f3d
000001e0: 024e 903d 4820 193d 7b88 e33c 7272 67bd
000001f0: c6da 1e3d 135e c13d 2fd2 85bc 95bf aabc
00000200: fb11 cf3d 952a ca3d 8075 de3d 7e20 8dbd
00000210: 72a9 973d 8d84 1b3c 7b17 97bd 4424 bf3d
00000220: 9bcc 59bd fb39 51bc 4ae8 b4bd 27d1 7d3c
00000230: 453f f2bc b880 c53d ec7e 493d 4aa0 8d3d
00000240: 3663 5a3d a063 4c3d cf13 8c3d 2fc5 1f3d
00000250: efc5 233d 050f 8fbd fb98 f43c 7132 76bd
00000260: 39de 07bc e952 6fbd 740f ba3d 2d3a c03c
00000270: 4e9c e3bd 900f c6bd febe 8a3d da2b 313d
00000280: dc36 cb3d 5f1b 003d b944 db3c e2d1 aa3c
00000290: 7ce8 d9bd 9b65 643d e256 28bd 84c5 9a3c
000002a0: 4edf 75bd cdbf b1b9 5ad7 d53c 5d7f 29bd
000002b0: e2bb da3c 0b9e 893d 38e5 db3c a640 aa3c
000002c0: d3e6 8a3d 37d4 8ebd 683b d53d 03be 1bbd
000002d0: edc2 4b3d 2372 a0bd 5422 9bbd 2667 833d
000002e0: 44fe af3c 0e8a dc3d 3d54 103d 86c4 5ebd
000002f0: 25c0 6f3d 920d 9e3d d858 d23c fd90 d8bc
00000300: d0f3 06ba c0f6 85bd 0f18 9b3d 6b3d 053d
00000310: 0283 96bc 39cf 8a3d d083 47bd d636 863d
00000320: 511e d1ba 07fc 7fbd efec 96bc 5811 0ebb
00000330: a023 8dbd 1509 febc ea76 903b f732 903d
00000340: 313b aabd 1c93 e6bc 4542 553d b6f5 9fbd
00000350: 40b6 f43b 4b76 043d 700b f73c e067 2bbd
00000360: d312 89bb 3f79 0fbd a1b6 78bc 2cbd 393d
00000370: 0916 083c dffe b03d c083 a63d 711e 253d
00000380: e0cd 6fbd d02b fabc 456c 3bbd d0c5 d53c
00000390: a78b 083d 9941 d3bc 09ac 813d ff31 7abd
000003a0: 530e 76bd cb88 53bc 3f59 843b 5502 4ebd
000003b0: 68ed 8d3c bc89 333d 547f a1bd 6ebb bf3d
000003c0: 51af ab3c d6a5 1dbd fa86 983d 4768 dd3c
000003d0: 75f8 e0bc d179 c83d b1af ea3c e7f0 363b
000003e0: 395a 5c3d 9787 f53c 2fd4 b9bc f08c 9fbc
000003f0: 0831 f6bc 0269 36bd 8c67 e33c 17c3 f13b

fc2.bias f4 [64]
0.029850844 0.007475649 -0.05471374 0.04640073 -0.090548806 -0.02596505 0.030650416 0.0212826
0.102042705 -0.1037972 0.022079313 -0.0503727 -0.056935076 -0.019774228 0.028611906 -0.05464605
0.104246885 0.009528743 -0.0021823305 0.04095133 0.018743081 -0.06658685 0.014327974 -0.05444708
-0.084028594 -0.041300345 -0.098250896 -0.07954048 -0.0031093513 0.016191578 0.0035453811 -0.056207992
0.08455015 -0.074622154 -0.07177706 -0.06989839 -0.051071607 -0.08519281 0.022379749 -0.06440364
0.010120461 0.04686683 0.040549986 -0.06361413 -0.01784791 0.021743746 0.107856356 0.021674534
0.04471303 -0.08947858 -0.06515716 0.0014608648 0.019434784 0.017094593 -0.059489608 0.03183048
0.03205193 0.0117978435 -0.100142606 0.09876553 -0.015246657 0.09171523 0.005667811 -0.012783442
00000000: c289 f43c 4af6 f43b 841b 60bd b10e 3e3d
00000010: a771 b9bd a8b4 d4bc 9516 fb3c d958 ae3c
00000020: c4fb d03d a093 d4bd addf b43c 9b53 4ebd
00000030: c134 69bd 90fd a1bc 8463 ea3c 89d4 5fbd
00000040: 647f d53d 721e 1c3c 6e05 0fbb 95bc 273d
00000050: 178b 993c b05e 88bd e1bf 6a3c e703 5fbd
00000060: 2f17 acbd 8d2a 29bd c437 c9bd 1fe6 a2bd
00000070: 42c6 4bbb 33a4 843c a059 683b 5a3a 66bd
00000080: a128 ad3d 80d3 98bd daff 92bd e326 8fbd
00000090: 7630 51bd 9179 aebd bc55 b73c 0ee6 83bd
000000a0: 4ad0 253c 6ff7 3f3d be17 263d 2048 82bd
000000b0: c835 92bc f11f b23c cbe3 dc3d cb8e b13c
000000c0: 0325 373d 8c40 b7bd 1e71 85bd 7d7a bf3a
000000d0: b235 9f3c f609 8c3c 60ab 73bd ad60 023d
000000e0: e248 033d be4b 413c 9117 cdbd 9545 ca3d
000000f0: 1dcd 79bc 32d5 bb3d 0bb9 b93b a471 51bc

fc3.weight f4 [32, 64]
-0.13007084 -0.035170976 -0.07232552 0.14016755 -0.0908979 -0.123144664 0.05140942 -0.12837626
0.053132106 -0.011342334 0.14571741 -0.004535231 -0.046343412 -0.07208064 -0.029641952 -0.10081338
-0.043253608 -0.07569345 -0.0015632596 0.12347611 -0.011313571 0.06768358 -0.04816338 0.060718216
-0.08074907 -0.042004574 0.08111992 0.018334836 0.06559788 -0.10057663 -0.13436179 0.1341112
-0.046953455 -0.07340134 0.08642283 0.096545115 0.11960869 0.08056335 0.032438576 0.10953586
-0.10739474 0.11181952 0.08474151 0.053272285 -0.10460489 0.105387114 -0.14122188 0.12260843
-0.11330809 0.07949684 -0.08384733 -0.1475574 0.09527209 0.014734299 -0.033639617 0.061395317
0.08704697 -0.0682398 0.06069642 0.00036786677 0.075305834 -0.07219424 -0.065733835 -0.0659643
0.04016548 0.045979053 -0.087267265 -0.04050553 0.014310917 0.09032226 0.16085793 0.1451901
0.0049889563 -0.11758898 0.14956515 0.057052217 0.0376168 0.010003419 -0.0053002713 0.042028468
0.06890309 0.006571119 0.14149465 -0.04384045 0.05438564 0.03315949 0.08147955 -0.015290633
0.018265532 -0.1180504 0.05984184 -0.08130991 -0.016279329 -0.0008668731 -0.113732256 0.047489014
0.037103098 0.042045034 0.036771473 -0.04127706 -0.0020829206 -0.15065068 0.1539292 -0.13902642
0.08186461 -0.054426897 -0.08146377 -0.033347607 0.02828415 0.09288991 -0.016958397 -0.13769501
0.15954314 0.031942774 0.07132965 0.041705936 -0.1534927 0.051168054 0.11864939 -0.081658326
0.021464748 -0.026658092 0.0046328413 0.023000186 -0.1620705 0.14113376 0.058992498 -0.058276787
-0.13020618 -0.0559814 0.11973418 0.03457071 -0.0123380385 0.028626002 -0.14448453 -0.005789763
-0.026677305 0.07234852 0.062182445 0.06869605 -0.01221749 0.09315914 0.12798287 -0.0045678355
-0.034682326 -0.07058059 0.005534115 0.018820666 0.012666613 0.13459958 -0.05794885 0.019648507
0.10064089 0.039536566 -0.08472303 0.011890459 0.037579887 -0.036449164 0.07983619 -0.112260446
-0.039631702 0.026468452 -0.10200889 0.06724646 0.095857345 0.13962127 0.0032818143 0.1254421
-0.11111797 -0.036540225 -0.060445137 -0.0699912 -0.0051559345 -0.089611284 -0.14163662 -0.0030827844
-0.07838757 -0.03980631 -0.00569317 -0.09965928 -0.039896496 -0.021872245 -0.13326377 -0.04348751
-0.14257672 -0.030480905 0.05346164 -0.13377352 0.0357837 -0.12947844 -0.08677355 -0.11791481
0.0219111 0.13246116 -0.092155725 0.04711486 -0.037333358 0.059889328 0.00870337 0.0671565
0.06056805 0.0012726522 0.008704199 -0.020323135 0.016713643 0.056684915 0.0060499576 -0.014243526
0.14409374 0.12592612 -0.058311414 0.020653028 0.048122626 -0.15171099 0.14935775 -0.027473314
-0.11066113 -0.04542154 -0.09382644 0.056725197 -0.020776754 -0.12151738 0.053697914 0.11077656
-0.07054245 -0.14081189 -0.012332527 -0.141914 0.022263577 -0.0055058617 -0.004985062 0.07567629
-0.054039087 -0.046778105 0.010451789 0.094189726 -0.093435384 0.13637072 0.048233096 -0.037213307
0.04075676 0.09861132 0.050757494 -0.087834805 0.041144848 0.028192582 0.016212327 0.1414934
0.014422745 0.01530386 -0.14882912 -0.035500534 -0.11037708 0.043370638 -0.02051194 0.14823678
00000000: 4a31 05be 710f 10bd 671f 94bd 1588 0f3e
00000010: ae28 babd 4533 fcbd af92 523d 1175 03be
00000020: 0da1 593d 32d5 39bc f236 153e 469c 94bb
00000030: 97d2 3dbd 049f 93bd aed3 f2bc 3f77 cebd
00000040: b22a 31bd 2b05 9bbd 4ae6 ccba 0be1 fc3d
00000050: 8e5c 39bc b09d 8a3d f746 45bd aab3 783d
00000060: c55f a5bd fd0c 2cbd 3322 a63d f032 963c
00000070: 2e58 863d 1ffb cdbd 2396 09be 7254 093e
00000080: 4452 40bd 7153 96bd 74fe b03d 72b9 c53d
00000090: 67f5 f43d 66fe a43d 50de 043d 5654 e03d
000000a0: c6f1 dbbd a201 e53d f58c ad3d 0a34 5a3d
000000b0: 173b d6bd 33d5 d73d 789c 10be 211a fb3d
000000c0: 120e e8bd 3dcf a23d 26b8 abbd 4919 17be
000000d0: 031e c33d 2168 713c b2c9 09bd a879 7b3d
000000e0: af45 b23d 4fc1 8bbd cf9c 783d 3ede c039
000000f0: f239 9a3d 93da 93bd 769f 86bd 4a18 87bd
00000100: 8f84 243d 8854 3c3d 2eb9 b2bd 20e9 25bd
00000110: 5678 6a3c e1fa b83d f1b7 243e b7ac 143e
00000120: 667a a33b 7ed2 f0bd 9b27 193e 96af 693d
00000130: 1314 1a3d 61e5 233c e6ad adbb 0b26 2c3d
00000140: 101d 8d3d 8b52 d73b f9e3 103e 0b92 33bd
00000150: 7ac3 5e3d 3fd2 073d c0de a63d 9085 7abc
00000160: 99a1 953c 68c4 f1bd b81c 753d cf85 a6bd
00000170: 3a5c 85bc de3e 63ba 75ec e8bd d783 423d
00000180: 6bf9 173d 6a37 2c3d af9d 163d 2212 29bd
00000190: 9c81 08bb 2c44 1abe 9e9f 1d3e f15c 0ebe
000001a0: a2a8 a73d bdee 5ebd 7ad6 a6bd 8097 08bd
000001b0: 29b4 e73c 113d be3d 56ec 8abc ecff 0cbe
000001c0: 475f 233e 6dd6 023d 4815 923d d8d3 2a3d
000001d0: 312d 1dbe 9895 513d 74fe f23d 7b3c a7bd
000001e0: d7d6 af3c 1262 dabc 17cf 973b e36a bc3c
000001f0: cff5 25be 5e85 103e 1ea2 713d a4b3 6ebd
00000200: c554 05be c14c 65bd 3237 f53d 049a 0d3d
00000210: 7c25 4abc 1481 ea3c c1f3 13be 0db8 bdbb
00000220: 5d8a dabc 762b 943d 05b3 7e3d 84b0 8c3d
00000230: de2b 48bc 38ca be3d f10d 033e c8ad 95bb
00000240: 0e0f 0ebd 8e8c 90bd 8557 b53b cc2d 9a3c
00000250: a087 4f3c 79d4 093e c65b 6dbd e8f5 a03c
00000260: d01c ce3d 18f1 213d 4583 adbd 33d0 423c
00000270: 5eed 193d b84b 15bd 2881 a33d cee8 e5bd
00000280: da54 22bd 5ed4 d83c 09ea d0bd 83b8 893d
00000290: db50 c43d e1f8 0e3e b513 573b e573 003e
000002a0: d191 e3bd 34ab 15bd 5295 77bd 8c57 8fbd
000002b0: 1df3 a8bb 1f86 b7bd 3109 11be 8a08 4abb
000002c0: aa89 a0bd f10b 23bd c58d babb 2a1a ccbd
000002d0: 826a 23bd 6c2d b3bc 4c76 08be f61f 32bd
000002e0: a2ff 11be 17b3 f9bc 98fa 5a3d edfb 08be
000002f0: ee91 123d ff95 04be 55b6 b1bd 527d f1bd
00000300: e87e b33c e6a3 073e 24bc bcbd 83fb 403d
00000310: ddea 18bd 834e 753d 9498 0e3c 5989 893d
00000320: 3416 783d 1fcf a63a 0f9c 0e3c b47c a6bc
00000330: 0deb 883c 712e 683d b93e c63b ae5d 69bc
00000340: 4f8d 133e c7f2 003e f3d7 6ebd 8a30 a93c
00000350: 3b1c 453d 205a 1bbe 3df1 183e b70f e1bc
00000360: 4da2 e2bd f00b 3abd 1428 c0bd ae58 683d
00000370: 0334 aabc 1bde f8bd 58f2 5b3d d2de e23d
00000380: 8f78 90bd fe30 10be 5e0e 4abc e751 11be
00000390: 1b62 b63c 846a b4bb bb59 a3bb 2cfc 9a3d
000003a0: 1758 5dbd 669a 3fbd fb3d 2b3c 8be6 c03d
000003b0: 0d5b bfbd c4a4 0b3e 1190 453d fb6c 18bd
000003c0: 8ff0 263d bbf4 c93d 17e7 4f3d bce2 b3bd
000003d0: 8087 283d 21f4 e63c b7cf 843c a5e3 103e
000003e0: 614d 6c3c 0bbd 7a3c a966 18be 0269 11bd
000003f0: 610d e2bd 69a5 313d a808 a8bc 62cb 173e

fc3.bias f4 [32]
0.05514027 -0.00732465 -0.07098007 0.07610885 0.08501754 0.0684326 -0.008133873 -0.035133123
-0.039303023 -0.0724258 -0.09539844 0.10101161 -0.11382177 -0.007053365 0.078712694 0.03121255
0.11813428 -0.07994746 0.009745598 0.033665355 0.044082288 -0.068080604 -0.10758706 0.059074033
0.052845903 0.12940909 -0.0530059 -0.007412645 0.12048959 0.09794148 -0.031382028 -0.09611246
00000000: c4da 613d 9e03 f0bb 005e 91bd f5de 9b3d
00000010: ad1d ae3d 6426 8c3d f043 05bc c0e7 0fbd
00000020: 35fc 20bd fa53 94bd 4260 c3bd 2ddf ce3d
00000030: 631b e9bd ea1f e7bb 1f34 a13d 76b1 ff3c
00000040: 63f0 f13d 7ebb a3bd 00ac 1f3c afe4 093d
00000050: a18f 343d d86d 8bbd 9b56 dcbd 9df7 713d
00000060: f274 583d d183 043e b71c 59bd c6e5 f2bb
00000070: 3fc3 f63d 8b95 c83d 718a 00bd 9cd6 c4bd

fc4.weight f4 [5, 32]
-0.047591943 -0.10655984 0.15881097 -0.15046178 0.028616522 -0.07589107 -0.19858623 0.042368513
0.115621015 -0.03080742 -0.084040485 -0.024883742 0.17354445 -0.078062266 0.083245866 -0.1508604
-0.12947287 0.14596157 -0.08009208 0.20009193 0.18266976 -0.19529863 0.1670033 0.11850397
0.16795112 0.12946382 0.1452384 -0.09375499 -0.14835599 -0.18397586 -0.0011827655 -0.013234357
-0.07044547 0.1499844 -0.12767902 -0.015388476 -0.062322628 0.053635783 -0.011635465 -0.020150661
-0.05795444 0.15196198 -0.12759396 0.10260752 0.14408518 0.15797581 0.16630697 -0.19338082
0.11265025 0.007178865 0.07862899 0.074463844 -0.021523839 -0.12979889 -0.014257469 0.024735542
0.12342988 -0.037389573 0.044291522 -0.115679264 -0.13033442 0.11785819 -0.111620344 0.11503927
0.092585124 0.0067397766 0.013925692 0.16926089 -0.02563974 -0.16827391 -0.083413504 -0.03427075
-0.0007775646 0.017956689 0.06726915 -0.10049984 0.10430028 -0.11192722 -0.0656011 0.109091006
0.18915647 0.10565485 0.16889888 -0.06092543 -0.05271498 -0.17549136 -0.014815811 -0.02978408
-0.06681662 0.115324795 -0.10983072 -0.00023135032 -0.0068086805 -0.05989242 -0.16995059 0.05213153
-0.13693151 0.13059652 0.08269819 -0.0069172294 -0.14530389 0.008107967 0.012505761 -0.0118273655
-0.13055718 -0.19531164 0.07252201 0.16821116 -0.068185985 0.11061883 0.13386685 -0.11551463
-0.14038569 -0.13027821 -0.13847448 0.1873073 0.17464115 -0.16093177 0.054416128 -0.0635025
-0.10907923 -0.17351407 -0.060884636 0.11959894 0.068945736 0.020682175 -0.0032828634 0.13748392
-0.095075175 0.14741227 -0.14176689 0.2100334 -0.1554108 0.12101122 0.032582678 -0.12345887
-0.117096074 0.14018501 0.2099116 -0.18823522 -0.1470238 -0.18842897 -0.06270245 0.19045933
-0.06713913 -0.06153455 -0.18030891 0.06645835 -0.13544078 0.13751894 -0.1263807 -0.13429417
-0.19905573 0.18101197 -0.007087461 -0.18714222 0.05061206 -0.07130378 0.20412706 -0.1890378
00000000: c5ef 42bd 0c3c dabd 589f 223e a712 1abe
00000010: 326d ea3c c76c 9bbd 305a 4bbe 9b8a 2d3d
00000020: b6ca ec3d d85f fcbc 6b1d acbd fdd8 cbbc
00000030: a3b5 313e 1cdf 9fbd cf7c aa3d 267b 1abe
00000040: 8994 04be f376 153e 5107 a4bd e6e4 4c3e
00000050: c80d 3b3e 5dfc 47be ea02 2b3e 36b2 f23d
00000060: 61fb 2b3e 2a92 043e 60b9 143e 9e02 c0bd
00000070: a2ea 17be 2b64 3cbe 0607 9bba ebd4 58bc
00000080: b745 90bd 8395 193e 4abe 02be f21f 7cbc
00000090: 0346 7fbd 32b1 5b3d ada2 3ebc 0013 a5bc
000000a0: a361 6dbd ec9b 1b3e fea7 02be e423 d23d
000000b0: 118b 133e 69c4 213e 604c 2a3e 9f05 46be
000000c0: 2db5 e63d af3c eb3b 3c08 a13d 8080 983d
000000d0: c352 b0bc 00ea 04be 2998 69bc 31a2 ca3c
000000e0: cec8 fc3d cf25 19bd 076b 353d 40e9 ecbd
000000f0: 6376 05be a25f f13d 3599 e4bd b599 eb3d
00000100: 459d bd3d 58d9 dc3b 9628 643c ba52 2d3e
00000110: 6f0a d2bc ff4f 2cbe b3d4 aabd 7c5f 0cbd
00000120: 7ad5 4bba e819 933c 68c4 893d dcd2 cdbd
00000130: 639b d53d 193a e5bd df59 86bd 1b6b df3d
00000140: 3cb2 413e 9261 d83d d4f3 2c3e f28c 79bd
00000150: aaeb 57bd 02b4 33be 04be 72bc befd f3bc
00000160: 27d7 88bd 682f ec3d eeee e0bd a196 72b9
00000170: 5a1b dfbb c151 75bd 8707 2ebe df87 553d
00000180: c637 0cbe 18bb 053e ab5d a93d eda9 e2bb
00000190: 8bca 14be 47d7 043c f7e4 4c3c 91c7 41bc
000001a0: c8b0 05be c6ff 47be 6b86 943d 8c3f 2c3e
000001b0: 18a5 8bbd 208c e23d 6414 093e ef92 ecbd
000001c0: 44c1 0fbe a767 05be 41cc 0dbe 7ccd 3f3e
000001d0: 21d5 323e 4ccb 24be 72e3 5e3d 990d 82bd
000001e0: ee64 dfbd acad 31be 2b62 79bd 4af0 f43d
000001f0: 6c33 8d3d aa6d a93c 4f25 57bb 96c8 0c3e
00000200: c6b6 c2bd 3ef3 163e 572b 11be ff12 573e
00000210: 0224 1fbe bbd4 f73d 6a75 053d 01d8 fcbd
00000220: 11d0 efbd a98c 0f3e 11f3 563e bcc0 40be
00000230: 688d 16be 86f3 40be 246a 80bd c507 433e
00000240: 3d80 89bd a70b 7cbd e6a2 38be 511b 883d
00000250: fdb0 0abe c4d1 0c3e f169 01be 6984 09be
00000260: 44d5 4bbe 345b 393e ef3d e8bb 36a2 3fbe
00000270: 974e 4f3d b707 92bd af06 513e 2093 41be

fc4.bias f4 [5]
0.13764526 -0.05374515 -0.0153053235 0.049327422 -0.10914934
00000000: e1f2 0c3e e023 5cbd 2ec3 7abc 8d0b 4a3d
00000010: b089 dfbd
