clean_code/trained_models/actor_1418.pth (torch, 54884 bytes, 8 tensors)

fc1.weight f4 [128, 18]
00000000: 1309 1e3e 7302 ae3d e8cf 1cbe f886 413e
00000010: 262f f73d a7e1 8abd 1018 e53c ef05 b73c
00000020: 0720 be3d 5346 89bd 7417 18be 6b1a 153a
00000030: a434 573e e246 a93d 9e53 163e ec3f f33c
00000040: f752 65be 568f 803e df60 0b3e 007e 263e
00000050: 02ab b23d d7bf a8bd 98e3 863d 9e74 b2bc
00000060: 971d 123e 938a 4d3e 7626 c33d 9e3a 303d
00000070: 8faf 133e fcaa 0d3e 837e 35be 2432 0cbe
00000080: a5ba c0bd 4b3c 633d 8e5d 25be c1fe 093d
00000090: d1e3 1a3e 2806 b13d d157 15be 7f77 793d
000000a0: 138f 37be 5b99 023d 3411 453e e5e7 1b3e
000000b0: 067b 80bd 4b6e 32be bdae d8bd 6d10 343e
000000c0: 329f 833e 8269 c53d 4c54 803d 5eb6 ddbd
000000d0: cfc1 533e cbf6 533d 3d60 063e aa4d 12bd
000000e0: ff6e 2c3e 6354 f03c 894b 38be d7c4 06be
000000f0: 0b8d 41be e76f 3dbe 8d3f f8bd 7db8 2a3e
00000100: 8363 ce3d 15db cebd bffe 593e 7719 3e3e
00000110: a76c 81bb 0c44 3abe 3b12 2c3e dcab 64bd
00000120: 87cc 9dbd 32b8 6d3e 3c70 0abd 114d 51be
00000130: 62c8 583e d44a 213e 44fe c7bd 4ccf 843e
00000140: 713f efbc c6f9 243d 76a1 833d 73f7 c53d
00000150: 6f4e ab3c f429 06be c1f5 763e 4db8 2a3e
00000160: 084a 0cbe 9dcc 563e cc5e c83d fbfb 65bd
00000170: d79d 303d 7de4 3d3e 859e 703e dbca fabc
00000180: 3755 b1bd 30e1 3abc 0d79 be3d a11d 32be
00000190: 243f c5bc fad6 1b3e 20c4 43be dfba 523e
000001a0: 0593 27be 9d47 4c3e 9739 853d 2f43 4a3e
000001b0: 71f4 0f3e f91e 7ebe 21ab 143e 7598 09be
000001c0: 4bd5 be3d d94f 2f3e 69a1 333e dc01 a23d
000001d0: 571c 37be c283 64bb 9271 69be 1f3b cabc
000001e0: 9e69 63be 60a7 1fbc 861e 04be 9610 563d
000001f0: 2d57 7bbe e884 ddbb 28d4 f33c 434e 1d3e
00000200: 94ae 51be da6f 56be aa89 09be 348d b33d
00000210: c3e8 533e 9ea3 02be e347 333e 9c33 3dbe
00000220: 9956 303e 666a 343e 2344 d6bc c8f3 c93c
00000230: 1aa4 123e 9fd6 6d3b f2b0 533d 6a4f 1abe
00000240: 1d83 833a e2b4 abbd 4e2f 96bd e0c1 2f3e
00000250: 5e91 82bd b1ba 6dbe c6db cebd 237d 3ebe
00000260: 8740 243c fae0 60be 3c13 ccbd 10bc 78be
00000270: 79a3 2b3e 97ab 57be b56c cfbd 3b64 40be
00000280: d454 113d 428d 263e 7c6a 173e 2fe3 5f3e
00000290: dc59 6a3e 6aa2 9cbd d40d f03d 933a 66be
000002a0: 179f 613e 60e0 0c3e 471c 8cbd 2cc9 533e
000002b0: 150c c43d 87be 653e 702b 1f3e 4fba f4bd
000002c0: 5547 91bd 2c7c 563e 54fa 34be 7b6c d7bd
000002d0: 77d7 f3bd e7ea 45be 015b 20be b948 44be
000002e0: 6167 c73d 99fa ca3d ec20 22bc e64c de3d
000002f0: 0276 633c 6113 a83c 6cd9 abbc 5ce2 933d
00000300: 6cba 33be f0c4 6ebd a0b3 61be 8ea0 32be
00000310: cd53 f53d 2b8e 153d 9aed 57bd 2be2 473e
00000320: 2b02 ccbc da62 fcbd 8f3b f3bd 3311 4d3e
00000330: 7044 9b3d 05b1 403e 744b 273d 6279 94bd
00000340: 9736 f93d ab9b d73d 6f2e dbbb 6811 09bd
00000350: 7571 d0bd 72f2 fa3d 25f0 2cbe 8f0a 673e
00000360: 7e27 d5bd d88e afbd 43fa 0e3e 270f e7bd
00000370: 416a 57be 30ac 31bd af3e 5bbe f413 913c
00000380: 3e05 42be c7d1 31be 0ce5 23bd 2d36 3c3e
00000390: bf4c 11be c057 4cbb c7b7 9a3d 1401 dfbd
000003a0: 69d9 113e fdac 183e e0b4 873e 7b9b b8bd
000003b0: 6ff1 9f3d 709c 64bd b5a1 973c 19a1 6d3d
000003c0: 17a9 583e b261 5d3e 1404 303e 06a1 7c3e
000003d0: a889 07bd 88ce 663d 279f 40be 6fac fcbd
000003e0: cd17 803c 0887 0b3d de9a 41bc 7e67 b5bd
000003f0: d74e 623e 54d8 64bd 3699 ec3b d59a fb3c
0.15433149 0.08496561 -0.15313685 0.18899143 0.1206954 -0.06781321 0.027965575 0.022341697
0.092834525 -0.067028664 -0.14852697 0.00056878355 0.21016175 0.08265473 0.14680335 0.029693566
-0.2239493 0.25109357 0.13611172 0.16259003 0.087240234 -0.082397155 0.06586379 -0.021784123
0.142691 0.20072393 0.0952882 0.04302465 0.14422439 0.13834757 -0.17724042 -0.13691002
-0.094105996 0.05547742 -0.1614897 0.033690218 0.15125968 0.08643752 -0.1458428 0.060904976
-0.17925672 0.031884532 0.19244844 0.1522518 -0.06273465 -0.17424886 -0.10580204 0.17584391
0.25707394 0.09639265 0.06266078 -0.108257994 0.20679401 0.051749032 0.1312265 -0.035718597
0.16839217 0.029337114 -0.17997564 -0.13161026 -0.1890146 -0.18499719 -0.12121496 0.16671939
0.10077574 -0.1010038 0.21288584 0.18564402 -0.00394972 -0.1819002 0.1680383 -0.05582796
-0.07705026 0.23214796 -0.03379844 -0.20439555 0.2117019 0.15751201 -0.09765294 0.25939405
-0.029205056 0.040277265 0.064272806 0.09666338 0.020911423 -0.13101941 0.24117185 0.16671868
-0.13700116 0.20976491 0.09783706 -0.05614851 0.043119278 0.18544193 0.2349797 -0.030614307
-0.086588316 -0.011406228 0.09300432 -0.17394115 -0.02407796 0.15218726 -0.19117785 0.20579098
-0.16364677 0.19949193 0.06505125 0.19752191 0.14058091 -0.24816503 0.14518405 -0.13437064
0.09318026 0.17120303 0.17542042 0.07910511 -0.17881905 -0.0034868573 -0.2279723 -0.024686394
-0.22208259 -0.009744495 -0.12902269 0.05226191 -0.24544974 -0.0067602284 0.02976425 0.15361886
-0.20476753 -0.20941105 -0.13431421 0.08767167 0.2069426 -0.12757728 0.17507891 -0.18476719
0.17220534 0.17618713 -0.026155537 0.024652377 0.14320412 0.0036291254 0.05168242 -0.15069357
0.0010033582 -0.0838411 -0.073332414 0.17163801 -0.06375383 -0.23215748 -0.10100512 -0.18602423
0.01002515 -0.21960822 -0.09964606 -0.2429049 0.16761579 -0.2106155 -0.10128156 -0.18788235
0.03548129 0.16264823 0.14786714 0.21864007 0.22885841 -0.076481655 0.117213875 -0.22483282
0.22033344 0.13757467 -0.06841331 0.2068221 0.09572617 0.22435962 0.15543914 -0.11949598
-0.07093684 0.20945805 -0.17673618 -0.10518738 -0.11906331 -0.1932789 -0.15659715 -0.19168366
0.09736515 0.09911079 -0.0098955445 0.10854511 0.013883116 0.020517053 -0.020977698 0.07220909
-0.17551583 -0.058293283 -0.22041178 -0.17444059 0.11978874 0.036512535 -0.05271683 0.1951987
-0.024903378 -0.12323542 -0.11876594 0.20026092 0.07581413 0.18817528 0.040843442 -0.072497144
0.12168615 0.10527738 -0.006688885 -0.033463866 -0.1017789 0.12253274 -0.16888483 0.22562622
-0.10407923 -0.08572167 0.13962655 -0.11282187 -0.21036626 -0.0433771 -0.2141063 0.01770971
-0.18947312 -0.1736518 -0.040013358 0.18380041 -0.14189433 -0.0031180233 0.07554584 -0.108888775
0.14243092 0.1490974 0.26505184 -0.090140305 0.07809722 -0.055813253 0.018509725 0.058014963
0.21158253 0.21619299 0.17189056 0.246708 -0.033090264 0.056349307 -0.18810712 -0.123375766
0.01563635 0.034064323 -0.011816708 -0.0885763 0.22100388 -0.05587037 0.0072204126 0.030713478

fc1.bias f4 [128]
00000000: 7a20 183e 3d5f 1f3e da56 243e beda 3e3e
00000010: 50a3 af3c 74c9 a03d bd82 2d3d 353f c8bd
00000020: be5e e03d 6697 3dbe 63ee 5cbe 5808 723e
00000030: 372a 213e e815 7ebd d5d8 b13d dab3 6b3e
00000040: 92e1 353c eec3 543e 7af0 21be b8f4 c73d
00000050: 9a76 343e 7609 ae3d dae5 20be 6434 da3c
00000060: c50c 52be 7979 dc3d 65db 8d3c 7618 403e
00000070: d70b a9bd fda8 843d bae8 adbb e3d7 47be
00000080: c793 6f3d 3c49 7d3e a139 c43d 84c2 bcbd
00000090: 4eb4 e7bd 00c5 623c 9530 893e afb7 21be
000000a0: 8ba0 813c ffa5 423e 5dc4 2dbe 88cc 7c3e
000000b0: 6394 a3bd d0ec 4f3e 4dde 853e d3b4 2f3e
000000c0: 4462 833e 205b 11be 12a8 de3d e2a6 53bd
000000d0: c43b 17be 445c 86be dd51 4abd e846 873e
000000e0: 0f40 a93c 3298 7b3e 09c3 3cbe 8283 4ebc
000000f0: 864b 4dbd 0f8e 7f3e 9f87 973c e88e 1ebe
00000100: cd23 e83d 1f83 5ebe 09b8 a43c 205a b93d
00000110: 796a 8abd 972e 283e 429e 7d3e bddb 9b3d
00000120: ada8 0bbe 07f2 5b3d d5f2 33be 57d5 193e
00000130: 811f 363e 2ed4 c4bb c838 603e 2efb 133e
00000140: 87b2 5d3d 3844 24be d795 76be a811 28be
00000150: 42d2 c13d 4962 0c3e 7cb7 babd 7c14 81bd
00000160: d8d1 dcbd 1963 313b 417f 0a3e 7460 a4bc
00000170: 8854 b93c e3c9 683e 44e0 4c3e 9729 88be
00000180: 013a ef3d 908b 55be 2d9f 4dbe aca7 463d
00000190: f775 263e f764 4bbe fd33 203e 226b 71bd
000001a0: 66b8 083e eb9b 563e 96db 113d e301 1fbe
000001b0: 2357 283e d0e7 0a3e 779c b8bd ef58 06bd
000001c0: 4a2c eabb b0b8 5c3e 2176 2abe 23ae 803e
000001d0: cd98 11be 8720 30be bb33 23be 08fb 5a3e
000001e0: a4b7 7b3d 6668 f83c f137 2b3e dc48 7a3d
000001f0: 2a9d 70be ddbd 373e 3400 b73d 4d99 14be
0.14856139 0.15563674 0.16048756 0.18638131 0.021440178 0.07850924 0.04236101 -0.09777681
0.10955571 -0.18514785 -0.21575312 0.23635995 0.1573876 -0.06203261 0.086839356 0.23017827
0.011101143 0.20777866 -0.15814391 0.09763473 0.17623368 0.08497898 -0.15712681 0.02663631
-0.20512684 0.107653566 0.01731653 0.18759331 -0.082542114 0.064775445 -0.005307284 -0.19515948
0.05849054 0.24734968 0.09581304 -0.092167884 -0.11313687 0.013840914 0.26794878 -0.15792726
0.015823623 0.19008635 -0.16969438 0.24687397 -0.07987287 0.2030518 0.26146165 0.17158823
0.25660908 -0.14194918 0.108719006 -0.051672824 -0.14768893 -0.26242268 -0.049394477 0.26421285
0.020660428 0.24569777 -0.18433775 -0.012604596 -0.050120853 0.24956535 0.018497286 -0.15484202
0.113349535 -0.21729706 0.020107286 0.09050393 -0.06758589 0.16424023 0.24767402 0.07610271
-0.13638563 0.053697612 -0.17573102 0.15022789 0.17785455 -0.006006739 0.2189666 0.14451286
0.054125335 -0.16041648 -0.24080597 -0.16412985 0.094639316 0.13709368 -0.09117028 -0.06302735
-0.10782212 0.0027067123 0.13525106 -0.020065524 0.022623315 0.22733264 0.20007426 -0.2659423
0.11680985 -0.2085402 -0.20080252 0.048499748 0.16255938 -0.19862734 0.15644832 -0.05894006
0.13351592 0.20957915 0.035609804 -0.15528063 0.1643949 0.13564992 -0.09014218 -0.032799657
-0.007146393 0.21554828 -0.16646625 0.25132856 -0.14218445 -0.17199908 -0.15937702 0.21384823
0.06145443 0.030323219 0.16720559 0.06110464 -0.23497453 0.17943521 0.089355856 -0.14511605

fc2.weight f4 [64, 128]
00000000: a995 8c3d f51f 06bd d32a 963c 613e 97bb
00000010: 9857 593d 5caf 5b3d 2490 7d3d f9e2 273d
00000020: 9aa6 2b3c 20ac f8bc d83e 7e3c f5f6 913d
00000030: 4072 dfbc c74f 5b3a 12d7 053d b1a2 a73c
00000040: e4ed 843b f7ff 773b 824f 20bd b792 033d
00000050: e5fd 043d d880 b6bd f8d6 5f3d 0438 61bd
00000060: 6c4e a23d 94e1 be3c 0ec6 a9bb 1e8d a13d
00000070: 878d e9bd 2d7d 48bc 9545 413d a369 4d3d
00000080: 18f7 2bbd fb1b 1c3d 2f0c 93bd 579a ae3d
00000090: 1e6c 73bd d82b 04bc 4146 79bc f50a 8e3d
000000a0: c431 c63d 4458 3e3d 2af0 3bbd 1aff beb8
000000b0: a641 cbbd 7009 ca3d 5574 c03c 431d 8bbc
000000c0: d8f4 4e3d 2739 953d 6772 523b 8a14 91bd
000000d0: 73a0 dd3c 2d7e 5abd 8e85 763d 3c58 07bd
000000e0: db4c 8abc 4d75 c0bc a2bc 8cbd 3be6 cb3c
000000f0: 6607 ac3d 48e7 66bd f681 75bd 9c54 353d
00000100: c086 103d 8623 063d bec7 983d ed58 89bd
00000110: 1f0f 83bd f894 80bd be03 903a 1cf5 753d
00000120: 212f 38bd 1a2d babc 79d0 893c 7876 613c
00000130: 773e 7c3d 85e0 05bd 3ef1 c43d 4fbd 9f3d
00000140: e19a 86bc 1d26 1fbd 207e b2bd 27b0 73bd
00000150: adf1 033c e6bb adbd c89c dcbd f889 573d
00000160: 1fe3 a1bd b277 443d ed08 2a3d 247d 7e3d
00000170: 484e 813c b290 94bb 4846 f33d cc04 5cbd
00000180: 0cfe 37ba 5bd4 4c3b c35d debd 48aa 403d
00000190: 2040 a0bc 01a9 723c 8df6 b83c ced6 9fbc
000001a0: de1a 113d 0f10 01bd 7a10 50bc a7c8 a9bd
000001b0: ddce f1bc ab60 11bd 1f5f d9bd 7432 62bd
000001c0: f0c2 44bd 0a70 2b3d 17bc 68bc 6991 ad3d
000001d0: 5577 b6bd e82c fd3c c5f7 a4bd 1749 7b3d
000001e0: 3ee4 8c3d b386 173d 61b8 d53c a177 62bd
000001f0: 1bc7 253d 97ec c13d 14bd 98bc 2bea 98bc
00000200: 92cb cc3d 4116 cc3d 4205 df3d 4231 8fbd
00000210: 6410 973d 6d24 543c d0c1 98bd 7600 bf3d
00000220: c34e 69bd 504a 5bbc 74d3 b4bd 7f1d 813c
00000230: 12a1 f2bc a241 d33d e219 4e3d 8796 8f3d
00000240: f354 593d 8d62 503d 920b 8c3d 4f41 1d3d
00000250: 85be 193d c2ab 91bd 05a3 f53c f33e 77bd
00000260: c32d 99bb c2df 75bd 5862 b83d 909d c33c
00000270: e283 e6bd 210c c9bd 80ba 823d f225 2e3d
00000280: e81c cf3d 7108 033d 0c09 ca3c 5dc7 a83c
00000290: b802 dbbd 2c3d 5f3d 7edf 16bd bcdb 9c3c
000002a0: 133b 79bd e63a 30b9 dd57 c23c f6b6 20bd
000002b0: ee33 d53c 1365 8b3d 6f06 e63c b999 0d3d
000002c0: 2913 8c3d 9b05 96bd 936f d83d 9ea3 1cbd
000002d0: 3e70 583d 59d8 a2bd bd73 9fbd e138 853d
000002e0: d4a4 953c c0ca dd3d 30d2 093d 268c 5ebd
000002f0: 68d3 693d 0e09 a03d b23a cc3c 4882 e0bc
00000300: 49be 6cbb ab0d 8fbd b3b8 9b3d 6bc5 073d
00000310: 8a14 9fbc 2deb 873d fafa 46bd 779c 823d
00000320: 2d48 7dbb 0e59 80bd 906f acbc 9b18 8d3b
00000330: 293b 94bd bc65 02bd 3e31 b43b 7f03 873d
00000340: 4324 afbd 85c7 00bd 3162 533d d052 9fbd
00000350: 799a 163c 522d 113d efbf f63c 527d 36bd
00000360: 7bd5 513b 2b52 0dbd 3f82 33bc 2b5b 3d3d
00000370: 96f2 093c d30f b23d 382b b03d ed7f 203d
00000380: 2bf9 6ebd d2c9 fcbc 3065 40bd 6398 d83c
00000390: 6240 f73c a635 dfbc bdc0 833d c348 7dbd
000003a0: e785 76bd e171 27bc e0e7 c33b 0fd8 45bd
000003b0: 92fe 823c 5caf 313d d531 9fbd 9c69 c43d
000003c0: ee8e a23c 8a25 25bd 1c71 9c3d 938d 0f3d
000003d0: 0fe3 ebbc 1a7c c73d 6504 e63c ec37 723b
000003e0: 345d 5e3d d0d2 fe3c 98d3 c6bc b550 84bc
000003f0: d5d4 fabc 1127 2ebd 5376 dd3c 8097 1a3c
0.06864483 -0.03274532 0.018330967 -0.0046155904 0.05306205 0.053634033 0.06190504 0.040987942
0.010476733 -0.030355513 0.015517913 0.071271814 -0.027276158 0.0008366075 0.03267581 0.02046332
0.004056679 0.0037841776 -0.039138325 0.03212234 0.032468695 -0.08911294 0.05464837 -0.05498506
0.07925114 0.023300923 -0.0051810807 0.07888244 -0.11403947 -0.0122368755 0.0471855 0.05014957
-0.041983694 0.03811262 -0.07180058 0.08525532 -0.05942928 -0.008067094 -0.015214504 0.06935684
0.09677461 0.046470895 -0.045883335 -9.1074224e-05 -0.09924631 0.09865081 0.023492971 -0.016981727
0.05052647 0.072862916 0.0032111646 -0.07083996 0.027054047 -0.053342987 0.06018596 -0.03304313
-0.01688235 -0.023493433 -0.06871916 0.024890056 0.08399849 -0.05637291 -0.059938394 0.044270143
0.035284758 0.03274872 0.07459973 -0.06706414 -0.063993685 -0.062784135 0.0010987443 0.060048208
-0.04496682 -0.022726584 0.01682304 0.013761155 0.06158301 -0.03268482 0.09616326 0.077997796
-0.016431274 -0.038854707 -0.08715463 -0.059494164 0.008053225 -0.084831044 -0.10772091 0.05262181
-0.07904648 0.047965713 0.04151242 0.062131062 0.015784398 -0.0045338506 0.118786395 -0.053715512
-0.0007018752 0.0031254503 -0.108577274 0.047037393 -0.019561827 0.0148108015 0.022578502 -0.019511607
0.035426013 -0.031509455 -0.012699241 -0.082902245 -0.029517585 -0.03549258 -0.10613846 -0.055223897
-0.04803747 0.041854896 -0.014205 0.084750004 -0.089094795 0.030905202 -0.08055071 0.061349
0.06879471 0.036993694 0.026088895 -0.05528987 0.040473085 0.09468954 -0.018644847 -0.018666347
0.099997655 0.09965182 0.10889675 -0.06991817 0.07376173 0.012948138 -0.07458842 0.0932626
-0.05695988 -0.013384417 -0.08829394 0.015761135 -0.02961782 0.10315253 0.050317653 0.07011133
0.05305953 0.050875235 0.06838144 0.03839236 0.03753521 -0.07112838 0.02998496 -0.060362767
-0.0046746447 -0.060027845 0.090031326 0.023878843 -0.112556234 -0.098167665 0.06383228 0.042516656
0.10112935 0.031990472 0.024662517 0.020602876 -0.10693878 0.054501697 -0.036834233 0.019147746
-0.060847353 -0.0001680661 0.023723537 -0.039236985 0.026025739 0.06806388 0.02807924 0.03457043
0.06839592 -0.07325288 0.10568156 -0.038241975 0.052841417 -0.07951421 -0.07785747 0.065049894
0.018267073 0.10829687 0.033647716 -0.054332875 0.05708638 0.07814227 0.024930332 -0.027405873
-0.003612416 -0.06985029 0.07603588 0.033147257 -0.019418973 0.06636653 -0.048579194 0.063774996
-0.0038647756 -0.06266986 -0.02104929 0.0043059117 -0.072378464 -0.031835303 0.005499034 0.06592464
-0.08551838 -0.031440277 0.051607314 -0.07779467 0.009192103 0.03544361 0.030120818 -0.04455311
0.0032018113 -0.03450219 -0.010956346 0.046229523 0.008419653 0.086944245 0.08601993 0.0391845
-0.058343094 -0.030857954 -0.0469715 0.026439851 0.030182067 -0.027247261 0.06433246 -0.06183697
-0.060186293 -0.010220022 0.0059785694 -0.048301753 0.01599053 0.043380126 -0.077731766 0.09590456
0.019843545 -0.040319003 0.076387614 0.035047125 -0.028794793 0.09740467 0.028078267 0.0036959602
0.054288104 0.031106383 -0.024270818 -0.016151765 -0.030619064 -0.042517725 0.02703396 0.0094355345

fc2.bias f4 [64]
00000000: b4bd ec3c 362e 043c f62d 61bd 7c4c 483d
00000010: ecce babd 917a dbbc 24c1 fa3c ec86 a23c
00000020: f9b0 d83d c3e3 d4bd 56e7 bb3c b831 54bd
00000030: be57 61bd 2e72 a2bc 1069 e63c 6c25 67bd
00000040: b7c8 d03d 408b 4c3c 06fd f9ba b4d4 273d
00000050: 89dc 9b3c 8180 8bbd 2cf9 803c adc6 61bd
00000060: e13b b1bd c375 2cbd 2dbe c9bd 9924 9fbd
00000070: dc47 4cbb 881a 823c 6e4b 403b dbd7 60bd
00000080: 67ce ac3d 65eb 9cbd d827 98bd 4cf2 8cbd
00000090: 19ac 51bd 6112 b0bd 39a1 b93c cdbd 6ebd
000000a0: 000c 3a3b e368 483d 5a27 253d 5414 85bd
000000b0: 88e1 a1bc 8982 ee3c 6db9 dc3d 4f71 ae3c
000000c0: 23ac 353d ae55 b7bd db63 83bd e7ee c0ba
000000d0: 5a0e 9e3c f670 913c a37d 71bd 9544 0b3d
000000e0: 4cf8 073d 9ccb 213c f0a6 cebd 3677 cb3d
000000f0: 6ca4 8cbc dc20 c33d 9eb1 943b 5fe5 3bbc
0.028899051 0.008067658 -0.054975472 0.048901066 -0.091214985 -0.026791843 0.030609675 0.019839726
0.1058063 -0.103950046 0.022937458 -0.051805228 -0.055015318 -0.019829836 0.02812627 -0.056432173
0.10194533 0.012484372 -0.0019072599 0.040974334 0.019026058 -0.068116195 0.015743814 -0.055121113
-0.08653999 -0.042104494 -0.09850726 -0.07770652 -0.0031170761 0.015881792 0.0029341835 -0.054893356
0.084378056 -0.076620854 -0.074294746 -0.06882152 -0.051189516 -0.085972555 0.022659885 -0.058286477
0.00283885 0.048928153 0.04032073 -0.06498018 -0.019760862 0.029114978 0.10777555 0.021294264
0.044353615 -0.08951889 -0.0641553 -0.0014719636 0.019293953 0.01775406 -0.058957707 0.03400095
0.03319578 0.009875204 -0.100904346 0.09934847 -0.017168246 0.09527752 0.004537775 -0.011468261

fc3.weight f4 [32, 64]
00000000: 7544 f6bd a2d1 ccbc 4b16 a5bd 22ef 0a3e
00000010: 39b0 cbbd 20a0 e4bd b04f 803d 4be9 f3bd
00000020: 68e2 823d 1b56 9ebc f9c8 1f3e 2a53 60bc
00000030: 6eaf 0ebd a942 7bbd f690 1abd 803f e1bd
00000040: f96b 09bd 8263 82bd 0440 0d3c 5cae ea3d
00000050: f9d8 a7bc 928f 6e3d 6cbe 14bd 3b2a 563d
00000060: 08d0 b8bd 4718 53bd 8842 913d 88ea 1f3c
00000070: ecb9 9c3d c035 e1bd cf29 10be 56b2 143e
00000080: ae96 1abd b0cc a7bd 2f20 a33d e67d b53d
00000090: bf71 e43d 9fe1 923d 80af 313d 3120 e33d
000000a0: 0aab e3bd d276 f83d de0c 9d3d 6077 363d
000000b0: 8429 e8bd 240f eb3d db85 05be 63cd e53d
000000c0: 6505 d2bd 59c3 903d d681 96bd c691 1fbe
000000d0: 70cc ac3d 1a3c d53c 39f8 b6bc dc3b 913d
000000e0: 8799 c83d b527 9fbd 19c1 4d3d 1a59 423c
000000f0: 9741 883d c306 77bd eeca 9abd 7a42 65bd
00000100: 8408 123d 3b62 2a3d 9f7b abbd b36d 15bd
00000110: c745 933c 021f b33d b2e7 1f3e e1cc 0f3e
00000120: cbe1 0c39 4ba8 e9bd 4211 163e 772a 7a3d
00000130: 06f0 0a3d d8b0 a43b 7774 89ba f1a6 393d
00000140: b385 833d c067 463b 0661 0d3e c1ee 23bd
00000150: e274 6e3d 3236 163d 051a 9d3d dacf 3abc
00000160: d745 c13c 6970 ebbd 4e95 843d 349b 9ebd
00000170: b25c 9cbc 0b9d 503b 7e31 e1bd 074e 303d
00000180: e43d 073d 6782 3d3d ed87 283d d631 1cbd
00000190: d638 ab3a 8f23 16be b4e1 183e ace0 0ebe
000001a0: 6f2b ae3d b1c8 6bbd 87aa 9ebd 6c25 f0bc
000001b0: edeb 033d d1bf ba3d 6236 afbc 7b98 08be
000001c0: d0a8 1f3e db92 113d f087 883d 6a84 383d
000001d0: 61f3 18be d899 433d 0feb e83d 86a9 afbd
000001e0: 3cc2 8e3c 984b bbbc 22f3 123c 32d0 9c3c
000001f0: 67fc 21be 9939 0d3e 8058 823d 77a0 7cbd
00000200: 6e78 05be 5a08 66bd 1e6d f53d e08b 0d3d
00000210: 29f6 47bc bd0f e53c ba2a 14be 0f50 c7bb
00000220: ce4c dcbc 8d76 943d 8ddf 7c3d 8910 8d3d
00000230: 7a80 50bc 7678 be3d 3225 033e 07cf 89bb
00000240: a9be 0ebd 4398 91bd 6bb9 a53b 838b 9b3c
00000250: 4fdd 523c 4034 0a3e c271 6ebd c2a2 a23c
00000260: 7350 ce3d 8ee6 233d 7868 adbd 4179 443c
00000270: 04e6 173d 277d 14bd a3fd a33d b067 e6bd
00000280: ebce 22bd 76a0 d93c 58bb d0bd 6f6f 8a3d
00000290: 107f c43d f411 0f3e 29a6 443b b257 003e
000002a0: 2b5a e4bd b646 17bd 60f6 76bd c303 8fbd
000002b0: a58a 97bb f2ef b8bd fd53 11be 70d2 39bb
000002c0: e25e a1bd 6683 22bd a5b5 c0bb 42aa cbbd
000002d0: fb1f 22bd 12a0 b7bc 1c9e 08be f219 33bd
000002e0: 5a40 12be 511d f5bc fee5 5b3d 2463 09be
000002f0: aa69 133d 6014 05be 6f1d b1bd e736 f2bd
00000300: aa32 da3c 5719 0c3e 106c c2bd cf86 2b3d
00000310: 7ad9 25bd 1b3f 923d 6dbf 653c 75c8 a03d
00000320: 2a2a 883d 839a d3ba b65c 803c a4a2 c3bc
00000330: 8a3d 0c3d b2da 803d 857b 093b 3024 a2bc
00000340: 1ce8 193e e3fe 0d3e f1ba 4dbd f094 8c3c
00000350: 202e 333d 6658 21be 3d22 203e 477a febc
00000360: 1573 edbd 30c2 58bd 6b31 c6bd c75f 593d
00000370: c1e6 4ebc c10f 01be 402d 4e3d 5bcc ed3d
00000380: ff34 89bd 8dd0 13be 7189 6cbc e0b6 17be
00000390: 6890 a23c 5eaf 0fbc 0790 763b e39e a43d
000003a0: a1ff 57bd 6e28 25bd f8c6 a73b 8b5a b93d
000003b0: b195 d3bd 4846 183e 512e 613d 2ff2 2fbd
000003c0: 6750 453d fe8b c33d 9801 613d 0a1e bdbd
000003d0: 068b 0d3d c35a 1a3d 0f3f b03c 8995 153e
000003e0: a010 a33c 947a d33b 05a4 1fbe 972f dfbc
000003f0: b3bc e9bd 2044 683d 60da e1bc 4326 1e3e
-0.12024776 -0.025002304 -0.08060893 0.13567784 -0.09945721 -0.11163354 0.06265199 -0.119097315
0.0639084 -0.019328168 0.15604009 -0.013691703 -0.03483527 -0.06134287 -0.0377359 -0.1099844
-0.033550236 -0.06366636 0.00862122 0.11459038 -0.020489203 0.058242388 -0.036314413 0.052286368
-0.09024054 -0.051536825 0.07092768 0.009760506 0.07652649 -0.1099658 -0.14078449 0.14521155
-0.037741356 -0.08193338 0.07965123 0.08861904 0.11154508 0.0717194 0.04338026 0.110901244
-0.111166075 0.12132038 0.0766847 0.04454744 -0.113360435 0.11477497 -0.13039343 0.11220815
-0.10254935 0.070685096 -0.07348983 -0.15582952 0.08437431 0.026029635 -0.022335159 0.070914954
0.09794908 -0.077712454 0.05023298 0.011862064 0.06653135 -0.060309183 -0.07558237 -0.0559716
0.035652652 0.041597586 -0.08373188 -0.03648157 0.017977608 0.08746149 0.15615728 0.14042999
0.00013435555 -0.114090525 0.14655021 0.061075654 0.03392031 0.005025964 -0.001048698 0.045325223
0.064219855 0.0030274242 0.13806543 -0.040022615 0.058216937 0.03667278 0.076709785 -0.011402095
0.023592873 -0.1149605 0.0647379 -0.077444464 -0.01908717 0.0031831886 -0.10995768 0.043043163
0.033018008 0.04626694 0.041145254 -0.038133465 0.0013063203 -0.14662002 0.14929849 -0.13952893
0.08504378 -0.05756444 -0.07747369 -0.02931472 0.03220742 0.09118617 -0.021388236 -0.13339417
0.1559174 0.035540443 0.06666553 0.045048155 -0.14936592 0.04775414 0.11372959 -0.08577256
0.017426603 -0.022863194 0.0089691 0.019142244 -0.1581894 0.13791503 0.06364536 -0.06167647
-0.13034222 -0.05616031 0.11983703 0.034557223 -0.012204685 0.027961606 -0.14469424 -0.006082542
-0.026892092 0.07249174 0.061736632 0.068879195 -0.012725944 0.0930032 0.12807158 -0.004205588
-0.034849796 -0.0710912 0.005057504 0.018987423 0.012870147 0.13496494 -0.058213957 0.019853
0.10073938 0.040014796 -0.084671915 0.0119918 0.037084594 -0.036252167 0.08007362 -0.112502456
-0.039748114 0.026565772 -0.10191983 0.067595355 0.09594548 0.13971692 0.0030006266 0.12533453
-0.11150011 -0.03693267 -0.060293555 -0.06983139 -0.004624682 -0.09030141 -0.14192195 -0.002835419
-0.078794256 -0.039676093 -0.0058810287 -0.099445835 -0.03958128 -0.022415195 -0.13341564 -0.043725915
-0.1428236 -0.029921206 0.053686135 -0.13416725 0.03598944 -0.12996054 -0.08648192 -0.11826878
0.026635487 0.13681541 -0.094932675 0.04187661 -0.040490605 0.07140943 0.01402269 0.07850734
0.06648667 -0.001614407 0.015669208 -0.023881264 0.034238376 0.06291713 0.0020978164 -0.019792646
0.15029949 0.13866763 -0.05022711 0.017160863 0.04374516 -0.15756378 0.15638061 -0.031064166
-0.11594216 -0.052919567 -0.096773945 0.053069856 -0.012628258 -0.12603666 0.050336123 0.11611243
-0.06699561 -0.14435025 -0.014437065 -0.14815855 0.019844249 -0.008769838 0.0037622468 0.08038118
-0.05273402 -0.04032176 0.0051201545 0.09050473 -0.10331286 0.1487056 0.05497581 -0.042955574
0.04817238 0.09548186 0.05493316 -0.09234245 0.03455641 0.037684213 0.021514444 0.14607824
0.019905388 0.0064538214 -0.15589912 -0.027244372 -0.11412945 0.056705594 -0.02756995 0.15444283

fc3.bias f4 [32]
00000000: fed4 793d e9d5 1ebc 7384 91bd 6d65 9f3d
00000010: bc7e ae3d 725c 873d e9ff 1abc 5540 11bd
00000020: c301 1fbd a63c 90bd 590c c2bd fda9 cd3d
00000030: 73e7 e8bd 4b93 01bc a843 9e3d 2fd0 063d
00000040: fb43 fe3d d81b a1bd 9628 313c d875 053d
00000050: 014e 333d 6d76 8bbd 79a7 dcbd 6c82 713d
00000060: bed2 573d 9ede 073e 674e 5ebd f3a9 ffbb
00000070: 7cba f63d d719 c43d 29e1 04bd 2435 c5bd
0.06099414 -0.009694555 -0.07105341 0.07783017 0.085202664 0.066094294 -0.009460428 -0.035461742
-0.03882004 -0.07042818 -0.094750114 0.10042188 -0.113722704 -0.007908653 0.07727748 0.032913383
0.1241531 -0.07866639 0.010812899 0.032583088 0.043775562 -0.06809697 -0.107741304 0.05896227
0.052691214 0.13268515 -0.05427399 -0.007802242 0.12047288 0.09575241 -0.032441292 -0.096292764

fc4.weight f4 [5, 32]
00000000: bd9b 3dbd aded e2bd 7b7f 233e 248d 1cbe
00000010: 0a97 f33c 5347 a1bd 2fb9 4dbe 5f92 323d
00000020: c9cb ee3d dfb6 0bbd 8d86 b2bd a046 c1bc
00000030: feb0 323e 7387 9dbd 382a ae3d fd2f 1cbe
00000040: 9637 04be b587 173e 4ede a1bd 31fb 4d3e
00000050: 64fe 3b3e 35ef 4abe 6e0b 2c3e 0a78 f73d
00000060: ccf6 2d3e 07f7 013e 7b58 173e 88b7 bcbd
00000070: 501d 1abe b4b3 3dbe 9a86 6cbb ea4d 4bbc
00000080: d13b 8ebd e39f 133e 39c3 fdbd 780b acbc
00000090: 9191 6cbd 7028 443d 8ffa 89bc ea82 72bc
000000a0: b9e3 5abd 4d35 153e 0dd1 08be af05 dc3d
000000b0: 33ed 173e cb0e 263e 58ad 2f3e 4339 4bbe
000000c0: cdd0 dd3d 2b2b 553c 6b1a ab3d 56a0 a13d
000000d0: 2449 8fbc f516 0bbe c979 2abc afab f73c
000000e0: d965 043e 2fbb 31bd 5ce4 4e3d db1b e1bd
000000f0: 7e9e 0abe 6f9d ea3d 2cc1 efbd cdec f23d
00000100: 4980 b53d 0384 443c 39fa ae3b 2f02 373e
00000110: 99ef 0cbd e36c 26be 86fa 9abd 176e 31bd
00000120: 45e4 19bc 7c07 de3c 7148 993d 358b e0bd
00000130: 4eed c33d 72ec f7bd a5bc 9cbd 56a8 f23d
00000140: dbfc 483e 4b8b c73d 602c 243e f1d1 8ebd
00000150: d0d3 7bbd 9605 2dbe 535a c0bc 8394 1bbd
00000160: d331 9bbd 3530 fe3d 64c2 f3bd 5292 fcbb
00000170: dc0e dc3a 70c1 60bd bee4 27be d121 323d
00000180: 2aac ffbd bde7 d83d 88c9 ba3d 5a7c cfbc
00000190: 0072 09be a2fd 67bc 0ce2 a9bb 5a3f e93a
000001a0: b2c2 f3bd 8ddd 5dbe daaf 513d dc43 383e
000001b0: 4622 6ebd b4e2 f63d 342d 1b3e 9972 05be
000001c0: 221e 10be d6f2 e3bd 7665 01be d68a 4a3e
000001d0: 23a5 3c3e e406 3bbe 9363 823d 0b19 35bd
000001e0: fa22 bcbd 8a46 45be e51e 28bd 44b0 093e
000001f0: f95e 543d fb4a fb3b 1358 bbbc 4220 153e
00000200: 2ccb c4bd a948 203e 8d6a 11be a5f9 593e
00000210: e8af 1fbe dc4e 003e bc3c 123d fcb6 fdbd
00000220: a85c f0bd b22e 163e e2d7 5c3e d39a 41be
00000230: 42e6 16be c67c 41be c552 81bd 18f4 433e
00000240: 783e 91bd afd9 83bd 84e9 38be 5011 873d
00000250: 40fc 0abe 4c86 113e 36da 01be 850c 0dbe
00000260: 1dae 4fbe e0e4 3b3e 814f 38bc 60f7 40be
00000270: b005 593d 0a5e 8ebd e761 543e cec5 41be
-0.0462911 -0.11080489 0.15966599 -0.15288216 0.029735107 -0.07874932 -0.20090173 0.04359662
0.11659963 -0.034109946 -0.0871707 -0.023593247 0.1745033 -0.076918505 0.08504146 -0.15252681
-0.1291183 0.14797862 -0.079037294 0.20115353 0.18358761 -0.19817813 0.16801235 0.120834425
0.16988677 0.1269189 0.14779846 -0.09214693 -0.15050244 -0.18525583 -0.003609097 -0.012408713
-0.06945003 0.1441646 -0.123907514 -0.021001562 -0.05775601 0.047890127 -0.016843108 -0.01480172
-0.05343983 0.14571114 -0.13360997 0.107432716 0.14836578 0.1621658 0.17155969 -0.19846062
0.10830841 0.01301078 0.08354648 0.0789191 -0.01749093 -0.13582976 -0.010405012 0.030233232
0.12929477 -0.043391403 0.05051075 -0.10991641 -0.13537022 0.11455809 -0.117067665 0.118615724
0.08862359 0.011994365 0.0053398875 0.17871927 -0.034408186 -0.16252474 -0.07567315 -0.04331788
-0.009392803 0.027103178 0.0748452 -0.10964052 0.09566747 -0.12105645 -0.076531686 0.11848514
0.19627707 0.09743365 0.16032553 -0.06973637 -0.061481297 -0.16896662 -0.02348057 -0.03798343
-0.075778626 0.124115385 -0.119023114 -0.0077078724 0.0016789096 -0.054871976 -0.16395852 0.04348928
-0.124840096 0.105910756 0.0912047 -0.02532785 -0.13422394 -0.014159592 -0.0051844176 0.001779537
-0.119023696 -0.21666546 0.051193096 0.17994636 -0.058138154 0.12054959 0.15153962 -0.13031997
-0.14073995 -0.11130302 -0.1263636 0.19779524 0.1842237 -0.18264347 0.063666485 -0.044213336
-0.09186359 -0.1926519 -0.04104509 0.13446146 0.051848385 0.0076688505 -0.022869145 0.14563087
-0.096090645 0.15652718 -0.14200802 0.21286638 -0.15594447 0.12530082 0.035702452 -0.12388417
-0.11736423 0.1466625 0.21566728 -0.18906717 -0.14736274 -0.18895254 -0.06314615 0.19136083
-0.07091993 -0.06438004 -0.18057829 0.06595099 -0.13572788 0.14211386 -0.12680897 -0.13774307
-0.20281263 0.18349028 -0.011249424 -0.18844366 0.05298394 -0.0695153 0.20740472 -0.18923113

fc4.bias f4 [5]
00000000: c18b 0c3e 0e34 63bd 2d4c 0dbc 9bb6 383d
00000010: 3b74 dfbd
0.13725187 -0.055469565 -0.008624119 0.04509602 -0.10910841
