clean_code/trained_models/actor_25.pth (torch, 54860 bytes, 8 tensors)

fc1.weight f4 [128, 18]
00000000: 3514 053e 1823 813d b7a5 2ebe 3abf 283e
00000010: 9ce6 c53d 994e bcbd 5528 7c3b 21e8 e9ba
00000020: c660 903d 3db6 a1bd 94c1 30be f5aa 91bc
00000030: 86bc 473e e246 a93d 3234 153e 998a fcbc
00000040: ba1d 70be b06b 773e e3c2 e53d a4b4 123e
00000050: da84 883d 0e69 d3bd b7aa 383d fa2f 2ebd
00000060: 7673 f93d 775d 363e cdc6 9a3d 2758 0a3d
00000070: 9407 fd3d cd7d fe3d 77be 3fbe 2432 0cbe
00000080: b77f babd 898d 0c3d b20d 2abe 441a c03c
00000090: e696 073e b64c 8c3d eadc 27be e89f 2b3d
000000a0: dbf2 4abe 9eb4 533c 69a6 313e 4fc2 083e
000000b0: fd9e a5bd 6dfe 41be a076 ffbd b380 233e
000000c0: 8195 793e 8269 c53d 7f8c 653d e76c 13be
000000d0: 935f 363e dc64 233d 9a43 033e e907 2ebd
000000e0: 111a 273e 98c7 bc3c 3ac2 3ebe 6c3c 0dbe
000000f0: 99fe 47be b834 41be dbb4 02be 9ede 203e
00000100: 7566 c13d a20f dfbd 8ffd 513e 7719 3e3e
00000110: 0e40 7ebc 0c9f 2ebe 40be 213e 85de 6bbd
00000120: 3b8d c2bd d400 5d3e 095d 43bd 769a 63be
00000130: c692 463e bc07 0f3e 0d81 ecbd 9d4c 773e
00000140: b8b2 3bbd 3043 f43c 5655 3e3d 14b6 a63d
00000150: 5406 073c f429 06be 9abc 733e 3eea 0a3e
00000160: 6a69 13be 0f47 4e3e 8e99 823d 964d adbd
00000170: 1772 853c 0432 223e 9be2 543e 2dc6 6bbd
00000180: 9b76 e8bd 8648 32bd e3db 833d e60a 46be
00000190: 7894 50bd 5717 113e 1040 4bbe dfba 523e
000001a0: 071d 26be 6e00 413e dd74 b93c c4b1 443e
000001b0: de8b 203e edec 6dbe 2b01 233e 10c1 f0bd
000001c0: d02e e13d 6981 403e 01d4 443e c619 c33d
000001d0: 60d6 26be 19fa 133c 9244 58be e6e2 20bc
000001e0: 53bb 56be 60a7 1fbc 2702 fabd 9e04 993d
000001f0: 50ad 63be 0f9a 843b ece0 503c 3905 0c3e
00000200: af0f 5dbe 456d 6abe 7153 1dbe a7af 8b3d
00000210: 1407 403e 67ed 14be c678 213e 76b7 45be
00000220: e56e 1c3e 8c04 273e 8bf4 18bd c8f3 c93c
00000230: 324d 133e ba03 04bd 5f4f 433d 2528 1ebe
00000240: ddc6 f43c 297a 68bd 7755 3dbd a293 4c3e
00000250: d952 12bd 0efc 50be 5d5f 95bd b673 21be
00000260: b6cb 193d fbd5 4abe c5ab 92bd c119 62be
00000270: 3cec 3d3e 97ab 57be 2e3d c2bd e1af f8bd
00000280: 9abc 663d 0ef4 343e 652d 093e a87f 553e
00000290: aa4b 5b3e 1a57 b5bd b48e d73d 3e80 72be
000002a0: 5239 553e 5dfa fe3d c279 a2bd 50d0 513e
000002b0: 21a9 ab3d 75b1 623e 5d8c 203e 4fba f4bd
000002c0: 9496 7cbd 4840 2d3e 5eab 38be 0c66 02be
000002d0: 66d7 b5bd 09a5 2abe 66c6 0dbe 2c1d 26be
000002e0: ccba 013e 8898 033e 74cc 9f3c f297 0d3e
000002f0: 98a2 273d 5ca2 fb3c 7ef0 083c e939 c13d
00000300: e7b0 20be f0c4 6ebd 2c18 61be 0ee2 f5bd
00000310: 2b0c 123e 8f36 3d3d c9ce 9cbd c21b 323e
00000320: 4383 33bd dcad 15be ae01 11be 41a3 353e
00000330: c5d1 583d bf9f 283e b594 9d3c 4415 b1bd
00000340: 5a71 ca3d dc13 b23d 53ee aebc 6811 09bd
00000350: 752e d6bd 9678 a93d ffef 49be 7572 5a3e
00000360: e71f dcbd 007a b7bd 264a 0d3e 13ec efbd
00000370: 3dd5 5bbe 2b69 43bd 54af 5fbe 9be7 663c
00000380: c1fd 45be 9ad4 33be 38a9 35bd 3f3d 373e
00000390: 0a4b 16be c057 4cbb 9e8f 953d 318f e3bd
000003a0: 7f59 153e ecaa 143e 4652 733e 1cd0 ecbd
000003b0: 8879 493d 7747 a8bd a88b febb 30fa 013d
000003c0: b3b9 3d3e 8026 423e 439e 153e 2670 653e
000003d0: b6f9 72bd 818d 133d 18bd 50be 6fac fcbd
000003e0: 8ff2 123c b66d 8dbc 699e 6abd 1e75 d6bd
000003f0: f269 473e 4e7b a3bd 881e 74bc 14e6 af3b
0.1299599 0.06305522 -0.17055403 0.16479197 0.09663126 -0.09194679 0.0038476188 -0.0017845669
0.07049708 -0.07896087 -0.17261344 -0.017781714 0.1950551 0.08265473 0.14570692 -0.030827807
-0.2344884 0.24162173 0.11218812 0.14326721 0.066659644 -0.10322772 0.04508468 -0.042526223
0.121802256 0.17809092 0.075574495 0.033775475 0.12354961 0.12426338 -0.18725 -0.13691002
-0.09106391 0.034314666 -0.16606787 0.023450024 0.13241157 0.06850569 -0.16392866 0.041900545
-0.19819205 0.01292148 0.17348637 0.13355373 -0.08086965 -0.18944712 -0.12473798 0.15967064
0.24373437 0.09639265 0.05604219 -0.14397012 0.17809896 0.03989111 0.12818757 -0.042488012
0.16318537 0.023044392 -0.18628779 -0.1379258 -0.19530715 -0.18867767 -0.12764303 0.15709922
0.0944337 -0.108916536 0.20506881 0.18564402 -0.0155182015 -0.17052859 0.15795231 -0.057585258
-0.09499594 0.21582347 -0.047696147 -0.22226891 0.19391927 0.13967794 -0.11548052 0.2415032
-0.045824736 0.029817194 0.0464681 0.081401974 0.008241255 -0.13101941 0.23802415 0.13565919
-0.14395681 0.20144294 0.063769445 -0.08462064 0.016289754 0.15839392 0.20789568 -0.057562042
-0.11350747 -0.043526195 0.064384244 -0.19340095 -0.05092284 0.1416906 -0.19848657 0.20579098
-0.1622201 0.1884782 0.022638733 0.19208437 0.15678355 -0.23234911 0.15918414 -0.11755574
0.10995257 0.18799366 0.19221498 0.095264 -0.16292715 0.009031796 -0.21119907 -0.009819722
-0.20969896 -0.009744495 -0.12207442 0.07471584 -0.22234082 0.0040466855 0.012748938 0.13673867
-0.21588014 -0.22893246 -0.15363862 0.068206124 0.187527 -0.14543687 0.15768728 -0.19308266
0.15276678 0.16310328 -0.03734259 0.024652377 0.14384916 -0.032230116 0.047683116 -0.15445001
0.029879982 -0.056757126 -0.046224084 0.19978192 -0.03572354 -0.20408651 -0.0729358 -0.15766796
0.03754779 -0.1980819 -0.07161669 -0.22080137 0.18547148 -0.2106155 -0.09484325 -0.12142921
0.05633221 0.17671224 0.13396223 0.20849478 0.21415582 -0.08854504 0.10525265 -0.23681733
0.20822647 0.12450097 -0.0793338 0.20489621 0.08381868 0.22138007 0.15678544 -0.11949598
-0.06166704 0.16919053 -0.18034121 -0.1273424 -0.088789746 -0.16664518 -0.13845214 -0.16222066
0.12668914 0.12851155 0.01950667 0.13827494 0.040926546 0.030717067 0.008358119 0.094348736
-0.15692483 -0.058293283 -0.21981877 -0.12006007 0.14262454 0.04619461 -0.07656629 0.17393401
-0.043826353 -0.14617103 -0.14160797 0.17738058 0.052934427 0.16467188 0.019235948 -0.08646634
0.09884901 0.08695194 -0.021353876 -0.033463866 -0.1045808 0.08274953 -0.19720457 0.21332724
-0.107482724 -0.089588165 0.13797817 -0.117149495 -0.21468063 -0.047707718 -0.21844226 0.014093305
-0.1933508 -0.1756157 -0.044350833 0.17894457 -0.14677063 -0.0031180233 0.073027834 -0.11111296
0.14584921 0.14518327 0.23761854 -0.11563131 0.049188167 -0.08216756 -0.007768113 0.031732738
0.1852787 0.18959999 0.14611153 0.22406062 -0.059320174 0.03602362 -0.20384634 -0.123375766
0.008968963 -0.017264228 -0.057279978 -0.10471557 0.19474009 -0.07982503 -0.014899857 0.0053680036

fc1.bias f4 [128]
00000000: 24c7 fe3d 1a1a 0a3e fae7 103e 4866 383e
00000010: cf56 6b3b d50e 533d 2351 723d b829 f0bd
00000020: 4cf5 0c3e 4ae4 49be eccc 3ebe 0595 5a3e
00000030: a3ba 1c3e e5e9 b4bd a704 7c3d ae0a 5a3e
00000040: c419 60bc d2fd 3a3e 342a 20be debf a53d
00000050: e89b 2c3e 6989 e13d 4711 30be 2c36 5d3d
00000060: 1570 67be bddf b13d 9855 02bb d164 293e
00000070: b020 47bd daa8 aa3d 8258 99bc 297b 2fbe
00000080: a738 053d d54c 613e d259 ef3d 8299 e1bd
00000090: b76d b7bd 088a 1a3d 122c 623e 657a 20be
000000a0: dc9b c7bc c432 5e3e 1ea4 febd 9507 563e
000000b0: 40ad 75bd a5d6 3e3e e2c6 6f3e d367 ad3d
000000c0: 3008 743e 1d2c 00be 3d5d 8e3d d668 93bd
000000d0: 864b 22be 641e 77be 352e 27bd b311 6a3e
000000e0: 2599 993c 44cf 623e 3f74 1cbe a690 09bc
000000f0: 650d 8dbd a203 673e 0e8d c1bc ec65 16be
00000100: bc0d d13d 8ed8 33be 0c94 183b 0116 e03d
00000110: f4fd bebd 16d9 2b3e 64fa 723e ec39 553d
00000120: 6ffd e8bd a0fb 053d 12f9 1bbe a1a0 1c3e
00000130: e50d 4b3e a865 dfbb 16b9 4b3e e439 0c3e
00000140: f4c7 953d b9d7 0abe 4cf1 63be 7773 0ebe
00000150: c569 f03d 543c 143e 5c73 90bd 1b3b 0fbd
00000160: 259b fcbd 30c9 f23c 75c3 d43d 740f 25bd
00000170: 5239 133d ef10 573e acc3 063e 9514 74be
00000180: 0a55 073e 8a74 38be d6a9 27be cc83 9c3d
00000190: d80d 1d3e bac6 35be 323b fb3d ff89 00bd
000001a0: 145f 223e b475 4f3e cac0 3e3d 441f 1bbe
000001b0: 3697 3b3e a48d e23d 9060 96bd da27 0fbd
000001c0: 57dd b5bb 1bf3 463e 1470 1dbe 667b 6d3e
000001d0: 2a40 02be 03c2 41be e301 1bbe 2267 473e
000001e0: 9cb3 293d d371 683c eeca 0c3e 80de 1a3d
000001f0: 121e 5ebe ae79 113e e7d6 803d 2e79 00be
0.12440327 0.1348652 0.14150992 0.18007767 0.0035909896 0.051527817 0.05915941 -0.11726707
0.13765448 -0.19715992 -0.18632859 0.21345909 0.15305571 -0.08833674 0.061527874 0.21293136
-0.013678018 0.18260887 -0.15641099 0.080932364 0.16856349 0.11012537 -0.17194091 0.05400674
-0.2260135 0.08685253 -0.0019887444 0.16542365 -0.048615158 0.08332987 -0.018718962 -0.17136826
0.03252473 0.22001965 0.11687054 -0.110156074 -0.08956473 0.037729293 0.22087124 -0.1567169
-0.024366312 0.21699053 -0.124336466 0.2090133 -0.059979677 0.18636568 0.23415712 0.084670685
0.23831248 -0.12516828 0.069513775 -0.0719773 -0.15849122 -0.24132687 -0.04081555 0.22858314
0.018749783 0.22149378 -0.1527872 -0.008396303 -0.068873204 0.2255998 -0.02362683 -0.14687318
0.10207698 -0.17563078 0.0023281602 0.10941697 -0.093257815 0.1678203 0.23728329 0.05205719
-0.113764636 0.03271067 -0.15231732 0.1529565 0.19829519 -0.0068175383 0.19894823 0.13693959
0.07313529 -0.13558854 -0.22260016 -0.13911234 0.11738924 0.14476138 -0.07053253 -0.034968477
-0.12334279 0.02963695 0.10388843 -0.04029794 0.035943337 0.21002553 0.1316058 -0.23835976
0.13216034 -0.18013206 -0.16373381 0.07642326 0.15337312 -0.1775159 0.1226715 -0.031381603
0.15856582 0.20259744 0.046570577 -0.15148646 0.18319401 0.11062172 -0.073426366 -0.034950115
-0.0055500674 0.19428675 -0.15374786 0.23191604 -0.12719789 -0.18921666 -0.15137438 0.19472936
0.041431054 0.014187294 0.13749287 0.03780985 -0.21691158 0.14206573 0.06290989 -0.12546226

fc2.weight f4 [64, 128]
00000000: 388f 783d 56f4 4cbd 065f 2d3c fa77 993c
00000010: 0337 303d 5dac 083d 7ca0 503d 8885 683d
00000020: f355 383d cf12 45bd f913 d93c edd9 563d
00000030: 1c88 43bc cbad cfbc fef7 483c 652d 1d3c
00000040: 5a6a 0ebc 844e 91bc 28e6 a0bc 9960 d93c
00000050: 4103 243d 51a5 8abd 4abd ad3d 514a 45bd
00000060: 025c 933d 2bc7 ac3c 4b52 b6bb 85b6 903d
00000070: f8fb c1bd de3a 043b 061d 433d acf6 803d
00000080: a658 29bd eedf c33c 70f3 4ebd a965 b93d
00000090: 8347 2bbd 6028 153c 6485 2ebd d939 743d
000000a0: f099 af3d 372d 4e3d 36cc 52bc 8e6c 4b3b
000000b0: 8259 b8bd 8899 b33d 0051 6f3c a36c 83bd
000000c0: 9ba8 203d 8d04 ad3d fc71 4fbc c27b 97bd
000000d0: cdca bd3c 2600 19bd af2e 793d ea21 4dbd
000000e0: 36d0 143c 471e 0ebd c234 28bd 0f75 003d
000000f0: 7c26 a63d 692d 98bd ca11 8dbd f2cc 803d
00000100: c202 3a3d 58fa 713d c0d3 863d f2ec 7ebd
00000110: b938 5dbd 01c7 91bd 0a44 01bd 8054 643d
00000120: c32d bebc 25fc a3bc c856 7f3c 1ae1 413c
00000130: 6700 773d 860c 96bc 7988 a53d 55c2 b23d
00000140: 50f7 493c 0afb a8bc d0aa 8fbd a32f 55bd
00000150: 662b 2b3c 9b80 b8bd e23a c3bd ca8b a73d
00000160: 40d0 98bd 5e45 7e3d ac2a d13c 0422 513d
00000170: e5c5 80bc f0ba 67bc 14aa 9b3d fb9a 17bd
00000180: c1a1 e63c 1221 8b3c 7dbc acbd 2d29 523d
00000190: 0062 0ebc 1c6a 093d 26d3 0c3b e0b5 03bb
000001a0: 507f 433d d057 23bd e33a bcbc 0098 a3bd
000001b0: 0553 c3bc a111 2abd 7b9f c2bd d3b8 7ebd
000001c0: 3cdb 2dbd afdd 133d 490e 0abd 4d37 a53d
000001d0: 2e33 a4bd 494c ed3c 55ef 82bd 9a1f 493d
000001e0: 8716 6d3d 8763 0b3d b2c9 ac3c a6b2 5fbd
000001f0: 75cc 5a3d d464 ab3d ba0a e1bc a91a b0bc
00000200: e024 b63d f662 a63d 4374 c33d 5c85 40bd
00000210: 5129 783d a5a5 8ab8 116e 81bd 92f7 ad3d
00000220: ec58 bdbc 4f82 fcbc e3d2 98bd 5f08 a9bb
00000230: 08cf 6cbc 2752 873d 40ae ef3c d8c2 633d
00000240: 322a 153d e250 f63c 550a b13d 833c e93c
00000250: c837 343d a4c8 4cbd e905 e33c 286a 49bd
00000260: 19d1 77bc c141 87bd 8038 af3d c0c8 243c
00000270: ee4e b8bd 4f06 a4bd a831 8a3d 48ef 6c3d
00000280: c4ae ac3d d622 833c f47c 3d3d 5417 623c
00000290: ff1c b0bd fada 9d3d b127 8ebd e841 0e3c
000002a0: ae91 99bd 0270 213c 3ed5 623d 54d0 55bd
000002b0: 1035 223d 222d 543d babd 443c 1966 45bd
000002c0: 6bb2 583d 03a3 4fbd 3dd3 af3d 00cb 47bd
000002d0: 8f74 153d ee2e 7ebd 7df0 96bd 6c0a 3f3d
000002e0: 2a51 233d d672 be3d 7217 693d ee83 33bd
000002f0: 6a86 433d c3f9 743d cea9 523c e805 17bc
00000300: e2cc bb3b c20d 14bd adb1 813d 9bfa 373d
00000310: 6be1 b2bc b1ca 693d 0294 4abd 2bc5 613d
00000320: efaa 9d3c 4fbd 92bd 3873 25bc 8bf9 35bc
00000330: 1222 5bbd cf06 84bc bd52 45bc 2e8c a63d
00000340: 7ed9 68bd 6634 04bc 99ae 8d3d e062 88bd
00000350: 743a 7a3c ea13 f63c ab9f 373d 6fb5 9dbc
00000360: 27b3 a7bc bcae 8dbc 99d3 18bd 41c6 003d
00000370: b06e 6a3b 2109 963d 047a 383d 6aaf 6b3d
00000380: 5cbd 40bd 9679 77bc 9a28 b3bc dfdb 153d
00000390: 661b 253d 71e1 04bc e369 333d 1e05 2ebd
000003a0: c7ea 3bbd 7cda ebbc a33d f43a ff65 3bbd
000003b0: d336 ff3c 337f 023d 17fd 85bd 436e a03d
000003c0: 3021 8a3c 70a2 48bd b66c 8c3d ea7d 033c
000003d0: 096a 3dbc 71ff b63d 5e23 373d 34d0 3ebc
000003e0: 176b 243d cf80 9e3c 7461 febc 7cc5 0dbd
000003f0: ded8 74bc 0d3e 78bd 9c92 783c 14d5 173c
0.06068346 -0.050037704 0.010581737 0.018733967 0.043021213 0.033367503 0.0509343 0.05676797
0.045003843 -0.04811364 0.026498782 0.052453924 -0.0119343065 -0.025351426 0.012266157 0.009593342
-0.008692348 -0.017737634 -0.019640997 0.02653532 0.040042166 -0.06769813 0.0848337 -0.048166577
0.071952835 0.021091064 -0.0055640093 0.07066063 -0.09471887 0.002017669 0.0476351 0.06297049
-0.041344307 0.023910489 -0.05052513 0.09052593 -0.041816246 0.009103864 -0.04260768 0.05962548
0.08574283 0.05033609 -0.0128660705 0.0031040045 -0.09001447 0.08769518 0.014606714 -0.06417205
0.039223295 0.084481336 -0.012661453 -0.07396652 0.023167992 -0.037353657 0.060835537 -0.05008117
0.0090828445 -0.034696843 -0.04106594 0.031361636 0.08112809 -0.07430536 -0.068881586 0.0628909
0.045412786 0.059076637 0.06583357 -0.062237687 -0.054009173 -0.07118035 -0.031559028 0.055744648
-0.02321518 -0.020017693 0.015584655 0.011833454 0.060303118 -0.018316519 0.08082671 0.08728472
0.01232703 -0.020627517 -0.07015002 -0.052047383 0.010447359 -0.090089045 -0.095327154 0.081809595
-0.074615955 0.062077872 0.025533043 0.05105783 -0.015719363 -0.0141436905 0.07600799 -0.037013035
0.028153302 0.016983543 -0.08434389 0.0513088 -0.008690357 0.03354846 0.002148816 -0.002009742
0.047728837 -0.039878666 -0.022977298 -0.07987976 -0.023843298 -0.04152072 -0.09503075 -0.06218798
-0.042445406 0.036100086 -0.03370503 0.080671884 -0.08017574 0.02896704 -0.06393305 0.049102403
0.057882812 0.034030464 0.02109227 -0.05461373 0.05341764 0.08368841 -0.027470935 -0.021497088
0.08893752 0.08124344 0.095436595 -0.04700218 0.060586277 -6.6112065e-05 -0.063198216 0.08494486
-0.02311369 -0.030823855 -0.074620984 -0.0051584686 -0.014453657 0.06607466 0.029257894 0.05560574
0.036417194 0.030067865 0.08644549 0.028471237 0.04399851 -0.049996033 0.02771278 -0.049173504
-0.015125536 -0.066043384 0.085556984 0.010057628 -0.0899943 -0.08009016 0.067477524 0.057845384
0.084317714 0.016007822 0.046261743 0.013799507 -0.085992806 0.07707782 -0.06941164 0.008682705
-0.07498489 0.009853365 0.055379145 -0.05220063 0.039601386 0.051800855 0.012008125 -0.04819307
0.052904528 -0.05069257 0.085852124 -0.04877758 0.036488112 -0.062056474 -0.07370088 0.0466408
0.039872326 0.09299247 0.056907125 -0.04382699 0.04773561 0.059808504 0.012857867 -0.009217717
0.005731211 -0.036145933 0.06332717 0.04491673 -0.021836003 0.057078067 -0.049457557 0.055119675
0.019246547 -0.07165014 -0.010098271 -0.011106859 -0.05349929 -0.016116528 -0.012043652 0.08132206
-0.05684804 -0.008069133 0.069180675 -0.06659484 0.015272725 0.030038793 0.044830006 -0.019251553
-0.020471169 -0.017295234 -0.03731117 0.03143907 0.0035771541 0.0732596 0.04503824 0.057540335
-0.047055587 -0.015104672 -0.021869946 0.03658664 0.040309332 -0.00811039 0.043802153 -0.04248535
-0.045878198 -0.028790705 0.0018634092 -0.045751568 0.031154072 0.031859588 -0.06542414 0.07833531
0.016861528 -0.048983037 0.068566725 0.008025626 -0.011560925 0.0893544 0.044711463 -0.011646319
0.04014119 0.01934853 -0.031052329 -0.034612164 -0.014944283 -0.06060605 0.015171673 0.00926711

fc2.bias f4 [64]
00000000: 8252 833c b634 d4bb 0ce2 3abd 0a86 5f3d
00000010: 3c5d a5bd 58ed 1fbd e59c a23c ab0c 033c
00000020: 224d aa3d 55f7 bfbd 9e21 ad3b baa5 0fbd
00000030: 7b5a a3bd 6f4b 15bd a848 1f3d 981e 28bd
00000040: 9005 a23d 1441 92bc 8b79 60bc db67 553d
00000050: 7822 1e3d 644e 64bd b6d2 d2ba 45b7 2abd
00000060: 9c2c 92bd 34b0 febc 9409 b3bd f8ba 85bd
00000070: 3260 7dbc fdb5 e63c 9a7d 3c3c a38d 8bbd
00000080: dba8 973d d4da 7fbd 929f 8fbd cbbe 78bd
00000090: db5b 29bd 9a59 99bd d599 123c 4da3 71bd
000000a0: 1a60 b13b b390 0a3d b52c 543d 8b2d 61bd
000000b0: 60d3 76bb 8e4d 92bb 81e6 bc3d 2c11 193d
000000c0: 303a f73c 3dd0 a5bd 4830 9bbd eff8 663c
000000d0: 0c94 093d fdc3 a13a 276f 91bd 3bb8 8d3c
000000e0: dd15 973c 6d74 da3c 84d9 b1bd c8b3 a33d
000000f0: 7279 65ba 5113 853d 2fc5 8c3c 5a0f cebc
0.016030554 -0.00647601 -0.04562573 0.05457119 -0.08074424 -0.039044708 0.019850204 0.007998626
0.08315493 -0.09373347 0.0052835485 -0.03507016 -0.07976242 -0.036448892 0.03888765 -0.0410448
0.07911217 -0.017853297 -0.013700853 0.052100997 0.03860709 -0.05573882 -0.0016084525 -0.041678686
-0.07137415 -0.03108988 -0.08742061 -0.06529802 -0.015464829 0.02816295 0.011504555 -0.068141244
0.074052535 -0.06246455 -0.070128575 -0.06072883 -0.041347366 -0.07487793 0.008947809 -0.058993626
0.0054130675 0.033829402 0.05180045 -0.054975074 -0.003766261 -0.0044648116 0.09223653 0.037369892
0.030179113 -0.08096359 -0.07577568 0.014097436 0.033588454 0.0012341734 -0.07101279 0.017299762
0.018443042 0.026666844 -0.08684066 0.07993275 -0.00087537535 0.06497825 0.017183868 -0.025153805

fc3.weight f4 [32, 64]
00000000: f620 f2bd a2ca ebbc 4b6a 9fbd 6577 fe3d
00000010: 7b27 c9bd 5ec2 ddbd 6791 5d3d af80 e1bd
00000020: 4957 493d b608 32bc 9af9 023e 4127 7e3c
00000030: 545a 9cbc 084f 6fbd 5915 06bd f26e b1bd
00000040: 41fb efbc 2d7c 73bd e4a8 c23c 1f46 fa3d
00000050: 0ed2 c7bc 45f4 a03d ea1b 3fbd a4c9 8d3d
00000060: a01e 91bd e23a 07bd 2279 b13d 9c98 9e3a
00000070: 9401 853d 1364 dfbd 2dc0 fcbd 28cf f63d
00000080: 4e9a 2bbd c69a 9dbd dfa0 da3d ffc5 bd3d
00000090: e57e ec3d 61fb 9e3d 928e 3f3d 2580 c83d
000000a0: 7512 c3bd c36b d03d 7e96 8c3d 2df7 4f3d
000000b0: af6e c1bd 7de1 ca3d d4c0 00be efdb f03d
000000c0: 0d21 d2bd 9e01 a73d 2f32 b9bd d39b f9bd
000000d0: 8572 a43d 5af5 d23c 0a54 25bd c3a8 543d
000000e0: aa81 a23d 6a1e a8bd d077 813d 7d87 753c
000000f0: 4c46 c33d da3c 2fbd 35d6 9ebd 0052 6fbd
00000100: 294d 843c 46fe 993c 0a39 86bd d55d aabc
00000110: 8816 213d 82aa 4e3d f543 073e e57c f63d
00000120: 9c03 f6bc 7548 bbbd 3490 d33d ace2 b93d
00000130: 6fd4 063c db5d 6abc efa3 983c 75ac a93d
00000140: df8e 313d 3222 11bd 1544 d83d 316c 7dbc
00000150: de57 a93d 8851 8e3d f646 3a3d 89db 903c
00000160: 81a2 473d 19df aebd 5b21 ae3d 4dc3 7cbd
00000170: 9c35 6abd bf7b eb3c 2785 b2bd 9fc3 643c
00000180: 7d97 723c f125 843d 6e37 5d3d 7e80 99bc
00000190: e79d 9d3c 3116 04be f0d4 f63d 8e5d 03be
000001a0: 7983 b13d 39a1 c3bd d1d7 6ebd 4231 1cbc
000001b0: 8786 523d 7906 853d dc66 4abd 8fec d1bd
000001c0: 9e67 fd3d b67e 613d 20f1 233d b131 af3d
000001d0: 3406 efbd ab62 0c3c d941 b73d 5cdc edbd
000001e0: 4247 46bc 9b81 303c ea04 2f3d c814 5cbc
000001f0: 1142 06be 4f11 e13d 70ae bc3d 442d bebd
00000200: ed89 f5bd 4d71 36bd a4e1 e13d b10f c33c
00000210: 4cb6 c0bc 4ae5 3e3d 6c61 07be 9c3d eb3b
00000220: 793c 4dbc 91b4 7d3d 0f02 a23d 469a 6c3d
00000230: 0bd4 b93a 1427 d53d 08bc f33d e019 b0bc
00000240: b837 bcbc a148 4ebd 8d08 b63c 85a3 f03b
00000250: f05e 183a 510f f23d 3964 2bbd 99c5 f23b
00000260: 74e8 bb3d 53ac b33c 9f16 bebd 65b7 643b
00000270: cc19 653d 2bc6 4abd 5bc1 8b3d f49e cabd
00000280: 5a70 f5bc 8ba1 863c 8a0a debd bf77 6a3d
00000290: 688b b13d 7a86 053e 10d4 a33c ae67 fd3d
000002a0: 29ee edbd b6e7 a7bc d827 94bd a782 a2bd
000002b0: b8dd a9bc 58ca 9cbd c6b8 01be d1e9 91bc
000002c0: f08b 80bd 217a 47bd 4268 cf3b d583 e1bd
000002d0: fc56 6cbd e9de b3ba 4597 fabd df4a fcbc
000002e0: 21c7 04be 6862 64bd 6c59 283d 49f3 f0bd
000002f0: 0657 cf3c a0f7 ecbd 9cc2 d6bd df40 d6bd
00000300: 0346 9c3b 0765 e93d da21 9dbd 9d29 623d
00000310: 7f7e a0bc 0fee ff3c deeb 33bc 3717 413d
00000320: 85d0 143d fe5d 923c 9d40 8dbc 101b 3ebb
00000330: e096 d2bb 33ac 193d 5b9d c53c 3ee1 2b3c
00000340: bce9 fb3d e02f b73d 47ec a5bd f0ea 1e3d
00000350: db6b 893d 10bb 02be dbbb fe3d 06b0 12bc
00000360: fc01 b4bd 0887 8abc 3de8 a1bd 1057 8c3d
00000370: 0d26 44bd 3622 cdbd 7da9 913d 9498 b83d
00000380: 7fb0 b1bd 3f1b fbbd e07d 9f36 6d8b f7bd
00000390: 559d 173d 4a66 2b3c ecdf 07bd d61f 7f3d
000003a0: 4f70 29bd 9b16 95bd f580 f33c b662 e33d
000003b0: 82ac 5abd 489b cc3d 2d08 c73c 81b2 5abc
000003c0: 89d9 863c 3454 e93d b25f 023d aa03 8bbd
000003d0: 00d9 883d 18e2 25bb 260a 4abb 09b8 f73d
000003e0: c2f0 a5bb b0e8 2b3d e91e fbbd 608f 77bd
000003f0: cab4 bebd cf23 a43c d161 c83b eb4f 013e
-0.11822693 -0.028783146 -0.07783946 0.124251164 -0.098219834 -0.10828088 0.054093745 -0.110108726
0.049155507 -0.010866335 0.12790528 0.015512289 -0.01908604 -0.05842498 -0.032735202 -0.08663739
-0.029294612 -0.059444595 0.023762174 0.12220406 -0.024392154 0.07859091 -0.04665748 0.069232255
-0.070859194 -0.03301514 0.086656824 0.0012099924 0.06494442 -0.109077595 -0.12341342 0.12051231
-0.041895203 -0.07695536 0.10675215 0.092662804 0.11547641 0.077627905 0.046766825 0.09790067
-0.09525005 0.10176804 0.068646416 0.050772835 -0.09444939 0.0990629 -0.12573558 0.11760699
-0.1026021 0.08154605 -0.09042775 -0.12187924 0.08029655 0.025751758 -0.04036335 0.051918756
0.07934888 -0.08208926 0.063216805 0.014985916 0.095348924 -0.042782642 -0.077557005 -0.05842781
0.016150074 0.018798005 -0.06553848 -0.020796696 0.039328128 0.050455578 0.13209517 0.120355405
-0.030031018 -0.091446795 0.10330239 0.09076437 0.008229359 -0.014304603 0.018632857 0.08284847
0.043349143 -0.035433 0.105598606 -0.015467689 0.082687125 0.069491446 0.04547783 0.017682808
0.04873896 -0.08538646 0.08502456 -0.06170969 -0.057180032 0.02874553 -0.08716803 0.013962655
0.014806625 0.06452549 0.05400794 -0.018738028 0.019240333 -0.1289909 0.12052333 -0.12828657
0.086676545 -0.09552235 -0.058311287 -0.009533228 0.051397827 0.06495375 -0.0494145 -0.10250198
0.12373279 0.05505248 0.040024877 0.085544 -0.11671105 0.008568446 0.08948106 -0.11614296
-0.01210195 0.010773088 0.042729296 -0.013432689 -0.1311114 0.109896295 0.09212959 -0.092859775
-0.11989198 -0.044541646 0.11029366 0.023811193 -0.023524426 0.046605386 -0.13220757 0.0071789753
-0.012526625 0.06193978 0.07910549 0.057764314 0.0014177574 0.10407844 0.119010985 -0.021496713
-0.022975788 -0.050362233 0.022220874 0.007343712 0.00058124866 0.118193276 -0.041843627 0.0074088094
0.09175196 0.021932757 -0.092816584 0.003489935 0.055932805 -0.049505394 0.06823989 -0.09893599
-0.0299608 0.016434452 -0.10841854 0.057243105 0.08669168 0.1303958 0.01999858 0.12373291
-0.11617691 -0.02049623 -0.07234162 -0.07935076 -0.020735607 -0.076557815 -0.12668142 -0.017811688
-0.06276691 -0.048700456 0.006329567 -0.11011473 -0.057700142 -0.0013723049 -0.122358836 -0.03079742
-0.12966587 -0.05575791 0.041100904 -0.11765153 0.02531005 -0.11570668 -0.104863375 -0.10461592
0.0047690882 0.113962226 -0.07672472 0.055215467 -0.019591568 0.031241445 -0.010981528 0.04714128
0.036331672 0.017867085 -0.017242724 -0.002900783 -0.006426677 0.037517738 0.024122884 0.010490714
0.12300441 0.08944678 -0.08101707 0.038798273 0.06710025 -0.12766671 0.12438174 -0.0089531
-0.08789441 -0.016910091 -0.07905624 0.06852543 -0.04788785 -0.10016291 0.071124054 0.09013477
-0.08676242 -0.12261056 4.753223e-06 -0.1208714 0.037015278 0.010461399 -0.033172533 0.06228622
-0.04136687 -0.07279702 0.029724577 0.11102812 -0.053387173 0.09990555 0.02429589 -0.013348223
0.01646115 0.113930136 0.031829543 -0.06787808 0.066820145 -0.0025311764 -0.0030828803 0.12095649
-0.005064101 0.041969955 -0.12261755 -0.060439467 -0.093118265 0.020036606 0.0061151762 0.12628143

fc3.bias f4 [32]
00000000: 7dd7 6f3d 98a0 cdbc 8c28 81bd dbd1 813d
00000010: ee2c bf3d e194 693d ed5a c1bc 4d22 cfbc
00000020: 51fc eabc e660 adbd e717 dbbd bdbc dd3d
00000030: c983 dabd 9244 e9b9 4a42 b33d 4a6d a43c
00000040: 3cdc eb3d 82a5 90bd dcc1 6a3c b6aa 363d
00000050: dc98 563d 6186 a1bd 9aeb cbbd ab3c 8c3d
00000060: 1adc 7a3d 1054 f73d 711f 37bd f61e 163a
00000070: 0e3b db3d 9495 c83d 05c0 25bd dd00 b8bd
0.058555115 -0.025100991 -0.06306562 0.06338855 0.093347415 0.057026748 -0.023602927 -0.02528491
-0.028684767 -0.084657475 -0.106979184 0.108270146 -0.10669667 -0.00044492312 0.08752878 0.020071644
0.11516616 -0.07062818 0.014328446 0.044596396 0.05239187 -0.07886959 -0.09957047 0.06847509
0.06124506 0.120765805 -0.04470772 0.00057266594 0.10704623 0.09794155 -0.040466327 -0.0898454

fc4.weight f4 [5, 32]
00000000: c373 48bd f3c7 87bd 4d75 0b3e 6cce eebd
00000010: ba75 153b befa 48bd a707 2abe 629d 9a3c
00000020: 8867 bf3d 94ba 9e3b 7808 3dbd 5336 5fbd
00000030: cfbd 193e e44a d4bd f418 883d 6cb3 fbbd
00000040: d557 f0bd 41cf e73d 87a1 c5bd 025c 303e
00000050: 6533 233e 15a8 27be 385c 103e 7e9a af3d
00000060: ed4d 073e 9db9 203e 619a e23d 3b68 f1bd
00000070: 1a84 f0bd 0f14 22be 40cf da3c 46f8 10bd
00000080: 4567 37bd b14a 113e 739f 08be 3112 a6bb
00000090: ab6d 8bbd be6b 5a3d c250 97bb 9720 a0bc
000000a0: b838 79bd 8c88 283e 0b5a eebd b43c c03d
000000b0: 6ee8 0c3e 2081 163e e0a4 223e bd37 3ebe
000000c0: 3173 003e be17 4b3c 0536 b43d f944 873d
000000d0: 12c0 e9bc 2dbd 01be 9c87 b6bc ff80 9a3c
000000e0: c17c e43d 43cc d5bc 76b1 c43c cf43 f5bd
000000f0: 921b fabd 2cf2 f03d cf2b d6bd 6dad de3d
00000100: e7d0 963d 7c4f f63c bb85 823c 90bd 1c3e
00000110: 71c4 a8bc c7e2 17be c710 c2bd c2f7 29bd
00000120: e0c2 c4bb 218a 833b d0e3 753d 8548 aabd
00000130: c064 d03d 6170 c9bd 941a 6bbd 3fd9 d03d
00000140: 1071 303e 2409 ae3d d219 213e f052 48bd
00000150: d913 44bd 6acf 25be efcd 2cbb c857 e7bc
00000160: 387f 67bd 45a8 ce3d f08a cabd 8c36 04bc
00000170: e155 98bc 83b3 3ebd 3cbd 23be a3f1 683d
00000180: b38d f5bd fa37 153e ec38 933d 84f6 203c
00000190: 0263 21be 62bc b73c d38a e93c 9562 c1bc
000001a0: 4987 11be 6166 34be 928d bd3d f532 1e3e
000001b0: 4400 a3bd df9d c73d 4bd8 f83d 3373 d0bd
000001c0: 6036 03be 3989 12be 3102 15be 4032 323e
000001d0: b6c3 263e 5d9d 13be 9bdd 2c3d be40 a3bd
000001e0: 4a0c 03be 04c2 21be ef23 b8bd 039e db3d
000001f0: 560b ae3d 94c0 023d d37a 333c a5d2 013e
00000200: b185 b6bd c74e d63d c63d 01be 9c16 3b3e
00000210: bf36 0cbe 71c5 c43d e264 f03b 4868 dabd
00000220: 4c9f cfbd e9f3 d93d 21d1 313e 7320 2bbe
00000230: 8e2b 05be 2b69 2ebe 98ae 54bd 38bf 2d3e
00000240: 1df9 9abd 86f4 f3bc 913c 2cbe bff3 b03d
00000250: 4238 f3bd 85da dd3d 35f9 ddbd ba31 d5bd
00000260: 7765 27be 2aa6 223e 7666 c13c 5ae3 2bbe
00000270: 6e08 db3c 6aee bcbd 2520 383e b436 32be
-0.048938524 -0.06629934 0.13618965 -0.116604656 0.0022805766 -0.04906725 -0.16604482 0.018873874
0.09345919 0.004844019 -0.046150655 -0.054495167 0.15013812 -0.10365847 0.066453844 -0.122900814
-0.11735503 0.113188274 -0.096499495 0.17222598 0.15937574 -0.16372712 0.14097679 0.08574389
0.1321332 0.15695806 0.11064602 -0.117874585 -0.117439464 -0.15827964 0.026710153 -0.035393022
-0.04477622 0.14188649 -0.13342075 -0.0050680866 -0.06808027 0.053325407 -0.0046177814 -0.01954679
-0.060845107 0.16458338 -0.11638268 0.09386578 0.1376054 0.14697695 0.15883207 -0.1857595
0.12543942 0.012395797 0.08799366 0.06604952 -0.02853397 -0.12669821 -0.02228146 0.018860338
0.111566074 -0.026098376 0.024010401 -0.11975824 -0.1221229 0.117649406 -0.104575746 0.10872922
0.07364064 0.030067198 0.015932908 0.15306687 -0.020601483 -0.14832602 -0.09475856 -0.041496046
-0.006004676 0.004014269 0.060031712 -0.08314613 0.101754665 -0.09835888 -0.057398394 0.101976864
0.1723063 0.08497837 0.15732506 -0.04890722 -0.04787049 -0.16192403 -0.0026367863 -0.0282401
-0.05651781 0.100906886 -0.098897815 -0.008069646 -0.018595638 -0.046557914 -0.15990156 0.056871068
-0.119899176 0.14572135 0.07188591 0.009824399 -0.15760425 0.022428695 0.02850858 -0.023606578
-0.14211763 -0.1761718 0.09255518 0.15449126 -0.07959035 0.097469084 0.121506296 -0.101782225
-0.12813711 -0.14310159 -0.14551617 0.17401981 0.16285595 -0.14415498 0.042203527 -0.07971333
-0.12797657 -0.15796667 -0.08991229 0.10723498 0.08498256 0.031921938 0.010954577 0.12678011
-0.08912218 0.10464244 -0.12621221 0.18270344 -0.13692759 0.096079715 0.007336245 -0.10664421
-0.10137805 0.10642225 0.17364933 -0.16711597 -0.13004896 -0.17032306 -0.051924318 0.16967475
-0.07567046 -0.029779684 -0.16819979 0.08640241 -0.11875965 0.10832695 -0.10838548 -0.10409875
-0.163473 0.15883699 0.023608427 -0.16785946 0.026737418 -0.092251614 0.17981012 -0.1740368

fc4.bias f4 [5]
00000000: 67bf 1b3e dfe0 47bd f0a6 88bc acd1 6b3d
00000010: 0da6 f3bd
0.15209733 -0.04879844 -0.016681165 0.057573006 -0.11896906
