clean_code/trained_models/actor_1008.pth (torch, 54884 bytes, 8 tensors)

fc1.weight f4 [128, 18]
000000 62 c7 21 3e 50 ad b4 3d 58 d5 1c be 76 fc 44 3e
       0.15798715 0.08822119 -0.15315759 0.19236931
000010 17 2a fe 3d 83 e1 83 bd ac 94 00 3d 30 a9 d6 3c
       0.12410372 -0.06439497 0.031391785 0.026203722
000020 64 aa c4 3d 48 45 8b bd e3 93 14 be 57 c8 b6 3b
       0.09602812 -0.06800324 -0.1450954 0.0055780816
000030 06 11 5f 3e e2 46 a9 3d 8e a0 18 3e f9 a9 05 3d
       0.21783838 0.08265473 0.14904997 0.0326328
000040 03 e6 67 be fc e0 82 3e 1d 10 11 3e 5e 30 2b 3e
       -0.22646336 0.25562274 0.14166303 0.1671767
000050 aa 2b b2 3d 95 b9 9e bd f3 02 91 3d 35 e6 89 bc
       0.086997345 -0.07750241 0.07080641 -0.016833404
000060 64 36 17 3e a2 80 53 3e ec 57 cc 3d 7c de 2a 3d
       0.14766842 0.20654538 0.09977707 0.041716084
000070 25 c6 18 3e ce 59 15 3e 1f fa 29 be 24 32 0c be
       0.14919336 0.14585039 -0.1659932 -0.13691002
000080 df 33 bc bd e7 3a 6f 3d 9d d6 26 be 40 67 29 3d
       -0.09189581 0.058405783 -0.16292806 0.041358232
000090 74 3b 1d 3e 41 24 b5 3d 13 43 15 be 28 e5 80 3d
       0.15354711 0.088448055 -0.14576368 0.06293708
0000a0 18 75 35 be 39 08 0b 3d c2 2e 47 3e 82 63 1e 3e
       -0.17720449 0.03394339 0.1945143 0.15467647
0000b0 c9 e8 78 bd 34 27 33 be c0 72 d4 bd 8c 3c 37 3e
       -0.060768876 -0.17495424 -0.10373449 0.1789419
0000c0 93 fe 85 3e 82 69 c5 3d 4b 3c 83 3d 10 b3 d9 bd
       0.26170787 0.09639265 0.06407984 -0.106298566
0000d0 d5 b8 50 3e 15 fb 65 3d f7 c8 02 3e e2 81 20 bd
       0.20383008 0.056147654 0.12771975 -0.039186366
0000e0 3c 04 2c 3e aa f0 d2 3c e5 fb 3b be 18 76 0a be
       0.1679849 0.025749523 -0.18357809 -0.13521612
0000f0 06 41 45 be 6e 15 41 be 7a 37 ff bd 8d 8c 2a 3e
       -0.19263086 -0.18855831 -0.12461753 0.16655178
000100 ea fc c6 3d 1d 43 d6 bd 4f 5c 55 3e 77 19 3e 3e
       0.09716208 -0.104620196 0.20835994 0.18564402
000110 3f 06 af bb c8 f1 3f be 97 95 2a 3e b1 1d 84 bd
       -0.0053413208 -0.18744576 0.16658626 -0.06450976
000120 63 97 99 bd 5b b1 6f 3e cd 84 0a bd 47 4a 4f be
       -0.07499578 0.234075 -0.033818055 -0.20243178
000130 83 cf 5a 3e cd 53 23 3e 1f ea c3 bd 84 ee 85 3e
       0.21368222 0.15949936 -0.095661394 0.26158535
000140 9f c0 df bc 46 a2 22 3d 19 b8 87 3d 31 c2 cb 3d
       -0.027313529 0.039705537 0.06626911 0.099491484
000150 c6 bc cc 3c f4 29 06 be 57 2d 78 3e 2d 80 2c 3e
       0.024992358 -0.13101941 0.24236046 0.1684577
000160 6f f5 0d be ff 84 59 3e f5 2f d3 3d 1c bd 57 bd
       -0.13863157 0.2124214 0.103118815 -0.052670583
000170 6a 15 2d 3d 5c 2b 42 3e d1 f3 74 3e 99 05 d8 bc
       0.04225675 0.18961853 0.23921134 -0.026369857
000180 ef 95 a8 bd 8c 72 bc bb 11 6b c5 3d 3e 72 34 be
       -0.082317226 -0.0057509597 0.09639562 -0.17621705
000190 82 4e a2 bc 3a a6 24 3e 39 43 35 be df ba 52 3e
       -0.019812826 0.16079035 -0.17701425 0.20579098
0001a0 53 44 25 be 8e 4e 4e 3e 26 1b 77 3d 9a 28 55 3e
       -0.16139345 0.20147154 0.060328625 0.2081627
0001b0 8e 9e 0f 3e 19 24 7e be b3 a7 14 3e 88 9e 09 be
       0.14025328 -0.24818458 0.14517097 -0.13439381
0001c0 00 c3 be 3d c2 45 2f 3e be 95 33 3e 12 23 a1 3d
       0.09314537 0.17116454 0.17537591 0.07868017
0001d0 e7 1d 37 be c1 7b 36 bb 04 7d 69 be 60 a8 d1 bc
       -0.178825 -0.002784476 -0.22801596 -0.025592983
0001e0 d1 4f 65 be 60 a7 1f bc 13 92 04 be fb 88 58 3d
       -0.22393729 -0.009744495 -0.12946348 0.05286501
0001f0 11 1e 78 be e1 1e 0d bc 71 a4 00 3d 3c b0 1e 3e
       -0.2423022 -0.008613319 0.031406824 0.15496916
000200 c8 10 52 be 49 f6 54 be 56 0a 08 be bb 91 b6 3d
       -0.20514214 -0.20797075 -0.13285193 0.08914515
000210 6f 6c 55 3e f9 b9 00 be 68 9d 34 3e 02 95 3e be
       0.20842145 -0.12570943 0.1763817 -0.1861153
000220 38 db 31 3e c4 b8 37 3e 33 1d ad bc c8 f3 c9 3c
       0.17368782 0.17941576 -0.021132087 0.024652377
000230 ef 0e 14 3e 1a 9a 8a 3b dc 53 47 3d fa f3 18 be
       0.14458822 0.004229796 0.04866396 -0.1493682
000240 de 5c 45 bb 3e b5 b2 bd a7 fa 93 bd b1 cb 2b 3e
       -0.0030115168 -0.087259755 -0.072255425 0.16776921
000250 d2 8f 8a bd 20 bd 71 be 47 e6 d6 bd 8c d6 42 be
       -0.06765713 -0.23607302 -0.10493141 -0.19027156
000260 b2 c8 da 3b d2 d5 5e be 09 1d d4 bd 58 dd 7e be
       0.006676757 -0.21761253 -0.103571005 -0.24889123
000270 6b 6a 22 3e 97 ab 57 be 74 53 d6 bd 5a b1 42 be
       0.15860908 -0.2106155 -0.10465136 -0.19012967
000280 9a e2 1f 3d c9 cb 1e 3e aa 2b 1e 3e 61 d8 65 3e
       0.039034463 0.15507425 0.15446344 0.22445823
000290 65 f3 69 3e 1d b9 8f bd c2 0d fd 3d d1 b7 5f be
       0.22846754 -0.070177294 0.1235614 -0.21847464
0002a0 03 29 68 3e dd e2 13 3e 66 73 80 bd 1e 5a 52 3e
       0.22671895 0.1444201 -0.062720105 0.2054219
0002b0 63 1a d1 3d a9 99 6e 3e 7f 19 2a 3e 4f ba f4 bd
       0.10210111 0.23300804 0.16611288 -0.11949598
0002c0 68 e8 8a bd 4b 23 5c 3e 82 b3 35 be 95 1a be bd
       -0.06782609 0.21497838 -0.17744258 -0.09282414
0002d0 90 cc f7 bd e8 4e 47 be bb ee 1e be 49 f8 45 be
       -0.12099564 -0.19463694 -0.15520756 -0.19332995
0002e0 a4 f8 c3 3d 3a 87 c7 3d 8d ea 3d bc cb f4 d9 3d
       0.09568909 0.09742589 -0.011591566 0.10642394
0002f0 17 2b 4e 3c a7 92 b7 3c 36 d0 b9 bc 45 18 8b 3d
       0.012583516 0.022408796 -0.02268229 0.067917384
000300 12 68 3a be f0 c4 6e bd c6 50 63 be 53 9b 33 be
       -0.18203762 -0.058293283 -0.22198781 -0.1753972
000310 cf fc fd 3d 0e 2e 07 3d 26 62 4c bd 36 63 4a 3e
       0.12401735 0.033002906 -0.04989829 0.19764408
000320 9f 37 ce bc bf 26 f7 bd d5 f0 ed bd a3 b8 4f 3e
       -0.025173007 -0.12067937 -0.11618201 0.20285277
000330 78 98 a0 3d cf c4 43 3e cc 15 31 3d e2 c8 96 bd
       0.07841581 0.19118045 0.043233678 -0.07362534
000340 92 8b fe 3d 0b 35 e0 3d 54 f3 f2 b9 68 11 09 bd
       0.12428965 0.10947617 -0.0004633913 -0.033463866
000350 e7 fa cc bd 14 e0 fe 3d 85 c9 30 be 31 88 6c 3e
       -0.10008793 0.12445083 -0.17264374 0.23098828
000360 d7 ed d5 bd 0a 41 b0 bd 01 39 0f 3e 3c d3 e7 bd
       -0.10445755 -0.08606155 0.13986589 -0.11319587
000370 6f cd 57 be 0d 3a 33 bd 8c a2 5b be 7c c6 8d 3c
       -0.2107446 -0.043756533 -0.21448725 0.017306559
000380 ed 5a 42 be d6 81 31 be a0 75 25 bd a4 98 3b 3e
       -0.18979998 -0.17334685 -0.04039538 0.18319947
000390 04 36 12 be c0 57 4c bb b3 61 9a 3d be a8 df bd
       -0.14278418 -0.0031180233 0.07538166 -0.10920857
0003a0 8d 9a 12 3e 43 f4 17 3e 9d b2 89 3e 09 3c b2 bd
       0.14316769 0.14839272 0.26894084 -0.08702857
0003b0 73 19 9f 3d 3d 0d 57 bd 4a 10 b3 3c 40 63 7b 3d
       0.07768526 -0.05250286 0.021858353 0.06137395
0003c0 3a 1e 5c 3e ab 9d 61 3e 69 22 33 3e 15 1f 7b 3e
       0.21495906 0.22032802 0.17493595 0.24523576
0003d0 ef 6e f3 bc 1b 01 7e 3d 88 aa 37 be 6f ac fc bd
       -0.029715983 0.062012773 -0.17936146 -0.123375766
0003e0 1f cf 95 3c ad 6a 14 3d d9 1f 89 bc 4b 86 a4 bd
       0.01828724 0.036234546 -0.016738819 -0.08033427
0003f0 6a 19 64 3e b7 71 5f bd 1d 6b d6 3b e5 d8 03 3d
       0.2227532 -0.054551806 0.0065435306 0.03218927

fc1.bias f4 [128]
000000 81 9d 1b 3e d0 6c 24 3e 82 70 26 3e 25 2b 3b 3e
       0.15196802 0.16057134 0.16253856 0.18278177
000010 1d dd bf 3c f8 70 a9 3d 99 5e 2d 3d ac 3f c5 bd
       0.023420865 0.082735 0.042326543 -0.09631285
000020 57 61 d8 3d 57 19 37 be 51 a5 5e be 05 ad 74 3e
       0.10565441 -0.1788076 -0.2174275 0.23894127
000030 0e c7 20 3e 20 62 70 bd bf eb b4 3d 40 eb 6c 3e
       0.15700933 -0.05868733 0.088340275 0.23136616
000040 2a 67 4e 3c 72 95 58 3e 4a 68 22 be e2 6d c9 3d
       0.012597838 0.21150759 -0.15860096 0.098354116
000050 3c 88 36 3e 6f 68 a9 3d 14 cc 20 be 0e 7e c9 3c
       0.17825407 0.08271872 -0.1570285 0.02459624
000060 d6 ee 50 be 8c 61 db 3d 1a 05 9c 3c 99 72 41 3e
       -0.20403609 0.10711965 0.019045401 0.18891372
000070 5d b2 b5 bd 12 a4 82 3d e4 5c a9 bb d2 b9 48 be
       -0.08871911 0.0637895 -0.005168544 -0.19602135
000080 92 36 77 3d 50 25 7f 3e 9b 26 be 3d a1 a2 b9 bd
       0.060354777 0.24916577 0.09284707 -0.09064222
000090 01 73 ee bd f6 00 2d 3c 54 52 8b 3e 4a 5b 1d be
       -0.11643029 0.010559311 0.2721125 -0.15366855
0000a0 41 b1 a9 3c 1b 33 3f 3e 58 fd 31 be d9 6d 81 3e
       0.020714404 0.18671839 -0.17381799 0.2527912
0000b0 f4 63 a6 bd 9c 1c 51 3e c6 05 87 3e 0a 3d 32 3e
       -0.08124533 0.2042107 0.26371592 0.17406097
0000c0 c6 ef 83 3e d2 8f 13 be 58 37 e0 3d 42 1c 51 bd
       0.2576887 -0.14410332 0.10948056 -0.05105234
0000d0 82 d6 19 be e4 89 87 be 11 0b 45 bd 33 1d 89 3e
       -0.15023234 -0.2647239 -0.048106257 0.2678009
0000e0 6f e4 93 3c ad 92 7c 3e 6c 2d 41 be 14 1f 11 bc
       0.018053262 0.24665327 -0.18864983 -0.008857507
0000f0 d9 81 46 bd a2 ce 80 3e ec 0e b3 3c 47 5a 1f be
       -0.048463676 0.25157648 0.021857701 -0.15561782
000100 ab 15 eb 3d d7 49 61 be 34 b3 b8 3c 20 49 b8 3d
       0.11478742 -0.22000824 0.022546388 0.089983225
000110 6f e3 8d bd a0 45 29 3e 50 ac 82 3e ae ad a4 3d
       -0.06928145 0.16530466 0.2552209 0.08040939
000120 65 8c 0e be 42 80 5d 3d 3d 25 35 be dd 31 18 3e
       -0.13920744 0.054077394 -0.17689987 0.14862771
000130 d0 c4 33 3e 8f b2 5e bc 2c f5 61 3e 44 75 14 3e
       0.17555547 -0.013592376 0.22066182 0.14497858
000140 8f 94 4f 3d 76 b9 27 be ae 0c 78 be b5 2a 2a be
       0.050678786 -0.16379341 -0.24223587 -0.16617854
000150 6b 9b bf 3d df ce 09 3e 8d 39 bd bd d3 90 88 bd
       0.093558155 0.13457821 -0.092394926 -0.06668248
000160 a3 67 dc bd b9 ba 39 3a d8 54 0c 3e 5a e3 85 bc
       -0.10761955 0.0007085014 0.1370424 -0.016343761
000170 8a 18 b8 3c 9a 30 69 3e 67 99 51 3e 70 6c 89 be
       0.022472639 0.22772446 0.20468675 -0.26840544
000180 a1 1b e8 3d 55 52 57 be be 0a 51 be 73 31 3d 3d
       0.11333395 -0.21027501 -0.20414254 0.046189737
000190 3c be 27 3e 9e d4 4c be a6 f6 23 3e c7 64 78 bd
       0.16381162 -0.20002982 0.16012058 -0.060642984
0001a0 73 13 08 3e f9 13 56 3e ae 5d 11 3d 59 b9 25 be
       0.1328867 0.20906056 0.03548973 -0.16183986
0001b0 3f 2c 26 3e 0d 0d 0c 3e de 50 c2 bd e5 9c fc bc
       0.16227816 0.13676853 -0.094880804 -0.030836532
0001c0 28 01 16 bc ba 0b 5e 3e 80 4f 2a be ce 28 82 3e
       -0.009155549 0.21684161 -0.1663189 0.25421757
0001d0 0f 06 13 be 52 ba 2e be d8 8e 26 be 2a 52 5c 3e
       -0.1435778 -0.17063263 -0.16265428 0.21515718
0001e0 5f cc 83 3d 55 c4 fb 3c e4 1e 32 3e d5 fa 7a 3d
       0.06435465 0.030733267 0.17394596 0.06127437
0001f0 1d d0 71 be 56 1a 3a 3e 59 4e bd 3d 71 f5 15 be
       -0.23614545 0.18174109 0.09243459 -0.1464441

fc2.weight f4 [64, 128]
000000 c0 5d 93 3d e3 97 f1 bc 4a 58 bb 3c 9c 72 9e bb
       0.07195616 -0.02949137 0.022869248 -0.00483544
000010 3b 6e 66 3d 14 4f 63 3d d8 6a 6c 3d 2b c1 3d 3d
       0.056257468 0.055495337 0.05771908 0.046326797
000020 db 7a c3 3b fa 5a d6 bc ca a3 45 3c 00 a6 99 3d
       0.0059655732 -0.026166428 0.012062976 0.07502365
000030 e4 47 f8 bc 96 b0 a7 3b 33 77 19 3d 09 8b c0 3c
       -0.030307718 0.005117486 0.037467193 0.023503797
000040 32 32 0a 3c 82 f4 0f 3c 41 e9 2f bd 49 a4 10 3d
       0.008434819 0.008786323 -0.042947058 0.035312925
000050 0d 5d 04 3d 6c 03 bf bd 44 dc 65 3d fd ed 6f bd
       0.032315303 -0.093268245 0.056118265 -0.058576573
000060 48 24 a4 3d ee 3c d7 3c bf 70 6d bb b7 77 aa 3d
       0.080147326 0.02627417 -0.0036230532 0.08323615
000070 b1 f7 ef bd 14 e7 80 bc 16 47 48 3d 6a 18 3f 3d
       -0.11717165 -0.015735187 0.048895918 0.046654142
000080 1d d1 1c bd 12 f2 2a 3d f1 53 9a bd 8b 01 b5 3d
       -0.038285363 0.041734762 -0.07535542 0.08838185
000090 26 85 83 bd 50 b4 38 bc 1c 3d 0e bc 57 ac 8f 3d
       -0.064218804 -0.011273459 -0.008681562 0.07015293
0000a0 3d 94 ce 3d 1e c5 1d 3d b4 80 57 bd 97 db 7d 3b
       0.10086868 0.038518064 -0.052612975 0.0038735622
0000b0 fc 29 d2 bd 43 f4 d2 3d 1a 53 e9 3c 06 b8 0c bc
       -0.10261914 0.103004955 0.028482009 -0.0085887965
0000c0 66 a5 5f 3d 4c c8 90 3d 7d 8c f6 3b c5 9e 88 bd
       0.054601096 0.070694536 0.0075240717 -0.06670908
0000d0 c6 73 ee 3c 5a 42 68 bd 95 46 74 3d d3 58 eb bc
       0.02910794 -0.056703903 0.059637625 -0.028728878
0000e0 d2 70 9d bc 77 e0 a4 bc b6 d5 95 bd 98 88 b6 3c
       -0.019218836 -0.020126564 -0.07316153 0.02228193
0000f0 f1 87 b5 3d 2e ec 57 bd 84 99 66 bd 21 d9 26 3d
       0.088638194 -0.052715473 -0.056298748 0.040734414
000100 00 9c 10 3d c0 f0 dd 3c 5e 26 9f 3d eb 81 93 bd
       0.035305023 0.027092338 0.0777099 -0.07202514
000110 98 34 79 bd 51 84 75 bd 1a 5f d3 3a 7c 79 84 3d
       -0.060841173 -0.05994064 0.0016126365 0.06468484
000120 dc 2d 4b bd e0 75 93 bc af 26 5e 3c 1e 94 4e 3c
       -0.04960428 -0.018000543 0.013559028 0.012608556
000130 be 41 75 3d f5 8b 0c bd eb c2 cc 3d 58 4a a0 3d
       0.05987715 -0.03431316 0.09998115 0.0782668
000140 42 bd af bc bd 7e 2f bd 5a 34 bb bd 15 e0 80 bd
       -0.02145255 -0.042845476 -0.09140845 -0.0629274
000150 45 53 a6 3b 7c 8b b0 bd e0 0d e3 bd 10 1f 49 3d
       0.0050758445 -0.086203545 -0.11086631 0.04910189
000160 60 67 a1 bd f3 b1 31 3d a0 be 37 3d cb a4 87 3d
       -0.07881045 0.043382596 0.04485953 0.06623229
000170 c1 c8 82 3c 7b 34 b1 ba eb 45 02 3e a5 4c 6c bd
       0.015964868 -0.0013519669 0.12721984 -0.05769028
000180 79 93 a5 bb 17 18 86 ba 44 bb e6 bd 2b e0 30 3d
       -0.0050529805 -0.0010230568 -0.11266187 0.043182533
000190 df 6a a0 bc 9a 4f 38 3c 49 75 df 3c fe 45 c0 bc
       -0.01958221 0.011249447 0.027277606 -0.023470875
0001a0 14 f3 02 3d dc 71 ef bc 7b 7a 64 bc d0 39 ad bd
       0.0319701 -0.029229097 -0.013945217 -0.084582925
0001b0 80 be 08 bd e8 58 01 bd 9f b4 dd bd ea 01 59 bd
       -0.0333848 -0.03157893 -0.10825466 -0.05298034
0001c0 d1 e9 3d bd 74 2f 39 3d 50 d2 6d bc 12 dc ae 3d
       -0.046365563 0.04521127 -0.014515474 0.08538069
0001d0 a2 eb bd bd e9 a7 0a 3d 94 73 ac bd 77 fd 84 3d
       -0.09273459 0.033851538 -0.08420482 0.06493657
0001e0 7a fe 94 3d 47 57 23 3d 87 7c e6 3c 59 69 54 bd
       0.072751 0.039878156 0.028135551 -0.05185828
0001f0 7d 00 14 3d 41 f8 cb 3d 4c 98 7a bc 9e e4 a7 bc
       0.03613328 0.0995946 -0.0152950995 -0.020494755
000200 5c bb d0 3d 52 dc ce 3d b5 7d e1 3d d0 b5 8f bd
       0.10191986 0.101006165 0.11010305 -0.070171
000210 04 05 9a 3d 01 72 51 3c ea b5 9a bd 01 70 c1 3d
       0.07520488 0.012783528 -0.075542286 0.09445191
000220 4b 7d 6e bd 4f b2 2c bc ac ce b7 bd 0a 51 91 3c
       -0.058224957 -0.010540559 -0.089749664 0.017738838
000230 27 c4 fd bc cb 4d d4 3d 4f 26 55 3d 89 fb 90 3d
       -0.030977322 0.103664 0.052038487 0.070792265
000240 04 c2 61 3d e3 9a 57 3d 84 2b 88 3d 5c aa 22 3d
       0.05511667 0.052637946 0.06648925 0.03971325
000250 c5 cc 1b 3d 59 56 94 bd 3b c2 f7 3c d8 31 7c bd
       0.03803708 -0.07243032 0.030243983 -0.061570972
000260 bb c4 ad bb 7f ee 6d bd f2 42 ba 3d b6 e0 cd 3c
       -0.005302993 -0.058088776 0.090948 0.025131565
000270 f7 b9 e9 bd c4 a4 ca bd d2 01 88 3d 96 45 2a 3d
       -0.11412423 -0.09894708 0.06640972 0.04157027
000280 c8 9a d0 3d c7 23 07 3d 20 bd c4 3c 23 74 b0 3c
       0.10185772 0.032993104 0.024015963 0.021539753
000290 0a 88 df bd 2b ef 58 3d 08 65 0d bd b6 a8 a1 3c
       -0.10914619 0.052962463 -0.03452018 0.019733768
0002a0 bd b6 6f bd a1 ea 91 bb f9 f7 a8 3c 59 16 1e bd
       -0.058523882 -0.004453019 0.020626055 -0.03859553
0002b0 9e ba ce 3c ff d3 8d 3d 93 29 ef 3c da 00 1a 3d
       0.02523547 0.06925201 0.029194629 0.03759847
0002c0 99 a2 8e 3d 60 17 96 bd 0b b9 da 3d 99 6f 17 bd
       0.06964607 -0.07328677 0.106798254 -0.036971662
0002d0 8b 9a 5a 3d 89 93 a4 bd e7 e6 9e bd 54 fb 87 3d
       0.05337004 -0.080359526 -0.07758885 0.06639734
0002e0 32 e9 94 3c b7 1a e0 3d 82 96 02 3d 49 29 62 bd
       0.018177602 0.109425955 0.031881817 -0.055215154
0002f0 5d d1 72 3d e4 5a a2 3d 31 28 db 3c ee fb e8 bc
       0.059281696 0.07927492 0.026752563 -0.028440442
000300 30 eb 30 bb f0 21 93 bd f4 cc 9d 3d 6b 58 00 3d
       -0.0026995651 -0.071842074 0.07705107 0.031334322
000310 56 dd 95 bc a4 b4 8b 3d d4 80 45 bd 06 80 88 3d
       -0.018294018 0.06821564 -0.048218563 0.066650435
000320 00 f0 a4 bb c6 dc 7b bd b6 17 ba bc d7 cb af 3a
       -0.005033493 -0.061489843 -0.022716384 0.001341219
000330 7e 75 93 bd e0 0c 07 bd d6 d6 d7 3b c3 30 8a 3d
       -0.07200144 -0.032971263 0.0065868897 0.06747582
000340 e8 0d b4 bd 97 8e 05 bd 88 e1 4d 3d b5 2a a2 bd
       -0.08791715 -0.032606687 0.05026391 -0.07918302
000350 72 d6 ea 3b 6d 8e 0a 3d b3 c2 eb 3c 58 01 3a bd
       0.007166677 0.033827234 0.028779363 -0.045411438
000360 f8 a9 97 3a 80 3b 17 bd de 20 2e bc 05 ac 41 3d
       0.001157104 -0.036921978 -0.010627953 0.04728319
000370 e9 5a 0f 3c c1 b8 b3 3d f6 10 b8 3d cb ce 1b 3d
       0.008749702 0.087754734 0.0898761 0.03803901
000380 6b 82 79 bd 67 13 04 bd 51 60 48 bd 0e 13 cc 3c
       -0.060915392 -0.032245066 -0.04891998 0.02491143
000390 e2 23 ff 3c 86 eb e5 bc 18 1d 87 3d 22 a4 81 bd
       0.03114504 -0.028066408 0.06597346 -0.06330134
0003a0 ca 24 7c bd 79 7b 24 bc 56 53 a6 3b d0 39 4c bd
       -0.061558522 -0.010039204 0.0050758524 -0.04985982
0003b0 7b b1 79 3c 12 33 38 3d fb a4 a3 bd a6 5f c5 3d
       0.015240069 0.04497058 -0.07990452 0.09637384
0003c0 71 10 a9 3c f7 87 1b bd 6f 68 9b 3d d8 4d 07 3d
       0.020637723 -0.037971463 0.075882785 0.033033222
0003d0 e7 1e f3 bc de bc c9 3d e8 ec da 3c 79 f9 95 3b
       -0.029677821 0.09850477 0.026724294 0.0045768586
0003e0 0f 17 63 3d 30 99 00 3d b5 c8 b6 bc 45 cd 82 bc
       0.055441912 0.03139609 -0.022312501 -0.01596702
0003f0 48 df 02 bd 1e b0 29 bd 31 29 eb 3c b6 3b 02 3c
       -0.03195122 -0.041427724 0.028706165 0.0079488065

fc2.bias f4 [64]
000000 e6 c2 01 3d 11 05 11 3c 19 2e 63 bd af 4f 39 3d
       0.03168001 0.008851306 -0.055463884 0.045242008
000010 f4 dc ba bd 24 cf c0 bc 8c 8e 05 3d e4 6d ca 3c
       -0.09124175 -0.023536272 0.032606646 0.024710603
000020 d0 d1 d2 3d 16 94 d5 bd 98 e7 c1 3c 37 82 52 bd
       0.10293925 -0.10428636 0.023670003 -0.051393714
000030 17 4f 42 bd a0 83 86 bc 61 31 e2 3c 42 8b 64 bd
       -0.047438707 -0.016420186 0.027611436 -0.05579687
000040 80 11 de 3d 0c 63 5e 3c d3 d8 f5 b9 35 2d 24 3d
       0.108431816 0.013573419 -0.00046891588 0.040082175
000050 7b 3b 83 3c c5 0f 8a bd 34 dd 87 3c 14 97 62 bd
       0.016019573 -0.06741289 0.01658497 -0.05531986
000060 5f ce ad bd 94 a7 2c bd 0a e0 ca bd 9b ed aa bd
       -0.08486628 -0.042152002 -0.09906013 -0.08346101
000070 81 11 af ba 67 7c 80 3c fe 1d 44 3b 41 d7 5e bd
       -0.0013356657 0.01568432 0.0029925103 -0.0544045
000080 da 5d b0 3d 0a 17 9b bd 48 c4 94 bd bd b5 92 bd
       0.08611651 -0.07572754 -0.07264 -0.0716357
000090 db b8 53 bd f9 7a b0 bd 0f 90 c5 3c 6d 26 80 bd
       -0.051689964 -0.08617205 0.024116544 -0.06257329
0000a0 c2 41 39 3c 20 df 42 3d 74 82 1e 3d 5e c2 82 bd
       0.011307182 0.04757607 0.03869863 -0.06384729
0000b0 a9 9c 9c bc ba 5d dd 3c ef f0 e0 3d 2f fd a6 3c
       -0.01911767 0.027022231 0.109834544 0.0203844
0000c0 ee 5d 40 3d 4a 9a b8 bd 18 b0 83 bd 76 c8 12 b9
       0.04696458 -0.09013803 -0.064300716 -0.00013998323
0000d0 09 15 92 3c 5f 5a 9c 3c e8 68 6d bd db 31 04 3d
       0.017832296 0.019086061 -0.057961375 0.03227411
0000e0 60 b6 0a 3d e9 eb 24 3c 37 20 cf bd 0a 59 d1 3d
       0.033865333 0.010066011 -0.10113566 0.10222061
0000f0 85 7c 8b bc af 09 ce 3d c6 29 8f 3b 04 a7 33 bc
       -0.017027149 0.10060441 0.0043689935 -0.010965113

fc3.weight f4 [32, 64]
000000 1f 76 08 be 5a 1b 1e bd 15 5d 8f bd b0 a2 10 3e
       -0.1332631 -0.038600303 -0.07000176 0.1412456
000010 b4 b9 b4 bd 62 b7 04 be 58 08 41 3d 5e 64 06 be
       -0.088244826 -0.1296058 0.047127098 -0.13124225
000020 2b d4 4b 3d f6 db 11 bc 93 74 11 3e 35 b9 d3 ba
       0.049762886 -0.00890254 0.14204626 -0.0016153218
000030 ed 25 51 bd f4 b6 9a bd 13 f6 e1 bc ac 13 c8 bd
       -0.05106156 -0.07554427 -0.027583158 -0.09769377
000040 8c 8a 3d bd 43 60 a6 bd 76 5b c2 bb ca 7c 01 3e
       -0.046274707 -0.08123829 -0.005931313 0.1264526
000050 54 d0 04 bc 07 f4 90 3d 9e 00 59 bd 4c a5 81 3d
       -0.00810631 0.070777945 -0.052979104 0.06330356
000060 e8 c5 a0 bd 90 2f 1d bd 20 e2 ab 3d 24 6a aa 3c
       -0.078502476 -0.038375437 0.08392739 0.020802565
000070 ed 21 76 3d 9e 96 c7 bd 8c ef 07 be 2e 26 05 3e
       0.060090948 -0.09745525 -0.13274974 0.13002846
000080 04 9d 4b bd 90 eb 91 bd ef 8d b3 3d 00 66 cb 3d
       -0.04971029 -0.07125008 0.08767306 0.09931564
000090 7d 9d f9 3d ef 06 aa 3d 91 9e e8 3c b7 3f e0 3d
       0.12188242 0.08302104 0.028395923 0.10949653
0000a0 8b 9b de bd 77 8b de 3d 5b 41 b2 3d cf af 64 3d
       -0.10869511 0.108664446 0.08703872 0.055831727
0000b0 b7 14 d1 bd 96 4f d2 3d 09 c3 14 be 41 84 01 3e
       -0.10209029 0.10269086 -0.14527525 0.12648107
0000c0 93 11 f2 bd 2d a7 a8 3d 1a 82 b2 bd d7 1b 15 be
       -0.11819758 0.08235011 -0.08716221 -0.14561401
0000d0 1b 5d cd 3d fe ea 1d 3c 9e 8c 1a bd 72 39 6f 3d
       0.10027524 0.009638546 -0.03773176 0.058404393
0000e0 6b eb a8 3d fe 60 85 bd 83 9f 83 3d 29 ea a8 bb
       0.082480274 -0.065126404 0.06426909 -0.005154867
0000f0 bc 99 9f 3d 2c 61 a1 bd e8 58 80 bd 5d 19 8f bd
       0.077929944 -0.07879862 -0.062669575 -0.069872595
000100 c3 8c 35 3d 59 a7 4e 3d 7f 86 b8 bd 43 16 30 bd
       0.044323694 0.050452564 -0.09010028 -0.04298998
000110 40 5b 32 3c 40 cb cb 3d 01 07 2a 3e a2 86 1a 3e
       0.0108860135 0.09950876 0.16604234 0.15090421
000120 39 8f 32 3c 30 4a f8 bd e3 28 22 3e 2b 25 53 3d
       0.010898405 -0.12123525 0.1583591 0.051549118
000130 e9 87 3d 3d e4 64 6e 3c c6 01 0e bc ee 39 0e 3d
       0.046272192 0.014550421 -0.008667415 0.034723215
000140 00 3a 96 3d 5f e0 80 3c 11 04 18 3e ff f1 44 bd
       0.07335281 0.015731988 0.14845301 -0.048082348
000150 b9 ac 4c 3d ea 48 d4 3c d2 c6 b4 3d e3 e1 a7 bc
       0.04996941 0.025913674 0.088269845 -0.020493453
000160 70 55 55 3c 9d 34 00 be ac d2 66 3d cb aa ac bd
       0.013020858 -0.1252007 0.056353256 -0.08431014
000170 b6 a5 ee bb f6 0b a9 bb cd 54 f3 bd 98 54 5c 3d
       -0.007282938 -0.0051588966 -0.11881409 0.053791612
000180 25 fa 25 3d 48 90 1f 3d c7 13 0a 3d b8 c4 40 bd
       0.04052176 0.038955957 0.033710267 -0.047062606
000190 9a 0f 9c bb f3 6b 1d be bb 20 24 3e f0 cf 0d be
       -0.004762602 -0.1537321 0.1602811 -0.13848853
0001a0 b5 ff ab 3d 90 3c 3e bd da 07 ae bd 87 a6 18 bd
       0.083983816 -0.046444476 -0.08497591 -0.037268188
0001b0 c4 45 b1 3c 86 c5 d3 3d 96 35 39 bc cf 9b 12 be
       0.021639712 0.10340409 -0.01130428 -0.14317249
0001c0 20 b1 2a 3e ce 74 e8 3c c6 b4 9c 3d 1c e4 06 3d
       0.1666913 0.02837601 0.07651667 0.032932386
0001d0 c9 7b 23 be 81 ca 73 3d 34 24 fe 3d 99 34 9b bd
       -0.15965189 0.059519295 0.12409249 -0.075783916
0001e0 63 6c e6 3c 6f cb 0a bd bc 61 e6 ba b7 f0 fb 3c
       0.028127855 -0.033885416 -0.0017576735 0.03075443
0001f0 25 13 2c be f1 41 1a 3e ae 16 5b 3d c9 84 52 bd
       -0.16804178 0.15064217 0.053488426 -0.051396165
000200 34 db 05 be 6a 63 67 bd 6c d8 f5 3d 19 bf 0f 3d
       -0.130719 -0.056491293 0.1200417 0.035094354
000210 5f ee 43 bc 4a a1 dd 3c 92 9b 14 be de a4 e0 bb
       -0.011958688 0.027054448 -0.1451247 -0.006855591
000220 a8 64 e0 bc fd e0 94 3d 61 7a 7a 3d 3a a8 8d 3d
       -0.027391747 0.072694756 0.061151866 0.06916852
000230 80 ac 63 bc c2 84 bd 3d 1d 69 03 3e 3b a3 74 bb
       -0.013896108 0.09253837 0.12833066 -0.0037328738
000240 bc a5 10 bd 7e e9 93 bd b2 46 92 3b 3f c3 9d 3c
       -0.035314307 -0.072222695 0.004463994 0.01925814
000250 78 fb 57 3c c4 b4 0a 3e b6 46 71 bd 2b fb a4 3c
       0.013182513 0.13545519 -0.058905326 0.020139297
000260 d2 13 cf 3d 3e 3c 26 3d 5c da ac bd 4f e3 48 3c
       0.10111202 0.040584795 -0.08440086 0.012261226
000270 8f d7 14 3d 2e 22 13 bd a4 7e a4 3d be 59 e7 bd
       0.036338385 -0.03592127 0.08031967 -0.11296414
000280 dc e6 23 bd d7 d3 db 3c 08 71 d0 bd 37 16 8b 3d
       -0.040015087 0.026834412 -0.10177809 0.067913465
000290 e4 e2 c4 3d 50 53 0f 3e 3b 96 13 3b 56 62 00 3e
       0.096135885 0.13996625 0.0022519964 0.12537512
0002a0 1f 1b e4 bd 30 4b 19 bd 85 78 75 bd 18 7d 8e bd
       -0.111379854 -0.03742522 -0.05992939 -0.069574535
0002b0 04 2c 7a bb 1b 7b ba bd d4 d5 11 be 07 d6 1b bb
       -0.0038173208 -0.09105512 -0.14241725 -0.0023778693
0002c0 e2 81 a2 bd 70 b2 21 bd c3 74 cc bb 15 c7 ca bd
       -0.079349294 -0.039476812 -0.006239505 -0.09901253
0002d0 03 ca 1f bd 98 31 be bc 23 13 09 be fb 89 34 bd
       -0.039011013 -0.023217008 -0.13386206 -0.0440769
0002e0 1b bc 12 be da 73 ed bc 1b ea 5d 3d 4a 15 0a be
       -0.14329569 -0.028985906 0.05417834 -0.13484684
0002f0 d8 a6 14 3d 78 23 06 be 64 d6 af bd 9f 02 f3 bd
       0.036291927 -0.13099468 -0.08585814 -0.11865734
000300 80 d2 c6 3c 3c bf 09 3e aa 66 bf bd a5 b9 32 3d
       0.024270296 0.13451856 -0.093457535 0.043634076
000310 24 e9 1e bd 62 41 87 3d 64 a2 38 3c 49 4d 96 3d
       -0.03879656 0.06604268 0.011269186 0.0733896
000320 6a aa 81 3d 5e 15 33 b8 a5 7a 44 3c b8 a0 b3 bc
       0.06331332 -4.2696825e-05 0.011992131 -0.021927223
000330 eb d1 df 3c b9 a4 74 3d f6 0d 8a 3b 8e 8a 89 bc
       0.027321776 0.059727404 0.00421309 -0.0167897
000340 2e cf 16 3e ad c9 07 3e 28 15 5e bd 64 e4 9b 3c
       0.1472747 0.13260527 -0.054219395 0.019029804
000350 af b9 3c 3d 1c 0c 1e be 66 62 1c 3e f5 75 ee bc
       0.04607552 -0.15434307 0.15271911 -0.02910898
000360 91 75 e7 bd c3 4a 48 bd 1f 09 c3 bd 17 0a 61 3d
       -0.11301721 -0.048899423 -0.09523224 0.054941263
000370 88 05 8a bc 28 3f fd bd ea d5 55 3d a6 e7 e7 3d
       -0.01684834 -0.12365562 0.052205957 0.1132348
000380 91 09 8d bd 4d dd 11 be a0 53 58 bc 15 59 14 be
       -0.0688659 -0.14244576 -0.0132035315 -0.14487107
000390 bf 1e ad 3c 1b fa e5 bb 51 c7 1b ba 20 ac 9c 3d
       0.021132825 -0.0070183403 -0.0005942481 0.07650018
0003a0 a3 08 58 bd 57 a0 33 bd 13 d2 01 3c b3 63 bd 3d
       -0.05274261 -0.043854084 0.007923621 0.09247532
0003b0 56 0c c9 bd fd 99 11 3e 54 d7 52 3d 01 98 23 bd
       -0.09816806 0.14218898 0.051474884 -0.039939884
0003c0 7b f5 35 3d 5b 12 c7 3d d2 fa 57 3d 92 e2 b7 bd
       0.04442356 0.09720298 0.052729435 -0.08978762
0003d0 b5 ca 1b 3d af ea 06 3d 81 e6 98 3c 8f 08 13 3e
       0.038035113 0.032938655 0.0186646 0.14358734
0003e0 6d 7c 8a 3c 32 2f 35 3c 49 d7 1b be 8a 0c 01 bd
       0.016905034 0.0110586155 -0.15218844 -0.0315061
0003f0 d3 84 e5 bd 23 a6 4e 3d 54 9a c3 bc c8 b6 1a 3e
       -0.11206975 0.05045141 -0.0238773 0.15108788

fc3.bias f4 [32]
000000 9b 53 5b 3d c7 f6 ad bb d3 c1 91 bd 05 77 9d 3d
       0.05354653 -0.005308959 -0.07117047 0.07688717
000010 b5 84 ad 3d 9f 09 91 3d 7d f7 db bb a2 c8 11 bd
       0.084725775 0.07081913 -0.0067128525 -0.03559173
000020 67 8e 22 bd 95 d7 8f bd 7c 2f c1 bd 46 2e ce 3d
       -0.039686587 -0.07023541 -0.09432885 0.1006742
000030 a6 a2 e9 bd c7 bc f6 bb dc 43 a0 3d a7 54 03 3d
       -0.11407976 -0.007529828 0.07825443 0.032063153
000040 43 4b ee 3d e5 c2 a4 bd 34 1a 12 3c 1d 56 0a 3d
       0.11635449 -0.08044986 0.00891738 0.03377353
000050 8d b8 33 3d 96 52 88 bd 6a c4 dc bd d6 a2 70 3d
       0.043877173 -0.06656377 -0.107796505 0.058749042
000060 71 96 57 3d 2b 43 06 3e 13 5f 56 bd ba 51 07 bc
       0.052633706 0.1311156 -0.052336764 -0.008259231
000070 13 21 f8 3d b8 5b c7 3d ad eb f1 bc 3a 7a c5 bd
       0.121156834 0.09734291 -0.029531324 -0.096424535

fc4.weight f4 [5, 32]
000000 68 ce 40 bd c8 bb dd bd cc fb 22 3e e0 03 1b be
       -0.047071844 -0.10826832 0.15916365 -0.15138197
000010 56 36 ee 3c 45 9f 9d bd e5 51 4c be 8b 9d 2f 3d
       0.029078644 -0.07696394 -0.19953115 0.042874854
000020 dd a4 ed 3d 26 fa 02 bd 9c 99 ae bd e8 97 c7 bc
       0.11603711 -0.03197684 -0.085253924 -0.024364427
000030 0f 1d 32 3e 19 f9 9e bd 73 d8 ab 3d eb 25 1b be
       0.17393897 -0.07762355 0.08390894 -0.15151183
000040 2f 76 04 be fe 51 16 3e 2a 26 a3 bd 8c 57 4d 3e
       -0.12935708 0.14679715 -0.079662636 0.20052928
000050 95 70 3b 3e 73 19 49 be a4 6f 2b 3e f2 9b f4 3d
       0.18304665 -0.19638614 0.16741806 0.11943807
000060 b3 cb 2c 3e f1 b9 03 3e fa cb 15 3e f9 b9 be bd
       0.1687458 0.128639 0.14628592 -0.09312815
000070 11 d2 18 be 8c 12 3d be 2d e6 08 bb 40 3f 53 bc
       -0.14923884 -0.18464106 -0.0020889149 -0.012893498
000080 b9 5c 90 bd 13 ab 18 3e 29 9e 02 be 60 ae 80 bc
       -0.070489354 0.1490901 -0.12755646 -0.015708148
000090 51 7b 7e bd f7 c4 58 3d d3 a4 45 bc c3 b0 a2 bc
       -0.062129322 0.052922215 -0.012063223 -0.019859677
0000a0 ca 60 6c bd 1d 18 1b 3e 8e 5c 03 be 6b 87 d2 3d
       -0.057709493 0.15145917 -0.12828276 0.10279735
0000b0 4b b3 13 3e bf da 21 3e b8 5b 2a 3e 7c 46 46 be
       0.14423864 0.15806101 0.1663655 -0.19362825
0000c0 28 c6 e5 3d 42 78 fa 3b aa 97 a1 3d fa dd 98 3d
       0.11219436 0.0076437304 0.07890256 0.07464214
0000d0 ab 20 af bc a1 96 05 be 38 6d 67 bc da ab cc 3c
       -0.021377882 -0.13045742 -0.014125161 0.024984289
0000e0 6a ad fd 3d 3d 3c 19 bd 1d 0e 37 3d 1f 3f ec bd
       0.12386592 -0.037410963 0.044691194 -0.11535477
0000f0 17 d5 05 be 96 5f f0 3d eb 4a e5 bd 55 d6 eb 3d
       -0.13069569 0.117369816 -0.1119593 0.1151549
000100 43 85 c3 3d 8b 18 ee bb 4e 35 a4 3c 95 92 23 3e
       0.09546902 -0.0072661093 0.020044949 0.15973885
000110 1f 96 98 bc 2a 41 3a be db 08 c0 bd 44 ba de bc
       -0.01862627 -0.1818892 -0.09376689 -0.027188428
000120 30 93 a6 3b ed d0 f3 3b 19 78 64 3d e4 d0 bf bd
       0.005083464 0.0074406774 0.055778597 -0.093660146
000130 9b 0d e3 3d d1 84 d9 bd 40 70 75 bd 30 56 cd 3d
       0.110865794 -0.10621036 -0.059921503 0.100262046
000140 b8 19 43 3e 9b 61 e9 3d 7d c3 32 3e ba 1e 60 bd
       0.1905278 0.1139557 0.17457385 -0.054716803
000150 e2 ad 3e bd a6 0d 41 be aa 01 11 bc 19 c6 a4 bc
       -0.046552546 -0.18852863 -0.008850494 -0.020113992
000160 85 73 74 bd cb c5 d3 3d 30 3c d4 bd 5b 6e 32 3c
       -0.05968048 0.103404604 -0.10363042 0.010890569
000170 a9 26 84 bc ab 86 85 bd 40 bc 3b be 80 7a 6e 3d
       -0.016131716 -0.065198265 -0.1833353 0.058222294
000180 8a 84 05 be f5 78 ee 3d 81 4c b0 3d 79 78 7e bc
       -0.13038841 0.116441645 0.08608342 -0.015531653
000190 cb 17 10 be 32 f9 81 bb ba 8e 81 3b d0 21 c3 bb
       -0.14071576 -0.003966474 0.003953782 -0.0059549585
0001a0 27 b4 00 be cc ca 52 be 19 e3 7b 3d a6 38 31 3e
       -0.12568723 -0.20585173 0.061495874 0.17306766
0001b0 ef 33 83 bd 5f aa ea 3d 03 10 11 3e c4 c3 f9 bd
       -0.0640639 0.11458277 0.14166264 -0.121955425
0001c0 0d 47 0d be d0 5e f7 bd 5d 76 08 be 2e 31 44 3e
       -0.13796635 -0.12078631 -0.13326402 0.19159386
0001d0 6d c9 36 3e b0 78 30 be 67 1f 6e 3d a2 20 5d bd
       0.17850275 -0.17233539 0.058135416 -0.0539862
0001e0 e7 cc ce bd 7c a9 3a be 2f 85 51 bd f2 39 01 3e
       -0.10097676 -0.18228716 -0.051152404 0.1261976
0001f0 59 1d 79 3d 16 1d 65 3c bf f2 58 bc cd 16 10 3e
       0.060819004 0.013983985 -0.013241469 0.14071198
000200 03 6b cb bd e6 9e 26 3e c1 1b 14 be a7 e1 5f 3e
       -0.0993252 0.16271552 -0.14463712 0.21863423
000210 77 38 23 be 56 33 06 3e c3 a4 27 3d 0f c9 02 be
       -0.15939508 0.1310552 0.040928613 -0.1277201
000220 0d bf f6 bd 54 7c 1c 3e 76 df 62 3e 4b cc 45 be
       -0.12048159 0.15281802 0.22155556 -0.19316213
000230 af ef 19 be 16 eb 44 be 90 17 8c bd b1 e1 48 3e
       -0.15032838 -0.19230303 -0.06840432 0.19617344
000240 61 fd 8c bd 02 1c 8e bd 00 4c 3c be b0 1d 80 3d
       -0.06884266 -0.06938936 -0.18388367 0.062556624
000250 40 f9 0d be 55 91 17 3e 65 ff 04 be f8 6a 12 be
       -0.13864613 0.14801534 -0.1298805 -0.14298618
000260 9f 28 55 be 89 03 42 3e 84 ff 87 bc eb 8f 45 be
       -0.20816277 0.18946661 -0.016601332 -0.19293182
000270 86 13 6e 3d 39 ca 88 bd 95 f9 59 3e ab 64 44 be
       0.058124088 -0.06679196 0.21286614 -0.19179027

fc4.bias f4 [5]
000000 d5 c7 0c 3e 49 52 5c bd db 9e 97 bc 18 77 43 3d
       0.13748105 -0.05378941 -0.018508365 0.047721
000010 00 02 dd bd
       -0.10791397
