clean_code/trained_models/actor_1129.pth (torch, 54884 bytes, 8 tensors)

fc1.weight f4 [128, 18]
0	0x3e21985e	0.1578078
1	0x3db4e646	0.08832984
2	0xbe1c23ca	-0.15248027
3	0x3e44dfac	0.19225949
4	0x3dfdee6d	0.12398992
5	0xbd841f71	-0.064513095
6	0x3d001c85	0.0312772
7	0x3cd57873	0.026058411
8	0x3dc4f790	0.09617531
9	0xbd89cf9f	-0.06729054
10	0xbe14b258	-0.14521158
11	0x3ba92b0a	0.0051626014
12	0x3e5e3781	0.2170086
13	0x3da946e2	0.08265473
14	0x3e17a1f3	0.14807872
15	0x3d0aa643	0.033849966
16	0xbe66353c	-0.22481245
17	0x3e82b82b	0.25531134
18	0x3e10c23e	0.14136598
19	0x3e2b4abb	0.16727726
20	0x3db3fedf	0.08788847
21	0xbd9f3422	-0.077736154
22	0x3d908513	0.07056632
23	0xbc8beb70	-0.017080039
24	0x3e16f6f8	0.14742649
25	0x3e5340f3	0.20630245
26	0x3dccae35	0.09994165
27	0x3d2e66a0	0.04257834
28	0x3e188670	0.14895034
29	0x3e14993b	0.14511578
30	0xbe2b576f	-0.16732572
31	0xbe0c3224	-0.13691002
32	0xbdbdfed9	-0.09277124
33	0x3d72b4f1	0.05925459
34	0xbe25c5ef	-0.16188787
35	0x3d26eccd	0.040753175
36	0x3e1d194f	0.15341686
37	0x3db54ff6	0.08853142
38	0xbe14b8cc	-0.1452362
39	0x3d80c62b	0.062877975
40	0xbe35854b	-0.17726628
41	0x3d0ac483	0.033878814
42	0x3e471e78	0.19445217
43	0x3e1e4711	0.15456797
44	0xbd7876c6	-0.060660146
45	0xbe329f00	-0.17443466
46	0xbdd493e5	-0.10379771
47	0x3e36fa84	0.17869002
48	0x3e85bd51	0.26121
49	0x3dc56982	0.09639265
50	0x3d81ff95	0.063475765
51	0xbdd7a9f6	-0.10530464
52	0x3e5263ea	0.20545927
53	0x3d64a900	0.055825233
54	0x3e02e16c	0.12781304
55	0xbd1fba67	-0.038996127
56	0x3e2c0367	0.16798173
57	0x3cd515f1	0.026011439
58	0xbe3bb6e7	-0.1833149
59	0xbe0a30a7	-0.13495122
60	0xbe44fbe2	-0.1923671
61	0xbe40ffcc	-0.18847579
62	0xbdfee5b9	-0.1244616
63	0x3e2a88a9	0.16653694
64	0x3dc786d6	0.09742515
65	0xbdd58ca3	-0.10427215
66	0x3e55baad	0.20871992
67	0x3e3e1977	0.18564402
68	0xbba66be2	-0.0050787786
69	0xbe3fdf70	-0.18737578
70	0x3e2a7339	0.16645516
71	0xbd82a9ee	-0.06380068
72	0xbd99cea4	-0.07510117
73	0x3e6fc25b	0.23413984
74	0xbd08b9fc	-0.033380494
75	0xbe4f5943	-0.20248894
76	0x3e5abfec	0.21362275
77	0x3e234399	0.15943755
78	0xbdc40999	-0.09572143
79	0x3e85e2e5	0.2614967
80	0xbcdf0bd3	-0.027227318
81	0x3d246f60	0.040145278
82	0x3d879832	0.06620826
83	0x3dcb51a4	0.09927681
84	0x3cc96007	0.024581922
85	0xbe0629f4	-0.13101941
86	0x3e77b4f2	0.24190119
87	0x3e2d35e4	0.16915089
88	0xbe0d0ac3	-0.13773637
89	0x3e59578c	0.21224803
90	0x3dd2a427	0.10285216
91	0xbd555c7c	-0.052090153
92	0x3d32bd0e	0.043637328
93	0x3e422f96	0.18963465
94	0x3e74f609	0.2392198
95	0xbcd80b26	-0.026372503
96	0xbda8933b	-0.08231207
97	0xbbc1fe13	-0.0059201806
98	0x3dc6c18c	0.09704885
99	0xbe330308	-0.17481625
100	0xbca24c5e	-0.019811805
101	0x3e23b400	0.15986633
102	0xbe3762d5	-0.17908795
103	0x3e52badf	0.20579098
104	0xbe26660c	-0.16249865
105	0x3e4f6244	0.20252329
106	0x3d8139a3	0.063098215
107	0x3e540487	0.20704852
108	0x3e0fb0f7	0.1403235
109	0xbe7e5dd6	-0.24840483
110	0x3e140e04	0.14458472
111	0xbe09bb90	-0.13450456
112	0x3dbe89a0	0.09303594
113	0x3e2f298f	0.17105697
114	0x3e337931	0.175267
115	0x3da13f23	0.078733705
116	0xbe3758a0	-0.17904902
117	0xbb5a6de8	-0.003332967
118	0xbe699954	-0.22812396
119	0xbcd192ab	-0.025582632
120	0xbe651803	-0.22372441
121	0xbc1fa760	-0.009744495
122	0xbe0436be	-0.12911507
123	0x3d555b15	0.052088816
124	0xbe792704	-0.2433129
125	0xbc0c1fd0	-0.008552507
126	0x3d00430b	0.031313937
127	0x3e1ef6dc	0.15523857
128	0xbe516178	-0.20447338
129	0xbe54e280	-0.20789528
130	0xbe07f781	-0.13278009
131	0x3db6b5c3	0.08921387
132	0x3e557efb	0.2084922
133	0xbe00cb48	-0.12577546
134	0x3e34e9ff	0.17667387
135	0xbe3dcd33	-0.18535309
136	0x3e31ed7b	0.17375748
137	0x3e3782da	0.1792101
138	0xbcb1adce	-0.021689322
139	0x3cc9f3c8	0.024652377
140	0x3e134533	0.14381866
141	0x3bb0cd15	0.0053955414
142	0x3d4c4edc	0.049879894
143	0xbe1907df	-0.14944409
144	0xbb35e1bf	-0.0027752963
145	0xbdb302a3	-0.08740737
146	0xbd960596	-0.07325284
147	0x3e2bf926	0.16794261
148	0xbd8a32d5	-0.06747977
149	0xbe718d42	-0.23589042
150	0xbdd688be	-0.104753
151	0xbe42a38a	-0.19007698
152	0x3bd4cd84	0.006494226
153	0xbe5fcfab	-0.21856563
154	0xbdd3be20	-0.10338998
155	0xbe7e4d21	-0.2483411
156	0x3e237641	0.15963079
157	0xbe57ab97	-0.2106155
158	0xbdd3be30	-0.1033901
159	0xbe4475fa	-0.1918563
160	0x3d182d50	0.03715259
161	0x3e1f69af	0.15567659
162	0x3e1df217	0.15424381
163	0x3e65d657	0.22445045
164	0x3e6ada6f	0.22934888
165	0xbd906ccf	-0.070520036
166	0x3dfc571c	0.12321302
167	0xbe6014f8	-0.21882999
168	0x3e67cd2f	0.22636865
169	0x3e13b772	0.14425448
170	0xbd804d8c	-0.06264791
171	0x3e533fc8	0.206298
172	0x3dd06276	0.1017503
173	0x3e6dad02	0.23210528
174	0x3e28f81c	0.16500896
175	0xbdf4ba4f	-0.11949598
176	0xbd8d4e7e	-0.06899737
177	0x3e5d4dac	0.2161166
178	0xbe33fd4f	-0.17577098
179	0xbdc0bc5e	-0.09410928
180	0xbdf7f904	-0.12108043
181	0xbe47e967	-0.1952263
182	0xbe201f70	-0.15636992
183	0xbe464396	-0.1936172
184	0x3dc36419	0.095405765
185	0x3dc6f513	0.09714713
186	0xbc4287b8	-0.011873178
187	0x3dd9b2a5	0.10629777
188	0x3c44047d	0.011963961
189	0x3cae66e1	0.02128929
190	0xbcbc1b28	-0.022962168
191	0x3d8b7522	0.06809451
192	0xbe39d1be	-0.18146417
193	0xbd6ec4f0	-0.058293283
194	0xbe622fe6	-0.22088584
195	0xbe3532ff	-0.17695235
196	0x3df9b236	0.12192194
197	0x3d07ae7f	0.033125397
198	0xbd4ce6f6	-0.05002495
199	0x3e4a93c5	0.19782932
200	0xbcc7d9f4	-0.02439592
201	0xbdf73192	-0.12070002
202	0xbdedfd7f	-0.11620616
203	0x3e4fb15e	0.20282504
204	0x3da08b6a	0.07839091
205	0x3e43ac2a	0.19108644
206	0x3d31f859	0.043449733
207	0xbd9534de	-0.07285474
208	0x3dfe7dcc	0.124263376
209	0x3ddf917c	0.10916421
210	0xba914731	-0.0011083839
211	0xbd091168	-0.033463866
212	0xbdce85e0	-0.100841284
213	0x3e009af3	0.12559108
214	0xbe2ea494	-0.17054969
215	0x3e6c2abb	0.23063175
216	0xbdd5e6c8	-0.10444409
217	0xbdb05434	-0.086098105
218	0x3e0f05b9	0.13967027
219	0xbde7d1c3	-0.11319306
220	0xbe57cc90	-0.21074128
221	0xbd3335c7	-0.043752458
222	0xbe5ba19d	-0.2144837
223	0x3c8dd58f	0.017313747
224	0xbe4265ef	-0.18984197
225	0xbe31b2ed	-0.17353411
226	0xbd257182	-0.040391453
227	0x3e3ba6fc	0.18325418
228	0xbe121c62	-0.1426864
229	0xbb4c57c0	-0.0031180233
230	0x3d9a95cb	0.07548102
231	0xbde00ce1	-0.109399565
232	0x3e122da6	0.14275226
233	0x3e1802b8	0.14844787
234	0x3e89949b	0.2687119
235	0xbdb1b70b	-0.08677491
236	0x3da12da8	0.07870036
237	0xbd573db6	-0.052549087
238	0x3cb2a494	0.021806993
239	0x3d7b2795	0.061317045
240	0x3e5c1062	0.21490625
241	0x3e616e37	0.220147
242	0x3e33705d	0.17523332
243	0x3e7c22d5	0.24622662
244	0xbcf3e196	-0.029770654
245	0x3d7c1a3f	0.061548468
246	0xbe38aeb6	-0.18035397
247	0xbdfcac6f	-0.123375766
248	0x3c8b9004	0.017036445
249	0x3d1bf21b	0.038072687
250	0xbc641eab	-0.013923327
251	0xbda5e309	-0.08099944
252	0x3e640b60	0.22269964
253	0xbd5dc4f5	-0.05414291
254	0x3bfa7c0e	0.007644183
255	0x3d0487e3	0.032356154

fc1.bias f4 [128]
0	0x3e1b7f2f	0.15185235
1	0x3e242d4d	0.16032906
2	0x3e265ffe	0.16247556
3	0x3e3b7051	0.18304564
4	0x3cbf5e46	0.023360383
5	0x3da972e3	0.08273866
6	0x3d2cec8c	0.042217776
7	0xbdc51a9f	-0.09624218
8	0x3dd8bf79	0.105833955
9	0xbe377542	-0.17915824
10	0xbe5eef14	-0.21770889
11	0x3e74a652	0.23891571
12	0x3e20c80a	0.15701309
13	0xbd709a40	-0.058740854
14	0x3db540b2	0.0885023
15	0x3e6cfb9a	0.23142853
16	0x3c4fe3f4	0.012688626
17	0x3e586fec	0.21136445
18	0xbe226730	-0.15859675
19	0x3dc999e9	0.09843809
20	0x3e36521e	0.17804763
21	0x3da9da88	0.08293635
22	0xbe20b27f	-0.15693091
23	0x3cc811cc	0.024422549
24	0xbe506e4c	-0.20354575
25	0x3ddbb810	0.107284665
26	0x3c9c3d0d	0.01907208
27	0x3e417e87	0.18895923
28	0xbdb46b64	-0.08809546
29	0x3d82c514	0.06385246
30	0xbba8c1cb	-0.005150055
31	0xbe48e33f	-0.19617938
32	0x3d77a50d	0.06046014
33	0x3e7f43b5	0.24928172
34	0x3dbe6b0e	0.09297763
35	0xbdb9a99e	-0.09065555
36	0xbdee44e3	-0.11634233
37	0x3c2e015d	0.010620442
38	0x3e8b4b78	0.27206016
39	0xbe1db186	-0.15399751
40	0x3ca79623	0.020457333
41	0x3e3f3c2c	0.18675297
42	0xbe31d0b0	-0.17364764
43	0x3e814116	0.2524497
44	0xbda67e98	-0.081296146
45	0x3e5128e7	0.2042576
46	0x3e8716ed	0.26384678
47	0x3e32a6dc	0.17446464
48	0x3e83f6dd	0.2577428
49	0xbe1349ab	-0.14383571
50	0x3de0b414	0.10971847
51	0xbd50a49f	-0.050938245
52	0xbe1976c5	-0.14986713
53	0xbe876e5d	-0.26451388
54	0xbd45f2ad	-0.048327137
55	0x3e890f42	0.26769453
56	0x3c95b9f5	0.018277148
57	0x3e7cb539	0.24678506
58	0xbe407353	-0.18793993
59	0xbc187821	-0.009305985
60	0xbd46a8dc	-0.04850088
61	0x3e80d6b4	0.25163805
62	0x3cb1f3b1	0.021722646
63	0xbe1f44d7	-0.15553604
64	0x3dead382	0.11466123
65	0xbe612e91	-0.2199042
66	0x3cb81f2d	0.022475803
67	0x3db7e84c	0.08979854
68	0xbd8d06a0	-0.06886029
69	0x3e292a9c	0.1652016
70	0x3e825f7d	0.25463477
71	0x3da470a4	0.08029297
72	0xbe0e6772	-0.13906649
73	0x3d5dee32	0.05418224
74	0xbe354ecb	-0.17705838
75	0x3e186c8b	0.14885156
76	0x3e33d1a2	0.17560437
77	0xbc52de11	-0.012870328
78	0x3e61fa8c	0.22068232
79	0x3e146fab	0.14495723
80	0x3d5091e4	0.050920382
81	0xbe2758b5	-0.16342433
82	0xbe781875	-0.2422808
83	0xbe2a5ce3	-0.16636996
84	0x3dbf3a04	0.093372375
85	0x3e0a220a	0.13489547
86	0xbdbd7b74	-0.092520624
87	0xbd87b00f	-0.066253774
88	0xbddc1653	-0.107464455
89	0x3a271183	0.0006373154
90	0x3e0c837c	0.13722032
91	0xbc877634	-0.016535856
92	0x3cb79f01	0.022414686
93	0x3e6948d6	0.22781691
94	0x3e5196a0	0.20467615
95	0xbe8953b6	-0.2682168
96	0x3de8974d	0.11356983
97	0xbe575d0d	-0.2103159
98	0xbe50e759	-0.20400752
99	0x3d3cb8be	0.04607462
100	0x3e27a420	0.16371202
101	0xbe4cd0b9	-0.20001496
102	0x3e23d115	0.15997727
103	0xbd78801f	-0.06066906
104	0x3e07b945	0.13254268
105	0x3e566680	0.20937538
106	0x3d1159b9	0.035485957
107	0xbe2518ab	-0.16122691
108	0x3e2635e2	0.16231492
109	0x3e0c3e05	0.13695534
110	0xbdc1a0d6	-0.09454505
111	0xbcfceb42	-0.030873898
112	0xbc12f72e	-0.008970065
113	0x3e5e02db	0.21680777
114	0xbe2a5373	-0.16633396
115	0x3e821a41	0.25410655
116	0xbe12f77f	-0.14352225
117	0xbe2eaab8	-0.17057312
118	0xbe265b5f	-0.16245793
119	0x3e5c6246	0.21521863
120	0x3d839522	0.06424929
121	0x3cfca9da	0.03084271
122	0x3e318f23	0.17339759
123	0x3d7cb9c7	0.06170061
124	0xbe71d00d	-0.23614521
125	0x3e3a1552	0.18172196
126	0x3dbd261b	0.09235784
127	0xbe15f45f	-0.14644001

fc2.weight f4 [64, 128]
0	0x3d927708	0.0715161
1	0xbcf36ad8	-0.029714033
2	0x3cb743b7	0.022371156
3	0xbba7576a	-0.005106856
4	0x3d64e7e1	0.0558852
5	0x3d64e6a5	0.055884022
6	0x3d6e137f	0.05812406
7	0x3d3a4908	0.045479804
8	0x3bcc8144	0.0062409956
9	0xbcd8d551	-0.026468905
10	0x3c4c1c31	0.012457893
11	0x3d9919d6	0.07475631
12	0xbcf6677a	-0.030078638
13	0x3b9e3939	0.004828599
14	0x3d180448	0.037113458
15	0x3cbe3ec1	0.023223283
16	0x3c02b4e9	0.007977703
17	0x3c0a0116	0.0084231105
18	0xbd2ee2be	-0.042696707
19	0x3d0e9ac7	0.034815576
20	0x3d02faae	0.031977348
21	0xbdbe7648	-0.09299904
22	0x3d636647	0.05551746
23	0xbd6ddac8	-0.058069974
24	0x3da4d62e	0.08048664
25	0x3cd23931	0.025662037
26	0xbb83e160	-0.0040246695
27	0x3da97435	0.08274118
28	0xbdef84ae	-0.116952285
29	0xbc7e496c	-0.015520435
30	0x3d46a9ec	0.048501894
31	0x3d4051ef	0.046953138
32	0xbd1e2bea	-0.0386161
33	0x3d299f28	0.04141155
34	0xbd99bd93	-0.075068615
35	0x3db3ed38	0.0878548
36	0xbd8296f1	-0.06376446
37	0xbc355b3f	-0.011069118
38	0xbc1b1207	-0.009464747
39	0x3d8f8b63	0.07009008
40	0x3dcd98cf	0.100389116
41	0x3d229460	0.039692283
42	0xbd54f2a5	-0.051989216
43	0x3b521fc2	0.0032062386
44	0xbdd16860	-0.10224986
45	0x3dd239c5	0.10264925
46	0x3ce57e0c	0.028014205
47	0xbc1cde33	-0.009574461
48	0x3d5e1739	0.054221366
49	0x3d90aae9	0.070638485
50	0x3bed7cf5	0.007247562
51	0xbd89d04a	-0.06729181
52	0x3cee9f06	0.029128563
53	0xbd674e6c	-0.056471273
54	0x3d73c69d	0.059515584
55	0xbceede4b	-0.029158732
56	0xbc9e9c4b	-0.019361636
57	0xbca84604	-0.020541199
58	0xbd9577c9	-0.07298238
59	0x3cb98065	0.022644231
60	0x3db42d32	0.08797683
61	0xbd58ed6b	-0.052960794
62	0xbd689756	-0.05678495
63	0x3d278aa6	0.04090371
64	0x3d0eca49	0.034860883
65	0x3ce124ba	0.027483333
66	0x3d9e5a77	0.077320985
67	0xbd923313	-0.07138648
68	0xbd7c02c5	-0.06152608
69	0xbd7729a0	-0.06034243
70	0x3af6633e	0.0018797887
71	0x3d832e19	0.06405277
72	0xbd49de97	-0.049284544
73	0xbc9a3138	-0.018822297
74	0x3c619bcb	0.013770054
75	0x3c57fca0	0.013182789
76	0x3d753ff2	0.059875436
77	0xbd0c3850	-0.03423339
78	0x3dcc4ce2	0.09975602
79	0x3d9f40cc	0.07776031
80	0xbcaed580	-0.02134204
81	0xbd2f0f54	-0.042739227
82	0xbdba7275	-0.09103862
83	0xbd7fd59e	-0.06245958
84	0x3bb5c16d	0.00554674
85	0xbdaf8416	-0.08570115
86	0xbde26846	-0.11055045
87	0x3d492b7f	0.049113747
88	0xbda0c710	-0.07850468
89	0x3d3398e7	0.04384699
90	0x3d37ae1e	0.044843785
91	0x3d86db13	0.06584754
92	0x3c84f57a	0.016230334
93	0xbae35136	-0.0017342928
94	0x3e014d90	0.12627244
95	0xbd6b1ed1	-0.057402436
96	0xbba29c8d	-0.00496251
97	0xba259c41	-0.0006317534
98	0xbde618f4	-0.11235228
99	0x3d33119e	0.043717973
100	0xbca41bc5	-0.020032773
101	0x3c3c5640	0.011495173
102	0x3cdcf335	0.026971439
103	0xbcbdda45	-0.023175368
104	0x3d04879b	0.032355886
105	0xbcefc880	-0.02927041
106	0xbc5aabbf	-0.0133466115
107	0xbdac6d4e	-0.08419286
108	0xbd072441	-0.03299356
109	0xbd037bbf	-0.032100435
110	0xbddce6f8	-0.10786241
111	0xbd589880	-0.05287981
112	0xbd3fd116	-0.04683026
113	0x3d36fe2f	0.044676002
114	0xbc654320	-0.013993055
115	0x3daf526a	0.08560641
116	0xbdbd5c9b	-0.09246179
117	0x3d08881c	0.03333293
118	0xbdabfdd3	-0.083980225
119	0x3d846564	0.06464651
120	0x3d93f779	0.07224936
121	0x3d21c167	0.039491083
122	0x3ce306b3	0.027713155
123	0xbd55e7ed	-0.052223135
124	0x3d15f32d	0.036608864
125	0x3dca2204	0.09869769
126	0xbc80ec25	-0.015737602
127	0xbca3c2ef	-0.019990413
128	0x3dd028f1	0.10164059
129	0x3dcee3f1	0.1010207
130	0x3de1538d	0.11002264
131	0xbd90acb9	-0.07064194
132	0x3d99b45a	0.075051025
133	0x3c5b00e9	0.013366916
134	0xbd9adca8	-0.07561618
135	0x3dc13077	0.09433072
136	0xbd6f87c3	-0.05847908
137	0xbc2e5422	-0.010640176
138	0xbdb78f86	-0.08962922
139	0x3c911524	0.017710276
140	0xbcfd8b75	-0.030950287
141	0x3dd4f913	0.1039907
142	0x3d55515f	0.052079555
143	0x3d9105ed	0.070812084
144	0x3d614c2e	0.05500429
145	0x3d57b99d	0.05266725
146	0x3d880600	0.066417694
147	0x3d21b3e2	0.03947819
148	0x3d198a39	0.037485335
149	0xbd9486ff	-0.07252311
150	0x3cf6ec1e	0.030141886
151	0xbd7b766d	-0.061392237
152	0xbb991e0d	-0.004672772
153	0xbd6fe9fb	-0.05857275
154	0x3db9a657	0.0906493
155	0x3ccd808a	0.025085706
156	0xbde9d1eb	-0.11416992
157	0xbdcae0b8	-0.09906143
158	0x3d867973	0.06566133
159	0x3d2a2f22	0.041548856
160	0x3dd0e82f	0.102005355
161	0x3d0717ad	0.032981563
162	0x3cc3a3c6	0.023881804
163	0x3caf36f3	0.021388507
164	0xbddf6490	-0.10907853
165	0x3d58be78	0.05291602
166	0xbd0d3269	-0.034471903
167	0x3ca1de3e	0.019759294
168	0xbd70c618	-0.058782667
169	0xbb80f58e	-0.0039355224
170	0x3ca91d58	0.020643875
171	0xbd1ddaa3	-0.038538586
172	0x3ccef1d5	0.025261799
173	0x3d8dfdaf	0.06933152
174	0x3cefa6b8	0.029254302
175	0x3d1b5a45	0.037927885
176	0x3d8eaffd	0.06967161
177	0xbd96ebee	-0.07369219
178	0x3ddafaf0	0.10692394
179	0xbd18242c	-0.03714387
180	0x3d5c4894	0.053780153
181	0xbda4bc1b	-0.08043691
182	0xbd9fa9e6	-0.077960774
183	0x3d87eb82	0.066367164
184	0x3c91826c	0.017762385
185	0x3ddfead4	0.10933462
186	0x3d01b3e3	0.031665694
187	0xbd618cb4	-0.055065826
188	0x3d71714e	0.058945946
189	0x3da27633	0.07932701
190	0x3cd90f09	0.026496427
191	0xbce9c391	-0.028535636
192	0xbb58affd	-0.0033063882
193	0xbd93bd1f	-0.07213806
194	0x3d9da065	0.076966085
195	0x3d013e74	0.0315537
196	0xbc9923c5	-0.018693814
197	0x3d8b24f5	0.06794158
198	0xbd4501dd	-0.04809748
199	0x3d87bcce	0.066278085
200	0xbbab55a0	-0.005228713
201	0xbd7cbaaa	-0.061701454
202	0xbcbc08e7	-0.022953464
203	0x3b2e3fd4	0.0026588337
204	0xbd942e31	-0.07235373
205	0xbd07164c	-0.03298025
206	0x3bdb157a	0.00668591
207	0x3d88880f	0.06666576
208	0xbdb4bf10	-0.08825505
209	0xbd06fbf6	-0.032955132
210	0x3d4e0a2c	0.05030267
211	0xbda1ccfe	-0.07900427
212	0x3bf5f444	0.0075059254
213	0x3d0d18aa	0.03444735
214	0x3cec63c9	0.028856175
215	0xbd3b4309	-0.045718227
216	0x3b0829e1	0.0020776915
217	0xbd16acb1	-0.036785785
218	0xbc268989	-0.010164627
219	0x3d419499	0.047260854
220	0x3c10d5a4	0.008839998
221	0x3db3942e	0.087684974
222	0x3db82e83	0.089932464
223	0x3d1b8656	0.03796991
224	0xbd7a6e61	-0.06114042
225	0xbd03dea1	-0.032194737
226	0xbd48863b	-0.048956137
227	0x3ccddb08	0.025128856
228	0x3cf9f599	0.030512618
229	0xbce69793	-0.028148448
230	0x3d87456a	0.066050366
231	0xbd81a912	-0.06331076
232	0xbd7baef0	-0.06144613
233	0xbc1f8178	-0.009735458
234	0x3bb7cd13	0.0056091635
235	0xbd4aa09e	-0.049469583
236	0x3c791875	0.015203585
237	0x3d376373	0.044772577
238	0xbda25953	-0.079271935
239	0x3dc6354f	0.096781366
240	0x3ca6cae6	0.020360421
241	0xbd1d691b	-0.038430315
242	0x3d9c48a0	0.076310396
243	0x3d0b77f4	0.034049943
244	0xbcf40380	-0.029786825
245	0x3dc93a7e	0.098256096
246	0x3cda70fc	0.026665203
247	0x3b977a4d	0.0046227337
248	0x3d62a5ad	0.055333782
249	0x3d0080d7	0.03137287
250	0xbcbafeae	-0.022826519
251	0xbc80cc80	-0.015722513
252	0xbd02b7f5	-0.031913716
253	0xbd2a1560	-0.04152429
254	0x3ce94cf7	0.028479083
255	0x3c0a3897	0.008436344

fc2.bias f4 [64]
0	0x3d00b5da	0.031423427
1	0x3c10e570	0.008843765
2	0xbd6342f3	-0.05548377
3	0x3d3a774d	0.04552393
4	0xbdbae88a	-0.091263846
5	0xbcc28b69	-0.023748117
6	0x3d057005	0.032577533
7	0x3cc763d2	0.02433959
8	0x3dd37ebc	0.10326907
9	0xbdd59001	-0.10427857
10	0x3cc11f60	0.023574531
11	0xbd52f161	-0.051499728
12	0xbd438136	-0.047730647
13	0xbc87af1d	-0.016562993
14	0x3ce1dd98	0.027571484
15	0xbd64f5c7	-0.055898454
16	0x3ddcf659	0.107891746
17	0x3c60aa68	0.013712503
18	0xba070a59	-0.0005151383
19	0x3d245a0b	0.040124934
20	0x3c85764a	0.016291756
21	0xbd8a5740	-0.06754923
22	0x3c88b14c	0.016686104
23	0xbd62ab73	-0.055339288
24	0xbdae404d	-0.08508358
25	0xbd2ce708	-0.042212516
26	0xbdcaea10	-0.09907925
27	0xbdaa2c7b	-0.08309265
28	0xbab866d8	-0.0014068736
29	0x3c80a194	0.015702046
30	0x3b42c606	0.0029720082
31	0xbd5e7858	-0.054313987
32	0x3db0341d	0.0860369
33	0xbd9b94b9	-0.07596726
34	0xbd94d4f7	-0.07267182
35	0xbd9246d3	-0.07142415
36	0xbd53b24f	-0.05168372
37	0xbdb0a398	-0.08624953
38	0x3cc522a0	0.024064362
39	0xbd7cee16	-0.061750494
40	0x3c28947f	0.0102893105
41	0x3d434ab6	0.04767867
42	0x3d1e9b2a	0.038722195
43	0xbd82cb52	-0.063864365
44	0xbc9dd1fd	-0.01926517
45	0x3ce35f08	0.027755275
46	0x3de0df8b	0.109801374
47	0x3ca6e7c9	0.020374196
48	0x3d3fdc7f	0.04684114
49	0xbdb896fa	-0.090131715
50	0xbd8373b3	-0.06418552
51	0xb9c3f69e	-0.00037377042
52	0x3c9259c8	0.017865077
53	0x3c9c48fe	0.019077774
54	0xbd6d214a	-0.057893075
55	0x3d049229	0.03236595
56	0x3d0b09cb	0.033944886
57	0x3c230558	0.0099500045
58	0xbdcf3da3	-0.10119178
59	0x3dd12d49	0.102137156
60	0xbc8d2254	-0.017228283
61	0x3dcdc51c	0.10047361
62	0x3b8c91b6	0.004289831
63	0xbc321518	-0.010869287

fc3.weight f4 [32, 64]
0	0xbe075256	-0.13215002
1	0xbd19acbc	-0.037518248
2	0xbd90e203	-0.07074358
3	0x3e103240	0.14081669
4	0xbdb668c4	-0.08906701
5	0xbe02c348	-0.12769806
6	0x3d46e6a6	0.048559807
7	0xbe055102	-0.13019183
8	0x3d503c7d	0.050838936
9	0xbc1e1641	-0.00964886
10	0x3e129f17	0.143185
11	0xbb271274	-0.0025493177
12	0xbd4a417e	-0.049378864
13	0xbd983080	-0.07431126
14	0xbce800cb	-0.02832069
15	0xbdca0307	-0.09863859
16	0xbd392672	-0.04520268
17	0xbda2b28e	-0.07944213
18	0xbb994a83	-0.004678072
19	0x3e0089bb	0.1255254
20	0xbc14b8a1	-0.009077222
21	0x3d8f0131	0.06982649
22	0xbd5254d8	-0.051350445
23	0x3d8003d9	0.06250734
24	0xbda275ab	-0.079326
25	0xbd21bfbe	-0.0394895
26	0x3da9b650	0.082867265
27	0x3ca389b9	0.019963132
28	0x3d7d424b	0.0618308
29	0xbdc98811	-0.09840406
30	0xbe086f70	-0.1332376
31	0x3e0687d0	0.13137746
32	0xbd47b247	-0.048754003
33	0xbd9364e3	-0.07196977
34	0x3db2b19a	0.08725281
35	0x3dc9c691	0.09852327
36	0x3df81b5c	0.121145934
37	0x3da84a8c	0.08217344
38	0x3cf429a7	0.029805018
39	0x3de03c5c	0.10949013
40	0xbdde0e48	-0.10842568
41	0x3de07e6a	0.109616116
42	0x3db0b3ea	0.08628066
43	0x3d618ced	0.055066038
44	0xbdd2c0ca	-0.10290678
45	0x3dd40a70	0.10353553
46	0xbe13772c	-0.14400929
47	0x3e004633	0.12526779
48	0xbdef08b4	-0.11671582
49	0x3da6c2e2	0.0814264
50	0xbdb05f2a	-0.08611901
51	0xbe15da4f	-0.1463406
52	0x3dca310b	0.098726355
53	0x3c36ee8a	0.011165271
54	0xbd145b7d	-0.036220063
55	0x3d72ea56	0.05930551
56	0x3dac0ecd	0.084012605
57	0xbd875f0d	-0.066099264
58	0x3d812306	0.06305508
59	0xbb5ff535	-0.0034173254
60	0x3d9ddab4	0.0770773
61	0xbd9d0925	-0.0766776
62	0xbd826142	-0.06366207
63	0xbd8cd5b1	-0.06876696
64	0x3d323e20	0.04351628
65	0x3d4bbf50	0.049742997
66	0xbdb78815	-0.089615025
67	0xbd2d4d4c	-0.042310044
68	0x3c3b413c	0.011429127
69	0x3dc95536	0.09830706
70	0x3e291ea6	0.16515598
71	0x3e1966fb	0.1498069
72	0x3c23cba0	0.009997278
73	0xbdf72a86	-0.120686576
74	0x3e2109da	0.15726414
75	0x3d568563	0.0523733
76	0x3d37b6e2	0.044852145
77	0x3c5fec71	0.013667212
78	0xbc02fe76	-0.0079952385
79	0x3d1215cd	0.035665322
80	0x3d946c19	0.072471805
81	0x3c6bf9f8	0.014402859
82	0x3e171fbe	0.14758202
83	0xbd423f15	-0.04742344
84	0x3d4f6d72	0.050641485
85	0x3cdc01bf	0.026856301
86	0x3db27e8e	0.08715545
87	0xbca1caa0	-0.01974994
88	0x3c64bde9	0.013961294
89	0xbdfe784b	-0.12425288
90	0x3d69fe8e	0.057127528
91	0xbdab73af	-0.08371674
92	0xbc0b4f73	-0.008502829
93	0xbb931409	-0.0044884724
94	0xbdf20a6d	-0.11818395
95	0x3d586fd6	0.05284103
96	0x3d235740	0.03987813
97	0x3d21d950	0.039513886
98	0x3d0ba813	0.034095835
99	0xbd3ddb0c	-0.046351478
100	0xbb8c9287	-0.0042899284
101	0xbe1cd413	-0.15315275
102	0x3e22f62e	0.15914223
103	0xbe0d8459	-0.13820018
104	0x3dab991c	0.08378813
105	0xbd42074d	-0.047370244
106	0xbdacbd68	-0.08434564
107	0xbd164f24	-0.036696568
108	0x3cb8e6bc	0.02257096
109	0x3dd1beaf	0.10241448
110	0xbc4785c0	-0.012177885
111	0xbe11b63d	-0.14229675
112	0x3e29ad0e	0.16569921
113	0x3ced51dc	0.028969698
114	0x3d9b1ccd	0.07573853
115	0x3d0c11a9	0.03419653
116	0xbe227d8c	-0.15868205
117	0x3d6f568f	0.058432158
118	0x3dfc05a5	0.12305764
119	0xbd9cc90a	-0.07655533
120	0x3cddc842	0.02707303
121	0xbd069e7c	-0.032865986
122	0xba343031	-0.0006873636
123	0x3cf2a16f	0.029617993
124	0xbe2b32dc	-0.1671862
125	0x3e18d382	0.14924434
126	0x3d5eb189	0.05436853
127	0xbd55ab2c	-0.052165195
128	0xbe05de1e	-0.13073012
129	0xbd6777dd	-0.056510795
130	0x3df5dcc3	0.120049976
131	0x3d0fb3df	0.035083648
132	0xbc43b459	-0.011944854
133	0x3cdd0e60	0.026984394
134	0xbe14a1af	-0.14514802
135	0xbbe19f48	-0.006885443
136	0xbce09c2d	-0.02741822
137	0x3d94e7f6	0.072708055
138	0x3d7a474c	0.06110315
139	0x3d8db235	0.06918756
140	0xbc64c4ea	-0.013962964
141	0x3dbd7cc5	0.092523135
142	0x3e036a70	0.12833571
143	0xbb720c8b	-0.0036933746
144	0xbd10b24d	-0.03532629
145	0xbd940bc9	-0.0722881
146	0x3b9057b8	0.004404988
147	0x3c9de6b4	0.019275047
148	0x3c584c11	0.013201729
149	0x3e0abf72	0.13549593
150	0xbd716ee7	-0.058943655
151	0x3ca526bc	0.020160072
152	0x3dcf1b0a	0.10112579
153	0x3d266f67	0.040633585
154	0xbdacd9b2	-0.084399596
155	0x3c48fadb	0.01226684
156	0x3d1495db	0.036275726
157	0xbd13103d	-0.035904158
158	0x3da48be9	0.08034498
159	0xbde76ae9	-0.11299688
160	0xbd23f199	-0.040025327
161	0x3cdbe7cc	0.026843928
162	0xbdd068bc	-0.101762265
163	0x3d8b2937	0.067949705
164	0x3dc4e6a2	0.09614302
165	0x3e0f55cd	0.13997574
166	0x3b11c7ac	0.0022244258
167	0x3e005720	0.12533236
168	0xbde42498	-0.11139792
169	0xbd1980ee	-0.037476473
170	0xbd7569e6	-0.059915446
171	0xbd8e7481	-0.06955815
172	0xbb76209e	-0.0037556062
173	0xbdbab434	-0.09116402
174	0xbe11dd6f	-0.14244626
175	0xbb1a75fb	-0.0023568857
176	0xbda29966	-0.07939415
177	0xbd21a744	-0.039466158
178	0xbbcd378e	-0.006262726
179	0xbdcab7ca	-0.09898336
180	0xbd1faa7c	-0.038980946
181	0xbcbeb7e7	-0.02328105
182	0xbe091804	-0.13388067
183	0xbd34a836	-0.04410573
184	0xbe12c41b	-0.14332621
185	0xbcecf01f	-0.028923092
186	0x3d5dfe73	0.05419774
187	0xbe0a21ce	-0.13489458
188	0x3d14bf6a	0.03631536
189	0xbe063518	-0.13106191
190	0xbdafc547	-0.085825495
191	0xbdf31b79	-0.11870474
192	0x3cca7e10	0.024718314
193	0x3e0a2c68	0.13493502
194	0xbdbfe68e	-0.09370147
195	0x3d30a5fd	0.04312705
196	0xbd203e78	-0.039122075
197	0x3d89920f	0.067173116
198	0x3c40dcf9	0.011771434
199	0x3d98f3c4	0.074683696
200	0x3d82b2b8	0.06381744
201	0xb9ab691b	-0.0003269397
202	0x3c4fb9a2	0.012678536
203	0xbcb68068	-0.022278026
204	0x3cef4e5b	0.029212167
205	0x3d770e70	0.060316503
206	0x3b7dc5b6	0.0038722581
207	0xbc8e3589	-0.017359512
208	0x3e17671c	0.14785427
209	0x3e092250	0.13391995
210	0xbd5a67d6	-0.053321682
211	0x3c98e832	0.018665407
212	0x3d3aea16	0.045633398
213	0xbe1ea4ae	-0.15492508
214	0x3e1d1e13	0.15343504
215	0xbcf15b69	-0.029462533
216	0xbde860f9	-0.11346621
217	0xbd4b7986	-0.04967644
218	0xbdc37bce	-0.09545098
219	0x3d5fc131	0.0546276
220	0xbc820700	-0.015872478
221	0xbdfe1648	-0.124065936
222	0x3d548d78	0.051892728
223	0x3de90916	0.11378686
224	0xbd8c5de4	-0.06853846
225	0xbe122a22	-0.14273885
226	0xbc5b44d2	-0.013383107
227	0xbe150bbb	-0.14555256
228	0x3cab4eee	0.02091166
229	0xbbefb0aa	-0.007314761
230	0x398dcb74	0.000270452
231	0x3d9ef0ca	0.077607706
232	0xbd56d0ec	-0.052445337
233	0xbd30b8eb	-0.0431451
234	0x3bf1ec91	0.0073829372
235	0x3dbcb472	0.09214105
236	0xbdcb2b19	-0.099203296
237	0x3e131d66	0.14366683
238	0x3d557759	0.052115772
239	0xbd25c2dd	-0.04046904
240	0x3d391f15	0.045195658
241	0x3dc678de	0.09691022
242	0x3d599807	0.0531235
243	0xbdb8d4dc	-0.09024975
244	0x3d18fe89	0.03735212
245	0x3d0ae42d	0.03390901
246	0x3c9d20d4	0.019180693
247	0x3e137cdf	0.14403103
248	0x3c8f4386	0.017488252
249	0x3c25a45a	0.010109985
250	0xbe1c7d11	-0.15282084
251	0xbcfaca34	-0.030613996
252	0xbde64a91	-0.11244691
253	0x3d550d19	0.052014444
254	0xbcc95d4e	-0.024580624
255	0x3e1b730a	0.15180603

fc3.bias f4 [32]
0	0x3d5d584e	0.054039292
1	0xbbb8b7e9	-0.005637158
2	0xbd91c4c5	-0.07117609
3	0x3d9dcf0e	0.07705508
4	0x3dad9c2c	0.08477053
5	0x3d90633b	0.07050177
6	0xbbe32964	-0.0069324244
7	0xbd11e143	-0.035615217
8	0xbd223e3c	-0.039610133
9	0xbd8f262f	-0.06989705
10	0xbdc135c2	-0.094340816
11	0x3dce0f7d	0.10061548
12	0xbde992d7	-0.114049606
13	0xbbf8f84b	-0.007597958
14	0x3d9ff49d	0.07810328
15	0x3d03f7cc	0.03221874
16	0x3defd834	0.11711159
17	0xbda46cd8	-0.08028573
18	0x3c146057	0.009056172
19	0x3d09adb1	0.03361291
20	0x3d3393d0	0.043842137
21	0xbd885f18	-0.06658763
22	0xbddcc9cd	-0.10780678
23	0x3d70b2ea	0.058764376
24	0x3d579ae1	0.05263794
25	0x3e06aa50	0.13150907
26	0xbd56fb29	-0.05248562
27	0xbc07f218	-0.008297466
28	0x3df7c704	0.12098506
29	0x3dc6fb94	0.097159535
30	0xbcf3785a	-0.029720474
31	0xbdc57f7d	-0.09643457

fc4.weight f4 [5, 32]
0	0xbd4055b9	-0.04695675
1	0xbdde77cb	-0.108626924
2	0x3e230e3c	0.15923399
3	0xbe1b37c1	-0.15157987
4	0x3ceef79e	0.029170807
5	0xbd9e220e	-0.07721339
6	0xbe4c8693	-0.19973211
7	0x3d300a00	0.042978287
8	0x3dedceec	0.11611733
9	0xbd04270f	-0.03226381
10	0xbdaf1f0f	-0.08550846
11	0xbcc6b781	-0.024257423
12	0x3e32318d	0.17401715
13	0xbd9ec78e	-0.07752906
14	0x3dac2a8a	0.08406551
15	0xbe1b4913	-0.15164594
16	0xbe04684f	-0.12930416
17	0x3e167d91	0.14696337
18	0xbda2f703	-0.0795727
19	0x3e4d6e30	0.20061564
20	0x3e3b8449	0.18312182
21	0xbe495a61	-0.19663383
22	0x3e2b852e	0.16750023
23	0x3df5012b	0.119631134
24	0x3e2cf516	0.16890368
25	0x3e037d8b	0.1284086
26	0x3e160159	0.14648952
27	0xbdbe73cb	-0.092994295
28	0xbe190042	-0.14941505
29	0xbe3d2923	-0.18472724
30	0xbb167c33	-0.0022962212
31	0xbc52259b	-0.012826349
32	0xbd910cd5	-0.07082526
33	0x3e193542	0.14961722
34	0xbe02b94f	-0.12766002
35	0xbc7af2f6	-0.015316715
36	0xbd7f21dc	-0.06228815
37	0x3d5ac047	0.053406026
38	0xbc3e64f4	-0.011620749
39	0xbca4cb9e	-0.020116623
40	0xbd6d5ac6	-0.057947896
41	0x3e1b8351	0.15186812
42	0xbe02ea6f	-0.12784742
43	0x3dd22928	0.10261756
44	0x3e138d7f	0.14409445
45	0x3e21c2c4	0.15796953
46	0x3e2a1c28	0.16612303
47	0xbe45e86e	-0.19326946
48	0x3de590aa	0.11209233
49	0x3bf272ff	0.0073989625
50	0x3da0fae3	0.07860353
51	0x3d9893a5	0.07450036
52	0xbcb02e36	-0.02150641
53	0xbe05283c	-0.1300363
54	0xbc694b86	-0.014239198
55	0x3ccb37ce	0.024806883
56	0x3dfd2da0	0.12362218
57	0xbd181ccc	-0.037136838
58	0x3d366c9a	0.044537164
59	0xbdecba66	-0.1155899
60	0xbe05688e	-0.13028166
61	0x3df113be	0.11771344
62	0xbde48216	-0.111576244
63	0x3deb9a3d	0.11504028
64	0x3dc159ee	0.09440981
65	0xbb87142f	-0.004122279
66	0x3c95d584	0.018290289
67	0x3e263226	0.16230068
68	0xbca8d279	-0.020608174
69	0xbe36fa82	-0.17868999
70	0xbdba7352	-0.09104027
71	0xbcefed03	-0.02928782
72	0x3b5b1602	0.0033429866
73	0x3c29fbc9	0.010374972
74	0x3d6fbf92	0.058532305
75	0xbdc3e283	-0.09564688
76	0x3ddf3ed7	0.109006576
77	0xbddceac5	-0.10786966
78	0xbd7d368b	-0.061819594
79	0x3dd24720	0.10267472
80	0x3e425fba	0.1898183
81	0x3de4c4b2	0.11170329
82	0x3e30f209	0.17279829
83	0xbd67650f	-0.05649286
84	0xbd45f0c5	-0.04832532
85	0xbe3ddd2d	-0.18541403
86	0xbc2d0bf7	-0.010561935
87	0xbcb916e6	-0.022593927
88	0xbd7cb83f	-0.06169915
89	0x3dda59ba	0.10661645
90	0xbdd7b555	-0.10532633
91	0x3c04ceb6	0.008105924
92	0xbc605857	-0.013692937
93	0xbd828f3a	-0.063749745
94	0xbe388de7	-0.18022881
95	0x3d674b8c	0.05646853
96	0xbe02f6df	-0.12789486
97	0x3de6b302	0.11264612
98	0x3db30e83	0.08743002
99	0xbc97dd8d	-0.01853826
100	0xbe0e468b	-0.13894098
101	0xbbf9d46f	-0.007624201
102	0x3a83916d	0.0010037847
103	0xbb744025	-0.0037269678
104	0xbdfd9dd9	-0.12383623
105	0xbe567694	-0.20943671
106	0x3d6df7cd	0.05809765
107	0x3e3329ef	0.17496465
108	0xbd7fcee5	-0.06245317
109	0x3dedeb35	0.11617128
110	0x3e140697	0.14455639
111	0xbdfeb1cb	-0.12436255
112	0xbe0bfda5	-0.13670976
113	0xbdf124cf	-0.11774599
114	0xbe065f8a	-0.13122383
115	0x3e45e516	0.1932567
116	0x3e385771	0.18002106
117	0xbe341c20	-0.17588854
118	0x3d741fc1	0.059600595
119	0xbd507aea	-0.05089847
120	0xbdc920da	-0.09820719
121	0xbe3e1482	-0.1856251
122	0xbd44e999	-0.04807434
123	0x3e03c451	0.12867858
124	0x3d6dd50d	0.05806451
125	0x3c4273e9	0.011868455
126	0xbc87a87b	-0.01655983
127	0x3e1168a5	0.14200075
128	0xbdcb1286	-0.099156424
129	0x3e26922a	0.16266695
130	0xbe14150f	-0.14461158
131	0x3e5fded9	0.21862353
132	0xbe232e06	-0.15935525
133	0x3e06208f	0.13098358
134	0x3d274b17	0.040843096
135	0xbe02b48e	-0.12764189
136	0xbdf69d11	-0.12041677
137	0x3e1c8863	0.15286402
138	0x3e62e87c	0.22158998
139	0xbe45c1f5	-0.1931227
140	0xbe19e7fb	-0.150299
141	0xbe44f205	-0.19232948
142	0xbd8bfcea	-0.06835349
143	0x3e48d490	0.19612336
144	0xbd8ce109	-0.068788595
145	0xbd8df7be	-0.06932019
146	0xbe3c398e	-0.1838133
147	0x3d802d42	0.06258632
148	0xbe0df1cb	-0.13861768
149	0x3e178536	0.1479691
150	0xbe04f9d8	-0.12985933
151	0xbe1269fe	-0.14298245
152	0xbe55207d	-0.20813175
153	0x3e420867	0.18948518
154	0xbc88a0a7	-0.016678168
155	0xbe45865b	-0.19289534
156	0x3d6dd381	0.058063034
157	0xbd891f18	-0.06695384
158	0x3e59f317	0.21284138
159	0xbe445dd6	-0.1917642

fc4.bias f4 [5]
0	0x3e0cbf58	0.13744867
1	0xbd5c2e8b	-0.053755324
2	0xbc8fada3	-0.017538851
3	0x3d40cb63	0.047068965
4	0xbddd0822	-0.10792567
