working_on_new/trained_models/actor_40.pth (torch, 54860 bytes, 8 tensors)

fc1.weight f4 [128, 18]
0	0xbbf931ef	-0.0076048295
1	0x3e2cd111	0.16876628
2	0x3e2d359b	0.1691498
3	0xbe63c12f	-0.22241662
4	0xbe3312a4	-0.1748758
5	0x3d8e24e5	0.06940631
6	0x3e1d9deb	0.15392272
7	0x3e3ced57	0.18449913
8	0x3e08ac35	0.13346942
9	0x3e116be4	0.14201313
10	0xbce325df	-0.02772802
11	0xbe1796fe	-0.14803693
12	0x3dea7e0b	0.11449822
13	0xbe4a0c60	-0.19731283
14	0xbe1d3c59	-0.15355052
15	0x3e421e2d	0.18956824
16	0xbdaa4c9b	-0.083153926
17	0xbd0004aa	-0.031254448
18	0xbe4892a7	-0.19587193
19	0x3e1cdd82	0.15318874
20	0xbdc7731e	-0.09738754
21	0x3d2c7058	0.042099327
22	0xbb7650ec	-0.0037584854
23	0xbc6935c0	-0.014234006
24	0xbe5640d5	-0.20923169
25	0xbe263312	-0.1623042
26	0xbe660f25	-0.22466715
27	0xbe1fd7b3	-0.15609626
28	0xbe6917c9	-0.2276298
29	0xbdf6ac95	-0.12044636
30	0xbdac8a21	-0.084247835
31	0xbc358800	-0.011079788
32	0x3dcfd824	0.101486474
33	0xbc8d56ee	-0.017253365
34	0x3dda8c89	0.10671336
35	0xbd858fe8	-0.065215886
36	0xbcbfbb55	-0.023404757
37	0x3e3c1c65	0.18370207
38	0xbd3084fc	-0.043095574
39	0x3d28c926	0.041207455
40	0xbdf22fc3	-0.11825516
41	0x3da4b004	0.08041385
42	0x3dc8f068	0.09811479
43	0xbd04711b	-0.03233443
44	0x3e3ee44c	0.18641776
45	0x3e59915a	0.21246853
46	0x3e123ffe	0.14282224
47	0xbdbcabae	-0.09212433
48	0x3d8ea666	0.06965332
49	0x3e2e91c5	0.17047794
50	0xbe01a9ca	-0.12662426
51	0xbe48c91c	-0.19607967
52	0x3d3a51e3	0.04548825
53	0x3c007e8e	0.007842673
54	0x3e0a9d00	0.13536453
55	0xbe37cb57	-0.17948662
56	0x3d531e16	0.051542364
57	0xbe1f1025	-0.15533502
58	0x3ce0fa3a	0.027463067
59	0xbe11fafc	-0.14255899
60	0x3e06dd8f	0.13170455
61	0xbc3a7024	-0.0113792755
62	0xbc590c6c	-0.0132475905
63	0xbdb10c37	-0.08644908
64	0xbe2969b5	-0.1654423
65	0xbe35ad3e	-0.17741868
66	0xbd6f9747	-0.05849388
67	0xbe04d81c	-0.12973064
68	0xbddea652	-0.10871567
69	0x3d601323	0.05470575
70	0x3ce4a121	0.027908863
71	0x3e1fc378	0.15601909
72	0xbdeee22d	-0.11664233
73	0xbc9e9453	-0.019357836
74	0xbc7a8d5b	-0.015292491
75	0x3d8b21b6	0.06793539
76	0x3e320264	0.17383724
77	0xbe3aff44	-0.18261439
78	0x3d273f02	0.040831573
79	0x3e5f358f	0.21797775
80	0x3e3bc0c9	0.1833526
81	0x3d989950	0.07451117
82	0x3e19fbbe	0.15037438
83	0x3d187c2b	0.03722779
84	0x3e605e09	0.21910872
85	0xbca47760	-0.020076454
86	0xbde7386c	-0.112900585
87	0xbdae138d	-0.08499823
88	0xbe2536a6	-0.16134128
89	0xbe1950e9	-0.14972271
90	0xbd86d2c0	-0.06583166
91	0xbdb21370	-0.08695114
92	0x3e07bd8e	0.13255903
93	0xbe635140	-0.22198963
94	0xbe201c70	-0.15635848
95	0xbde435d4	-0.111430794
96	0x3d89c9a8	0.06727916
97	0x3db4f25a	0.088352874
98	0xbe00bca4	-0.1257196
99	0xbe125538	-0.14290321
100	0x3c939fba	0.0180205
101	0x3adc5465	0.001680982
102	0x3e264286	0.16236314
103	0x3e6138e1	0.21994354
104	0xbe4bc07c	-0.19897646
105	0x3e48eff6	0.19622788
106	0xbe29c46c	-0.16578835
107	0xbd2074ed	-0.03917401
108	0x3d94e817	0.0727083
109	0x3e0eede3	0.13957934
110	0xbe174f03	-0.14776234
111	0xbe1bedb0	-0.1522739
112	0xbde6dc39	-0.11272473
113	0xbe3e5c43	-0.18589883
114	0x3e1c8500	0.1528511
115	0xbe519df4	-0.2047041
116	0xbdedd34c	-0.11612567
117	0xbdbb0dcc	-0.09133491
118	0x3d1e88b7	0.0387046
119	0x3e6aceae	0.22930405
120	0x3e34bedb	0.1765093
121	0x3d83bb42	0.06432201
122	0x3e6be5fa	0.23036948
123	0xbe0d0b62	-0.13773873
124	0x3e44b0c9	0.19208063
125	0xbc3b729b	-0.011440898
126	0xbdce5219	-0.10074253
127	0xbd8336d3	-0.06406941
128	0xbc80de19	-0.015730904
129	0xbded3937	-0.115831785
130	0x3e37377c	0.1789226
131	0x3da5eeb5	0.081021704
132	0x3e651473	0.22371082
133	0x3e1b19f8	0.15146625
134	0xbe071918	-0.13193166
135	0x3c2f3bd0	0.010695413
136	0xbdea69ea	-0.11445983
137	0xbe4ede9f	-0.2020211
138	0xbe00cc82	-0.12578014
139	0xbd13d534	-0.036092
140	0x3e1a0608	0.15041363
141	0xbc7824f3	-0.015145528
142	0xbe280dbc	-0.16411489
143	0xbd5d5708	-0.054038078
144	0x3e198162	0.14990762
145	0xbe00a541	-0.1256304
146	0x3de54db4	0.11196461
147	0xbd6b9b61	-0.057521228
148	0x3dc3126e	0.095249996
149	0xbe713827	-0.23556577
150	0x3dc5ad5e	0.09652208
151	0xbe508f83	-0.20367245
152	0x3e2eee5f	0.17083119
153	0x3d2759a0	0.040856957
154	0x3e22db95	0.15904076
155	0x3dfa829c	0.12231943
156	0xbe0c045c	-0.13673538
157	0xbe3b0c43	-0.18266396
158	0x3e2770d6	0.16351637
159	0x3e37e1a0	0.17957163
160	0xbd2ac9c1	-0.041696314
161	0x3d241da3	0.040067326
162	0x3db7d82c	0.089767784
163	0x3d49d620	0.04927647
164	0x3bbef8cc	0.0058279987
165	0x3dd87bb8	0.105704725
166	0xbe43530f	-0.19074653
167	0x3d38b10a	0.045090713
168	0xbe61a161	-0.22034217
169	0xbe631acf	-0.22178195
170	0xbc8bfe47	-0.017089022
171	0xbd8da971	-0.06917084
172	0x3d97c09a	0.07409783
173	0xbdcbe38f	-0.09955513
174	0x3d03da73	0.03219075
175	0xbe532a41	-0.20621587
176	0xbe80e37e	-0.25173563
177	0x3cfe3d9e	0.03103524
178	0x3e3f08e9	0.18655743
179	0xbd1673bc	-0.036731467
180	0xbd729e51	-0.059233014
181	0x3cb0af4a	0.02156796
182	0xbe1605a0	-0.14650583
183	0x3bb9a568	0.00566547
184	0xbd5ad10e	-0.053422026
185	0xbe18dc29	-0.14927734
186	0xbd967cc6	-0.073480174
187	0xbe318fbc	-0.17339987
188	0x3db34b35	0.08754579
189	0xbb262130	-0.002534937
190	0xbde64d6b	-0.11245235
191	0xbe382637	-0.17983328
192	0x3ccf9723	0.025340622
193	0xbe014fed	-0.12628146
194	0x3c2d6b19	0.010584616
195	0xbe20ad27	-0.15691052
196	0x3d8b23da	0.067939475
197	0x3d3a6240	0.045503855
198	0xbcaaca8d	-0.020848537
199	0x3db943bf	0.09046125
200	0xbe523496	-0.20527872
201	0x3cf45d10	0.029829532
202	0x3cef5495	0.029215137
203	0x3dd22fff	0.10263061
204	0x3dbc2c6b	0.091881596
205	0xbe6899ec	-0.22714967
206	0x3e0039d7	0.12522064
207	0xbd9c976a	-0.076460674
208	0xbe38f84a	-0.18063465
209	0x3c2e175e	0.010625688
210	0x3d0e243c	0.034702525
211	0x3e1301c1	0.14356138
212	0xbddc972f	-0.107710235
213	0x3da11bf9	0.078666635
214	0x3df581c1	0.11987639
215	0xbe75776c	-0.23971337
216	0x3e6e82cf	0.23292087
217	0x3d2c94a7	0.042133953
218	0x3e015358	0.1262945
219	0x3d832329	0.06403191
220	0xbe15b69a	-0.14620438
221	0x3de62967	0.112383656
222	0x3d819c08	0.06328589
223	0xbe0416d9	-0.1289934
224	0xbe043aa3	-0.12912993
225	0x3e0340dd	0.12817712
226	0x3e1ea4a0	0.15492487
227	0x3e68ad18	0.2272228
228	0x3e2d11dc	0.16901344
229	0x3e1a9a37	0.15097891
230	0xbe5226f9	-0.2052268
231	0xbe24f9a9	-0.16110863
232	0xbd0347ac	-0.032050774
233	0xbe28d1f7	-0.16486345
234	0x3c8493e3	0.0161838
235	0xbbfdbfa9	-0.007743795
236	0x3d7f6c8e	0.062359385
237	0x3e581649	0.21102251
238	0x3db4ead9	0.08833856
239	0x3de39485	0.11112312
240	0x3c921120	0.017830431
241	0xbd5cccb7	-0.05390617
242	0x3e626a57	0.22110878
243	0xbe5453fe	-0.20735165
244	0xbd317efb	-0.04333399
245	0xbe1867b6	-0.14883313
246	0x3dec38bd	0.115342595
247	0x3e2a0737	0.16604315
248	0x3d916f5f	0.071013205
249	0xbe2fbfc9	-0.17163004
250	0x3cfcec0b	0.030874273
251	0x3e35af17	0.17742573
252	0x3e64f3f3	0.22358684
253	0xbe3e0d7e	-0.18559834
254	0xbe381120	-0.17975283
255	0x3cdd2d61	0.026999177

fc1.bias f4 [128]
0	0x3e2c5610	0.16829705
1	0x3ce4b9fb	0.027920714
2	0xbe66510c	-0.22491854
3	0x3c2b3189	0.010448822
4	0x3e57915b	0.21051542
5	0x3e01be6b	0.12670295
6	0xbd3a1dd8	-0.045438617
7	0xbe027c8a	-0.1274282
8	0xbe5ae661	-0.21376945
9	0xbe300aef	-0.17191671
10	0xbdc4569b	-0.09586831
11	0xbcd17c24	-0.02557189
12	0xbe1b50ba	-0.15167513
13	0x3d91b96a	0.07115443
14	0xbdca7745	-0.0988603
15	0xbdd7a190	-0.105288625
16	0xbe207502	-0.15669635
17	0xbda41a28	-0.080128014
18	0x3e457dd6	0.19286284
19	0x3dec8165	0.115481175
20	0xbb2dd6f1	-0.002652582
21	0x3e6aa6d9	0.2291521
22	0xbe13a9cd	-0.14420243
23	0x3e22fadd	0.15916009
24	0xbd175fea	-0.036956705
25	0x3be02d00	0.006841302
26	0xbe56e919	-0.20987357
27	0xbe0d8ba9	-0.13822807
28	0xbddeca71	-0.108784564
29	0x3e427b59	0.18992366
30	0x3d754007	0.059875514
31	0x3e65ac80	0.22429085
32	0xbdd5b394	-0.104346424
33	0x3d1ad78f	0.03780323
34	0x3e6457a3	0.22299056
35	0xbd4a9ad5	-0.049464066
36	0xbe36f64f	-0.17867397
37	0x3e45a2c2	0.19300368
38	0xbd8b31f2	-0.06796636
39	0xbddc39b5	-0.10753194
40	0xbe2fd538	-0.1717118
41	0xbddd0845	-0.10792593
42	0x3e766ce5	0.24064977
43	0x3dd21ff5	0.102600016
44	0xbdf47f12	-0.11938299
45	0x3e4838dd	0.19552942
46	0x3d58a95e	0.052895896
47	0x3e506532	0.20351103
48	0x3e0d2451	0.13783385
49	0x3e2c85f2	0.16847971
50	0x3df94b38	0.1217255
51	0xbe3015b3	-0.17195778
52	0x3cafc39f	0.021455584
53	0xbe255af3	-0.16147976
54	0xbe3f2f99	-0.18670501
55	0x3e4a0b0d	0.19730778
56	0x3ddb47dd	0.10707066
57	0x3e10af1d	0.141293
58	0x3d19505a	0.037430145
59	0x3dcf13f5	0.101112284
60	0xbe743301	-0.23847581
61	0xbe21474d	-0.15749855
62	0xbe0d2ec3	-0.1378737
63	0xbcc282dc	-0.02374404
64	0xbd1c16a3	-0.038107526
65	0x3df882a4	0.12134293
66	0x3e129ed9	0.14318408
67	0xbe1ff16d	-0.1561944
68	0x3d5f87e7	0.054572966
69	0x3d962251	0.07330764
70	0xbc9df381	-0.01928115
71	0xbcd3660d	-0.025805498
72	0xbb9fba23	-0.004874484
73	0x3e497fda	0.19677678
74	0x3e3618d3	0.17782907
75	0x3e3c18c3	0.18368821
76	0xbc86d1f0	-0.016457528
77	0xbe773cf5	-0.24144347
78	0x3d1b112a	0.037858166
79	0xbc4abf53	-0.012374717
80	0xbe4a6e13	-0.19768552
81	0x3e069664	0.13143307
82	0xbdd13a39	-0.10216183
83	0xbd9d738c	-0.076880544
84	0x3d1a0586	0.037602924
85	0xbe1d03ef	-0.15333532
86	0x3e278504	0.16359335
87	0xbe3c902f	-0.18414377
88	0xbe4c80cc	-0.19971007
89	0xbdef9465	-0.11698226
90	0x3ce0d764	0.027446456
91	0x3a419e46	0.00073859503
92	0xbe1f7f6c	-0.15575951
93	0xbdf4f0ac	-0.11959967
94	0xbdc0c34f	-0.09412252
95	0xbdef29c7	-0.1167789
96	0xbdd14c5e	-0.10219644
97	0x3dfbadce	0.1228901
98	0x3d016cc7	0.03159788
99	0x3e3780ed	0.17920275
100	0x3df4809c	0.11938593
101	0x3e23c0d0	0.15991521
102	0x3e66db4b	0.22544591
103	0xbd08107d	-0.03321885
104	0xbe00a4df	-0.12562893
105	0xbdc006fe	-0.09376334
106	0xbd83319d	-0.06405947
107	0x3db41731	0.08793486
108	0xbe4bf804	-0.19918829
109	0xbca6ddc8	-0.020369425
110	0x3e6be242	0.2303553
111	0xbe009899	-0.12558211
112	0x3b8d34b6	0.004309262
113	0xbd8fc5f8	-0.070201814
114	0x3d8adae8	0.06780034
115	0x3e02c2d6	0.12769637
116	0xbcbc87c0	-0.02301395
117	0x3df73bed	0.12071977
118	0x3e703084	0.23456007
119	0xbe17963c	-0.14803404
120	0xbe4037d9	-0.18771304
121	0xbda46196	-0.080264255
122	0xbd76e8ee	-0.060280733
123	0xbaa9c0d2	-0.0012951142
124	0xbe66b305	-0.22529228
125	0xbe65afcd	-0.22430344
126	0xbe3406bf	-0.17580698
127	0xbe66d585	-0.22542389

fc2.weight f4 [64, 128]
0	0xbd07c67d	-0.033148278
1	0x3bb1a01e	0.005420699
2	0xbd565055	-0.052322704
3	0xbc333577	-0.01093804
4	0xbd4056f9	-0.046957944
5	0xbc9ffd01	-0.019529821
6	0x3cb3da6f	0.021954743
7	0xbcb89e35	-0.022536376
8	0xbda070d7	-0.078340225
9	0xbab9cf5b	-0.0014176177
10	0x3d99b30c	0.075048536
11	0x3db2bb7a	0.087271646
12	0x3d4cb730	0.04997939
13	0xbd42ac45	-0.04752757
14	0xbd4a6d70	-0.049420774
15	0xbd8adb3e	-0.067800984
16	0x3c7e28f2	0.015512692
17	0xbc939c6f	-0.01801893
18	0x3b9fb02e	0.004873297
19	0xbd6a4484	-0.057194248
20	0xbc156d32	-0.0091202725
21	0xbc5f4da4	-0.013629351
22	0xbd021698	-0.03175983
23	0x3d781c7a	0.060574032
24	0x3bd9f207	0.0066511664
25	0xbd9310e2	-0.071809545
26	0xbcc78a8d	-0.024358058
27	0x3cd7ba45	0.026333937
28	0xbc6ae7f1	-0.014337526
29	0xbc9f0b90	-0.019414693
30	0xbc421b10	-0.0118472725
31	0x3d3953fc	0.04524611
32	0xbd2f553e	-0.042805903
33	0x3c26b844	0.010175768
34	0x3c06eec2	0.008235635
35	0xbda2c930	-0.0794853
36	0x3d224750	0.03961879
37	0x3d2b875c	0.041877136
38	0x3da8da9b	0.08244821
39	0x3d6b9ec1	0.057524446
40	0x3dae57ef	0.08512866
41	0xbd421935	-0.04738732
42	0xbcdb62ec	-0.026780568
43	0xbda92349	-0.08258683
44	0xbdb3c578	-0.087778986
45	0x3a98924c	0.001164028
46	0x3cd8e0e7	0.02647443
47	0xbd8fba82	-0.070179954
48	0x3d96c305	0.07361416
49	0x3d2dc02b	0.042419594
50	0x3d69b5b0	0.057058036
51	0xbd6d842c	-0.057987377
52	0xbb43db22	-0.0029885252
53	0xbd35371f	-0.04424202
54	0xbbf7e33c	-0.0075649302
55	0xbd8a48c0	-0.06752157
56	0xbd419e63	-0.04727019
57	0x3c4f91d7	0.012669048
58	0x3d537a06	0.051630042
59	0xbd493947	-0.04912689
60	0x3d2d2458	0.04227099
61	0xbd43b965	-0.047784228
62	0xbc8e8001	-0.017395021
63	0x3c86824c	0.016419552
64	0xbc4df05e	-0.012569515
65	0xbd101107	-0.03517249
66	0x3d5ba5c8	0.0536249
67	0xbc90feab	-0.01769956
68	0x3ba317cd	0.0049772025
69	0x3d6efd46	0.05834701
70	0xbc44981b	-0.011999155
71	0xbc1022a8	-0.008797325
72	0xbb448ace	-0.002998996
73	0x3d405277	0.046953645
74	0x3c06998c	0.008215319
75	0x3d36a2f1	0.044588987
76	0x3c6a1e8a	0.014289508
77	0x3d68fc9b	0.05688153
78	0xbc5e7b3e	-0.013579188
79	0x3d891eea	0.066953495
80	0xbda517bc	-0.080611676
81	0xbd9abe47	-0.07555824
82	0xbc7cc335	-0.0154274
83	0x3c9435e0	0.018092096
84	0x3db575c2	0.08860351
85	0xbafd29b7	-0.00193148
86	0x3d8939d8	0.06700486
87	0x3d8a824d	0.06763134
88	0xbd0734ec	-0.033009455
89	0xbd9efdba	-0.07763238
90	0x3d5c4c96	0.053783976
91	0x3d0e6a6d	0.034769464
92	0xbc3fe2f6	-0.011711827
93	0x3ce37a59	0.0277683
94	0x3d097d38	0.033566684
95	0x3d8685ee	0.06568514
96	0x3c800a6a	0.015629966
97	0xbd07fcb2	-0.033199973
98	0x3bf08f58	0.0073413067
99	0x3d392fdc	0.045211658
100	0xbdbc9413	-0.092079304
101	0x3c25c9fa	0.010118956
102	0xbd148546	-0.036259912
103	0xbd8ccef9	-0.068754144
104	0xbdbce010	-0.09222424
105	0x3c103071	0.008800612
106	0xbd7230a3	-0.059128415
107	0xbd85be17	-0.065303974
108	0xbd3a14df	-0.04543006
109	0x3d8ba9fa	0.0681953
110	0x3b82ffdc	0.003997786
111	0xbdad7453	-0.08469453
112	0x3bde3c9a	0.0067821266
113	0xbc9185ce	-0.017763998
114	0x3d98c184	0.07458785
115	0x3d941909	0.072313376
116	0x3ca6f530	0.020380586
117	0xbd82160a	-0.0635186
118	0x3bb54189	0.005531494
119	0xbdd1da76	-0.10246746
120	0x3dad3d5d	0.0845897
121	0x3da645cf	0.08118784
122	0xbd190500	-0.037358284
123	0x3d95e8e7	0.07319813
124	0x3d1f633b	0.038912993
125	0xb7915884	-1.7326565e-05
126	0x3d86d82f	0.065842025
127	0x3cd158f0	0.025555104
128	0xbc3c02a3	-0.011475238
129	0x3cf18056	0.02948014
130	0xbd9df6f9	-0.07713122
131	0x3d8afb7c	0.06786248
132	0xbd00d49b	-0.031452756
133	0xbd5916c9	-0.053000245
134	0x3c00e8a9	0.0078679705
135	0x3d06b818	0.03289041
136	0x3c52b8b0	0.012861416
137	0xbd28cf0e	-0.041213088
138	0xbd307fc7	-0.043090608
139	0x3c8412c8	0.016122237
140	0x3cd0cbb8	0.025487766
141	0x3d68fa88	0.05687955
142	0x3d9d14a6	0.07669954
143	0xbd9edb1c	-0.077566355
144	0xbc83c128	-0.016083315
145	0xbd5cb481	-0.05388308
146	0xbd8e3f0a	-0.069456175
147	0xbd52bda4	-0.051450387
148	0x3d13b5a1	0.036061887
149	0xbd80b66f	-0.062847964
150	0x3d98afd2	0.0745541
151	0xbdb776ee	-0.08958231
152	0x3d43025a	0.047609664
153	0xbc34cb1d	-0.011034754
154	0x3d9499d9	0.072559066
155	0x3d981382	0.07425596
156	0x3d13cfae	0.03608673
157	0x3c959374	0.018258788
158	0xbdc8d0cc	-0.0980545
159	0x3c82530e	0.015908744
160	0xbb0f156a	-0.0021832832
161	0x3ce68a12	0.028142009
162	0xbdaf5b9c	-0.08562395
163	0x3da70b18	0.08156413
164	0xbd06d3c1	-0.032916788
165	0xbb9c81da	-0.0047762217
166	0xbd3021e1	-0.04300106
167	0xbd9d81ea	-0.07690795
168	0x3d9f8031	0.077881224
169	0xbb6703c0	-0.0035250038
170	0x3c51495a	0.012773836
171	0x3c83e93b	0.016102424
172	0x3d88b40d	0.06674967
173	0x3ccee605	0.025256166
174	0xbda644f8	-0.081186235
175	0xbdb5c432	-0.08875312
176	0x3d7c75a0	0.061635613
177	0x3d192511	0.037388865
178	0xbd044d85	-0.03230049
179	0x3d2ef6ee	0.04271596
180	0x3b57a842	0.0032906686
181	0x3c4e989f	0.01260963
182	0x3d4729fc	0.048624024
183	0xbcd20538	-0.025637254
184	0xbd100b3d	-0.035166968
185	0xbd877540	-0.066141605
186	0x3d361a86	0.04445889
187	0xbb199ce8	-0.002343947
188	0xbda64d4e	-0.081202134
189	0x3d01bb66	0.031672858
190	0x3cdd8fbe	0.02704608
191	0xbc82ca61	-0.015965642
192	0x3c630b3c	0.013857659
193	0x3ca43ad2	0.020047579
194	0xbc42b5b5	-0.011884143
195	0x3d3dc965	0.046334643
196	0x3dca428b	0.09875973
197	0x3c9004dd	0.017580444
198	0x3d566c9b	0.052349668
199	0xbacc5c99	-0.0015591561
200	0x3da59be3	0.08086374
201	0xbb6b40c1	-0.003589675
202	0xbcdae62d	-0.026721084
203	0x3be94dfc	0.007119892
204	0x3cc2d3b3	0.023782587
205	0x3c10ddac	0.008841913
206	0x3d97ceed	0.07412515
207	0x3dc30abe	0.09523533
208	0x3b8995c6	0.0041987626
209	0xba2444bc	-0.0006266346
210	0x3d5530b5	0.052048404
211	0xbd814e3f	-0.063137524
212	0x3d801e27	0.06255751
213	0x3ce35423	0.02775008
214	0xbd822641	-0.063549526
215	0xbd891419	-0.066932864
216	0x3d1ba01f	0.0379945
217	0xbd2e5f79	-0.04257152
218	0x3dc5ff1c	0.09667799
219	0x3d602377	0.054721322
220	0x3db2e6c4	0.08735421
221	0xbd02a809	-0.031898532
222	0xbc817921	-0.01580483
223	0xbb37a3f4	-0.0028021308
224	0xbd9d1ade	-0.0767114
225	0x3d78a153	0.060700726
226	0x3dae7abd	0.08519504
227	0xbd4be28c	-0.0497766
228	0xbd53e94c	-0.05173616
229	0x3d763ab3	0.060114574
230	0x3da2f4d3	0.07956853
231	0xbd97c97a	-0.074114755
232	0xbd65ef12	-0.0561362
233	0xbcf0b671	-0.02938387
234	0x3cd54153	0.026032126
235	0x3c960bde	0.018316206
236	0x3c0801cf	0.008301212
237	0xbd403dc8	-0.04693392
238	0xbd523f62	-0.051329978
239	0x3c87f579	0.016596543
240	0xbdbc6c5e	-0.09200357
241	0xbdab0d0b	-0.08352097
242	0x3c4fdcbc	0.0126869045
243	0xba98b7dc	-0.0011651474
244	0x3c3678bc	0.011137184
245	0xbc132888	-0.008981831
246	0x3d7266cd	0.05918007
247	0xbc915629	-0.01774128
248	0x3d5e1d4d	0.054227162
249	0x3c28c860	0.010301679
250	0xbc8d6c0f	-0.01726344
251	0x3d3e7099	0.0464941
252	0x3d01a247	0.0316489
253	0xbd17b296	-0.037035547
254	0xbd5f13a4	-0.05446209
255	0xbd9291ea	-0.07156737

fc2.bias f4 [64]
0	0x3d3a0263	0.045412432
1	0x3d4c6a13	0.049905848
2	0xbd91d07f	-0.071198456
3	0x3cd75e6b	0.02629014
4	0xbd8cada1	-0.068690546
5	0xbcad9518	-0.021189258
6	0x3d9de408	0.07709509
7	0x3cb0f785	0.021602402
8	0x3da51790	0.08061135
9	0xbd290d37	-0.04127237
10	0x3da35cd4	0.0797669
11	0xbbe27976	-0.006911452
12	0xbbbafda8	-0.0057065077
13	0x3d2ea148	0.04263428
14	0x3cd9dd32	0.026594732
15	0xbc9260bf	-0.017868398
16	0x3d902404	0.070381194
17	0xbcddc854	-0.027073063
18	0xbd895cab	-0.06707128
19	0x3d676ab9	0.056498263
20	0x3dd01a24	0.10161236
21	0xbd0c79f5	-0.034295995
22	0x3d774c60	0.06037557
23	0xbd41be3a	-0.047300555
24	0x3d2da351	0.04239208
25	0xbd2f0b5a	-0.042735435
26	0x3d96f36c	0.07370648
27	0xbd399795	-0.045310576
28	0xbd26dffc	-0.040740952
29	0xbd21427a	-0.039370038
30	0xbcadfa80	-0.021237612
31	0x3daa17ad	0.08305297
32	0x3c7d5c5b	0.015463914
33	0x3dbcc7f1	0.09217823
34	0xbd664d60	-0.056226134
35	0xbd9cfb1e	-0.07665084
36	0xbd1c85cb	-0.038213532
37	0xbdd30d2f	-0.10305249
38	0x3daf6cf2	0.085657015
39	0x3b836edd	0.0040110187
40	0xbd82e0f5	-0.063905634
41	0x3b982242	0.0046427557
42	0x3be9a1b8	0.007129874
43	0xbdb47381	-0.08811093
44	0x3bbab7a3	0.0056981607
45	0xbcb9212a	-0.022598822
46	0xbd0daa2d	-0.03458612
47	0xbd75e53b	-0.060033064
48	0xbc9c55a3	-0.019083804
49	0x3d26b4d6	0.040699802
50	0x3d877de1	0.06615806
51	0xbdd3a906	-0.10334973
52	0x3cdc4324	0.026887484
53	0xbdb0a000	-0.086242676
54	0xbd80d411	-0.062904485
55	0xbd2839d2	-0.041070767
56	0xbd79db1b	-0.06099997
57	0xbd431dbb	-0.047635775
58	0x3d23f89a	0.040032007
59	0xbd6734f7	-0.056446996
60	0x3d0e2993	0.034707617
61	0x3db046ba	0.0860724
62	0x3d6f9773	0.058494043
63	0xbcb63000	-0.022239685

fc3.weight f4 [32, 64]
0	0x3db40c28	0.08791381
1	0xbc35b727	-0.01109103
2	0xbdcf17a8	-0.10111934
3	0x3dcddb54	0.10051599
4	0xbcd522d9	-0.026017593
5	0x3d293608	0.041311294
6	0x3cfca73b	0.03084146
7	0x3dbecaeb	0.09316047
8	0xbd077a27	-0.033075478
9	0xbd6fd993	-0.058557104
10	0xbd4beb94	-0.04978521
11	0x3ce39488	0.027780786
12	0xbd9d8ef1	-0.076932795
13	0x3dc692a0	0.09695935
14	0xbd185c23	-0.037197243
15	0xbdbdbd77	-0.09264653
16	0xbd629349	-0.055316243
17	0xbdb8f803	-0.090316795
18	0x3dde559a	0.10856171
19	0xbde009a1	-0.109393366
20	0xbddaad9b	-0.10677644
21	0x3e081fe0	0.1329341
22	0xbd258bc2	-0.040416487
23	0x3dabf4de	0.08396314
24	0x3e0c9143	0.13727288
25	0xbd3d6ea3	-0.04624809
26	0x3cbdd541	0.023172976
27	0xbda6af8b	-0.08138951
28	0x3d1fa65d	0.038977016
29	0xbdebeb10	-0.11519444
30	0x3da732a8	0.08163959
31	0xbd1cd281	-0.03828669
32	0xbd06eddc	-0.032941684
33	0xbdb6f98b	-0.08934315
34	0x3da36c40	0.079796314
35	0x3dc5756b	0.09641536
36	0x3dbb57e9	0.09147627
37	0x3dfda448	0.1238485
38	0xbe0f51fb	-0.13996117
39	0xbd032517	-0.032017794
40	0x3c9f6c40	0.019460797
41	0x3dd73dd2	0.10509838
42	0xbdb4a2d4	-0.088201195
43	0xbc03a21d	-0.008034256
44	0xbd49257c	-0.049108014
45	0x3d41175f	0.04714143
46	0x3d8b6ea9	0.06808216
47	0xbd6046e2	-0.0547551
48	0x3d149e3f	0.036283728
49	0x3d0a173e	0.03371357
50	0x3dc2cc94	0.095116764
51	0xbd53f2bd	-0.051745165
52	0x3d9a621c	0.07538244
53	0x3d9acc17	0.07558458
54	0x3e101f23	0.14074378
55	0xbd84e219	-0.06488437
56	0xbd36d4ca	-0.044636525
57	0x3d97a0fa	0.07403751
58	0xbe02daaf	-0.12778734
59	0x3d1d0e74	0.03834386
60	0xbc934181	-0.01797557
61	0xbcbcc47c	-0.02304291
62	0xbdbdc44e	-0.09265958
63	0x3c778ffe	0.015110014
64	0xbe0663a3	-0.13123946
65	0xbdff6c20	-0.12471795
66	0x3dd638ed	0.104600765
67	0x3dadf1e5	0.08493403
68	0x3d3b757e	0.045766346
69	0x3c063e8d	0.008193624
70	0x3e036bd3	0.128341
71	0x3d8ada5b	0.06779929
72	0x3dbac6fc	0.091199845
73	0x3e0cd431	0.1375282
74	0xbdecd9d0	-0.11564982
75	0xbddd72d2	-0.10812916
76	0xbde4fd7e	-0.11181162
77	0x3ddc6b8e	0.10762702
78	0xbdbe94f8	-0.09305757
79	0x3dd85886	0.105637595
80	0xbd755efa	-0.05990503
81	0x3dde52bc	0.10855624
82	0x3dc26ad6	0.094930336
83	0xbcffd074	-0.031227328
84	0x3da68a11	0.08131803
85	0x3baa787b	0.0052023507
86	0xbb4d90d3	-0.003136684
87	0x3d99db4f	0.07512533
88	0xbc00fb45	-0.007872407
89	0xbc84b9a8	-0.016201809
90	0xbd3f2ea5	-0.046675343
91	0x3d5a0a41	0.053232435
92	0xbd0e074e	-0.034674935
93	0x3da7968d	0.08183012
94	0x3cdbdde8	0.026839212
95	0xbd9c6bd2	-0.076377526
96	0xbc7d1d15	-0.015448828
97	0x3df75e10	0.12078488
98	0xbdba29a1	-0.09089971
99	0xbcf02ec0	-0.029319167
100	0x3d93a4d0	0.0720917
101	0xbde49387	-0.11160951
102	0xbd7c71fa	-0.061632134
103	0x3bdc4e14	0.006723175
104	0xbcb30a11	-0.021855386
105	0xbe0e8e42	-0.13921455
106	0xbdc68852	-0.0969397
107	0x3d9d861b	0.07691594
108	0x3c17e704	0.009271387
109	0xbdca7354	-0.09885278
110	0xbaad3cc1	-0.0013216959
111	0x3dec7dae	0.11547409
112	0xbdd0782b	-0.1017917
113	0x3d7777b7	0.060416903
114	0x3cc7b1fd	0.024376864
115	0xbd95a802	-0.073074356
116	0x3dffeed6	0.12496726
117	0x3c912620	0.017718375
118	0xbde07a87	-0.1096087
119	0xbdbb3d38	-0.09142536
120	0x3d3cbbac	0.046077415
121	0x3d5d5d70	0.054044187
122	0xbcd4f802	-0.025997166
123	0xbd79debd	-0.061003435
124	0x3c49786e	0.012296779
125	0xbdacf494	-0.08445087
126	0xbd5790f0	-0.052628458
127	0xbd65325e	-0.055956237
128	0xbdc729f4	-0.09724799
129	0x3ddc0436	0.10742991
130	0xbd11b80a	-0.035575904
131	0xbe0ecb1f	-0.13944672
132	0xbdd4b679	-0.103863664
133	0xbc9fc159	-0.019501375
134	0xbdab62e6	-0.08368473
135	0x3db11888	0.08647257
136	0xbdaf8b84	-0.08571532
137	0x3d8ea0ed	0.06964288
138	0xbdc98475	-0.09839717
139	0x3c3c891f	0.011507302
140	0x3cc17b5a	0.023618389
141	0xbc2141b3	-0.009842324
142	0xbc668149	-0.01406891
143	0x3dc06012	0.09393324
144	0xbdc2b4c0	-0.095071316
145	0x3c77a64e	0.015115334
146	0x3d0c74e8	0.034291178
147	0xbbcf4138	-0.0063249134
148	0xbd2c268c	-0.04202895
149	0xbd9b48c7	-0.075822406
150	0x3c3db6df	0.011579244
151	0xbe0e19bf	-0.13877009
152	0xba0b1978	-0.00053062243
153	0x3dd32696	0.10310094
154	0xbd92cc0a	-0.071678236
155	0xbc7c2943	-0.015390697
156	0xbe0635b8	-0.1310643
157	0xbccbb610	-0.024867088
158	0xbd97ce3b	-0.07412382
159	0x3c9d3cf5	0.019194106
160	0x3c42da4d	0.011892867
161	0x3d259070	0.04042095
162	0x3ddc28d8	0.10749978
163	0x3d48b226	0.04899802
164	0x3b912225	0.004429119
165	0xbd922923	-0.071367525
166	0xbdff988a	-0.124802664
167	0x3caa610c	0.020798229
168	0xbd4cc5b3	-0.04999323
169	0x3d2f3a2b	0.042780083
170	0x3debbdfb	0.11510845
171	0xbdca77c0	-0.09886122
172	0x3da64946	0.081194445
173	0x3c1a0b13	0.009402054
174	0x3c8f088b	0.017460128
175	0xbda6b16a	-0.08139308
176	0x3d7ef8de	0.062249057
177	0x3e080b20	0.13285494
178	0xbddfc335	-0.10925905
179	0xbdcdd77d	-0.10050867
180	0xbd26a029	-0.040680084
181	0x3d88b541	0.066751964
182	0x3db25a40	0.0870862
183	0xbc587770	-0.01321207
184	0xbd76bef2	-0.060240693
185	0x3deb115a	0.11477919
186	0x3dc6c815	0.09706131
187	0x3d64322b	0.055711906
188	0x3e03284a	0.12808338
189	0x3c14bee5	0.009078716
190	0xbdcc0860	-0.09962535
191	0xbd8af308	-0.06784636
192	0xbe0f5b93	-0.13999777
193	0xbd6100e5	-0.054932494
194	0xbdd4963a	-0.10380216
195	0x3d7d502d	0.06184404
196	0xbdf49139	-0.119417615
197	0xbd3163b9	-0.043307994
198	0x3c7679ea	0.015043715
199	0xbdc860fd	-0.09784124
200	0x3dfe3527	0.12412482
201	0xbddb7b7c	-0.10716912
202	0x3dc26212	0.09491362
203	0x3d4d77af	0.050162967
204	0x3d9c3f4a	0.07629259
205	0xbd13a1b4	-0.036042884
206	0xbabad0f1	-0.0014252943
207	0xbd4e439f	-0.050357457
208	0xbdfd7814	-0.12376419
209	0x3dedeb64	0.11617163
210	0x3dfb39c0	0.12266874
211	0xbe092140	-0.1339159
212	0xbd04012e	-0.032227688
213	0x3da84986	0.082171485
214	0x3dca1c17	0.09868639
215	0xbd66119d	-0.05616914
216	0x3c55e0ee	0.013054116
217	0x3d901769	0.07035715
218	0x3cbfad50	0.023398072
219	0xbd5929fe	-0.053018562
220	0x3dc5a84e	0.09651242
221	0x3d54ace5	0.051922698
222	0xbd4d4ae8	-0.050120264
223	0xbde46792	-0.11152567
224	0xbde9b950	-0.11412299
225	0x3c212cca	0.009837339
226	0xbdb19500	-0.086709976
227	0x3c97f7b5	0.018550733
228	0xbdd36844	-0.103226215
229	0x3dc7bc4d	0.097527124
230	0x3d883728	0.06651145
231	0x3d4520e7	0.04812708
232	0xbd77ee06	-0.06052973
233	0xbe02956f	-0.12752317
234	0x3be94684	0.007119002
235	0x3d836101	0.064149864
236	0xbd679cec	-0.056546137
237	0x3dc25ae8	0.09489995
238	0x3cc1c652	0.023654137
239	0x3d7ae480	0.06125307
240	0xbc972621	-0.018450798
241	0x3ba04bbe	0.0048918417
242	0xbda94781	-0.082655914
243	0xbd43347b	-0.04765747
244	0x3dd6ff4d	0.104979135
245	0xbc4ef6b0	-0.012632057
246	0x3d63b7e9	0.055595312
247	0xbd85af61	-0.065275915
248	0x3d975ad0	0.07390368
249	0x3de0af80	0.10970974
250	0xbd4bc901	-0.04975224
251	0xbd877d06	-0.06615643
252	0x3d824f44	0.06362775
253	0xbd5ca0d2	-0.053864308
254	0xba3a379c	-0.00071036234
255	0x3dfcd9ff	0.12346267

fc3.bias f4 [32]
0	0xbe09d652	-0.13460663
1	0xbdb0cef8	-0.08633226
2	0xbd5ccb72	-0.053904958
3	0xbcbcf554	-0.0230662
4	0xbd9aea4f	-0.07564222
5	0xbd7288e4	-0.05921258
6	0xbd9a15f4	-0.075237185
7	0xbcf2ad95	-0.029623786
8	0x3cd1b0e3	0.025597041
9	0x3d69ef3d	0.05711292
10	0x3db07894	0.086167485
11	0xbda1c63f	-0.078991406
12	0x3cf66291	0.030076297
13	0xbdd5c0a1	-0.10437132
14	0xbde2b23e	-0.11069153
15	0xbd8ca90e	-0.06868182
16	0x3dbd6139	0.092470594
17	0xbdc75a35	-0.097340025
18	0x3da093e9	0.078407116
19	0x3d2d2695	0.042273123
20	0x3d315fa0	0.043304086
21	0xbd8fefd4	-0.070281655
22	0xbde82756	-0.11335628
23	0xbd901bd6	-0.07036559
24	0x3d4d542a	0.050129093
25	0xbc09e2fc	-0.008415934
26	0xbbc09a11	-0.005877741
27	0xbd82d073	-0.06387415
28	0x3d806c40	0.06270647
29	0xbd835e17	-0.064144306
30	0x3dcb031c	0.099127024
31	0xbbd3f233	-0.0064680814

fc4.weight f4 [5, 32]
0	0x3d839aad	0.064259864
1	0xbe14181f	-0.14462326
2	0x3e032a84	0.12809187
3	0xbc6c8a63	-0.014437291
4	0x3e242bb1	0.16032292
5	0xbd56d0ad	-0.052445102
6	0x3e24f4a6	0.16108951
7	0x3dbd3b6e	0.09239851
8	0x3ca264b6	0.019823413
9	0x3da1194d	0.07866154
10	0x3cd7f01d	0.026359612
11	0x3e437e9b	0.19091265
12	0xbdc124cb	-0.09430846
13	0x3e4318a5	0.1905237
14	0x3e3c64b9	0.18397798
15	0x3e099960	0.13437414
16	0x3de46030	0.11151159
17	0xbd89e378	-0.06732839
18	0x3da52668	0.08063966
19	0x3cb70159	0.02233951
20	0x3de90e82	0.1137972
21	0x3e0d3eac	0.13793439
22	0x3d1a0a18	0.037607282
23	0xbe142fa3	-0.14471297
24	0x3d8dfcf7	0.06933015
25	0x3dc201e2	0.09473015
26	0xbdb28c0e	-0.087181196
27	0x3c122062	0.0089188535
28	0xbdebf3b1	-0.1152109
29	0x3df66c5b	0.12032386
30	0xbe19bbc2	-0.1501303
31	0x3e334848	0.17508042
32	0x3de7cb9a	0.11318131
33	0x3ccdfd43	0.025145179
34	0x3db7a9e5	0.08967952
35	0x3d665f7c	0.056243405
36	0x3e0c6f46	0.13714322
37	0xbe357538	-0.17720497
38	0x3d934a6c	0.07191929
39	0x3c4913e6	0.012272811
40	0xbdb362d9	-0.08759088
41	0xbdfc3b83	-0.123160385
42	0x3dc03406	0.09384923
43	0xbc9bfa3a	-0.019040216
44	0x3dedf371	0.116186984
45	0xbd77c6f1	-0.06049246
46	0xbe123816	-0.14279208
47	0x3e075405	0.13215645
48	0xbd5a325e	-0.05327069
49	0xbd63e39b	-0.055636983
50	0x3d634bb4	0.055492118
51	0xbd314167	-0.043275263
52	0x3e155bb3	0.14585762
53	0x3d17417b	0.03692768
54	0xbc8cb92f	-0.017178146
55	0xbcb07ddb	-0.021544388
56	0xbe338426	-0.1753088
57	0xbe14f50a	-0.145466
58	0xbdcae377	-0.09906667
59	0x3d97a3fc	0.074043244
60	0x3d74e9b4	0.05979319
61	0x3d5c12dc	0.053728923
62	0xbd876ca3	-0.06612518
63	0x3dcfcfe4	0.10147074
64	0x3da6aac9	0.081380434
65	0x3d73bc55	0.05950578
66	0x3d896490	0.06708634
67	0xbe3adcb5	-0.18248256
68	0xbe3d4b1b	-0.18485682
69	0x3dc370bc	0.09542987
70	0x3e11b549	0.14229311
71	0x3e1d4f2b	0.15362231
72	0xbe26e05f	-0.16296528
73	0x3e2cac96	0.16862711
74	0xbe2645ad	-0.16237517
75	0x3def6350	0.11688864
76	0x3daffb9d	0.08592913
77	0x3e059522	0.13045171
78	0xbc94b2ee	-0.018151727
79	0xbd8b74e5	-0.06809405
80	0xbdec0640	-0.115246296
81	0x3cdd5ebe	0.027022716
82	0xbd95fce1	-0.073236234
83	0xbdfd836b	-0.123785816
84	0x3dbb083c	0.0913243
85	0x3e12d2f0	0.14338279
86	0xbd7dd289	-0.06196836
87	0xbe3fbe9d	-0.18725057
88	0x3d364c93	0.04450662
89	0x3dd1d931	0.10246504
90	0xbd13e24b	-0.03610448
91	0xbe41a032	-0.18908766
92	0xbcad6b24	-0.021169253
93	0xbe16d0f3	-0.14728145
94	0x3d741d0a	0.059598006
95	0x3d947bb7	0.07250159
96	0x3e08c6d9	0.13357104
97	0xbcfe0ac8	-0.031011
98	0x3e31fef3	0.17382412
99	0x3e32faac	0.17478436
100	0xbd73bf21	-0.059508447
101	0xbded6d6d	-0.11593137
102	0x3be45968	0.006968666
103	0xbd5dc7a9	-0.05414549
104	0x3e378b13	0.17924146
105	0xbe17889b	-0.14798205
106	0x3d572bed	0.052532125
107	0x3e2bd972	0.16782168
108	0x3dd4b64e	0.10386334
109	0x3e0c5e21	0.13707782
110	0x3dc441c4	0.09582856
111	0xbc971be7	-0.018445922
112	0x3dc2f2e3	0.09518983
113	0xbde5521c	-0.11197302
114	0x3d710b78	0.058848828
115	0x3e036efb	0.12835304
116	0x3cabea99	0.020985888
117	0xbda924c0	-0.08258963
118	0x3d65b039	0.056076262
119	0xbd12bf15	-0.03582676
120	0x3d33cace	0.04389458
121	0x3c27390b	0.010206471
122	0xbcbcb86e	-0.023037162
123	0xbc8e3858	-0.017360851
124	0x3cc5cffa	0.024147023
125	0xbd083f29	-0.03326336
126	0x3e21c29f	0.15796898
127	0x3e0e83ea	0.13917509
128	0xbd84b640	-0.06480074
129	0x3e32871b	0.17434351
130	0x3da069c0	0.0783267
131	0x3d84dae5	0.06487063
132	0x3dcee77b	0.10102745
133	0x3e083d13	0.13304548
134	0x3d820da2	0.063502565
135	0xbdd1328d	-0.1021472
136	0xbdbe8963	-0.09303548
137	0xbe1cb93f	-0.15305041
138	0xbe2ecefe	-0.17071149
139	0x3ce8f795	0.028438369
140	0xbe02b65a	-0.12764874
141	0x3d6c055e	0.057622306
142	0xbdb3badc	-0.08775875
143	0xbd827501	-0.06369973
144	0x3da3df53	0.0800158
145	0xbded9b7c	-0.11601922
146	0xbdcf840a	-0.10132606
147	0xbe15912f	-0.14606164
148	0xbe29e1c0	-0.16590023
149	0x3e248ab6	0.16068539
150	0xbe1ffcdd	-0.15623803
151	0xbd8f9bf9	-0.07012171
152	0x3dc8c338	0.0980286
153	0x3e190e08	0.14946759
154	0xbe33df1a	-0.17565575
155	0x3d659c26	0.056057118
156	0xbe1906e5	-0.14944036
157	0x3e37e514	0.1795848
158	0xbdd5cf36	-0.10439913
159	0xbdb1de68	-0.08684999

fc4.bias f4 [5]
0	0x3e0efef9	0.13964452
1	0x3d9f60e0	0.07782149
2	0xbb87346e	-0.004126123
3	0x3e2271d4	0.15863734
4	0xbdffa664	-0.12482908
