working_on_new/trained_models/actor_52.pth (torch, 54860 bytes, 8 tensors)

fc1.weight f4 [128, 18]
0	0xbc0f3ad0	-0.008742049
1	0x3e2b8b49	0.16752352
2	0x3e2bc70e	0.16775152
3	0xbe650e71	-0.2236879
4	0xbe345f51	-0.17614485
5	0x3d8b8afa	0.06813617
6	0x3e1c5078	0.15265071
7	0x3e3bd36a	0.18342367
8	0x3e076557	0.13222252
9	0x3e105838	0.14096153
10	0xbced900c	-0.028999351
11	0xbe18d874	-0.1492632
12	0x3de81caf	0.11333596
13	0xbe4a0c60	-0.19731283
14	0xbe1e281e	-0.15444991
15	0x3e41c734	0.18923646
16	0xbdab0417	-0.083503895
17	0xbd05e49c	-0.032688722
18	0xbe4d73dd	-0.2006373
19	0x3e17a34f	0.14808391
20	0xbdd15399	-0.10221023
21	0x3d16f556	0.036855064
22	0xbc131e2e	-0.008979363
23	0xbc9f8c90	-0.019476205
24	0xbe5ba218	-0.21448553
25	0xbe2af0e6	-0.16693458
26	0xbe6b5837	-0.2298287
27	0xbe24852d	-0.16066428
28	0xbe6e75f8	-0.23287189
29	0xbe00c5b1	-0.12575413
30	0xbdb70644	-0.08936742
31	0xbc358800	-0.011079788
32	0x3dc4cd63	0.09609487
33	0xbc955942	-0.018231038
34	0x3ddc3026	0.10751371
35	0xbd890f67	-0.06692391
36	0xbcdad7e1	-0.026714267
37	0x3e3847b0	0.17996097
38	0xbd3ebcc2	-0.046566732
39	0x3d18d18c	0.037309214
40	0xbdfa2035	-0.12213174
41	0x3d9cb725	0.076521195
42	0x3dc0f557	0.09421795
43	0xbd11c265	-0.03558578
44	0x3e3b0bac	0.18266171
45	0x3e56d91f	0.20981263
46	0x3e0e4292	0.13892582
47	0xbdc41f21	-0.0957625
48	0x3d872cfb	0.06600376
49	0x3e2e91c5	0.17047794
50	0xbe04e5fd	-0.12978359
51	0xbe488ba9	-0.19584526
52	0x3d46097d	0.048348892
53	0x3ba698e2	0.005084143
54	0x3e07e251	0.13269927
55	0xbe3aded4	-0.18249065
56	0x3d46d4d9	0.04854283
57	0xbe223d62	-0.15843728
58	0x3cc7a098	0.02436857
59	0xbe152764	-0.14565808
60	0x3e03afd2	0.12860039
61	0xbc64d537	-0.01396685
62	0xbc85376f	-0.016261784
63	0xbdb5b132	-0.08871688
64	0xbe2c9704	-0.16854483
65	0xbe38abd1	-0.18034293
66	0xbd7b7513	-0.061390948
67	0xbe04d81c	-0.12973064
68	0xbde42ec3	-0.111417316
69	0x3d5bc3f0	0.053653657
70	0x3cdb6581	0.0267818
71	0x3e1e5291	0.15461184
72	0xbde92f36	-0.11385958
73	0xbc84f98d	-0.016232276
74	0xbc4a02ee	-0.0123298
75	0x3d91d702	0.071210876
76	0x3e35589a	0.1770958
77	0xbe37a5d2	-0.17934349
78	0x3d34a894	0.04410608
79	0x3e61f3de	0.22065684
80	0x3e3efa60	0.18650198
81	0x3d9d37e7	0.07676678
82	0x3e1d561a	0.15364876
83	0x3d24f21f	0.040269967
84	0x3e638a85	0.2222081
85	0xbca47760	-0.020076454
86	0xbde03423	-0.10947444
87	0xbdae4490	-0.08509171
88	0xbe28315b	-0.16425078
89	0xbe172e80	-0.14763832
90	0xbd8afe7d	-0.06786821
91	0xbdb71952	-0.08940376
92	0x3e051d7d	0.1299953
93	0xbe65f701	-0.22457506
94	0xbe22be5e	-0.15892932
95	0xbde97f14	-0.11401191
96	0x3d847cdf	0.0646913
97	0x3db10234	0.08642998
98	0xbe0343d5	-0.12818845
99	0xbe140cbe	-0.14457986
100	0x3c7ce471	0.015435324
101	0xba208147	-0.00061227795
102	0x3e23e0a6	0.16003665
103	0x3e6138e1	0.21994354
104	0xbe4e4116	-0.20142016
105	0x3e485344	0.19563013
106	0xbe28d32b	-0.16486804
107	0xbd2b406f	-0.041809496
108	0x3d9d1b25	0.07671193
109	0x3e131dbb	0.1436681
110	0xbe132c89	-0.14372458
111	0xbe17a381	-0.14808466
112	0xbdde4b1a	-0.10854168
113	0xbe3a12b7	-0.18171202
114	0x3e20d0de	0.15704677
115	0xbe4d9af9	-0.20078649
116	0xbde57133	-0.11203232
117	0xbdb3ec15	-0.087852634
118	0x3d2fb0ef	0.042893346
119	0x3e6f1f04	0.23351675
120	0x3e38cf6b	0.18047874
121	0x3d83bb42	0.06432201
122	0x3e6ff6f0	0.23434043
123	0xbe09bc0b	-0.13450639
124	0x3e4764c1	0.19472028
125	0xbc2ca103	-0.010536435
126	0xbdd6708e	-0.10470687
127	0xbd8c0f75	-0.06838886
128	0xbca11eb4	-0.01966796
129	0xbdf63c5c	-0.120232314
130	0x3e32b91e	0.17453429
131	0x3d9cecfa	0.07662387
132	0x3e609295	0.21930917
133	0x3e17080e	0.14749166
134	0xbe0b86f2	-0.13625696
135	0x3bf60037	0.00750735
136	0xbdf36d47	-0.118860774
137	0xbe532935	-0.20621188
138	0xbe052c92	-0.13005283
139	0xbd13d534	-0.036092
140	0x3e16c361	0.14722969
141	0xbc82f53c	-0.015986077
142	0xbe2a5d48	-0.16637146
143	0xbd602ae1	-0.054728393
144	0x3e14e3d9	0.14540042
145	0xbe055460	-0.13020468
146	0x3ddce23f	0.107853405
147	0xbd7ec0c6	-0.06219556
148	0x3db97fa7	0.09057551
149	0xbe7600f7	-0.24023806
150	0x3dbc13f5	0.09183494
151	0xbe5511f7	-0.20807634
152	0x3e2a3f4d	0.1662571
153	0x3d1792a4	0.03700508
154	0x3e1e1257	0.15436684
155	0x3df0df97	0.117613964
156	0xbe109bb0	-0.1412189
157	0xbe3b0c43	-0.18266396
158	0x3e230623	0.1592031
159	0x3e34b2d4	0.17646343
160	0xbd350230	-0.04419154
161	0x3d23318f	0.039842185
162	0x3db346f5	0.08753768
163	0x3d3f33ad	0.04668014
164	0x3b5475e4	0.00324189
165	0x3dd2e091	0.10296739
166	0xbe461d56	-0.19347128
167	0x3d2d7f24	0.04235758
168	0xbe646f4f	-0.22308086
169	0xbe6547c4	-0.22390658
170	0xbca15a8a	-0.019696493
171	0xbd9159bf	-0.07097196
172	0x3d9225d7	0.071361236
173	0xbdd102fc	-0.10205647
174	0x3cf31f18	0.029677913
175	0xbe532a41	-0.20621587
176	0xbe82360b	-0.25431857
177	0x3cf775f5	0.030207613
178	0x3e3f6475	0.18690665
179	0xbd220318	-0.03955373
180	0xbd7f3d01	-0.062314037
181	0x3c9407dd	0.018070156
182	0xbe199893	-0.14999609
183	0x3b032065	0.0020008322
184	0xbd69bc59	-0.057064388
185	0xbe1c9b36	-0.15293583
186	0xbd9e01af	-0.07715165
187	0xbe349781	-0.17635919
188	0x3dac1447	0.08402305
189	0xbba3057b	-0.0049750186
190	0xbdedcdeb	-0.11611541
191	0xbe3b972b	-0.18319385
192	0x3cb28456	0.021791618
193	0xbe014fed	-0.12628146
194	0x3be740d0	0.007057287
195	0xbe205bc5	-0.15660007
196	0x3d914e78	0.07095045
197	0x3d2e6c54	0.04258378
198	0xbcb18033	-0.021667575
199	0x3db68d3a	0.089136556
200	0xbe541b3d	-0.20713516
201	0x3ce80040	0.028320432
202	0x3ce329fd	0.027729983
203	0x3dcf1aea	0.10112555
204	0x3db90702	0.0903454
205	0xbe69342a	-0.22773805
206	0x3dfdaf2f	0.12386929
207	0xbd9d8a53	-0.07692399
208	0xbe3a8388	-0.18214238
209	0x3c176146	0.0092395
210	0x3d081448	0.033222467
211	0x3e1301c1	0.14356138
212	0xbde12b98	-0.10994643
213	0x3da4bf41	0.08044291
214	0x3dfa51fa	0.12222667
215	0xbe76b0ae	-0.24090835
216	0x3e6faed6	0.23406538
217	0x3d31c952	0.043404885
218	0x3e0303a1	0.12794353
219	0x3d85ce44	0.06533483
220	0xbe1460fb	-0.1449012
221	0x3de8d3df	0.11368536
222	0x3d8449aa	0.06459363
223	0xbe030350	-0.12794232
224	0xbe02ec8c	-0.12785548
225	0x3e045a74	0.1292513
226	0x3e1ffa27	0.1562277
227	0x3e6a0b65	0.22855909
228	0x3e2e4670	0.17019057
229	0x3e1a9a37	0.15097891
230	0xbe51651f	-0.20448731
231	0xbe24fc62	-0.16111901
232	0xbd0a3625	-0.033743042
233	0xbe26f05a	-0.16302624
234	0x3c9aee2d	0.0189124
235	0xbb9a6d61	-0.004712746
236	0x3d85ff0d	0.06542788
237	0x3e5b4e70	0.2141664
238	0x3dbb54c6	0.091470286
239	0x3dea02ea	0.11426337
240	0x3cabd53b	0.0209757
241	0xbd520830	-0.05127734
242	0x3e65889e	0.22415397
243	0xbe51faa8	-0.20505774
244	0xbd249ea3	-0.04019035
245	0xbe15637d	-0.14588733
246	0x3df23bf1	0.11827839
247	0x3e2a0737	0.16604315
248	0x3d971e2f	0.07378804
249	0xbe2ef8fd	-0.17087169
250	0x3d010494	0.031498507
251	0x3e390ab8	0.18070495
252	0x3e6746f0	0.22585654
253	0xbe3b0f92	-0.18267658
254	0xbe35a71b	-0.17739527
255	0x3cf6f6cb	0.030146977

fc1.bias f4 [128]
0	0x3e2b08e6	0.16702613
1	0x3cb9c62f	0.02267751
2	0xbe6a4e7e	-0.22881505
3	0x3bf0c3cf	0.007347561
4	0x3e5aebbf	0.21378992
5	0x3dfe31ef	0.12411868
6	0xbd28f666	-0.04125061
7	0xbe06fdcf	-0.13182758
8	0xbe5faf59	-0.21844234
9	0xbe32d829	-0.17465271
10	0xbdcbd717	-0.099531345
11	0xbcddd84d	-0.02708068
12	0xbe19fb33	-0.15037231
13	0x3d982922	0.074297205
14	0xbdc4058c	-0.095713705
15	0xbdcef7a2	-0.10105826
16	0xbe23bb1b	-0.15989344
17	0xbdaa1401	-0.08304597
18	0x3e4886c5	0.1958266
19	0x3df40752	0.11915459
20	0x3a88f32f	0.0010448451
21	0x3e6efb9c	0.23338169
22	0xbe10f818	-0.1415714
23	0x3e28ae7d	0.16472812
24	0xbd2421e4	-0.040071383
25	0x3b6d37b1	0.0036196525
26	0xbe555e93	-0.20836858
27	0xbe0a69e6	-0.1351696
28	0xbde785dd	-0.11304829
29	0x3e45d431	0.19319226
30	0x3d8125b8	0.063060224
31	0x3e6926dc	0.2276873
32	0xbddb46d5	-0.107068695
33	0x3d0eb07d	0.03483628
34	0x3e6866be	0.22695443
35	0xbd530f1c	-0.05152808
36	0xbe332537	-0.17494665
37	0x3e44e17b	0.19226639
38	0xbd93804d	-0.07202206
39	0xbde0f772	-0.109846964
40	0xbe30ce50	-0.17266202
41	0xbdd73524	-0.10508183
42	0x3e7b0e1f	0.24517106
43	0x3dd98cfa	0.10622592
44	0xbdf9cee8	-0.12197667
45	0x3e493138	0.19647682
46	0x3d482c84	0.04887058
47	0x3e5314ed	0.20613451
48	0x3e0f3189	0.1398374
49	0x3e29d194	0.16583854
50	0x3df1723b	0.11789366
51	0xbe2f2921	-0.17105533
52	0x3cc4bd4a	0.024016041
53	0xbe2205af	-0.1582248
54	0xbe433cc5	-0.1906615
55	0x3e4cdffe	0.20007321
56	0x3dd3cc9b	0.1034176
57	0x3e14f5a1	0.14546825
58	0x3d1f1c18	0.03884515
59	0x3dda2c2e	0.10652958
60	0xbe777748	-0.24166596
61	0xbe1e4f92	-0.15460041
62	0xbe0a2aa2	-0.13492826
63	0xbca2492d	-0.019810284
64	0xbd0c8232	-0.03430385
65	0x3dff3525	0.124613084
66	0x3e0ff571	0.14058472
67	0xbe229af7	-0.15879427
68	0x3d57055f	0.052495357
69	0x3d90ef04	0.070768386
70	0xbcb1a80f	-0.021686582
71	0xbcb1b79f	-0.021694003
72	0xbad450a3	-0.0016198348
73	0x3e4cf5d3	0.2001565
74	0x3e36c3d3	0.17848139
75	0x3e3ea201	0.18616487
76	0xbc4fc99e	-0.012682347
77	0xbe7c6550	-0.24648023
78	0x3d2c6dc4	0.04209687
79	0xbc802911	-0.015644582
80	0xbe4d3c1e	-0.20042464
81	0x3e0a2875	0.13491996
82	0xbdd7bb42	-0.105337635
83	0xbd989222	-0.074497476
84	0x3d0bbd11	0.034115855
85	0xbe2146d3	-0.15749674
86	0x3e2516e4	0.16122013
87	0xbe391a9c	-0.18076557
88	0xbe4fbfb5	-0.20287974
89	0xbdf60d99	-0.12014312
90	0x3cf93798	0.030422017
91	0x3b8c8f89	0.0042895717
92	0xbe22696d	-0.15860529
93	0xbdfa3cae	-0.12218605
94	0xbdb84de8	-0.089992344
95	0xbde82ec9	-0.113370486
96	0xbdc85dd7	-0.097835235
97	0x3dff71f6	0.12472908
98	0x3ce874cf	0.028376011
99	0x3e3600f1	0.17773797
100	0x3dfc0fcf	0.12307703
101	0x3e23debe	0.16002938
102	0x3e66e383	0.22547726
103	0xbcf21561	-0.02955121
104	0xbdfa824b	-0.12231883
105	0xbdc8a356	-0.09796779
106	0xbd8ad83a	-0.06779523
107	0x3db9b5c3	0.090678714
108	0xbe4ff07e	-0.20306584
109	0xbc873230	-0.016503423
110	0x3e6f227a	0.23352996
111	0xbe01123b	-0.1260461
112	0x3b818787	0.0039529237
113	0xbd8a2eba	-0.06747194
114	0x3d8c665f	0.06855463
115	0x3e0180d1	0.12646796
116	0xbcc55dab	-0.024092516
117	0x3df055b0	0.117350936
118	0x3e734199	0.23755492
119	0xbe13f79d	-0.14449926
120	0xbe41fa05	-0.18943031
121	0xbdaae3b1	-0.0834421
122	0xbd75f11b	-0.06004439
123	0x3aee51d2	0.0018182343
124	0xbe68fbf4	-0.22752362
125	0xbe698bd2	-0.22807243
126	0xbe312be5	-0.173019
127	0xbe646c1c	-0.22306865

fc2.weight f4 [64, 128]
0	0xbd0ee671	-0.034887735
1	0x3c00b4a0	0.007855564
2	0xbd435b43	-0.047694456
3	0xbc073cd9	-0.008254253
4	0xbd4b7093	-0.049667906
5	0xbc8f58fa	-0.017498482
6	0x3ca42f18	0.020041987
7	0xbcbad554	-0.0228068
8	0xbd9cc976	-0.07655613
9	0x3a9959db	0.0011699753
10	0x3d9eac62	0.07747723
11	0x3db6e0c2	0.08929588
12	0x3d5372a8	0.051623017
13	0xbd4cffd2	-0.050048657
14	0xbd54dd8f	-0.051969107
15	0xbd90266e	-0.0703858
16	0x3c901d62	0.017592136
17	0xbc8256aa	-0.015910465
18	0x3b3461d9	0.0027524142
19	0xbd732664	-0.059362784
20	0xbc296dce	-0.010341121
21	0xbc80bf2c	-0.015716158
22	0xbd0d4d7b	-0.03449772
23	0x3d728a45	0.059213895
24	0x3c1433d5	0.009045561
25	0xbd9368ee	-0.07197748
26	0xbcc4a3c1	-0.024003865
27	0x3cc5f300	0.024163723
28	0xbc5303c4	-0.012879316
29	0xbc9bf7d5	-0.019039074
30	0xbc6a511b	-0.014301564
31	0x3d2dceff	0.042433735
32	0xbd258ca3	-0.040417325
33	0x3c4af775	0.0123881
34	0x3c244e28	0.0100283995
35	0xbda13cc2	-0.07872917
36	0x3d23a48f	0.039951857
37	0x3d21981d	0.039451707
38	0x3dac11c9	0.0840183
39	0x3d754b86	0.059886478
40	0x3db2d93e	0.08732842
41	0xbd4d1629	-0.05006996
42	0xbcf0be1a	-0.029387522
43	0xbdae3fe9	-0.08508284
44	0xbdb73c1e	-0.08947013
45	0xbac3c077	-0.0014934678
46	0x3cef1740	0.029185891
47	0xbd935ec9	-0.07195813
48	0x3d91c847	0.07118278
49	0x3d28f5c0	0.04124999
50	0x3d76f522	0.06029237
51	0xbd733c2b	-0.059383553
52	0xbb69d3a3	-0.0035679124
53	0xbd373a7d	-0.044733513
54	0xbbb4086c	-0.005494168
55	0xbd8f83a6	-0.07007532
56	0xbd38fe39	-0.04516432
57	0x3c23f55c	0.010007229
58	0x3d5e2555	0.05423482
59	0xbd507bca	-0.050899304
60	0x3d380643	0.044927847
61	0xbd4d7734	-0.05016251
62	0xbc9b8def	-0.018988578
63	0x3c809e98	0.015700623
64	0xbc7a5456	-0.015278896
65	0xbd1ae25b	-0.037813526
66	0x3d55e358	0.052218765
67	0xbc7861f1	-0.01516007
68	0x3b2d3751	0.0026430676
69	0x3d7900e5	0.06079187
70	0xbc1c7279	-0.009548777
71	0xbc30769e	-0.010770468
72	0xbbb9e5ae	-0.005673132
73	0x3d351fe4	0.044219866
74	0x3c0847f7	0.008317939
75	0x3d290a80	0.04126978
76	0x3c6122ff	0.013741254
77	0x3d6f391d	0.058404077
78	0xbc86903d	-0.0164262
79	0x3d8e0038	0.069336355
80	0xbda08cb2	-0.078393355
81	0xbd9fe18b	-0.07806691
82	0xbc59c8db	-0.013292517
83	0x3c8236b7	0.01589523
84	0x3dba0655	0.09083239
85	0x3a2bf716	0.0006559951
86	0x3d8c22d9	0.06842584
87	0x3d857677	0.06516736
88	0xbcfa83b6	-0.030580383
89	0xbd9c9ead	-0.076474525
90	0x3d51957a	0.051167943
91	0x3d030d46	0.03199508
92	0xbc16cc96	-0.0092040505
93	0x3cfe05b3	0.031008577
94	0x3cfe2d3c	0.031027429
95	0x3d80629b	0.062688075
96	0x3c4b7361	0.012417645
97	0xbd126708	-0.03574279
98	0x3ba95bf9	0.0051684347
99	0x3d33fa48	0.04393986
100	0xbdc18d5f	-0.094507925
101	0x3c026e3a	0.00796085
102	0xbd0b16f1	-0.033957426
103	0xbd8e23ec	-0.06940445
104	0xbdc0f10c	-0.09420976
105	0x3c3e8ef1	0.01163076
106	0xbd6cf2f2	-0.05784888
107	0xbd89eeee	-0.06735025
108	0xbd356738	-0.04428789
109	0x3d86a5bc	0.0657458
110	0x3a96092b	0.0011446824
111	0xbdb0cdfa	-0.08633037
112	0x3c0e2d9b	0.008677865
113	0xbc80a9ad	-0.015705908
114	0x3d9d5bca	0.07683523
115	0x3d957b54	0.072989136
116	0x3cab9893	0.020946776
117	0xbd78bb82	-0.060725696
118	0x3b6b681d	0.003592021
119	0xbdd77939	-0.10521168
120	0x3daf2177	0.08551305
121	0x3daa2ac8	0.08308941
122	0xbd1da853	-0.038490605
123	0x3d92ece5	0.0717409
124	0x3d295012	0.041336127
125	0x3b30eca0	0.0026996508
126	0x3d80fe53	0.062985085
127	0x3cbe8a1f	0.02325922
128	0xbc43f0e6	-0.01195929
129	0x3cfa1ff9	0.030532824
130	0xbd9d50ee	-0.07681452
131	0x3d919a01	0.07109452
132	0xbd03bb59	-0.03216109
133	0xbd526c0e	-0.05137258
134	0x3bd395be	0.0064570596
135	0x3d0e7e65	0.034788508
136	0x3c7eb5bb	0.015546258
137	0xbd2586ac	-0.040411636
138	0xbd28ec36	-0.041240893
139	0x3c732dbe	0.014842449
140	0x3ce59a74	0.02802775
141	0x3d5af256	0.053453766
142	0x3d9da5e0	0.07697654
143	0xbda2bdd7	-0.07946365
144	0xbc5a873a	-0.013337905
145	0xbd529e22	-0.05142034
146	0xbd9394fb	-0.0720615
147	0xbd5dbbfb	-0.05413435
148	0x3d08a214	0.033357695
149	0xbd86b05b	-0.06576606
150	0x3d952c89	0.07283885
151	0xbdbca294	-0.09210697
152	0x3d4f69e1	0.050638083
153	0xbc1b5594	-0.009480853
154	0x3d9721fd	0.073795296
155	0x3d93a687	0.07209497
156	0x3d1c5c59	0.038174007
157	0x3c87c70b	0.016574403
158	0xbdcf4182	-0.101199165
159	0x3c6d171d	0.014470843
160	0x3a45ea54	0.0007549871
161	0x3cf6705a	0.03008287
162	0xbdb25bf2	-0.087089434
163	0x3dab5cf0	0.08367336
164	0xbd0c46c9	-0.034247193
165	0xbbf14584	-0.0073630232
166	0xbd27d159	-0.040971134
167	0xbd9ea20f	-0.07745754
168	0x3da4cf09	0.08047301
169	0xbb8d1b6d	-0.004306248
170	0x3c3e1ffb	0.011604304
171	0x3c6e8f1b	0.014560486
172	0x3d8b4476	0.06800167
173	0x3cd9c53e	0.02658331
174	0xbda715af	-0.08158433
175	0xbdb98edc	-0.090604514
176	0x3d80298a	0.06257923
177	0x3d1eb577	0.038747277
178	0xbd003090	-0.031296313
179	0x3d35719f	0.04429781
180	0x3ab89cfe	0.0014084873
181	0x3c30277b	0.0107516
182	0x3d52c1a0	0.051454186
183	0xbce2dc6b	-0.027692994
184	0xbd0737b4	-0.033012107
185	0xbd8e75b0	-0.06956041
186	0x3d34fdf1	0.04418749
187	0xbb8c56b4	-0.0042827968
188	0xbda44e82	-0.08022787
189	0x3ce7e67c	0.028308146
190	0x3cc836f6	0.02444027
191	0xbc952ac3	-0.018208867
192	0x3c6dff67	0.014526225
193	0x3c9cf3b2	0.019159172
194	0xbc2d02a0	-0.010559708
195	0x3d3cabea	0.046062388
196	0x3dcc8245	0.099857844
197	0x3c9630f9	0.018333899
198	0x3d5362ea	0.051608004
199	0xbb61b3ec	-0.0034439517
200	0x3d9fd757	0.07804745
201	0xbb915090	-0.0044346526
202	0xbccb1fa7	-0.024795366
203	0x3c00131f	0.007817059
204	0x3cb5f7d5	0.022212902
205	0x3c2b6014	0.0104599185
206	0x3d98bc3a	0.07457776
207	0x3dc69b4a	0.09697588
208	0x3bb39a53	0.0054810434
209	0xba7807ef	-0.00094616314
210	0x3d60ea42	0.054910906
211	0xbd7d641d	-0.061863054
212	0x3d865a61	0.06560207
213	0x3cf3b69e	0.029750165
214	0xbd81a71d	-0.063307025
215	0xbd8fcd6b	-0.07021602
216	0x3d232ee9	0.03983966
217	0xbd2624d9	-0.040562484
218	0x3dc4dfea	0.09613021
219	0x3d5f023e	0.054445498
220	0x3db78d29	0.08962471
221	0xbd04fb4a	-0.03246621
222	0xbc99f24f	-0.0187923
223	0xbb1f928c	-0.0024348823
224	0xbd9cf068	-0.07663041
225	0x3d7da236	0.061922275
226	0x3db0aba4	0.08626488
227	0xbd555750	-0.05208522
228	0xbd5fe5d7	-0.05466255
229	0x3d7c6296	0.061617456
230	0x3da818fb	0.0820789
231	0xbd9bcba1	-0.076071985
232	0xbd6f3f3f	-0.058409926
233	0xbcdc1c7e	-0.026869055
234	0x3ce58b4f	0.02802053
235	0x3c7d12a0	0.015446335
236	0x3c2b62ce	0.010460569
237	0xbd44a1ee	-0.04800599
238	0xbd5a7942	-0.053338297
239	0x3c948382	0.018129114
240	0xbdbfdfe4	-0.093688756
241	0xbdae1532	-0.085001364
242	0x3c50a071	0.012733565
243	0xbb40bd20	-0.0029409602
244	0x3c23b3d4	0.009991605
245	0xbbb60de5	-0.0055558556
246	0x3d69dc03	0.057094585
247	0xbc960afd	-0.018315786
248	0x3d560f6e	0.05226081
249	0x3c53dad2	0.012930589
250	0xbc80547d	-0.015665287
251	0x3d3800e1	0.044922713
252	0x3d04ab81	0.03239012
253	0xbd18efd8	-0.037338108
254	0xbd5b775c	-0.053580627
255	0xbd932835	-0.07185403

fc2.bias f4 [64]
0	0x3d3068bd	0.043068636
1	0x3d414545	0.0471852
2	0xbd8c38eb	-0.06846794
3	0x3cf06904	0.02934695
4	0xbd85a3eb	-0.065254055
5	0xbcc6af79	-0.024253594
6	0x3da4b7a2	0.08042838
7	0x3cbd96d7	0.023143215
8	0x3da33ffb	0.07971188
9	0xbd1e83cf	-0.03869992
10	0x3d9b5dde	0.07586263
11	0xbc226eb4	-0.009914089
12	0xbc045f7b	-0.008079405
13	0x3d397e28	0.045286328
14	0x3cba5d05	0.022749433
15	0xbc75ecf3	-0.015010106
16	0x3d94dd33	0.07268753
17	0xbcc784ee	-0.024355378
18	0xbd8415fd	-0.064495064
19	0x3d5e5167	0.05427685
20	0x3dd56963	0.104204915
21	0xbd15628d	-0.03647094
22	0x3d7f20e2	0.06228722
23	0xbd33f38a	-0.04393343
24	0x3d24696f	0.04013961
25	0xbd3946ef	-0.045233663
26	0x3d9bdd59	0.07610578
27	0xbd304144	-0.043030992
28	0xbd1dba6e	-0.03850787
29	0xbd1851f3	-0.037187528
30	0xbcb18a6f	-0.021672456
31	0x3daca3da	0.0842969
32	0x3c96f9fd	0.01842975
33	0x3dc21514	0.094766766
34	0xbd6ed5e6	-0.05830946
35	0xbda09a28	-0.07841903
36	0xbd1a09a8	-0.037606865
37	0xbdd73ef7	-0.105100565
38	0x3db428ee	0.08796869
39	0x3c05bddf	0.008162945
40	0xbd88a9fa	-0.066730455
41	0x3b18118d	0.002320382
42	0x3ba54576	0.005043681
43	0xbdb75db4	-0.08953419
44	0x3b7b3a40	0.003833428
45	0xbcd0e55f	-0.025499998
46	0xbd15ec6e	-0.03660243
47	0xbd68f8b3	-0.056877803
48	0xbcae57a1	-0.02128202
49	0x3d324322	0.043521054
50	0x3d8ec516	0.06971185
51	0xbdd86bf6	-0.10567467
52	0x3cf1ef15	0.029532949
53	0xbdb55fc4	-0.088561565
54	0xbd86c195	-0.065798916
55	0xbd32c4b6	-0.04364463
56	0xbd7bbcb6	-0.061459266
57	0xbd4a9bc1	-0.049464945
58	0x3d2ab76f	0.041678842
59	0xbd607403	-0.054798137
60	0x3d05f6f1	0.032706205
61	0x3db41fa6	0.08795099
62	0x3d769e46	0.060209535
63	0xbca24de9	-0.019812541

fc3.weight f4 [32, 64]
0	0x3dba771f	0.09104752
1	0xbc1315a8	-0.008977331
2	0xbdd58918	-0.10426539
3	0x3dc819fe	0.097705826
4	0xbcf1d9e6	-0.029522847
5	0x3d3604af	0.04443806
6	0x3cea968a	0.028636236
7	0x3db9ea1b	0.09077855
8	0xbd028a08	-0.031869918
9	0xbd7d24cd	-0.061802674
10	0xbd4dc9b4	-0.050241187
11	0x3cf6eea1	0.030143084
12	0xbd98bb48	-0.07457596
13	0x3dc0587a	0.093918756
14	0xbd12a1c5	-0.035798807
15	0xbdc63e9e	-0.09679912
16	0xbd7003b7	-0.058597293
17	0xbdbdfb30	-0.09276426
18	0x3dd9290c	0.10603532
19	0xbddb154d	-0.10697422
20	0xbde00cd5	-0.109399475
21	0x3e0a5e8b	0.13512628
22	0xbd32300f	-0.043502863
23	0x3da5eb84	0.08101562
24	0x3e0ef507	0.13960658
25	0xbd34654c	-0.044041917
26	0x3ca8a662	0.02058715
27	0xbdabf48a	-0.083962515
28	0x3d1837c7	0.03716257
29	0xbdf43be5	-0.119254865
30	0x3daba209	0.08380515
31	0xbd2e354b	-0.042531293
32	0xbd134ef6	-0.035963975
33	0xbdbc602c	-0.09198031
34	0x3da785ed	0.08179841
35	0x3dc3d696	0.095624134
36	0x3dc1b9b0	0.09459245
37	0x3e011a90	0.12607789
38	0xbe1198fa	-0.14218512
39	0xbd0bd611	-0.034139697
40	0x3cb234fb	0.021753779
41	0x3ddd2c6e	0.1079949
42	0xbdad5622	-0.08463694
43	0xbbc03f7e	-0.005866944
44	0xbd4024da	-0.046910144
45	0x3d4a2e1e	0.049360387
46	0x3d90b3f2	0.07065572
47	0xbd69f208	-0.057115585
48	0x3d22d92d	0.039757896
49	0x3cfa4a3a	0.030552972
50	0x3dba0934	0.090837866
51	0xbd4abaaa	-0.049494423
52	0x3d939752	0.072065964
53	0x3d9fac9d	0.07796595
54	0x3e12ff38	0.1435517
55	0xbd7bbb62	-0.061458
56	0xbd3135a4	-0.043264046
57	0x3d9b7d79	0.075922914
58	0xbe05c61f	-0.13063858
59	0x3d1222f1	0.035677854
60	0xbc8d9c14	-0.017286338
61	0xbccffbbd	-0.025388593
62	0xbdc42c48	-0.095787585
63	0x3c4de15f	0.01256594
64	0xbe0b1a4e	-0.13584253
65	0xbe03c769	-0.12869038
66	0x3de04f22	0.109525934
67	0x3db75705	0.089521445
68	0x3d54c855	0.051948864
69	0x3b6b29c3	0.0035883046
70	0x3e073f55	0.13207753
71	0x3d92d6e0	0.071698904
72	0x3db3c64f	0.08778059
73	0x3e11f377	0.1425303
74	0xbdefeb43	-0.117147945
75	0xbde55d29	-0.111994095
76	0xbded1de1	-0.115779646
77	0x3de610ae	0.1123365
78	0xbdc5b896	-0.096543476
79	0x3de4752f	0.111551635
80	0xbd5f068f	-0.054449614
81	0x3de6aba2	0.11263205
82	0x3dcb408f	0.09924423
83	0xbd11e359	-0.035617206
84	0x3daf21d0	0.08551371
85	0x3ac6263d	0.0015117597
86	0x3ad77e62	0.0016440863
87	0x3da442ec	0.08020577
88	0xbc436657	-0.011926255
89	0xbca4d3d8	-0.020120546
90	0xbd2e56db	-0.0425633
91	0x3d6ae66f	0.057348665
92	0xbcfa50a5	-0.030556032
93	0x3db2f435	0.08737985
94	0x3cb790c4	0.022407897
95	0xbd90b2cf	-0.07065355
96	0xbc2ac9cf	-0.0104240915
97	0x3e00610c	0.1253702
98	0xbdc0f2f1	-0.094213374
99	0xbce12dd7	-0.027487678
100	0x3d8aa846	0.06770377
101	0xbdebf3dd	-0.115211226
102	0xbd6d2ccd	-0.057904053
103	0x3c2b7073	0.010463822
104	0xbcd60b03	-0.026128298
105	0xbe132d78	-0.14372814
106	0xbdd1461e	-0.10218452
107	0x3d964434	0.073372275
108	0x3bb62f53	0.0055598407
109	0xbdd25219	-0.10269565
110	0xbbae4528	-0.0053183027
111	0x3df5e27c	0.12006089
112	0xbddad6ea	-0.10685523
113	0x3d88bae6	0.06676273
114	0x3cf89728	0.030345514
115	0xbd9d2dc7	-0.07674747
116	0x3e0526ce	0.13003084
117	0x3c61c688	0.013780244
118	0xbde99ce9	-0.11406881
119	0xbdc4a492	-0.09601702
120	0x3d3238b1	0.043511096
121	0x3d4ea017	0.050445642
122	0xbcafc704	-0.021457203
123	0xbd677798	-0.056510538
124	0x3c1f91d4	0.009739358
125	0xbda51499	-0.08060569
126	0xbd440f49	-0.04786614
127	0xbd551477	-0.05202147
128	0xbdbdd315	-0.09268776
129	0x3de20788	0.11036593
130	0xbd21127b	-0.039324265
131	0xbe12b0b8	-0.14325225
132	0xbddefc99	-0.10888023
133	0xbc64633f	-0.013939678
134	0xbdb27bb0	-0.08714998
135	0x3da9c3f1	0.08289326
136	0xbda96c1e	-0.08272575
137	0x3d844d1b	0.06460019
138	0xbdc609e1	-0.09669853
139	0x3c74e778	0.014947765
140	0x3cdd2ef4	0.026999928
141	0xbc6cdde6	-0.014457202
142	0xbc69c6b2	-0.014268564
143	0x3db5bf82	0.08874418
144	0xbdcb01ad	-0.09912429
145	0x3c3ddee8	0.0115887895
146	0x3cfa211d	0.030533368
147	0xbab33244	-0.0013671597
148	0xbd3f7b42	-0.046748407
149	0xbd94a632	-0.07258262
150	0x3bed910c	0.007249957
151	0xbe1262a3	-0.1429544
152	0x3b1e0f90	0.0024118163
153	0x3ddaaf4e	0.10677968
154	0xbd9b97bb	-0.075973
155	0xbca0c2d6	-0.019624155
156	0xbe087992	-0.13327625
157	0xbce7d665	-0.028300473
158	0xbd95fbee	-0.073234424
159	0x3c9e307e	0.019310232
160	0x3c01cfc6	0.007923072
161	0x3d1aa140	0.037751436
162	0x3de2dad0	0.110768914
163	0x3d4af44a	0.04954938
164	0x3ba37ffa	0.004989621
165	0xbd8acd56	-0.06777446
166	0xbe0330bc	-0.1281156
167	0x3c8eafb6	0.01741777
168	0xbd381a91	-0.04494721
169	0x3d405dca	0.046964444
170	0x3df6fc38	0.12059826
171	0xbdc39734	-0.09550324
172	0x3dadfdfa	0.08495708
173	0x3c55577b	0.013021345
174	0x3cb2b906	0.021816742
175	0xbdad0329	-0.084478684
176	0x3d84c31b	0.06482526
177	0x3e081fa3	0.13293318
178	0xbdea743c	-0.11447951
179	0xbdc69b44	-0.09697583
180	0xbd3bbc74	-0.04583402
181	0x3d90659d	0.07050631
182	0x3dbab250	0.09116042
183	0xbc18a534	-0.009316731
184	0xbd6e2f48	-0.05815056
185	0x3df0796b	0.11741909
186	0x3dbd6ad3	0.09248891
187	0x3d50ab36	0.05094453
188	0x3e05fa0e	0.1308367
189	0x3bb675da	0.005568248
190	0xbdd43651	-0.103619225
191	0xbd94999a	-0.0725586
192	0xbe11efbf	-0.14251612
193	0xbd5a8c47	-0.053356435
194	0xbdd4685b	-0.10371467
195	0x3d81fc0e	0.06346904
196	0xbdf1915b	-0.117953025
197	0xbd3d52f7	-0.0462217
198	0x3c8bc03a	0.017059434
199	0xbdc4aa7d	-0.096028306
200	0x3e006961	0.12540199
201	0xbdd66217	-0.10467928
202	0x3dc7128e	0.09720336
203	0x3d4577c3	0.048209917
204	0x3d97da9c	0.07414743
205	0xbd083436	-0.033252917
206	0xbbc8582f	-0.006114028
207	0xbd3cf533	-0.046132278
208	0xbdfcc153	-0.12341561
209	0x3df1f5ab	0.118144356
210	0x3dfff6e8	0.124982655
211	0xbe0b3bea	-0.13597074
212	0xbcf1a526	-0.029497694
213	0x3da42967	0.08015709
214	0x3dcc6d0f	0.09981739
215	0xbd6d44c3	-0.057926904
216	0x3c4e3695	0.012586256
217	0x3d8f3232	0.06991996
218	0x3cd53a9e	0.026028927
219	0xbd4ede5c	-0.050505027
220	0x3dcb0d0d	0.099145986
221	0x3d6030db	0.054734092
222	0xbd53b0e3	-0.051682364
223	0xbdde9853	-0.10868897
224	0xbde645f5	-0.11243812
225	0x3c4e75ba	0.01260131
226	0xbdb5d3f2	-0.08878316
227	0x3cb0e093	0.02159146
228	0xbdda00d9	-0.10644693
229	0x3dc32f16	0.09530465
230	0x3d8c1477	0.06839841
231	0x3d48f775	0.04906412
232	0xbd7b44a3	-0.061344754
233	0xbe059abd	-0.13047309
234	0x3b7da560	0.0038703308
235	0x3d7dc92b	0.061959427
236	0xbd722c3e	-0.059124224
237	0x3dbe1950	0.09282172
238	0x3cac72dd	0.021050865
239	0x3d771152	0.060319252
240	0xbca61d1c	-0.020277552
241	0x3c066fad	0.0082053365
242	0xbda24961	-0.07924152
243	0xbd4bdbbb	-0.0497701
244	0x3ddcb22d	0.10776172
245	0xbc6ec0a9	-0.014572301
246	0x3d5951a6	0.05305638
247	0xbd8b3d6f	-0.06798827
248	0x3d958770	0.07301223
249	0x3de1dcb5	0.11028425
250	0xbd42a96f	-0.047524866
251	0xbd820bf1	-0.06349934
252	0x3d87d138	0.06631702
253	0xbd52a30b	-0.05142502
254	0x3a2369f6	0.0006233746
255	0x3e00f08c	0.12591761

fc3.bias f4 [32]
0	0xbe0ba5e2	-0.13637498
1	0xbdaace4d	-0.0834013
2	0xbd685f27	-0.05673137
3	0xbcae04af	-0.021242468
4	0xbd9dd9fc	-0.07707593
5	0xbd67aeb3	-0.05656309
6	0xbda0b80b	-0.078476034
7	0xbd008999	-0.031381223
8	0x3cbfb19d	0.023400122
9	0x3d621253	0.055193257
10	0x3dabbbdd	0.083854415
11	0xbda6ff79	-0.08154196
12	0x3cee85a2	0.029116455
13	0xbddae08c	-0.1068736
14	0xbde6cc19	-0.11269397
15	0xbd9225a3	-0.07136085
16	0x3dbd0de2	0.092311636
17	0xbdca87bb	-0.0988917
18	0x3d9c7bba	0.076407865
19	0x3d252e9c	0.040327653
20	0x3d2aa1a0	0.041658044
21	0xbd8ce9dd	-0.068805434
22	0xbdec35bc	-0.115336865
23	0xbd89fe46	-0.06737952
24	0x3d564bc1	0.05231834
25	0xbbcb2e83	-0.006200613
26	0xbbfc4bc3	-0.007699461
27	0xbd80e65c	-0.062939376
28	0x3d7c2119	0.061555002
29	0xbd80f149	-0.062960215
30	0x3dccaf3c	0.09994361
31	0xbc06c640	-0.008225977

fc4.weight f4 [5, 32]
0	0x3d8d8f52	0.06912102
1	0xbe1a8c57	-0.15092598
2	0x3e08f8db	0.13376181
3	0xbca6bc4b	-0.020353457
4	0x3e27cb6b	0.16386192
5	0xbd72a3bb	-0.059238177
6	0x3e2a2c53	0.16618471
7	0x3dc8cc85	0.09804634
8	0x3cd6b20a	0.026207943
9	0x3dac8511	0.08423818
10	0x3d04e262	0.032442458
11	0x3e4964f4	0.19667417
12	0xbdb71795	-0.08940045
13	0x3e48ffd3	0.19628839
14	0x3e414257	0.18872963
15	0x3e0ea615	0.13930543
16	0x3dd979a7	0.106189065
17	0xbd7bc7f7	-0.06147
18	0x3db0ab79	0.08626456
19	0x3ce2fd0d	0.027708555
20	0x3df39ee5	0.11895541
21	0x3e0b8fb1	0.13629033
22	0x3d2ef71e	0.042716138
23	0xbe1ab657	-0.1510862
24	0x3d80caea	0.06288703
25	0x3db4920f	0.08816921
26	0xbda6a9c7	-0.08137851
27	0x3b064c94	0.0020492421
28	0xbde12859	-0.10994024
29	0x3deab7a5	0.11460809
30	0xbe1bf58d	-0.15230389
31	0x3e38702e	0.18011543
32	0x3decee7b	0.11568924
33	0x3cb3df6c	0.021957122
34	0x3dbcc4d8	0.092172325
35	0x3d6a1c86	0.05715611
36	0x3e0e526c	0.13898629
37	0xbe393c7b	-0.18089478
38	0x3d98a571	0.074534304
39	0x3c7bc74b	0.015367339
40	0xbdad85d6	-0.08472793
41	0xbdf5e803	-0.12007143
42	0x3dc61dad	0.09673629
43	0xbc81f2e2	-0.015862886
44	0x3df35d56	0.11883037
45	0xbd6cef56	-0.057845436
46	0xbe0fd04e	-0.14044306
47	0x3e09fb93	0.13474874
48	0xbd65a0f3	-0.056061696
49	0xbd56b189	-0.052415404
50	0x3d6ea511	0.05826289
51	0xbd25e43c	-0.040500864
52	0x3e17fe37	0.14843069
53	0x3d122ac5	0.03568532
54	0xbc6f00f8	-0.014587633
55	0xbcc9641b	-0.024583867
56	0xbe36bbde	-0.17845103
57	0xbe1847c9	-0.14871134
58	0xbdc4af7e	-0.09603785
59	0x3d944a47	0.0724073
60	0x3d7e28ec	0.062050745
61	0x3d501653	0.05080254
62	0xbd88f695	-0.06687657
63	0x3dd4fc54	0.1039969
64	0x3da4601a	0.080261424
65	0x3d824727	0.063612275
66	0x3d7efebb	0.06225465
67	0xbe3d759d	-0.18501897
68	0xbe4260ea	-0.18982282
69	0x3dc79d09	0.09746749
70	0x3e1237a7	0.14279042
71	0x3e1d43e5	0.15357931
72	0xbe2ba2a0	-0.16761255
73	0x3e2e0af5	0.16996367
74	0xbe29e8e5	-0.16592748
75	0x3dec7735	0.115461744
76	0x3daf3bcc	0.08556327
77	0x3e06758b	0.13130777
78	0xbca00fa9	-0.019538717
79	0xbd8dcaeb	-0.06923469
80	0xbdec7279	-0.115452714
81	0x3ce190b1	0.027534815
82	0xbd9a13d9	-0.07523317
83	0xbdff9f82	-0.124815956
84	0x3db830c2	0.08993675
85	0x3e14053c	0.14455122
86	0xbd826fd6	-0.06368987
87	0xbe41b879	-0.18918027
88	0x3d4851d7	0.048906174
89	0x3ddd4c0f	0.10805523
90	0xbd1c961e	-0.0382291
91	0xbe443fa5	-0.19164903
92	0xbcc6400e	-0.024200466
93	0xbe15a7c9	-0.14614786
94	0x3d6dcffb	0.058059674
95	0x3d913bc5	0.07091478
96	0x3e09822b	0.13428561
97	0xbd03491b	-0.03205214
98	0x3e32ddfe	0.17467496
99	0x3e34649b	0.17616503
100	0xbd705dd6	-0.05868324
101	0xbdef39d2	-0.1168095
102	0x3bdf2afd	0.0068105445
103	0xbd5ce240	-0.053926706
104	0x3e38bf60	0.18041754
105	0xbe18abf7	-0.1490935
106	0x3d5d3c64	0.05401267
107	0x3e2cbbcb	0.16868512
108	0x3dd5c6a8	0.10438281
109	0x3e0c724e	0.13715479
110	0x3dc56c6c	0.096398205
111	0xbc925eec	-0.017867528
112	0x3dc2b46f	0.09507071
113	0xbde5a5bd	-0.11213253
114	0x3d746971	0.05967087
115	0x3e041626	0.12899074
116	0x3cb0fc5e	0.021604713
117	0xbdab1c9a	-0.08355065
118	0x3d68d488	0.05684331
119	0xbd0d7f39	-0.034545157
120	0x3d2f01c0	0.04272628
121	0x3c0a3f8a	0.008438
122	0xbcb461c8	-0.022019282
123	0xbc8148e3	-0.015781825
124	0x3ccaf507	0.024775041
125	0xbd0b7d28	-0.034054905
126	0x3e2236d3	0.15841226
127	0x3e0f41b0	0.13989902
128	0xbd8b2440	-0.067940235
129	0x3e36d920	0.17856264
130	0x3d998ca4	0.07497528
131	0x3d8d3bec	0.06896195
132	0x3dcb8131	0.09936751
133	0x3e0d292d	0.13785239
134	0x3d75c059	0.05999789
135	0xbdd91bfc	-0.10601041
136	0xbdc70f10	-0.0971967
137	0xbe20e37a	-0.15711775
138	0xbe337a6e	-0.17527172
139	0x3cc87041	0.02446759
140	0xbe0603f8	-0.13087451
141	0x3d5d48ee	0.05402463
142	0xbdb9d9dd	-0.09074757
143	0xbd890c2a	-0.06691773
144	0x3dab585b	0.08366462
145	0xbdf5a671	-0.11994637
146	0xbdd6e6bc	-0.10493228
147	0xbe1914f9	-0.14949407
148	0xbe2d3973	-0.16916446
149	0x3e253061	0.16131736
150	0xbe234d9c	-0.15947574
151	0xbd864099	-0.0655529
152	0x3dd15ca1	0.10222746
153	0x3e1d6e71	0.15374161
154	0xbe37f05e	-0.17962787
155	0x3d7c797b	0.06163929
156	0xbe1c33c9	-0.1525413
157	0x3e3bccb9	0.18339814
158	0xbdd26bb4	-0.10274449
159	0xbdb8654f	-0.09003698

fc4.bias f4 [5]
0	0x3e0b6b4a	0.13615146
1	0x3d9b86cb	0.07594069
2	0xbb67a571	-0.0035346413
3	0x3e220355	0.15821584
4	0xbdfb0970	-0.122576594
