working_on_new/trained_models/actor_32.pth (torch, 54860 bytes, 8 tensors)

fc1.weight f4 [128, 18]
-0.18286565 0.006122361 0.08311373 0.03098992 0.0220099 0.213294 -0.167405 0.010612699
0.20634966 0.10417368 0.14645758 -0.13712566 -0.026006108 0.049742624 0.17402309 -0.0024784012
-0.07005997 0.15022531 0.20791817 -0.18160394 -0.21602492 -0.20927913 0.13228151 0.22440916
-0.19395481 0.025192043 0.180165 0.027798483 0.16222559 -0.211371 -0.17731757 -0.029587656
0.11119719 0.18240747 0.033829816 -0.0027957521 0.08480355 0.09594228 0.24508479 0.08550358
0.07774188 -0.036591433 0.040456027 -0.071687125 0.025133688 -0.17329858 0.08796632 0.12805825
0.12582053 -0.020273313 0.17857419 -0.2047911 -0.12020632 0.17985861 0.21842843 0.1430318
0.22280006 -0.06376528 -0.049022198 0.060444314 -0.19024134 -0.22054604 0.20241326 0.07775775
0.18913418 0.028636647 0.18232124 -0.11502828 -0.08459254 0.16412763 -0.15913391 -0.030173304
-0.209694 0.13140583 -0.059035562 0.03173427 -0.04199166 -0.1275485 -0.1466279 -0.1176333
-0.20206581 -0.13842578 -0.2366142 -0.17162167 -0.032167166 0.12136094 0.033098314 0.009045355
-0.00026394209 -0.009581068 -0.21956566 -0.10698796 -0.19812912 -0.019278994 0.000679601 -0.03167691
0.18593659 -0.15984285 0.13963345 -0.22409779 0.07761774 -0.044755563 -0.04425573 0.18212397
0.16821477 0.031326823 0.15821354 -0.20946619 0.0862383 -0.16923939 -0.19283357 -0.23476051
-0.06263808 0.13479842 0.14311954 0.041027077 -0.06830018 0.14650574 -0.16202983 0.008804837
-0.13314134 0.11686404 0.13345431 0.22488436 -0.014756891 -0.053554047 0.025500566 -0.21447302
-0.11733736 -0.13076179 0.16610056 0.022557259 -0.06406485 -0.19629012 0.15056182 0.014443654
0.21788399 0.17011517 -0.202637 -0.00018313527 0.13272524 0.19830507 0.13354594 0.18323745
-0.03427302 0.24797317 -0.19069909 0.009731855 0.0068130465 0.20771092 0.20431076 0.19261949
0.22264025 -0.17485246 -0.059565585 -0.07941943 -0.14072138 0.0007223189 -0.19401936 -0.10356972
-0.05667563 -0.0317979 -0.09828589 0.08632431 0.030058958 0.020472743 0.22153616 -0.07150376
0.18828256 0.06702197 0.07383057 -0.10297875 -0.13485694 -0.13731313 0.11267545 0.057956293
0.15393591 -0.13119623 0.10384328 -0.1670613 -0.18753006 0.11679466 -0.16020913 0.17563044
-0.18976803 0.1923648 0.12856302 -0.071401656 -0.06404247 -0.16284521 -0.094155915 -0.09045144
0.18337324 0.17290868 -0.053327497 -0.02742509 0.17729764 0.1376543 -0.059779953 0.05560408
0.2070538 -0.06184823 -0.17973463 0.060703542 0.21327695 0.16190273 0.21078944 0.021275686
-0.13784647 0.1788673 0.13542463 0.20312025 -0.23670304 -0.056345955 -0.09972105 -0.06040133
-0.19819437 0.2260631 -0.11564057 -0.17233485 -0.21469887 0.21810597 0.09493756 0.0714983
-0.08482903 -0.18677416 -0.20598607 -0.047071647 0.1347263 0.17481242 0.080312885 0.18749698
-0.1713119 -0.20186332 0.075042196 -0.10517905 -0.044428445 0.121155225 -0.068513095 -0.2009044
0.13505118 0.14572386 0.08009402 -0.10370296 0.06472809 0.1256701 0.20899917 0.10255624
-0.183532 -0.0023433098 -0.16985351 -0.13072982 -0.025479719 -0.0621263 -0.010848468 -0.05058804
00000000: 2241 3bbe 169e c83b 8837 aa3d 93de fd3c
00000010: 1b4e b43c be69 5a3e 376c 2bbe e3e0 2d3c
00000020: 534d 533e 0359 d53d faf8 153e ab6a 0cbe
00000030: c30a d5bc ecbe 4b3d 1c33 323e ac6c 22bb
00000040: 9a7b 8fbd aad4 193e 80e8 543e 62f6 39be
00000050: a335 5dbe 454d 56be ce74 073e 84cb 653e
00000060: 179c 46be 8b5f ce3c 2c7d 383e a5b9 e33c
00000070: 771e 263e a471 58be bd92 35be d061 f2bc
00000080: 5abb e33d 06c9 3a3e 2291 0a3d f038 37bb
00000090: 7cad ad3d 637d c43d 82f7 7a3e 801c af3d
000000a0: 2337 9f3d e6e0 15bd 38b5 253d b3d0 92bd
000000b0: 2ae5 cd3c 2f75 31be b027 b43d b421 033e
000000c0: 19d7 003e 3814 a6bc 27dc 363e c2b4 51be
000000d0: bb2e f6bd db2c 383e b4ab 5f3e ee76 123e
000000e0: b325 643e 5f97 82bd 80cb 48bd 7594 773d
000000f0: a0ce 42be d2d6 61be 6c45 4f3e 753f 9f3d
00000100: 64ac 413e 6797 ea3c 6bb2 3a3e f293 ebbd
00000110: db3e adbd 1311 283e 00f4 22be 012e f7bc
00000120: 06ba 56be 408f 063e 46cf 71bd cbfb 013d
00000130: 72ff 2bbd 139c 02be a025 16be bae9 f0bd
00000140: 57ea 4ebe 7dbf 0dbe fe4a 72be 97bd 2fbe
00000150: b8c1 03bd 168c f83d 1992 073d f832 143c
00000160: b561 8ab9 e9f9 1cbc d2d5 60be 811c dbbd
00000170: 5ce2 4abe fbee 9dbc 4027 323a a6bf 01bd
00000180: 2966 3e3e d8ad 23be 12fc 0e3e e479 65be
00000190: 0df6 9e3d 9c51 37bd 7f45 35bd b57e 3a3e
000001a0: 7e40 2c3e 8e50 003d bb02 223e 4e7e 56be
000001b0: b59d b03d 174d 2dbe 2a76 45be 0f65 70be
000001c0: 6548 80bd 9908 0a3e ee8d 123e 020c 283d
000001d0: f7e0 8bbd 9a05 163e 26eb 25be 2a42 103c
000001e0: 3456 08be 6a56 ef3d 3fa8 083e 1648 663e
000001f0: e3c6 71bc 7d5b 5bbd 90e6 d03c d19e 5bbe
00000200: 924e f0bd 6be6 05be 4416 2a3e 00ca b83c
00000210: 6f34 83bd 4700 49be e12c 1a3e 13a5 6c3c
00000220: fb1c 5f3e ac32 2e3e 1380 4fbe 0008 40b9
00000230: 20e9 073e 7c10 4b3e 44c0 083e 99a2 3b3e
00000240: de61 0cbd aeec 7d3e 9f46 43be 5c72 1f3c
00000250: fa3f df3b 2cb2 543e d736 513e 0b3e 453e
00000260: cefb 633e 860c 33be 0bfb 73bd a7a6 a2bd
00000270: 4419 10be 005a 3d3a 03ad 46be 5d1c d4bd
00000280: b524 68bd 843e 02bd 1d4a c9bd cdca b03d
00000290: 343e f63c 74b6 a73c 60da 623e 9070 92bd
000002a0: 25cd 403e d142 893d 7b34 973d 86e6 d2bd
000002b0: f017 0abe d09b 0cbe 63c2 e63d 9463 6d3d
000002c0: 60a1 1d3e 4e58 06be c9ab d43d 1e12 2bbe
000002d0: e107 40be 0a32 ef3d dd0d 24be 77d8 333e
000002e0: 8d52 42be 47fb 443e 06a6 033e 083b 92bd
000002f0: b328 83bd e5c0 26be d1d4 c0bd 9b3e b9bd
00000300: 32c6 3b3e f90e 313e ef6d 5abd 95aa e0bc
00000310: 838d 353e 40f5 0c3e d3db 74bd 1bc1 633d
00000320: e905 543e 9254 7dbd 5b0c 38be 47a4 783d
00000330: 4665 5a3e d4c9 253e 30d9 573e 594a ae3c
00000340: a027 0dbe fd28 373e c1ac 0a3e c1fe 4f3e
00000350: 4862 72be 04cb 66bd 8d3a ccbd 6367 77bd
00000360: 77f3 4abe 167d 673e f7d4 ecbd 8c78 30be
00000370: 05da 5bbe 2c57 5f3e a06e c23d b36d 923d
00000380: d8ba adbd ba41 3fbe 03ee 52be 33ce 40bd
00000390: b1f5 093e 0702 333e 157b a43d 35ff 3f3e
000003a0: 636c 2fbe 42b5 4ebe b9af 993d 1d68 d7bd
000003b0: 9afa 35bd 3b20 f83d 9850 8cbd e2b9 4dbe
000003c0: db4a 0a3e a338 153e 5508 a43d 3862 d4bd
000003d0: 2990 843d aaaf 003e e103 563e 0209 d23d
000003e0: d0ef 3bbe 3792 19bb 14ee 2dbe 0ade 05be
000003f0: d8ba d0bc 2678 7ebd c6bd 31bc 6835 4fbd

fc1.bias f4 [128]
0.036019195 0.010878898 0.056871343 0.20818175 0.19770941 0.13799171 -0.2077357 0.2172509
0.20256855 -0.030149901 -0.08152982 0.21492879 0.10471543 -0.23876116 0.11269974 -0.24014878
-0.21863142 -0.22963421 -0.12982625 -0.10588244 0.097792536 0.0095575685 -0.0050109993 0.13313067
0.065425016 0.1255639 0.113527134 -0.03220608 0.07508724 0.19084696 0.21906926 0.2019232
0.12228223 -0.10118793 -0.23249337 -0.08954983 -0.08114875 0.23860703 0.21885689 -0.17819434
0.056326423 0.03364457 0.17714804 0.08631138 -0.2288036 0.09430356 -0.09945313 0.19966793
-0.15075499 0.21168454 -0.02952535 -0.2071643 -0.16639732 0.057740655 -0.20819631 -0.173944
-0.1806028 -0.16010705 -0.21129623 0.17810263 -0.23603246 -0.12241324 -0.069986664 0.0027621475
0.035727985 -0.023468195 0.0751931 0.06632611 -0.18236032 0.027671475 0.16737844 0.10677458
0.1507904 -0.13670528 0.09256024 0.1902403 -0.20898415 0.12576081 -0.16427627 0.0924784
-0.21354237 -0.035183262 -0.008778944 0.0032478517 0.06023171 -0.17279972 -0.20427722 0.00038689683
0.14239651 0.23499145 0.07864054 -0.097647004 -0.21687208 -0.12741472 0.05345886 -0.22488557
-0.18353848 0.1478163 -0.15204829 0.01633128 -0.15992619 -0.13713035 0.12914777 0.042396225
0.22798808 0.2218024 -0.13543141 -0.22519523 -0.22695586 -0.014834099 0.10957791 0.242614
-0.19399875 0.034440782 0.0153027335 -0.1675503 -0.19061512 0.20541294 -0.10359786 -0.009749669
-0.085674636 0.22272864 -0.111804515 0.058016084 -0.07653467 -0.23617479 -0.051494904 0.18369871
00000000: dd88 133d 683d 323c edf1 683d 992d 553e
00000010: 5674 4a3e b34d 0d3e abb8 54be 0577 5e3e
00000020: 216e 4f3e edfc f6bc 1bf9 a6bd 4b16 5c3e
00000030: 0b75 d63d ce7d 74be 1fcf e63d 90e9 75be
00000040: eae0 5fbe 3b25 6bbe 2cf1 04be e5d8 d8bd
00000050: 7447 c83d 5997 1c3c 4f33 a4bb 6853 083e
00000060: 8dfd 853d d393 003e ea80 e83d 86ea 03bd
00000070: 57c7 993d 636d 433e b153 603e f5c4 4e3e
00000080: 1b6f fa3d 9e3b cfbd be12 6ebe e765 b7bd
00000090: 5131 a6bd 6755 743e 051c 603e 9478 36be
000000a0: 89b6 663d e3ce 093d 4c66 353e 05c4 b03d
000000b0: 7e4b 6abe 3a22 c13d 15ae cbbd c075 4c3e
000000c0: 845f 1abe d5c3 583e 26df f1bc e122 54be
000000d0: 0f64 2abe 7781 6c3d 6a31 55be 601e 32be
000000e0: f1ef 38be 1af3 23be 0a5e 58be 8960 363e
000000f0: 7eb2 71be cbb3 fabd 2b55 8fbd 2505 353b
00000100: 8257 123d 5f40 c0bc d7fe 993d fcd5 873d
00000110: aabc 3abe 4aaf e23c 4165 2b3e a2ac da3d
00000120: cc68 1a3e 78fc 0bbe 3990 bd3d 5ace 423e
00000130: f1ff 55be 71c7 003e 0a38 28be 5165 bd3d
00000140: daaa 5abe 531c 10bd 8fd5 0fbc e9d9 543b
00000150: 87b5 763d 69f2 30be 0c2e 51be 6ad8 ca39
00000160: 64d0 113e 99a1 703e 4b0e a13d 27fb c7bd
00000170: b713 5ebe 0179 02be adf7 5a3d 6748 66be
00000180: 83f1 3bbe 285d 173e 8cb2 1bbe 2dc9 853c
00000190: b1c3 23be e66b 0cbe 503f 043e aaa7 2d3d
000001a0: b575 693e 2b20 633e 88ae 0abe 9499 66be
000001b0: 1e67 68be b90a 73bc 626a e03d ce6f 783e
000001c0: 9ca7 46be c711 0d3d 51b8 7a3c 4e92 2bbe
000001d0: 9c30 43be c557 523e 1d2b d4bd 13bd 1fbc
000001e0: 2f76 afbd fa12 643e c4f9 e4bd 46a2 6d3d
000001f0: 36be 9cbd ced7 71be 52ec 52bd 841b 3c3e

fc2.weight f4 [64, 128]
-0.022800889 -0.017088097 -0.075994425 -0.022457853 0.017997378 0.060258728 0.07943544 0.08259505
0.042780127 -0.03955176 0.022350706 -0.053823784 -0.069072 0.024215354 0.077514336 0.017840283
0.053934768 0.038632274 0.049985718 -0.02209288 -0.02479758 -0.08501117 -0.04005729 -0.035559036
-0.046970926 -0.05417444 0.033995606 -0.006486945 -0.028556155 0.0192543 0.0124061825 0.072770074
0.08619765 0.019623552 0.0202118 0.013246919 -0.020351036 -0.09577377 0.057869885 0.018539881
-0.08349885 -0.071764536 0.0715958 0.04865774 -0.0146334795 -0.0011912936 -0.088672586 0.07075467
0.0012634984 0.08250049 -0.058776245 0.0808074 -0.056934144 -0.006241834 0.022695621 -0.023698978
0.04438455 -0.035398148 0.082343504 0.060571417 0.07531258 -0.07065066 0.070832565 -0.009832038
-0.0409846 0.018299144 0.071589224 0.049814068 0.021267703 0.09464257 -0.004973546 0.051401816
-0.071915045 -0.019307213 -0.010566496 -0.0487118 0.025375383 0.03456384 -0.07717206 0.023541486
-0.004709186 0.04401112 -0.018994996 -0.081936724 -0.058926225 -0.008070454 -0.08508861 0.00074460066
-0.016541682 0.06783194 0.04702766 0.05772814 -0.019654261 -0.0036117972 -0.0068576154 0.09004219
-0.04393397 -0.053563196 -0.087573454 0.029282376 -0.0034977798 -0.05879104 0.021039981 0.050275687
-0.07066728 -0.007922862 -0.09314849 -0.06004725 0.07434188 0.061445266 0.021565756 0.029953917
0.078042895 -0.03458137 0.055546883 -0.026370116 0.03135065 -0.025922917 -0.054470446 0.09138494
0.0041471072 -0.05968558 0.03037507 -0.027892804 0.07946677 -0.06881098 -0.027629247 -0.061592862
-0.002717566 0.024763426 0.08602807 -0.08368781 -0.056586463 0.0833504 0.031250786 0.09095676
0.08564609 0.07516816 0.08199316 0.033146285 -0.08396882 -0.08679678 0.012228392 -0.02504588
-0.052090514 -0.008151006 -0.085067056 -0.0136850355 -0.020110838 0.0695209 0.045713898 -0.08561786
0.010329545 0.03298758 -0.038925547 -0.03951638 -0.06078485 0.058499034 -0.056781806 0.026666293
0.03642847 0.006919023 -0.022798806 -0.082499586 0.08964945 0.059593003 -0.038957313 -0.025149086
-0.06548721 -0.03352994 -0.060850903 -0.06792997 0.06806918 0.020892857 0.030084005 -0.031574227
0.042389154 -0.037224088 0.012057788 -0.10124493 0.03139923 0.06342409 -0.0058695646 -0.08164792
-0.02721167 -0.001448737 -0.012526861 -0.064415075 0.0064577255 0.07104406 -0.004266032 0.021474143
0.03478389 0.06052593 -0.028589657 0.02371971 0.007691997 0.032910794 -0.025422309 0.07230281
-0.043727495 0.023885822 -0.027937725 0.090824656 -0.02972289 0.00807519 -0.034083117 -0.007965548
-0.07284176 -0.064883664 0.08524499 0.053933453 0.07277355 0.076160796 -0.0044785817 0.050645832
-0.04986789 0.057857856 0.082176246 -0.0632102 0.035909943 0.019836305 -0.048481673 0.033883415
0.009156982 -0.04457771 0.051695142 0.05503971 -0.002157982 -0.079193495 0.06705524 0.08837663
0.051953193 0.0662878 -0.07294881 0.0010780522 -0.07128506 0.08263573 -0.060523007 -0.002435387
-0.076945946 -0.03304504 0.04420061 -0.019636936 -0.026250184 -0.05130438 0.024550948 -0.0037839904
-0.049184598 -0.077897586 0.031177402 0.03379475 -0.002605176 0.027429013 0.027560577 0.023622066
00000000: eec8 babc 56fc 8bbc f7a2 9bbd 88f9 b7bc
00000010: 3d6f 933c dbd1 763d 0caf a23d 9827 a93d
00000020: 373a 2f3d 0701 22bd d418 b73c 5476 5cbd
00000030: 9f75 8dbd 475f c63c d6bf 9e3d c925 923c
00000040: b4ea 5c3d e03c 1e3d d3bd 4c3d 21fc b4bc
00000050: 4b24 cbbc 561a aebd 1d13 24bd 5aa6 11bd
00000060: 9664 40bd 05e6 5dbd fa3e 0b3d 7090 d4bb
00000070: 99ee e9bc 32bb 9d3c 4d43 4b3c 7a08 953d
00000080: 6588 b03d 92c1 a03c 3793 a53c 9b09 593c
00000090: 37b7 a6bc 0a25 c4bd f908 6d3d f3e0 973c
000000a0: 7201 abbd 49f9 92bd d2a0 923d 574d 473d
000000b0: 43c1 6fbc 2e25 9cba f999 b5bd d3e7 903d
000000c0: f99b a53a 04f6 a83d 5cbf 70bd 5a7e a53d
000000d0: c733 69bd 4c88 ccbb 2bec b93c 5c24 c2bc
000000e0: 93cc 353d a6fd 10bd b6a3 a83d bc19 783d
000000f0: 7b3d 9a3d 4bb1 90bd aa10 913d 8e16 21bc
00000100: 78df 27bd 16e8 953c 5f9d 923d d609 4c3d
00000110: 9b39 ae3c f7d3 c13d 21f9 a2bb b68a 523d
00000120: 3248 93bd 292a 9ebc 191f 2dbc 0686 47bd
00000130: 09e0 cf3c d092 0d3d 630c 9ebd 13da c03c
00000140: 844f 9abb 0145 343d 659b 9bbc 71ce a7bd
00000150: a05c 71bd f039 04bc f042 aebd 4e31 433a
00000160: 6c82 87bc 79eb 8a3d 13a0 403d 5874 6c3d
00000170: f901 a1bc e7b3 6cbb d9b5 e0bb 0a68 b83d
00000180: 1bf4 33bd 1565 5bbd b659 b3bd 98e1 ef3c
00000190: 023b 65bb e0ce 70bd 0a5c ac3c e1ed 4d3d
000001a0: 02ba 90bd e4ce 01bc a3c4 bebd 1bf4 75bd
000001b0: 8e40 983d 08ae 7b3d abaa b03c eb61 f53c
000001c0: f4d4 9f3d 32a5 0dbd 2185 633d 2406 d8bc
000001d0: 8a69 003d 4c5c d4bc 671c 5fbd 0728 bb3d
000001e0: 75e4 873b de78 74bd 24d5 f83c 737f e4bc
000001f0: 79bf a23d c5ec 8cbd bb56 e2bc cc48 7cbd
00000200: 3119 32bb abdc ca3c 7c2f b03d 8464 abbd
00000210: 35c7 67bd 9db3 aa3d d300 003d 8a47 ba3d
00000220: 3867 af3d c4f1 993d 08ec a73d 66c4 073d
00000230: d8f7 abbd 83c2 b1bd 9859 483c 042d cdbc
00000240: dd5c 55bd cc8b 05bc a337 aebd 3337 60bc
00000250: 7cbf a4bc f960 8e3d 7f3e 3b3d 6b58 afbd
00000260: 403d 293c fc1d 073d 6570 1fbd eddb 21bd
00000270: 89f9 78bd af9c 6f3d 0a94 68bd 4573 da3c
00000280: 0536 153d f9b8 e23b 90c4 babc 8bf5 a8bd
00000290: 219a b73d cb17 743d b491 1fbd 7505 cebc
000002a0: 291e 86bd b156 09bd cc3e 79bd de1e 8bbd
000002b0: db67 8b3d 7f27 ab3c bb72 f63c fa53 01bd
000002c0: 40a0 2d3d 4978 18bd 078e 453c 8059 cfbd
000002d0: 7b9c 003d 7de4 813d 7a55 c0bb 0637 a7bd
000002e0: 02eb debc 8ce3 bdba 773d 4dbc 0dec 83bd
000002f0: 549b d33b 8c7f 913d 12ca 8bbb 8bea af3c
00000300: 8d79 0e3d 0aea 773d db34 eabc d64f c23c
00000310: 260d fc3b 78cd 063d 7242 d0bc 7f13 943d
00000320: 9a1b 33bd 33ac c33c a8dd e4bc 4702 ba3d
00000330: 6b7d f3bc cd4d 043c bd9a 0bbd ee81 02bc
00000340: 102e 95bd bae1 84bd ed94 ae3d 53e9 5c3d
00000350: 4d0a 953d 31fa 9b3d 11c1 92bb 0172 4f3d
00000360: 4642 4cbd 5cfc 6c3d 054c a83d 5974 81bd
00000370: 4e16 133d bf7f a23c b894 46bd 56c9 0a3d
00000380: 2b07 163c 1e97 36bd 49be 533d 5271 613d
00000390: ee6c 0dbb 3330 a2bd 4254 893d cefe b43d
000003a0: dfcc 543d e6c1 873d 3066 95bd 6e4d 8d3a
000003b0: e7fd 91bd ec3c a93d f9e6 77bd 049b 1fbb
000003c0: d695 9dbd 3c5a 07bd b30b 353d a4dd a0bc
000003d0: a00a d7bc 8b24 52bd 121f c93c d3fc 77bb
000003e0: ca75 49bd c588 9fbd c067 ff3c 5d6c 0a3d
000003f0: 9abb 2abb cfb2 e03c b8c6 e13c 1083 c13c

fc2.bias f4 [64]
-0.050659616 0.02452478 0.07283664 0.017794743 -0.03323375 -0.00960359 0.052907348 -0.020241413
-0.047698066 -0.078717835 0.032120943 -0.0404516 -0.059941683 -0.011134689 -0.07325367 0.08786526
0.05426561 -0.036622185 -0.078893386 0.005546112 -0.04037815 0.017788468 0.009825938 0.08265544
-0.0023048613 0.073336825 -0.0051137437 0.020175124 0.0406566 0.08234924 0.03367288 -0.068670206
0.00053756754 0.034973513 -0.08388453 0.059354033 -0.024265861 0.03402669 0.08512847 0.08035881
0.079769626 0.040205453 -0.073508434 -0.05995897 -0.07166132 -0.055934172 -0.0077456133 0.0047023227
-0.042691927 -0.003599796 -0.06468146 -0.01897694 -0.013290367 -0.007292114 -0.0043223277 0.0167765
0.101267695 -0.036954846 0.050260093 0.00047697406 -0.038101014 -0.08506124 -0.0740811 0.08287251
00000000: 7580 4fbd 31e8 c83c 602b 953d 48c6 913c
00000010: 1d20 08bd 6058 1dbc 60b5 583d 52d1 a5bc
00000020: 0c5f 43bd d136 a1bd 4091 033d 94b0 25bd
00000030: 6985 75bd 456e 36bc 0506 96bd b4f2 b33d
00000040: 9e45 5e3d 2501 16bd db92 a1bd 29bc b53b
00000050: 8f63 25bd 1fb9 913c f9fc 203c 4147 a93d
00000060: 280d 17bb 9e31 963d 3191 a7bb 4d46 a53c
00000070: 8987 263d b8a6 a83d 93ec 093d f7a2 8cbd
00000080: 8ceb 0c3a 6340 0f3d a7cb abbd 371d 733d
00000090: 33c9 c6bc 925f 0b3d d657 ae3d 2993 a43d
000000a0: 425e a33d 79ae 243d 978b 96bd 8997 75bd
000000b0: 2cc3 92bd 3b1b 65bd eace fdbb f115 9a3b
000000c0: bbdd 2ebd 8eea 6bbb b777 84bd 8775 9bbc
000000d0: d7bf 59bc b0f2 eebb 50a2 8dbb df6e 893c
000000e0: 7065 cf3d f75d 17bd 87dd 4d3d 6012 fa39
000000f0: cf0f 1cbd 9634 aebd d5b7 97bd 10b9 a93d

fc3.weight f4 [32, 64]
0.10407096 -0.034750503 0.025441108 0.06249172 -0.079489715 -0.13538522 0.08900626 0.060321163
0.11276981 -0.095820785 -0.106217064 -0.06554218 0.058337983 0.08246556 -0.04016437 0.021207832
-0.083483145 -0.08127555 0.03243969 -0.09075226 -0.003920808 -0.09560729 -0.088101216 0.11189548
0.10220355 -0.058436487 -0.007901517 -0.07825058 -0.04921297 -0.040905178 -0.0524983 -0.0997566
-0.0357754 0.009020344 0.0033161426 -0.030245025 -0.08819931 -0.052125335 0.09742177 0.047329582
-0.12300649 -0.026082393 0.0017952675 -0.039202195 0.044888742 -0.12491237 0.0005570832 0.023907343
0.06033513 0.11712711 0.070164695 -0.05108031 -0.043829296 0.018553402 0.061857425 0.091273524
0.0058358177 0.026100164 -0.022179337 0.0048053036 -0.11574316 -0.035294168 -0.013802334 0.103092335
0.084055476 0.00054189976 -0.0024177777 0.019242862 -0.0017044769 -0.123510934 -0.043168288 -0.09835142
0.014309016 0.11018105 0.03946857 0.068038024 0.07949348 -0.061334975 -0.08952648 0.0154860215
-0.083066046 0.05241621 -0.009460561 -0.031841725 0.0013685907 -0.0012481667 0.015907193 -0.074738584
0.114680864 -0.012926226 -0.014738153 0.0017885612 -0.10883385 0.05429906 0.00012196836 -0.1100567
-0.026336625 0.069506094 -0.047419872 0.09147961 0.04056947 -0.015813226 -0.0960125 0.02064081
-0.01628828 0.084062725 0.08707458 0.1306395 -0.04675232 0.010495688 -0.06077141 0.02981487
0.00075453025 0.041924626 0.09014503 -0.12331559 -0.018207336 0.0386439 0.054483898 -0.12551212
-0.102479115 -0.07662578 -0.07532259 -0.039779264 -0.016599013 0.099915415 -0.12918729 -0.12920856
-0.008292055 0.0074370555 0.048875593 -0.065352514 0.05314811 0.008338391 -0.1251317 -0.031455014
-0.108038425 0.092899345 -0.05791792 0.10732181 0.025092198 0.11093297 0.09354737 -0.058352947
-0.058776647 0.0001406054 0.01462147 -0.070963815 0.085028015 0.099164724 0.041659445 0.11579759
-0.0008260224 0.058194872 -0.040735684 0.029024856 -0.10379575 0.017223865 -0.057239797 0.0949856
0.09142936 0.042476974 0.0064864107 -0.08707115 -0.11197398 0.11278078 0.04050222 0.025314813
0.032733694 0.08992817 -0.06712582 0.0317284 -0.056351822 -0.036060717 -0.0714995 -0.03362953
-0.10011823 0.11189853 0.03090735 0.038232937 0.046732225 -0.084059216 0.061454967 -0.0061113425
0.08714247 -0.13103727 -0.0739709 0.07257878 -0.08769179 -0.015345566 0.053029772 0.0044982927
0.0011731803 -0.08052998 -0.04222048 -0.015050806 -0.12650062 -0.072553374 -0.054656737 0.12549932
-0.018425917 -0.07442887 0.08205934 -0.07663172 -0.08244935 0.028006615 -0.0067992536 0.035312727
0.054566674 -0.03462392 -0.051613275 0.09950711 0.12012567 -0.031473037 -0.09903598 0.006306449
-0.009295499 -0.06783764 0.03835485 -0.07080408 -0.052134193 -0.13381125 -0.1002584 -0.123280026
-0.05766058 -0.07077733 0.10212156 0.007579712 -0.011873484 0.115956 0.09299696 0.028707715
-0.0007456058 0.13563082 0.00046375685 0.013698402 -0.024644878 -0.0021913862 -0.09743801 -0.061777152
-0.032444898 -0.02554005 -0.08612335 -0.08888133 0.07954317 0.124409534 -0.117167585 -0.08225686
-0.09291732 -0.0880573 -0.08620842 0.05057306 -0.061482266 -0.026240366 -0.029224152 -0.08580829
00000000: 2823 d53d 8b56 0ebd df69 d03c 51f7 7f3d
00000010: 81cb a2bd 6ca2 0abe ea48 b63d 5313 773d
00000020: dcf3 e63d b03d c4bd 5588 d9bd fa3a 86bd
00000030: cff3 6e3d b4e3 a83d 6583 24bd 0cbc ad3c
00000040: 36f9 aabd cc73 a6bd 7bdf 043d 52dc b9bd
00000050: 1f7a 80bb c1cd c3bd 696e b4bd 7529 e53d
00000060: 1850 d13d 195b 6fbd 5d75 01bc d741 a0bd
00000070: 8a93 49bd 308c 27bd 7508 57bd 304d ccbd
00000080: 3a89 12bd 11ca 133c a453 593b 6ac4 f7bc
00000090: d7a1 b4bd 6081 55bd 1185 c73d aadc 413d
000000a0: d4ea fbbd beaa d5bc 2e4f eb3a 7b92 20bd
000000b0: 42dd 373d 0fd2 ffbd 3909 123a 55d9 c33c
000000c0: f821 773d 57e0 ef3d 82b2 8f3d 9639 51bd
000000d0: 5986 33bd 4efd 973c 365e 7d3d 9ded ba3d
000000e0: 633a bf3b 03d0 d53c 71b1 b5bc cf75 9d3b
000000f0: c00a edbd 9e90 10bd 2f23 62bc 1322 d33d
00000100: 4725 ac3d 470e 0e3a 9473 1ebb 35a3 9d3c
00000110: c168 dfba 4df3 fcbd 3bd1 30bd 786c c9bd
00000120: 5d70 6a3c 9aa6 e13d cca9 213d 8557 8b3d
00000130: 7acd a23d 623a 7bbd a959 b7bd 15b9 7d3c
00000140: 881e aabd 61b2 563d 7800 1bbc 786c 02bd
00000150: 4962 b33a 8699 a3ba cd4f 823c 8b10 99bd
00000160: cddd ea3d 85c8 53bc 4b78 71bc 286e ea3a
00000170: 48e4 debd b168 5e3d 44c9 ff38 6865 e1bd
00000180: e8bf d7bc 3659 8e3d 573b 42bd a959 bb3d
00000190: 2c2c 263d bd8a 81bc 34a2 c4bd ea16 a93c
000001a0: 006f 85bc 1429 ac3d 2854 b23d 5cc6 053e
000001b0: 5c7f 3fbd 1bf6 2b3c 71eb 78bd 503e f43c
000001c0: abcb 453a 28b9 2b3d f59d b83d e28c fcbd
000001d0: 8d27 95bc 1149 1e3d 822a 5f3d 4086 00be
000001e0: 92e0 d1bd faed 9cbd bb42 9abd 95ef 22bd
000001f0: a7fa 87bc 74a0 cc3d ac49 04be 404f 04be
00000200: 66db 07bc 8bb2 f33b c631 483d 8ad7 85bd
00000210: d5b1 593d bf9d 083c 8622 00be f9d6 00bd
00000220: 4043 ddbd 0342 be3d 573b 6dbd 8acb db3d
00000230: 278e cd3c d330 e33d c395 bf3d 8003 6fbd
00000240: c8bf 70bd 7a6f 1339 e48e 6f3c 7a55 91bd
00000250: 2b23 ae3d e016 cb3d 18a3 2a3d 4927 ed3d
00000260: 6d89 58ba bf5d 6e3d 76da 26bd 89c5 ed3c
00000270: de92 d4bd 1019 8d3c 4774 6abd cf87 c23d
00000280: 513f bb3d 56fc 2d3d f58b d43b 5c52 b2bd
00000290: 9d52 e5bd 9cf9 e63d a8e5 253d 0361 cf3c
000002a0: c413 063d 432c b83d 4379 89bd a4f5 013d
000002b0: 2bd1 66bd 67b4 13bd 546e 92bd 1ebf 09bd
000002c0: c90a cdbd 0e2b e53d 6931 fd3c 249a 1c3d
000002d0: 4a6a 3f3d 3d27 acbd 34b8 7b3d a841 c8bb
000002e0: c077 b23d a22e 06be 0e7e 97bd 2fa4 943d
000002f0: c197 b3bd f86b 7bbc bf35 593d 6a66 933b
00000300: 66c5 993a e7ec a4bd 62ef 2cbd a897 76bc
00000310: 6189 01be dd96 94bd bedf 5fbd e582 003e
00000320: f3f1 96bc 2a6e 98bd ba0e a83d 17f1 9cbd
00000330: 34db a8bd 216e e53c 46cc debb 14a4 103d
00000340: 4e81 5f3d d0d1 0dbd 7168 53bd 62ca cb3d
00000350: 7304 f63d dfe9 00bd 60d3 cabd 54a6 ce3b
00000360: 264c 18bc 76ee 8abd fa19 1d3d bb01 91bd
00000370: aa8a 55bd d105 09be 4754 cdbd 3d7a fcbd
00000380: 802d 6cbd b4f3 90bd 1c25 d13d 3c5f f83b
00000390: 0089 42bc 577a ed3d 3175 be3d 712c eb3c
000003a0: c274 43ba cee2 0a3e 6424 f339 436f 603c
000003b0: 0ee4 c9bc 5c9d 0fbb 948d c7bd 0a0a 7dbd
000003c0: f1e4 04bd 5e39 d1bc 7061 b0bd 6a07 b6bd
000003d0: 88e7 a23d 6dca fe3d 8ff5 efbd 4976 a8bd
000003e0: 704b bebd 6357 b4bd 0a8e b0bd b225 4f3d
000003f0: d4d4 7bbd 09f6 d6bc 7d67 efbc 42bc afbd

fc3.bias f4 [32]
-0.113144286 0.048259333 -0.039477292 0.10494228 -0.05878665 -0.10930674 -0.009578483 0.08935443
0.09090025 0.101079576 -0.10483576 -0.12484961 0.10320494 0.12223722 -0.07553204 -0.11335983
-0.024398996 0.09280526 -0.0831485 0.023286192 0.11767845 0.08506713 0.09078398 0.033110026
0.04151942 -0.046747513 0.05330484 0.051148146 0.089415826 0.13355595 0.09622485 0.016926121
00000000: 31b8 e7bd 94ab 453d f1b2 21bd faeb d63d
00000010: 45ca 70bd 36dc dfbd 12ef 1cbc 75ff b63d
00000020: e929 ba3d cf02 cf3d 22b4 d6bd 27b1 ffbd
00000030: 1d5d d33d 8257 fa3d 8bb0 9abd 3329 e8bd
00000040: 67e0 c7bc af10 be3d c349 aabd afc2 be3c
00000050: 6601 f13d ad37 ae3d f4ec b93d 619e 073d
00000060: 4410 2a3d 527a 3fbd 2d56 5a3d b880 513d
00000070: a51f b73d e4c2 083e 8911 c53d a6a8 8a3c

fc4.weight f4 [5, 32]
0.06638695 0.07624439 -0.06275821 -0.008210027 -0.16451526 -0.023816727 0.1365867 0.16260448
-0.09775938 -0.15466994 0.17160851 -0.10717129 0.09521303 -0.09801526 -0.08085509 0.07511947
-0.1602664 0.12486865 -0.006711864 -0.034876004 -0.04034349 0.09145856 -0.109134 0.008720998
-0.0006248786 0.06789674 0.0645628 -0.06069554 0.016626433 -0.049840517 -0.044356313 -0.16632779
-0.15459345 0.12617247 0.05193103 0.032499004 -0.13755128 0.085509256 0.014022285 -0.08334515
0.055809367 0.09320396 0.11920947 0.12573563 -0.08920175 -0.004708419 -0.049313888 0.06660726
-0.08303257 -0.1277451 0.08718769 -0.1022027 0.14648366 -0.13052113 0.1413769 -0.108383045
-0.04174696 0.022719793 0.073583126 0.1500518 0.12957703 0.029454257 -0.062995605 0.005804111
-0.007987924 -0.04661082 -0.123931706 -0.18483521 0.16093895 -0.1619081 -0.14104934 -0.13496639
0.16169687 0.113161065 0.14654233 -0.015122386 -0.1618292 0.07277592 0.12416982 0.17549083
0.122063346 0.10828734 0.048752274 0.07975942 0.10009244 0.08654846 -0.14815849 -0.047530863
-0.017426325 0.14385393 0.016357817 -0.15161194 -0.13877621 0.18404947 -0.168403 0.09387216
-0.13272102 -0.02087296 0.052109577 0.17811188 -0.056387153 -0.083407454 -0.09838535 0.055404328
0.047760315 -0.07059045 -0.15802501 0.10131667 -0.070447564 -0.06225347 0.10835991 0.086246364
-0.018499909 0.1188126 0.055426434 0.01926294 0.0731474 -0.021161396 0.087401986 -0.17546362
-0.12045718 0.12921664 -0.15632388 0.02426041 0.013091716 0.15314488 0.15452458 -0.15183799
-0.17077787 -0.07134785 0.1200788 -0.020700568 -0.051616814 -0.14425868 0.1593969 0.020410504
-0.16190964 -0.09180662 -0.10942926 -0.041483298 -0.18198675 0.02876967 -0.08967647 -0.06341108
-0.0015575222 0.10370781 0.009208671 0.17770272 -0.035440043 0.0643102 -0.16605678 0.06108482
-0.09630748 -0.13992143 -0.14301668 -0.02888646 0.112270296 0.12573667 0.06821931 -0.118106075
00000000: e2f5 873d 0526 9c3d 6087 80bd 5983 06bc
00000010: b076 28be 4c1b c3bc 62dd 0b3e ca81 263e
00000020: 1236 c8bd cc61 1ebe 24ba 2f3e 9f7c dbbd
00000030: 0dff c23d 3abc c8bd 5a97 a5bd 3dd8 993d
00000040: e01c 24be 23bb ff3d 32ef dbbb 24da 0ebd
00000050: 373f 25bd a04e bb3d a681 dfbd 84e2 0e3c
00000060: e5ce 23ba 720d 8b3d 8039 843d e39b 78bd
00000070: 2834 883c 9225 4cbd f7ae 35bd d551 2abe
00000080: bf4d 1ebe 5b33 013e a2b5 543d ad1d 053d
00000090: 3eda 0cbe 7a1f af3d babd 653c ddb0 aabd
000000a0: 5d98 643d b8e1 be3d 1824 f43d d7c0 003e
000000b0: 68af b6bd 1549 9abb 5cfd 49bd 6369 883d
000000c0: fb0c aabd 9dcf 02be 768f b23d a64f d1bd
000000d0: d0ff 153e 55a7 05be 1bc5 103e eef7 ddbd
000000e0: dcfe 2abd dc1e ba3c c0b2 963d 2ea7 193e
000000f0: d7af 043e 0e4a f13c d703 81bd 6930 be3b
00000100: c8df 02bc fdea 3ebd e8cf fdbd 7145 3dbe
00000110: 2ecd 243e 3dcb 25be 3d6f 10be a134 0abe
00000120: dd93 253e fdc0 e73d 310f 163e e2c3 77bc
00000130: 8eb6 25be 8b0b 953d bf4c fe3d deb3 333e
00000140: 59fc f93d c1c5 dd3d 77b0 473d e858 a33d
00000150: 44fd cc3d 5240 b13d dcb6 17be b9af 42bd
00000160: a7c1 8ebc 724e 133e d400 863c 2940 1bbe
00000170: 5a1b 0ebe 7777 3c3e d671 2cbe 0c40 c03d
00000180: 05e8 07be c5fd aabc da70 553d f662 363e
00000190: 37f6 66bd 87d1 aabd 427e c9bd a6ef 623d
000001a0: 52a0 433d ba91 90bd 4fd1 21be 1d7f cf3d
000001b0: d046 90bd 7ffd 7ebd cdeb dd3d efa1 b03d
000001c0: 1f8d 97bc 0554 f33d d406 633d 50cd 9d3c
000001d0: 4ece 953d aa5a adbc d0ff b23d bcac 33be
000001e0: 41b2 f6bd 5e51 043e 5e13 20be c4bd c63c
000001f0: a37e 563c 03d2 1c3e b13b 1e3e 6b7b 1bbe
00000200: 65e0 2ebe d21e 92bd e0eb f53d 3d94 a9bc
00000210: 276c 53bd 8cb8 13be f138 233e ee33 a73c
00000220: a4cb 25be 1c05 bcbd 731c e0bd 64ea 29bd
00000230: bc5a 3abe 5fae eb3c 4ca8 b7bd abdd 81bd
00000240: c625 ccba c364 d43d f7df 163c b4f7 353e
00000250: 9429 11bd 11b5 833d ca0a 2abe 1434 7a3d
00000260: db3c c5bd 9047 0fbe f772 12be 4ca3 ecbc
00000270: f8ed e53d 1dc1 003e 91b6 8b3d 99e1 f1bd

fc4.bias f4 [5]
-0.1245011 0.026956396 -0.024436643 0.06348405 -0.10538475
00000000: 6ffa febd a9d3 dc3c 5b2f c8bc ed03 823d
00000010: f6d3 d7bd
